消融实验/model_weights_9.pth (torch, 43009 bytes, 24 tensors)

initial.0.weight f4 [20, 3, 3, 3]
0	0xbde0e65f	-0.1098144
1	0xbde6779f	-0.11253285
2	0x3d6ff3f5	0.058582265
3	0xbe400180	-0.18750572
4	0xbd0ae2a7	-0.03390756
5	0x3d8672d2	0.06564869
6	0xbdda9b5c	-0.10674164
7	0x3e1b62ca	0.15174404
8	0xbe2b99e7	-0.16757928
9	0x3ab02a84	0.0013440405
10	0xbe453894	-0.19259864
11	0xbe38a3ea	-0.18031278
12	0xbe62dcec	-0.22154588
13	0xbbd5f460	-0.006529376
14	0xbcb59738	-0.022166833
15	0xbe6a23b6	-0.22865185
16	0xbe9b3465	-0.3031341
17	0xbdf8ed9c	-0.121546954
18	0xbe414db6	-0.188773
19	0xbd2cf181	-0.042222504
20	0xbe1011a1	-0.14069225
21	0x3d9d5f27	0.076841645
22	0xbe01123e	-0.12604615
23	0xbe1b6156	-0.1517385
24	0xbe7cf4a1	-0.24702694
25	0xbe5ba501	-0.21449663
26	0xbe089e20	-0.1334157
27	0xbd9992f7	-0.074987344
28	0x3cdfe3da	0.027330328
29	0xbd6b3349	-0.057421956
30	0xbd3b9635	-0.045797545
31	0xbdbf1cf1	-0.09331692
32	0xbe114e53	-0.14190035
33	0xbc6f0847	-0.014589376
34	0x3c52ee19	0.01287415
35	0xbe685991	-0.22690417
36	0xbd7bdaa8	-0.061487824
37	0xbda977c4	-0.082747966
38	0xbe24da6c	-0.16098946
39	0xbc9b8d88	-0.018988386
40	0xbdde7e04	-0.10863879
41	0x3d2dfc61	0.042477015
42	0xbd61dc95	-0.055142004
43	0xbe26209a	-0.16223374
44	0xbdfe5bb2	-0.12419833
45	0x3d0037f2	0.031303354
46	0xbdbd4127	-0.092409424
47	0xbe16aaef	-0.14713643
48	0x3d12b49e	0.03581678
49	0xbd83809c	-0.06421015
50	0xbe1e80c7	-0.15478812
51	0xbda405aa	-0.08008893
52	0xbcf833a2	-0.030298058
53	0xbe2d1231	-0.1690147
54	0x3b13654b	0.0022490795
55	0x3d48ae2f	0.04899424
56	0xbd4ae517	-0.049534883
57	0x3e2b37da	0.16720524
58	0x3e3574c0	0.17720318
59	0x3c9b1556	0.018931072
60	0x3da7296d	0.08162198
61	0x3c75706e	0.014980419
62	0x3d39c84c	0.045357034
63	0x3d934d38	0.07192463
64	0x3df3f8bc	0.11912677
65	0x3dd00f13	0.10159125
66	0x3d92f715	0.071760334
67	0x3caf13c8	0.021371737
68	0x3e2979d6	0.16550383
69	0x3d1b0486	0.03784611
70	0x3df216be	0.11820744
71	0x3e27ac63	0.16374354
72	0x3d7e0d53	0.062024426
73	0x3df5bf27	0.1199935
74	0x3db87ea5	0.090085305
75	0x3e3a0077	0.1816424
76	0x3e01de4f	0.1268246
77	0x3e2da926	0.16959056
78	0xbd685dfa	-0.056730248
79	0x3e365e60	0.17809439
80	0x3d4a753e	0.049428217
81	0x3e1210b4	0.14264184
82	0x3e6a7d25	0.22899301
83	0x3e4590bd	0.19293495
84	0x3cb4b580	0.022059202
85	0xbdf3f204	-0.11911395
86	0xbd854506	-0.06507306
87	0x3d386850	0.045021355
88	0x3db5cfa8	0.08877498
89	0x3e0cfae9	0.1376759
90	0xbccb2ee1	-0.024802627
91	0xbda304b1	-0.07959879
92	0x3e2f65fd	0.17128749
93	0x3da96c5f	0.08272623
94	0x3e1d60fb	0.15369026
95	0xbd8c7f4f	-0.0686022
96	0x3e91565c	0.283862
97	0x3d30d5f6	0.0431728
98	0x3d2d9b0e	0.0423842
99	0x3df686fa	0.120374635
100	0x3e62e3c0	0.22157192
101	0x3d055c69	0.032558832
102	0x3dc89624	0.09794262
103	0x3e2a2d58	0.1661886
104	0x3e8278df	0.25482842
105	0x3d0f3282	0.034960277
106	0x3badabc3	0.0053000166
107	0x3e4a8f82	0.19781306
108	0xbe226fb1	-0.1586292
109	0xbcea6a02	-0.028615002
110	0xbe48d601	-0.19612886
111	0x3dc6b98a	0.097033575
112	0xbcb2a424	-0.021806784
113	0xbde4fdf6	-0.11181252
114	0xbd981d12	-0.0742742
115	0x3e181279	0.14850797
116	0xbe684af9	-0.2268485
117	0x3de0cb92	0.10976328
118	0xbd07ae32	-0.03312511
119	0xbe08452b	-0.13307635
120	0x3cbc56ce	0.02299061
121	0xbbfa8b18	-0.007645976
122	0x3e261972	0.16220644
123	0x3d080ea9	0.033217106
124	0xbc19abc6	-0.009379333
125	0x3d8dccc2	0.0692382
126	0xbdc5a499	-0.09650535
127	0xbe7ef7d8	-0.24899232
128	0xbc948fa9	-0.018134909
129	0xbd4e07f4	-0.050300553
130	0xbd275983	-0.04085685
131	0xbd853ea7	-0.065060906
132	0xbdc3b138	-0.09555286
133	0xbe27689d	-0.163485
134	0x3bd04967	0.0063564065
135	0xbd5443b8	-0.051822394
136	0xbdf388f8	-0.11891359
137	0x3db75e62	0.08953549
138	0x3d7a92eb	0.06117527
139	0x3d787c8f	0.060665663
140	0xbd0118a6	-0.031517647
141	0xbd664ce1	-0.05622566
142	0x3c68473c	0.01417714
143	0x3db4b89b	0.08824273
144	0x3de7cee9	0.11318762
145	0x3e94e5a7	0.2908146
146	0x3b5687dc	0.0032734787
147	0x3e0847b6	0.13308606
148	0x3e090254	0.13379794
149	0x3e94b4c8	0.29044175
150	0x3e14cd8e	0.14531538
151	0x3cdf8e20	0.02728945
152	0x3e0adda5	0.13561113
153	0x3e00d60c	0.12581652
154	0x3dbb3a80	0.09142017
155	0x3e147886	0.14499101
156	0x3e63ed72	0.22258547
157	0x3dadd253	0.08487382
158	0x3d8a1106	0.06741528
159	0x3e5a26ef	0.21303914
160	0x3d84ed18	0.064905345
161	0x3c64e8b9	0.013971501
162	0x3e8ecf40	0.27892494
163	0x3df18049	0.117920466
164	0x3d5b5409	0.05354694
165	0x3c69fd15	0.014281531
166	0x3da01d5e	0.07818101
167	0x3dcbfc06	0.09960179
168	0xbd89b1e0	-0.0672338
169	0x3e181bba	0.14854327
170	0x3db6badc	0.08922359
171	0x3e26487e	0.16238591
172	0xbdbd9ec2	-0.09258796
173	0x3e8c4dda	0.27403146
174	0x3dc01bc4	0.09380296
175	0x3e54c094	0.20776588
176	0x3dbb287d	0.09138582
177	0x3e3ac4ce	0.18239138
178	0x3e18f450	0.14936948
179	0x3e892ff3	0.26794395
180	0x3d786e51	0.06065208
181	0x3e8f00ee	0.27930397
182	0x3e512c99	0.20427169
183	0xbd1500a2	-0.036377557
184	0x3d8d222c	0.068912834
185	0x3e991300	0.29897308
186	0x3dce9087	0.1008616
187	0x3dafe5cd	0.08588753
188	0x3eb5be6d	0.35496846
189	0xbee6428f	-0.44972655
190	0xbe98be9d	-0.29832926
191	0xbe892d51	-0.26792386
192	0xbf01d309	-0.5071264
193	0xbe8bdf45	-0.2731878
194	0xbe60e2a3	-0.21961455
195	0xbee49774	-0.446468
196	0xbf0d706c	-0.5524967
197	0xbea8c541	-0.32962993
198	0xbea7cbb0	-0.3277259
199	0xbead8e0e	-0.33897442
200	0xbe448f20	-0.19195223
201	0xbed75b82	-0.42062002
202	0xbe54d7bf	-0.20785426
203	0xbe415d42	-0.18883231
204	0xbf09261d	-0.5357378
205	0xbe84c1e9	-0.25929192
206	0xbe956fa2	-0.29186732
207	0xbe8e2ddc	-0.27769363
208	0xbeb0a3a4	-0.34499848
209	0xbe747afb	-0.23875038
210	0xbed74db9	-0.42051485
211	0xbeb1ca28	-0.34724545
212	0xbee52b8d	-0.4475979
213	0xbedbd3ae	-0.42934936
214	0xbe8d4ceb	-0.27597746
215	0xbe95eebc	-0.29283702
216	0xbd0fd010	-0.035110533
217	0xbe813feb	-0.25244078
218	0xbe3002a2	-0.17188504
219	0xbe560eed	-0.20904131
220	0xbdbd0750	-0.092299104
221	0xbdb6b287	-0.0892077
222	0xba91a54e	-0.0011111887
223	0x3cbaaf06	0.022788536
224	0xbe88b26d	-0.26698628
225	0xbe5bd50c	-0.2146799
226	0xbd84f55f	-0.06492113
227	0xbd9bea9c	-0.076131076
228	0xbd95c956	-0.073137924
229	0xbd108a18	-0.035287946
230	0xbd44c334	-0.048037723
231	0xbe867b57	-0.26265976
232	0xbe10f927	-0.14157544
233	0xbe0b579f	-0.13607644
234	0xbe6e112b	-0.23248737
235	0xbd8fb22e	-0.07016407
236	0xbe4b68e8	-0.19864237
237	0xbe49eb25	-0.19718607
238	0xbc959ac6	-0.018262278
239	0xbdba343c	-0.09091994
240	0x3cbba189	0.022904174
241	0xbe266cf5	-0.16252501
242	0x3e215f77	0.15759073
243	0x3e020284	0.12696272
244	0x3da90b3a	0.082540944
245	0x3e2f114f	0.17096446
246	0x3d89363c	0.066997975
247	0x3cea0225	0.028565476
248	0x3c69547e	0.014241336
249	0x3e030460	0.12794638
250	0xbdaeba11	-0.08531583
251	0x3e447573	0.19185428
252	0x3db83ae4	0.089956075
253	0x3d20469f	0.03912985
254	0x3d2c26bf	0.04202914
255	0x3e040b37	0.12894903

initial.0.bias f4 [20]
0	0xbda51b4a	-0.080618456
1	0xbc847c0d	-0.016172433
2	0xbe131809	-0.14364637
3	0x3ddeb144	0.108736545
4	0xbdce48c7	-0.10072475
5	0xbe2a972f	-0.16659234
6	0x3d9ff19d	0.07809756
7	0x3d454dbc	0.048169836
8	0x3cf9b195	0.030480186
9	0xbe274f23	-0.16338782
10	0x3dc64861	0.09681774
11	0xbe1361b3	-0.14392738
12	0xbd8c9c30	-0.06865728
13	0xbe06fa8b	-0.13181512
14	0x3e1b49c5	0.1516486
15	0xbd91374a	-0.07090624
16	0xbe41bd8b	-0.18919961
17	0x3e3b861a	0.18312874
18	0xbd5381fc	-0.051637635
19	0x3daa256e	0.083079204

initial.1.weight f4 [20]
0	0x3f9a3559	1.204753
1	0x3fa086aa	1.2541096
2	0x3f88eb8e	1.0696886
3	0x3f78f4bd	0.9724844
4	0x3f413cae	0.75483215
5	0x3fac656b	1.346845
6	0x3f4b5454	0.7942555
7	0x3f3c8ca4	0.736521
8	0x3f87048a	1.054826
9	0x3f85ee66	1.0463378
10	0x3f8a5327	1.0806626
11	0x3f8ab502	1.0836489
12	0x3f3cd0fe	0.73756397
13	0x3f6137a3	0.8797552
14	0x3f861e61	1.0478021
15	0x3f91deda	1.1396134
16	0x3f78c4f7	0.97175545
17	0x3f8a964e	1.0827119
18	0x3f8253e8	1.0181856
19	0x3f864345	1.0489279

initial.1.bias f4 [20]
0	0xbe68c26f	-0.2273042
1	0x3d97349b	0.073830806
2	0x3db89479	0.09012694
3	0xbb290962	-0.0025792946
4	0xbea301a0	-0.31837177
5	0x3e9f652d	0.31131878
6	0x3cc4a2ab	0.024003347
7	0xbe76348f	-0.24043487
8	0xbcaf2583	-0.021380192
9	0x3e48a87c	0.19595522
10	0x3c4452f8	0.011982672
11	0x3c8cb8c3	0.017177945
12	0xbe40556c	-0.18782586
13	0xbd19c108	-0.037537605
14	0x3d877ea8	0.06615955
15	0x3d0e195b	0.03469215
16	0x3d15566c	0.03645937
17	0x3dba93fe	0.091102585
18	0xbdbe5c22	-0.09294917
19	0xbd96d77c	-0.07365319

initial.1.running_mean f4 [20]
0	0xbf8bcbe9	-1.0921603
1	0xbf30e972	-0.6910621
2	0x3f3bd8e1	0.73377806
3	0x3f812276	1.0088642
4	0xbf0c61e2	-0.5483686
5	0x3f48a27e	0.78372943
6	0x3fadc544	1.3575826
7	0xc0590de7	-3.3914735
8	0xbf8c78b0	-1.0974331
9	0x3f306758	0.6890769
10	0xbf1f10ee	-0.6213521
11	0xc163bdfd	-14.233884
12	0x40054144	2.0821085
13	0xc06485ae	-3.5706592
14	0x3f62cad8	0.88590765
15	0xbf14b5e8	-0.58090067
16	0xc143db26	-12.241003
17	0x3f485298	0.7825103
18	0xc0083244	-2.128068
19	0xbf896867	-1.0734986

initial.1.running_var f4 [20]
0	0x3eb8fd0b	0.36130556
1	0x3e852b15	0.2600943
2	0x3e9c2230	0.30494833
3	0x3ea524d9	0.32254675
4	0x3e6042a8	0.21900427
5	0x3ea3d236	0.31996316
6	0x3ef07139	0.46961382
7	0x4009c7b1	2.1528132
8	0x3ec81112	0.39075524
9	0x3e92f5b6	0.28703088
10	0x3e87ca45	0.26521507
11	0x42063edf	33.561398
12	0x3f757002	0.95874035
13	0x4010a821	2.2602618
14	0x3e8dba68	0.2768128
15	0x3e696761	0.22793342
16	0x41c52b42	24.646122
17	0x3e7c30e9	0.24628033
18	0x3f68d306	0.90946996
19	0x3ec3302d	0.38122693

res_blocks.0.conv.0.weight f4 [20, 20, 3, 3]
0	0xbda16427	-0.07880431
1	0xbe4aff7c	-0.19824022
2	0xbdb8c3d8	-0.09021729
3	0xbdac5ca9	-0.08416111
4	0xbe604d8d	-0.21904583
5	0xbe5fb1dd	-0.21845193
6	0xbe02a612	-0.12758663
7	0xbe8d219f	-0.27564713
8	0xbef4c3b3	-0.47805557
9	0xbe203147	-0.15643798
10	0xbdebbd52	-0.11510719
11	0xbd2c989c	-0.042137727
12	0xbe3249e5	-0.17411001
13	0xbea3ef84	-0.32018673
14	0xbe30a658	-0.17250955
15	0xbebd959b	-0.37028202
16	0xbe471ecf	-0.19445346
17	0xbdbf9115	-0.09353844
18	0x3e837e02	0.25682074
19	0x3ea85702	0.32878882
20	0x3eb47bf1	0.3525081
21	0x3ea4c633	0.32182464
22	0x3ebd3d0d	0.3696064
23	0x3eaf26d2	0.34209305
24	0x3e758e7c	0.23980135
25	0x3ec567fd	0.385559
26	0x3ea42ba2	0.3206454
27	0x3e93af64	0.2884475
28	0x3e5a2236	0.21302113
29	0x3e9bd806	0.3043825
30	0x3ed58382	0.41701895
31	0x3e9538f3	0.2914501
32	0x3e6061c2	0.21912292
33	0x3e4d2836	0.2003487
34	0x3e63210c	0.22180575
35	0x3e2ab1f6	0.16669449
36	0xbd604336	-0.054751597
37	0xbe0df44a	-0.1386272
38	0xbdf7a177	-0.12091344
39	0xbe5fa24f	-0.2183926
40	0xbd8c54fe	-0.068521485
41	0x3ce25041	0.027626159
42	0xbe9c8076	-0.30566758
43	0xbe9cfd6c	-0.30662096
44	0xbe05f3de	-0.13081309
45	0x3eb2808a	0.34863693
46	0x3e885d56	0.2663371
47	0x3e43a3f0	0.19105506
48	0x3ec528dc	0.38507736
49	0x3ea93da3	0.33054838
50	0x3ed41bc9	0.41427448
51	0x3e818616	0.25297612
52	0x3e7d20c3	0.24719529
53	0x3ebf437e	0.3735618
54	0x3dde5c35	0.10857431
55	0x3e87a1b1	0.26490548
56	0x3e9e5958	0.3092754
57	0x3d1fe75f	0.039039012
58	0x3e90d167	0.2828476
59	0x3e5085df	0.20363568
60	0x3e97a73b	0.29619774
61	0x3e781630	0.24227214
62	0x3e974bbc	0.29549968
63	0xbe60b493	-0.21943884
64	0xbe7edf7e	-0.24889943
65	0xbd34fa2a	-0.044183888
66	0xbe377b5b	-0.1791815
67	0xbe06754f	-0.13130687
68	0x3ca6863a	0.020327676
69	0xbe92dbd3	-0.28683338
70	0xbdab62b6	-0.08368437
71	0xbde5b77c	-0.112166375
72	0xbe6a1994	-0.2286132
73	0xbd66c090	-0.056335986
74	0x3d6b2d34	0.057416156
75	0xbe90a651	-0.2825189
76	0xbe8c1aa3	-0.27364072
77	0xbe9ea350	-0.30983973
78	0xbe10d30b	-0.14143007
79	0xbe1e2fb0	-0.15447879
80	0xbdee681e	-0.116409525
81	0x3e11a987	0.14224826
82	0x3eb14479	0.34622553
83	0x3eb7be2f	0.35887286
84	0x3f015494	0.5051968
85	0x3de6af28	0.11263877
86	0x3e99e227	0.30055353
87	0x3e7ca683	0.24672894
88	0x3f045c7c	0.5170362
89	0x3eb3ecd0	0.3514161
90	0xbb56e54e	-0.0032790485
91	0x3d70e11d	0.058808435
92	0xbd6f7c15	-0.058467943
93	0xbe8d000c	-0.27539098
94	0xbe5e6efc	-0.21722025
95	0xbe48942a	-0.1958777
96	0xbe38fe6d	-0.18065806
97	0xbe1bc3af	-0.15211366
98	0xbe469e0c	-0.19396228
99	0xbd1687e6	-0.036750697
100	0x3ce963fc	0.02849006
101	0xbd260adf	-0.04053771
102	0x3e3ebb8e	0.18626234
103	0xbb36f752	-0.002791841
104	0x3e486a82	0.1957188
105	0x3b8ab9ac	0.0042335596
106	0x3dbd86d7	0.09254234
107	0xbd11fa7b	-0.035639267
108	0xbd783c17	-0.06060418
109	0xbe0000fb	-0.12500374
110	0xbca5a105	-0.020218382
111	0xbe42780c	-0.18991107
112	0xbe0cbab9	-0.13743104
113	0x3dd288fe	0.102800354
114	0x3cde7a94	0.02715806
115	0xbe076f23	-0.13225989
116	0xbdf2c23b	-0.11853453
117	0xbe09fc42	-0.13475135
118	0xbea1b71a	-0.31585008
119	0xbe8d9fe5	-0.27661052
120	0x3c9db679	0.019252049
121	0xbd2921a9	-0.041291866
122	0xbe4cad11	-0.19987895
123	0xbcb7ba9e	-0.022427853
124	0xbecc46a2	-0.3989764
125	0xbd50c237	-0.050966468
126	0x3e8563e3	0.2605277
127	0x3e82353a	0.25431234
128	0x3e6c1f97	0.23058926
129	0x3ef688c1	0.4815121
130	0x3ecc9b7f	0.39962384
131	0x3eac9b6e	0.33712333
132	0x3e845bb9	0.2585123
133	0x3ea633de	0.32461447
134	0x3e990a4e	0.29890674
135	0xbe1656fb	-0.14681618
136	0xbe110da4	-0.1416536
137	0xbe58c75e	-0.21169803
138	0xbd98d441	-0.07462359
139	0xbd0e22f2	-0.034701295
140	0xbe674b35	-0.22587283
141	0xbd8f88a0	-0.07008481
142	0xbe2f9a7b	-0.17148773
143	0xbe8d49e4	-0.27595437
144	0x3df6ddf1	0.12054051
145	0xbe00a28e	-0.1256201
146	0xbe58f53a	-0.21187297
147	0x3d24ebbd	0.04026388
148	0x3e2014d0	0.1563294
149	0x3c2daa0c	0.010599624
150	0xbde1bf60	-0.1102283
151	0xbe24e4c2	-0.16102889
152	0xbe00d590	-0.12581468
153	0x3ef62df5	0.48081937
154	0x3e548106	0.20752344
155	0x3e744932	0.23856047
156	0x3ea5097e	0.32233804
157	0x3e21e093	0.15808325
158	0x3ecb03af	0.39651248
159	0x3e5d2510	0.2159617
160	0x3e5d7e5f	0.21630238
161	0x3ebc7702	0.36809546
162	0xbec9a5d0	-0.39384317
163	0xbe2324a5	-0.15931948
164	0xbe97724d	-0.29579392
165	0xbe5e43af	-0.21705507
166	0xbe653992	-0.22385243
167	0xbe23bd41	-0.15990163
168	0xbe683331	-0.22675778
169	0xbe9a0d02	-0.3008805
170	0xbe28cc00	-0.1648407
171	0xbdaa074f	-0.08302175
172	0x3cba5aa8	0.022748306
173	0xbd985caf	-0.07439553
174	0xbd109c93	-0.03530557
175	0xbe57e5ea	-0.21083799
176	0xbe0a457f	-0.13503073
177	0xbea170a7	-0.3153126
178	0xbe11c9c7	-0.14237128
179	0xbe0f23bc	-0.13978475
180	0x3e870041	0.2636738
181	0xbc35d836	-0.011098912
182	0xbdb25af2	-0.08708753
183	0x3e93d687	0.2887461
184	0x3d7280fb	0.059205037
185	0x3e204e33	0.1565483
186	0x3e80ec9c	0.2518052
187	0x3e68b323	0.22724585
188	0x3e897257	0.26845047
189	0xbd0d2a57	-0.034464207
190	0x3e360e6f	0.17778943
191	0x3dd3d584	0.10343459
192	0x3dec69b1	0.115435965
193	0x3e6024cc	0.21889037
194	0x3ce12ff0	0.027488679
195	0x3e2b56b1	0.16732289
196	0x3db19a4c	0.08672008
197	0xbcd95b72	-0.026532862
198	0xbe3b4f10	-0.18291879
199	0xbdc137c9	-0.09434468
200	0x3dc4b01f	0.09603905
201	0xbcb18439	-0.021669494
202	0x3dea7e5c	0.114498824
203	0x3e6a3102	0.22870257
204	0x3d6af015	0.057357866
205	0x3b6f5124	0.003651687
206	0x3d4453a1	0.047931317
207	0xbd06a5bb	-0.032872897
208	0xbdc7b5f5	-0.097515024
209	0x3ca79c90	0.020460397
210	0x3dcb398d	0.09923086
211	0x3e3b8763	0.18313365
212	0x3d40eca5	0.04710068
213	0xbe78cc07	-0.2429658
214	0xbe0236a0	-0.1271615
215	0xbccbb27c	-0.024865381
216	0xbd06e546	-0.032933496
217	0x3d072b2e	0.033000164
218	0x3d7bcd8f	0.061475333
219	0x3e0c5fa5	0.1370836
220	0x3dfc056d	0.123057224
221	0x3e6f2da5	0.23357256
222	0xbcf3c255	-0.02975575
223	0x3dcc42ea	0.099737
224	0xbdca4a72	-0.098774806
225	0x3e695f93	0.22790365
226	0x3c28404b	0.010269235
227	0x3e326adc	0.17423576
228	0xbdaf285c	-0.0855262
229	0xbda18002	-0.07885744
230	0x3c7abe60	0.015304178
231	0x3d99ff8d	0.075194456
232	0x3b0fec74	0.0021961005
233	0x3db4deea	0.0883158
234	0x3dcc25c1	0.099681385
235	0x3dc995ed	0.09843049
236	0xbdf2ec0f	-0.11861431
237	0xbdfc5d5d	-0.12322495
238	0xbd88599c	-0.06657717
239	0xbe19e87b	-0.1503009
240	0xbd64c886	-0.055855297
241	0xbd8b0ce1	-0.06789566
242	0x3e030693	0.12795477
243	0xbda8befb	-0.08239552
244	0xbbe8de58	-0.0071065836
245	0x3d880e07	0.066433005
246	0x3dc77c75	0.09740535
247	0xbe1bd6ca	-0.15218654
248	0xbcfb950c	-0.03071072
249	0x3e5f07f4	0.21780378
250	0xbc922784	-0.017841108
251	0x3dc9bfe1	0.09851051
252	0x3cd7daa2	0.02634937
253	0x3d981985	0.074267425
254	0x3e8fce4d	0.28087083
255	0xbcaba0ba	-0.020950664

res_blocks.0.conv.0.bias f4 [20]
0	0xbd8c1bc5	-0.06841234
1	0xbd5058f3	-0.05086608
2	0x3d7e9b04	0.062159553
3	0x3d8a706d	0.06759725
4	0x3d948c2e	0.072533
5	0xbd81ea17	-0.06343477
6	0x3b65de3a	0.0035075084
7	0x3d434699	0.04767475
8	0xbd8e1fce	-0.0693966
9	0xbd3a426a	-0.045473494
10	0x3d6a1cd4	0.0571564
11	0xbd897ca6	-0.06713228
12	0x3d13286b	0.035927217
13	0x3d1c6b01	0.038187984
14	0xbd6c1e7e	-0.057646267
15	0x3d1c155a	0.0381063
16	0x3b88786b	0.0041647456
17	0x3d8f2747	0.069899134
18	0xbd6ff232	-0.058580585
19	0x3ca1a734	0.019733049

res_blocks.0.conv.1.weight f4 [20]
0	0x3f68c7ce	0.9092988
1	0x3f7da6a6	0.9908241
2	0x3f6f4870	0.93469906
3	0x3f4939a3	0.7860357
4	0x3f801672	1.000685
5	0x3f89a188	1.075242
6	0x3f837382	1.0269625
7	0x3fa01b27	1.2508286
8	0x3f611b09	0.8793188
9	0x3f877fdb	1.0585893
10	0x3f9973cd	1.1988465
11	0x3f531418	0.82452536
12	0x3f6b7d36	0.9198793
13	0x3f65ea02	0.8981019
14	0x3f659c04	0.89691186
15	0x3f8e8351	1.1133825
16	0x3f8b7e2b	1.0897878
17	0x3f97b46c	1.1851935
18	0x3f79198e	0.9730462
19	0x3f71207b	0.94190186

res_blocks.0.conv.1.bias f4 [20]
0	0xbc4d7786	-0.012540704
1	0xbe423859	-0.18966807
2	0x3dae4a12	0.085102215
3	0xbe1f6ae4	-0.1556812
4	0xbe51d984	-0.20493132
5	0xbe8b410b	-0.2719806
6	0xbd6ae667	-0.057348635
7	0x3e95af50	0.29235315
8	0xbd25764a	-0.040396012
9	0xbd912052	-0.07086243
10	0x3e7f8356	0.24952444
11	0xbe3e7077	-0.1859759
12	0xbda5aeea	-0.08090003
13	0xbd904ce0	-0.07045913
14	0xbe4a3996	-0.1974853
15	0xbe16017e	-0.14649007
16	0xbe046cda	-0.12932149
17	0x3e7178e5	0.23581274
18	0xbd1fc75d	-0.039008487
19	0x3d2ec822	0.04267133

res_blocks.0.conv.1.running_mean f4 [20]
0	0x3fec4e0d	1.8461319
1	0x3fcfc192	1.6230948
2	0x3eb6c70c	0.35698736
3	0x3eef9b43	0.46798143
4	0x3fbea11c	1.4892917
5	0x3fff5fc9	1.9951106
6	0x3fa4488c	1.283464
7	0xc044b802	-3.073731
8	0xbf093175	-0.5359109
9	0x3fb078b1	1.3786832
10	0xbfecb11a	-1.8491547
11	0x3e579d12	0.21056011
12	0xc01b10cb	-2.4229
13	0x3e8543fa	0.26028425
14	0x3fa25d3c	1.2684703
15	0xc02d3954	-2.706624
16	0x3fb56777	1.41722
17	0xc00019d0	-2.0015755
18	0xbfc55987	-1.5417947
19	0xbf6a0756	-0.91417444

res_blocks.0.conv.1.running_var f4 [20]
0	0x4355ca72	213.7908
1	0x412f22ca	10.945993
2	0x413115f7	11.0678625
3	0x424dd62f	51.459164
4	0x4159044a	13.563547
5	0x404e46bc	3.2230673
6	0x4174f2c5	15.30927
7	0x411e1dc1	9.882264
8	0x41131a96	9.193991
9	0x41a89e0b	21.07717
10	0x4014e9ee	2.326778
11	0x40264f0f	2.5985754
12	0x440e3d96	568.9623
13	0x41d758a9	26.918291
14	0x40a9c33d	5.305083
15	0x40971c6a	4.7222185
16	0x403ab340	2.9171906
17	0x410972fe	8.590574
18	0x4315c490	149.76782
19	0x43ac566c	344.67517

res_blocks.0.conv.3.weight f4 [20, 20, 3, 3]
0	0xbdb3350c	-0.08750352
1	0xbcd26112	-0.025681052
2	0xbe078e25	-0.13237818
3	0x3d6bd88b	0.05757956
4	0xbe108c7f	-0.14116095
5	0xbd42d07a	-0.0475621
6	0xbd2d59a9	-0.042321835
7	0xbdb6a5ec	-0.08918366
8	0xbdf4c7d3	-0.11952176
9	0x3e90f26d	0.28309956
10	0x3e9cc7f2	0.30621296
11	0x3ce290b7	0.027656896
12	0x3b3cddda	0.0028818757
13	0x3d2eb297	0.042650785
14	0x3d8d269a	0.06892128
15	0x3eb57fc3	0.35449037
16	0x3da8d77d	0.08244226
17	0x3d00246d	0.03128474
18	0xbde5fc56	-0.1122977
19	0xbd01830e	-0.031619124
20	0x3a862c90	0.0010236669
21	0x3dc46f4b	0.0959154
22	0xbe213fa7	-0.15746938
23	0x3def14fb	0.116739236
24	0x3bb9d0d2	0.0056706453
25	0xbe4c0fc0	-0.19927883
26	0xbe6dde4e	-0.23229334
27	0x3d876a24	0.066120416
28	0xbd2068b4	-0.039162353
29	0xbe229675	-0.15877707
30	0x3d0a3ce9	0.033749495
31	0x3d8850d2	0.0665604
32	0x3d074b83	0.033030998
33	0x3dd44d1a	0.103662685
34	0x3e4dda75	0.20102866
35	0x3e10be21	0.14135028
36	0xbe382c8c	-0.17985743
37	0xbe0aec0b	-0.13566606
38	0xbe890122	-0.26758677
39	0xbe0998fe	-0.13437268
40	0xbd3048ce	-0.043038182
41	0xbe55cdfc	-0.20879358
42	0x3e0972ae	0.13422653
43	0xbe417213	-0.18891172
44	0xbe83f3be	-0.25771898
45	0x3e10878f	0.14114211
46	0x3e83d133	0.25745544
47	0xbdf10a21	-0.1176951
48	0x3dedd480	0.11612797
49	0x3e187bdb	0.14890997
50	0x3dd06702	0.10175897
51	0x3bb58cb3	0.0055404543
52	0x3e3af74b	0.18258397
53	0x3ddea881	0.10871983
54	0x3db662ed	0.08905587
55	0x3b847280	0.00404197
56	0xbc4bbe36	-0.012435487
57	0x3d19d385	0.037555236
58	0x3dc83678	0.09776014
59	0x3e8880cc	0.26660764
60	0x3e307d09	0.17235197
61	0x3d49ee1e	0.049299352
62	0xbd298905	-0.041390438
63	0xbe2e68c0	-0.17032146
64	0xbe7a570d	-0.2444727
65	0xbe5432ed	-0.20722552
66	0xbdc49684	-0.09599021
67	0xbed68fe3	-0.41906652
68	0xbea4952b	-0.32145056
69	0xbe458c5f	-0.19291829
70	0xbe3ea5f4	-0.18617994
71	0xbe3cfd5f	-0.18456028
72	0xbc1c0113	-0.0095217405
73	0xbd16002b	-0.036621254
74	0xbdd9d835	-0.10636941
75	0x3cc001cf	0.023438362
76	0x3d0094c3	0.03139187
77	0xbad16ef6	-0.0015978504
78	0xbd1e8881	-0.0387044
79	0xbe0ae78e	-0.13564894
80	0x3d7976ff	0.0609045
81	0xbd027cf7	-0.031857457
82	0xbbc070d0	-0.0058728233
83	0x3c6a3638	0.014295153
84	0x3e346395	0.17616113
85	0x3d268fd2	0.0406645
86	0x3dd014e6	0.10160236
87	0x3d7667d7	0.060157623
88	0x3ddccda6	0.10781412
89	0x3e1c9779	0.15292157
90	0x3e5acc34	0.2136696
91	0x3cfb0eea	0.03064676
92	0x3e3c56c0	0.18392467
93	0x3c9042f1	0.017610045
94	0xbd92d9f3	-0.07170477
95	0x3dd342d8	0.10315484
96	0xbe34182b	-0.17587344
97	0x3c14605a	0.009056175
98	0xbcfd53f8	-0.030923828
99	0xbd825fa7	-0.063659005
100	0xbd8a476f	-0.06751906
101	0xbdb772a2	-0.08957411
102	0xbdded15d	-0.108797766
103	0x3e02eb36	0.12785038
104	0xbe057fc5	-0.13037021
105	0x3e33c03b	0.17553799
106	0x3d44c869	0.04804269
107	0x3d62aa87	0.05533841
108	0xbdacb76a	-0.08433421
109	0xbd8e49cb	-0.06947669
110	0xbe94ab8f	-0.2903714
111	0xbc7bc77f	-0.015367388
112	0xbdbdfd56	-0.092768356
113	0xbe0a324c	-0.13495749
114	0xbe18addb	-0.1491007
115	0xbe0f36ec	-0.13985795
116	0xbe3f394f	-0.18674205
117	0x3dedaea4	0.11605576
118	0x3dd75d1d	0.10515807
119	0xbce113bb	-0.027475229
120	0xbce126bb	-0.027484288
121	0xbddaf6f8	-0.10691637
122	0x3d802f11	0.06258977
123	0xbe1eccf0	-0.15507865
124	0x3e190fea	0.14947477
125	0xbd9949f7	-0.07484811
126	0x3c9702d0	0.018433958
127	0x3d9d1142	0.07669307
128	0x3b555523	0.0032551966
129	0x3a421b18	0.000740455
130	0xbcbec770	-0.023288459
131	0x3dfec6c1	0.12440253
132	0x3da22696	0.07917516
133	0x3e93e46c	0.2888521
134	0x3d80e725	0.06294087
135	0xbe11b7ec	-0.14230317
136	0xbdc1ab73	-0.094565295
137	0xbe0baae1	-0.13639404
138	0xbe6cc098	-0.23120344
139	0xbe337f92	-0.17529133
140	0xbda1db87	-0.079032
141	0xbec30c90	-0.38095522
142	0xbe1b5c2e	-0.15171883
143	0xbe6e6967	-0.23282395
144	0x3dd0f694	0.10203281
145	0x3db08708	0.08619505
146	0x3e9029ec	0.28156984
147	0x3ea061b3	0.3132454
148	0x3dbb5b18	0.09148234
149	0x3cf48003	0.029846197
150	0xbb7dfb3c	-0.0038754484
151	0x3debf251	0.115208276
152	0x3df8bfa2	0.12145926
153	0xbd4e10e7	-0.050309088
154	0xbccf7c52	-0.025327835
155	0x3c7ccf59	0.015430295
156	0xbb4ebf55	-0.0031547148
157	0xbdc3a0f8	-0.09552187
158	0xbe7d389b	-0.24728625
159	0xbd97e43b	-0.074165784
160	0xbce1f940	-0.027584672
161	0xbe05834c	-0.13038367
162	0xbe38025e	-0.17969653
163	0xbdc7de70	-0.097592235
164	0xbe3acb99	-0.18241729
165	0xbe78062d	-0.24221106
166	0x3db93822	0.090439096
167	0xbe3454d7	-0.17610489
168	0xbe35e3a1	-0.17762615
169	0xbd8fcdce	-0.07021676
170	0x3d874bcc	0.06606254
171	0xbe100df1	-0.14067818
172	0x3d554922	0.052071698
173	0xbd02d4ad	-0.031941105
174	0x3ca98b3f	0.02069628
175	0x3d1619c8	0.03664568
176	0xbe0550d5	-0.13019116
177	0xbda2620c	-0.07928857
178	0xbec5cf2b	-0.3863462
179	0xbe3dc6d2	-0.18532875
180	0x3e29e0a9	0.16589607
181	0xbe4d1d1f	-0.2003064
182	0x3d161d2d	0.036648918
183	0x3e366902	0.17813495
184	0xbd9b1d93	-0.07574
185	0xbdca015c	-0.098635405
186	0xbda796c4	-0.08183053
187	0x3d101131	0.035172645
188	0xbe87a90d	-0.26496163
189	0x3e060c6c	0.13090676
190	0x3c6161ae	0.013756199
191	0x3e7069d8	0.23477876
192	0x3e06cafa	0.13163367
193	0x3d4923f6	0.04910656
194	0x3e38128a	0.17975822
195	0x3ab13a68	0.0013521435
196	0x3ddffe47	0.109371714
197	0xbc907112	-0.017632041
198	0xbe3ffb5c	-0.1874823
199	0xbe2c34a1	-0.16816951
200	0xbd674fb3	-0.05647249
201	0xbe88272b	-0.26592383
202	0xbe55899c	-0.20853275
203	0xbe226110	-0.15857339
204	0xbd079094	-0.033096865
205	0xbe63945e	-0.22224566
206	0xbe2fcddc	-0.17168373
207	0xbe42a89c	-0.19009632
208	0x3ce56543	0.028002387
209	0xbe3127ac	-0.1730029
210	0xbd491d25	-0.04910006
211	0x3b2c8e46	0.0026329919
212	0xbdcf0125	-0.1010764
213	0x3d41d3df	0.047321197
214	0xbd0f2d59	-0.034955356
215	0xbbfd7d36	-0.0077358736
216	0x3e40def3	0.18835048
217	0x3e9157e9	0.28387383
218	0x3cd8ad30	0.02644977
219	0x3e3726bf	0.17885874
220	0xbd556d2e	-0.052106075
221	0xbd809d8d	-0.062800504
222	0x3c175b26	0.00923804
223	0x3bb757a8	0.0055951662
224	0xbe4370c3	-0.19085984
225	0x3e723f6c	0.23657006
226	0x3a626f08	0.0008637761
227	0x3d4ab5e1	0.04948986
228	0x3d3550af	0.0442664
229	0xbd5f7ce7	-0.054562476
230	0xbd23998c	-0.039941356
231	0x3e454ddd	0.19267984
232	0x3cf87ef4	0.030333973
233	0xbcc50a10	-0.02405265
234	0xbb3c6efc	-0.0028752675
235	0x3e6e4211	0.2326739
236	0x3e585484	0.2112599
237	0x3dcc6873	0.099808596
238	0x3db6cfe4	0.08926371
239	0x3eb27923	0.34858045
240	0x3dd1775a	0.10227843
241	0x3d9db16c	0.07699856
242	0x3de49cb2	0.111627
243	0x3cd552e2	0.026040498
244	0x3e21d2bf	0.1580305
245	0xbcd3cc02	-0.025854114
246	0x3cd613ec	0.026132546
247	0x3e169f7e	0.14709279
248	0x3dde08e0	0.108415365
249	0x3a9d0534	0.00119797
250	0x3dc9f703	0.09861567
251	0x3c505c44	0.01271731
252	0xbd003b06	-0.03130629
253	0x3cefbb54	0.02926413
254	0x3da5d8be	0.08097981
255	0xbd9587ad	-0.07301269

res_blocks.0.conv.3.bias f4 [20]
0	0xbd3d3562	-0.046193488
1	0x3d0773ef	0.033069547
2	0xbd1880f0	-0.03723234
3	0xbd21e437	-0.039524283
4	0x3c17074d	0.009218049
5	0xbd47fed7	-0.04882702
6	0xbc950929	-0.018192844
7	0xbd4e77de	-0.050407283
8	0xbcb879ec	-0.022519074
9	0xbc66c45b	-0.014084901
10	0xbd5a2972	-0.05326218
11	0xbb9989b7	-0.0046856063
12	0x3d81be0d	0.063350774
13	0xbd218e81	-0.039442543
14	0x3b84926e	0.004045776
15	0xbd7ba8b8	-0.0614402
16	0x3d660836	0.056160174
17	0x3d81d6d9	0.06339807
18	0x3d054506	0.03253653
19	0xbd582edc	-0.052779064

res_blocks.0.conv.4.weight f4 [20]
0	0x3f8d9865	1.1062132
1	0x3f837810	1.0271015
2	0x3fb8870d	1.4416214
3	0x3f8ac4bc	1.0841289
4	0x3f703ab6	0.93839586
5	0x3f853bd2	1.0408881
6	0x3f5f215e	0.8716029
7	0x3f7ff49d	0.99982625
8	0x3f6958b0	0.9115095
9	0x3f2a0a84	0.66422296
10	0x3f65243c	0.89508414
11	0x3f68ca2a	0.9093348
12	0x3f7f46b4	0.9971726
13	0x3f81a941	1.0129777
14	0x3f7cf3af	0.9880933
15	0x3f55c38f	0.83501524
16	0x3f92758b	1.1442121
17	0x3f76643b	0.9624669
18	0x3f41e160	0.7573452
19	0x3f941cce	1.157129

res_blocks.0.conv.4.bias f4 [20]
0	0xbea8088e	-0.32819027
1	0x3da78115	0.08178917
2	0x3b920578	0.0044562183
3	0xbe10cacb	-0.1413986
4	0xbdfe898b	-0.12428578
5	0x3dc92375	0.09821216
6	0x3cad0262	0.0211193
7	0xbe363458	-0.17793405
8	0x3e203d33	0.15648346
9	0x3da315f7	0.07963174
10	0x3df62935	0.12019578
11	0x3d808123	0.06274631
12	0xbbe71b33	-0.007052803
13	0x3dc794fc	0.097452134
14	0x3dd31b51	0.103079446
15	0x3e925a62	0.28584582
16	0x3d2e898d	0.042611647
17	0x3c59f5cc	0.013303231
18	0xbddd075f	-0.107924215
19	0xbd96bc0c	-0.07360086

res_blocks.0.conv.4.running_mean f4 [20]
0	0xbfbc7ffd	-1.4726559
1	0x3e9c4894	0.30524123
2	0x3f61bf7e	0.8818282
3	0x3fc3ae84	1.5287633
4	0x3e868835	0.26275793
5	0xbe46d7af	-0.19418214
6	0xbff736d6	-1.931361
7	0xbee48acc	-0.44637144
8	0xbf8bc9cb	-1.0920957
9	0xbefa285a	-0.4885891
10	0x3f36a9b9	0.71352726
11	0xbfcc5a38	-1.5965033
12	0x3f01c32e	0.50688446
13	0x3e445236	0.19171986
14	0xbed121e6	-0.40846175
15	0xbf29b40c	-0.66290355
16	0x3d3aa412	0.045566626
17	0xbdff6386	-0.124701545
18	0x3e8ad481	0.27115253
19	0xc03f1d97	-2.986181

res_blocks.0.conv.4.running_var f4 [20]
0	0x408a3226	4.3186216
1	0x4092bc56	4.58549
2	0x3ff3a7a9	1.9035541
3	0x4150c179	13.047235
4	0x4051a6b1	3.275799
5	0x40a79cfa	5.237912
6	0x41bcde21	23.608461
7	0x401cfbc9	2.4528677
8	0x3fa5c40c	1.2950454
9	0x41870eac	16.882164
10	0x40e6d3b5	7.213343
11	0x40a5a708	5.1766396
12	0x408e7a92	4.452462
13	0x4030e598	2.7640133
14	0x413489af	11.283614
15	0x41013cf1	8.077378
16	0x405e168f	3.4701269
17	0x40291114	2.6416674
18	0x408be2da	4.371442
19	0x4047f07b	3.1240528

final.0.weight f4 [20, 20, 1, 1]
0	0x3e1c03dc	0.15235847
1	0xbdcee285	-0.10101799
2	0xbc45e8a0	-0.012079388
3	0xbe815b69	-0.25265053
4	0x3d19fb7d	0.037593354
5	0xbe823b98	-0.2543609
6	0x3f0b4872	0.5440742
7	0xbec41356	-0.38296002
8	0x3e230bc0	0.15922451
9	0x3f726748	0.94688845
10	0xbe746efa	-0.23870459
11	0xbed73526	-0.42032737
12	0xbe92779b	-0.28606877
13	0xbd18b2dc	-0.03727995
14	0xbe203114	-0.15643722
15	0x3dfdac21	0.123863466
16	0x3cd0bdf1	0.025481196
17	0x3e9e327a	0.30897886
18	0x3e4895cd	0.19588394
19	0x3d248ac3	0.040171396
20	0xbea56af8	-0.32308173
21	0x3dc3eaf0	0.09566295
22	0xbe60a8a9	-0.21939339
23	0xbf0e61ef	-0.55618185
24	0x3e812edb	0.2523106
25	0x3ec27595	0.37980333
26	0x3e610617	0.2197498
27	0x3f51e511	0.8199015
28	0xbe3b1c68	-0.18272555
29	0x3f5009fc	0.81265235
30	0xbe24d78c	-0.1609785
31	0xbd5070db	-0.050888877
32	0x3f3127c0	0.6920128
33	0xbeb7722c	-0.35829294
34	0xbf252046	-0.6450237
35	0xbe6d724c	-0.23188132
36	0x3e3d6f64	0.18499523
37	0x3d86ae65	0.06576232
38	0x3e7c232e	0.24622795
39	0xbecc9844	-0.3995992
40	0xbc88da0b	-0.016705533
41	0x3d1883b7	0.037234988
42	0x3fa4354f	1.2828768
43	0x3e9f59f9	0.3112333
44	0x3de8f1f6	0.113742754
45	0xbe0dcf3d	-0.13848586
46	0x3d805ba4	0.06267479
47	0xbe85f095	-0.26160112
48	0xbe615b6e	-0.22007534
49	0xbf220473	-0.6328804
50	0xbe0e5a84	-0.13901716
51	0xbe744989	-0.23856176
52	0xbd15adcf	-0.03654271
53	0xbd52e1cc	-0.051484868
54	0x3eb783b9	0.35842684
55	0x3efa6ec9	0.48912647
56	0xbda8ff20	-0.08251786
57	0xbe1957ba	-0.14974871
58	0xbd823f59	-0.06359739
59	0xbf888a14	-1.0667138
60	0x3e556104	0.2083779
61	0xbf7a5698	-0.9778838
62	0xbd44c0a7	-0.04803529
63	0xbdd1a228	-0.10236007
64	0xbe22720c	-0.15863818
65	0x3f1da20b	0.6157538
66	0xbe841bbb	-0.25802407
67	0x3ec616d8	0.38689303
68	0x3ecfa644	0.40556538
69	0x3e9dfd9d	0.30857554
70	0xbd8153cb	-0.0631481
71	0xbdb5709a	-0.08859368
72	0xbe5989ee	-0.21244022
73	0x3d0f9976	0.03505846
74	0x3eaf5774	0.3424641
75	0xbe776433	-0.24159317
76	0xbc88be38	-0.016692266
77	0x3e8ce753	0.27520236
78	0xbe41e478	-0.1893481
79	0xbeec0d01	-0.4610367
80	0xbe483afb	-0.1955375
81	0xbd891678	-0.06693739
82	0x3ef2566f	0.4733157
83	0x3caa75dc	0.020808153
84	0xbd9b49a4	-0.07582405
85	0x3eb5cca6	0.35507697
86	0xbe925300	-0.2857895
87	0xbdaee7b8	-0.085402906
88	0x3f2fe9c9	0.687161
89	0x3e67d0f3	0.22638302
90	0xbe7bf705	-0.24605949
91	0x3f162fff	0.58666986
92	0xbe833985	-0.2562982
93	0x3e4e7f70	0.20165801
94	0x3f0af0a2	0.54273427
95	0x3e177dc9	0.14794077
96	0x3ec994d6	0.39371365
97	0x3e656bff	0.22404478
98	0x3e21c63e	0.1579828
99	0xbf0eec9b	-0.5582978
100	0x3e738dc4	0.23784548
101	0xbe415389	-0.18879522
102	0xbea44ab6	-0.3208825
103	0x3f2516d5	0.64487964
104	0x3e05278a	0.13003364
105	0x3f200590	0.6250849
106	0x3f5c1c92	0.85981095
107	0xbbb8b3d0	-0.0056366697
108	0xbe0c3fc5	-0.13696201
109	0x3f58fef0	0.84764004
110	0x3d7c003c	0.06152366
111	0xbe3c168d	-0.18367977
112	0xbcff197e	-0.031140085
113	0xbf00329b	-0.5007722
114	0x3f0f57b9	0.5599323
115	0xbe15ca8b	-0.14628045
116	0x3e0218d7	0.12704788
117	0x3f27a146	0.6548046
118	0xbe5a506c	-0.21319741
119	0x3d8e3a1a	0.06944676
120	0x3e07cafa	0.13261023
121	0x3e366118	0.17810476
122	0xbe029f3b	-0.12756054
123	0xbdcc4558	-0.09974164
124	0x3f066197	0.5249266
125	0xbec24e58	-0.37950397
126	0xbd79e2bf	-0.061007258
127	0x3ea22f37	0.31676647
128	0xbed9ba1a	-0.42524797
129	0x3e27608d	0.16345425
130	0xbcab7234	-0.02092848
131	0xbed20bb8	-0.41024566
132	0xbdfe04a6	-0.1240323
133	0x3eb15bb6	0.34640282
134	0xbeb78c77	-0.35849354
135	0x3f0f1b09	0.5590063
136	0x3e1fcd84	0.15605742
137	0xbf2f358e	-0.6844109
138	0xbe66805f	-0.22509907
139	0xbdea3196	-0.11435239
140	0xbf420f05	-0.7580417
141	0xbec001c8	-0.3750136
142	0xbf7ca8f4	-0.986953
143	0x3ddb08a9	0.10695011
144	0xbec26367	-0.37966463
145	0xbd08372d	-0.033255745
146	0xbf24a72b	-0.6431758
147	0xbe5b340b	-0.21406572
148	0x3f2afe62	0.6679441
149	0xbe7ebaea	-0.2487599
150	0x3f0cf238	0.55057096
151	0x3e7282f3	0.23682766
152	0xbd257a48	-0.04039982
153	0x3d74b9b7	0.059747424
154	0xbcf24494	-0.029573716
155	0x3d9122ab	0.070866905
156	0x3d39e7c2	0.045387037
157	0xbe01252b	-0.12611835
158	0x3cff8e39	0.031195747
159	0x3f43369c	0.762552
160	0x3ed9ba30	0.42524862
161	0xbddde5e8	-0.10834867
162	0xbe8f023b	-0.2793139
163	0xbdc10aaa	-0.09425862
164	0x3e3896ea	0.18026319
165	0xbf1df486	-0.6170124
166	0x3e2950c8	0.16534722
167	0x3de60918	0.11232203
168	0x3d271fd6	0.040801845
169	0xbf03720f	-0.51345915
170	0xbecb39ff	-0.39692685
171	0x3e97785e	0.2958402
172	0x3de34865	0.110977925
173	0x3dd213b1	0.10257662
174	0xbefb053b	-0.49027428
175	0xbe0e4471	-0.13893296
176	0xbd286987	-0.041116264
177	0xbf334b7b	-0.7003705
178	0xbdc23850	-0.09483397
179	0x3ce80b8d	0.02832582
180	0xbde87d6a	-0.11352046
181	0xbe35c8fc	-0.1775245
182	0x3dc95e0d	0.09832392
183	0xbd2546c5	-0.040350694
184	0xbe8a1bda	-0.26974374
185	0xbcd7858e	-0.026308801
186	0x3eea1bbc	0.45724285
187	0xbeb9d6fe	-0.3629684
188	0x3e200208	0.15625775
189	0x3e156d8a	0.14592567
190	0xbd8f6d8a	-0.07003315
191	0xbed997b1	-0.42498544
192	0x3e5a78f1	0.21335198
193	0x3db7dac2	0.089772716
194	0x3e591bb1	0.2120197
195	0x3d4d2b49	0.050090108
196	0x3f150104	0.58204675
197	0x3ca1a4d4	0.019731916
198	0xbeef6d24	-0.46762955
199	0xbecd4989	-0.40095165
200	0x3f3a95d2	0.7288486
201	0x3e9dae08	0.30796838
202	0xbf2e5a96	-0.68106973
203	0x3e8d9aa9	0.2765706
204	0x3ecc727c	0.39931095
205	0xbe433f2d	-0.19067068
206	0x3e12c82a	0.14334169
207	0x3ed15753	0.40886936
208	0xbe92c807	-0.28668234
209	0x3f078ede	0.52952373
210	0x3eb5057f	0.35355756
211	0xbee2360d	-0.44181862
212	0xbdaf8d72	-0.085719004
213	0x3dd3e911	0.10347188
214	0xbec00f1d	-0.3751153
215	0xbde37229	-0.11105759
216	0x3f037995	0.51357394
217	0x3e8807d2	0.26568466
218	0xbe835ac1	-0.25655177
219	0xbe796bf2	-0.24357584
220	0x3f9b2e4f	1.2123507
221	0x3ee09b27	0.43868372
222	0xbe29a987	-0.16568576
223	0xbc7ae6c1	-0.015313805
224	0xbe0e559e	-0.13899848
225	0xbdad7a5a	-0.08470602
226	0xbe65b094	-0.2243064
227	0x3e384b78	0.17997539
228	0x3d06fda5	0.032956738
229	0xbdaeb32f	-0.0853027
230	0xbde45cf8	-0.11150545
231	0xbe132fc9	-0.14373697
232	0xbe88ec98	-0.26743007
233	0xbd11c012	-0.035583563
234	0xbf3ec1ad	-0.74514276
235	0xbec66bc4	-0.38754094
236	0xbf30f874	-0.6912911
237	0xbb3dfc30	-0.0028989427
238	0x3d4d238b	0.050082725
239	0xbf0bc997	-0.54604477
240	0xbe473185	-0.19452484
241	0xbe320861	-0.17386009
242	0xbdec9829	-0.1155246
243	0xbdf6bd3d	-0.12047813
244	0x3d53026f	0.051515993
245	0x3e8b6493	0.2722517
246	0x3e927150	0.28602076
247	0xbd8a039f	-0.06738972
248	0xbca78b2e	-0.020452108
249	0x3e90667e	0.28203195
250	0xbe0d512e	-0.13800499
251	0x3d0258ad	0.03182285
252	0xbec17af1	-0.3778911
253	0xbdca3709	-0.098737784
254	0xbe4f8208	-0.20264447
255	0x3d59b728	0.053153187

final.0.bias f4 [20]
0	0xbc240a33	-0.010012197
1	0x3e5add97	0.21373592
2	0xbc9b3a37	-0.018948657
3	0x3e501be8	0.20323145
4	0x3d2fd394	0.042926386
5	0x3de3bed6	0.111203834
6	0xbe4edb0e	-0.2020075
7	0x3adc4d9b	0.0016807796
8	0x3d0055ce	0.03133183
9	0x3bc12c5c	0.0058951806
10	0xbd2686b1	-0.040655795
11	0xbda9a055	-0.08282534
12	0x3e31233c	0.17298597
13	0xbd967829	-0.073471375
14	0x3b47bebf	0.0030478684
15	0xbd8d3530	-0.0689491
16	0xbe3399d2	-0.17539147
17	0xbe1be312	-0.15223339
18	0x3d31fd90	0.043454707
19	0xbcffdda3	-0.031233614

final.1.weight f4 [20]
0	0x3eb50f58	0.3536327
1	0x4001c47d	2.0276177
2	0x4069da89	3.6539633
3	0x3fcfcd02	1.6234438
4	0x3f0d8b9f	0.5529117
5	0x40ced5aa	6.463582
6	0x3e8f514b	0.2799171
7	0x409d0898	4.907299
8	0x3f66ebe2	0.9020368
9	0x3ec24960	0.37946606
10	0x3ee51240	0.44740486
11	0x406788cc	3.6177244
12	0x3f049a35	0.517978
13	0x3f22b8a7	0.6356301
14	0x3f2b3019	0.66870266
15	0x3f033a92	0.51261246
16	0x3ea57bf9	0.32321146
17	0x3f029b3b	0.5101811
18	0x3f07c7ef	0.5303945
19	0x3fdbbf4c	1.7167754

final.1.bias f4 [20]
0	0xbf2a0396	-0.6641172
1	0x3e3745ce	0.17897722
2	0x3f937470	1.1519909
3	0x3e914131	0.2837005
4	0xbf1ad0aa	-0.60474646
5	0x40839e7d	4.1130967
6	0xbf37a55f	-0.7173671
7	0x4043eaf6	3.0612159
8	0xbdc7737e	-0.09738825
9	0xbf25ea64	-0.64810777
10	0xbf14ac03	-0.5807497
11	0x3f9d290f	1.2278155
12	0xbf238ed6	-0.63889825
13	0xbf009dd1	-0.5024081
14	0xbf22b17d	-0.63552076
15	0xbf049abe	-0.5179862
16	0xbf27d233	-0.65555114
17	0xbf0e4563	-0.55574626
18	0xbf143420	-0.57892036
19	0x3ce03738	0.02737008

final.1.running_mean f4 [20]
0	0x3eb1c214	0.34718382
1	0xbca38e1a	-0.01996522
2	0xbf7cbb42	-0.9872323
3	0xbcd573e2	-0.026056234
4	0x3f908ded	1.1293312
5	0x3fd54598	1.6661863
6	0xbf27d281	-0.6555558
7	0xbf44f7d8	-0.7694068
8	0xbfbc752e	-1.472326
9	0xbdbf1a7e	-0.09331225
10	0x3f0d3ecc	0.55173945
11	0xbf08775f	-0.53307146
12	0xbe542531	-0.20717312
13	0xbdecc6fa	-0.11561389
14	0x3f86dd05	1.05362
15	0x3facab0e	1.3489702
16	0x3f6e6d6a	0.931357
17	0xbe3801f6	-0.17969498
18	0x3f0ee3d0	0.55816364
19	0xbe99ca9f	-0.300374

final.1.running_var f4 [20]
0	0x40575124	3.3643274
1	0x400bee7b	2.1864307
2	0x4036b18b	2.8545864
3	0x4092d0bd	4.5879807
4	0x40566da8	3.350443
5	0x415c0a0a	13.752451
6	0x406a0d26	3.6570525
7	0x406501d7	3.5782373
8	0x4059ce6d	3.4032242
9	0x3fa3a7e4	1.2785611
10	0x409cb0dd	4.8965898
11	0x403a1956	2.9077964
12	0x3ffbf03c	1.9682689
13	0x409ca1cd	4.894751
14	0x3f895448	1.0728846
15	0x3ffdbcf2	1.9823287
16	0x3f6f7a65	0.93546134
17	0x405a50d2	3.4111829
18	0x3fd13cce	1.6346681
19	0x4014c0dc	2.3242712
