消融实验/model_weights.pth (torch, 17733 bytes, 24 tensors)

initial.0.weight f4 [10, 3, 3, 3]
00000000: 525d eb3d 3733 0bbe f1c5 033e 50ab a8be
00000010: 444c 1bbe 94a8 67be 66ef 0dbe 2821 16be
00000020: 73cb 20be 467a 833e ed6d 8d3e 9411 5abd
00000030: 6084 94ba c7b4 0b3c a4ae a8bd 939c ddbd
00000040: 6aaa 7abe bfd5 0bbd 282f debd 7768 c2bd
00000050: 896c 1fbe d8ad 903e 671b 66bd 4a89 30be
00000060: f0de 36bc 5a5c 68be f1b4 cabe 800d 9e3d
00000070: 1ed1 b1bd deef 353e 9dc4 c43e ba0d 0a3e
00000080: 7dde 09be 45ba 423e b2d4 9f3e e606 823d
00000090: 2808 833e 9e38 5a3e 83cf 883e c6b4 c13d
000000a0: f311 6b3d e0e5 f6bd a8c1 133e 6867 1e3e
000000b0: d3d8 1f3d 0f47 3cbe b790 cc3d 618a 08be
000000c0: e34a fbbd 5839 7c3e 5ea4 f03d b040 953d
000000d0: cea4 a23d fc6e 8ebc 0fc7 3a3e b997 3a3e
000000e0: 523f 873e 4b30 0e3f bfc9 e03d 9977 a93e
000000f0: 61f1 8f3e ea7c ca3e 9d3b 423e 913b d03e
00000100: 639f 893e 34a2 51be e584 e73e a05a de3e
00000110: 7218 633d 5c8d 583e 83b0 ec3e 4232 7d3e
00000120: 0abe ef3e 1556 bb3e def2 953e 4190 5d3d
00000130: 94f8 d23e 5f18 203e d8f8 2a3f 93de 023f
00000140: 1c0d a73e 694f df3c 9a71 173e ee8d 1a3e
00000150: 116c 833c b743 8dbd a938 c6bd fe4e af3d
00000160: 6437 a53e c963 3c3e 7325 fb3c aa8b 8abd
00000170: 7540 8c3d 4751 a6bd bea3 ddbd 9294 8d3e
00000180: 8021 bd3d 3262 233d 4ccb c23d d128 ca3e
00000190: abe4 98bc 34b4 45be e9e5 29be c044 963e
000001a0: 33f6 0f3e 6582 10bb 4189 36bd 3152 4abc
000001b0: 61c1 8bbe 4eaf 0dbe ab13 a3be 1af0 7ebd
000001c0: 3d07 80be 8fde 8f3d 3c82 8bbb 9819 19be
000001d0: ef5e f9bc e425 79bd 4853 cbbd dc27 c9be
000001e0: 77db a3be abb5 07be 2a52 7bbe 68ca b2be
000001f0: 1d5f 84be acd5 2ebd 46d7 96be 84f2 25be
00000200: 3947 bcbd 0aef cd3d bc69 78be eb9f 54be
00000210: 875f 53be da17 e2bd 977b 61be 52ec 5bbd
00000220: 838c 8abe 9bbe 94be 1854 fdbd c31e 57be
00000230: 7ad0 063d 12dd 96bd 4e37 833d 46b7 94be
00000240: 349d 0abd 875f 833c 3e70 d9bd f1b7 63be
00000250: 083a f13c d51f abbe 5819 71bb bcee 50be
00000260: 3a67 31bd 40f5 2bbe b65a 83be 2d89 48bd
00000270: ac16 26be 8c66 fc3b 2b74 2b3e ad61 42bd
00000280: c88a b1bb deb6 ae3c a46f b3bd f728 683e
00000290: 161c 353e 1a51 793d a91c be3d 007f 983c
000002a0: f813 84bd 7810 823e 0b11 833d 52b1 9c3c
000002b0: 41e2 46bd 1511 31be ab63 0e3e fbfa ea3d
000002c0: 42ef 13be 42c7 60bd f889 533d 203f 223e
000002d0: 13d1 f0bc 80cb d93d 68ec 3a3e 0dcf 8a3d
000002e0: d290 5e3e 3a83 08bb 35ac 183e f810 14be
000002f0: 2e70 b23c a245 ec3b ca1d 78be a5a2 05be
00000300: 19a2 163d 8661 dc3d bb28 04be 4810 3e3e
00000310: 70c6 033e 9ba4 3c3d 0024 e0bc 4185 173d
00000320: c707 103e 0c8a 6b3e 7623 533d 9eac e3bd
00000330: fe2c e73d 42b8 59bc 5fd7 0f3e ff3c af3e
00000340: 9df7 273e 8d09 843d 66b6 b33d 2a26 b43d
00000350: 21b8 1fbe 1f4e 9d3d 5a7a 603e 134f a9be
00000360: bb6e 0dc0 9f3f 16c0 268b 11c0 b58e dcbf
00000370: 6c75 01c0 a996 1cc0 9b8e f5bf d192 08c0
00000380: 4ece 07c0 a794 03c0 f2ee 13c0 27bd 16c0
00000390: 60ae e8bf 97b2 04c0 1e12 13c0 bbea f4bf
000003a0: cad2 ecbf a8f5 0cc0 1a1a f3bf bfb9 24c0
000003b0: 04a3 23c0 999c f7bf cb28 fdbf 2a24 13c0
000003c0: fb76 dfbf 044e ddbf 2274 06c0 2387 66bd
000003d0: ee98 143e 0479 933b f053 883a 4f6f 573e
000003e0: 1635 193e aef8 563e 1d8f 233e 591d b93d
000003f0: 7dcd 063d 416f bb3d 8408 013d 2047 9f3e
0.11492409 -0.13593756 0.12868477 -0.329432 -0.15165812 -0.22622901 -0.13860855 -0.14661086
-0.1570261 0.25679225 0.2762293 -0.05323942 -0.0011330955 0.008526987 -0.08236435 -0.1082088
-0.2447907 -0.03413939 -0.10848838 -0.09492581 -0.15568747 0.28257632 -0.056178477 -0.17239872
-0.011161551 -0.2269148 -0.39591172 0.07717419 -0.08682464 0.17767283 0.38431254 0.13481799
-0.13463779 0.19016369 0.3121696 0.06348972 0.2559216 0.2131066 0.2672082 0.09458308
0.057390165 -0.12055564 0.14429343 0.15469134 0.03902514 -0.18386482 0.0998854 -0.13334037
-0.12270143 0.2463125 0.117501006 0.07287729 0.0794159 -0.017386906 0.18239997 0.1822194
0.26415497 0.5554244 0.1097598 0.33099058 0.28113845 0.39548427 0.18968053 0.40670446
0.26879415 -0.20472032 0.45218578 0.43428516 0.055443235 0.21147674 0.46228418 0.24726203
0.46824676 0.36589113 0.29286855 0.05409265 0.41205275 0.15634297 0.66785955 0.5112087
0.3262719 0.027259545 0.1478943 0.15093204 0.016042741 -0.06897681 -0.09678776 0.085599884
0.32268822 0.1839744 0.030657506 -0.0676492 0.06848232 -0.08120971 -0.10822247 0.27652413
0.09234905 0.03988857 0.09511432 0.39484265 -0.018663725 -0.19307023 -0.1659161 0.29349327
0.14058761 -0.0022050377 -0.04456449 -0.0123486975 -0.27295974 -0.13836405 -0.31850943 -0.062240697
-0.25005522 0.070248716 -0.0042574685 -0.1495117 -0.030440776 -0.06082715 -0.09927994 -0.39288223
-0.32003376 -0.13252895 -0.24543062 -0.3492005 -0.25853816 -0.042684242 -0.29461116 -0.16205794
-0.09193272 0.10055359 -0.24259084 -0.20764129 -0.2064191 -0.110397056 -0.22019802 -0.05369217
-0.27060327 -0.2905167 -0.12369555 -0.21007828 0.032913662 -0.073663846 0.06407033 -0.29046077
-0.033841327 0.016036762 -0.106171116 -0.22238137 0.029446617 -0.33422723 -0.0036788788 -0.2040357
-0.043311335 -0.16792774 -0.25655144 -0.048958946 -0.16219586 0.007702654 0.16743533 -0.047456432
-0.0054181553 0.021327432 -0.08761528 0.22671877 0.17686495 0.06086836 0.0928281 0.018615246
-0.06449121 0.2540319 0.06399735 0.019127522 -0.048555616 -0.17291673 0.13905208 0.11473652
-0.14446738 -0.054877527 0.05164525 0.15844393 -0.02939657 0.10634518 0.18254244 0.06777773
0.21734932 -0.002083017 0.14909442 -0.14459598 0.021782007 0.0072104493 -0.24230114 -0.13050325
0.036775682 0.107607886 -0.12906162 0.18560898 0.12868667 0.046055418 -0.027360916 0.036992315
0.14065467 0.2300188 0.05154749 -0.111169085 0.112878785 -0.013288559 0.14047001 0.34226224
0.1640305 0.06447134 0.08775024 0.08796342 -0.15597583 0.07680916 0.21921673 -0.3306814
-2.2098835 -2.3476331 -2.274118 -1.7231051 -2.0227919 -2.4466956 -1.9184145 -2.133961
-2.1219668 -2.055948 -2.311459 -2.355295 -1.8178215 -2.0734003 -2.2979808 -1.9134134
-1.8501828 -2.2024937 -1.899234 -2.573837 -2.5568247 -1.9344665 -1.9778074 -2.2990823
-1.7458185 -1.7289433 -2.1008382 -0.05628122 0.14511463 0.00450051 0.0010400992 0.21038555
0.14961657 0.20993301 0.15972562 0.09038801 0.032910813 0.091520794 0.03150226 0.31108952

initial.0.bias f4 [10]
00000000: 9309 0a3e 5e0e 19be 791a 60bc 5a01 8fbd
00000010: 4e13 9ebd e727 063e d016 3a3d 86f4 0e3e
00000020: a82e 3d3d 224d e03b
0.13480215 -0.14946887 -0.013678187 -0.0698268 -0.07718526 0.13101159 0.045431912 0.13960466
0.046187073 0.0068451324

initial.1.weight f4 [10]
00000000: 3694 3a3f 670b 8a3f 2532 6a3f 341e 4c3f
00000010: 15f7 5b3f f565 813f f528 583f b894 5a3f
00000020: a0fc 813f 68e1 b13f
0.728824 1.078473 0.91482764 0.79733586 0.8592389 1.010924 0.84437495 0.85383177
1.015522 1.3896914

initial.1.bias f4 [10]
00000000: 9675 75be 7071 4a3e afa2 6bbc e8e7 20be
00000010: e4a6 44be 9a5d 8cbe 4ea9 66bd 8b19 c9bc
00000020: bacf 5cbe d0d2 873e
-0.23970637 0.19769835 -0.0143820485 -0.15713465 -0.19204289 -0.27415162 -0.056313805 -0.024548313
-0.21563616 0.26528025

initial.1.running_mean f4 [10]
00000000: f69f 9dbe 7116 273f 5225 d43f 3af7 e33e
00000010: 482a 78bf b07e 0abf 28db d43e aacb af3e
00000020: 3d4e 3ac1 a04b 3a3f
-0.30786103 0.6526862 1.6573889 0.44524556 -0.96939516 -0.5409956 0.41573453 0.3433507
-11.644101 0.72771645

initial.1.running_var f4 [10]
00000000: d07c ef3e 4e81 0c3f 39ea 953f 996d f63e
00000010: cc67 273f 82ad 043f 389d ed3e 8b01 e53e
00000020: 0976 1342 6411 0e3f
0.46774912 0.54884803 1.1712104 0.4813049 0.65392756 0.5182725 0.4640901 0.4472774
36.86527 0.55495286

res_blocks.0.conv.0.weight f4 [10, 10, 3, 3]
00000000: d4c3 c2be 1f54 e6bd 7223 863d 07e2 4cbe
00000010: 0e47 40be cf38 8e3d 40fe 02be ecec 89bc
00000020: 1319 9d3c 9a1f c23e a231 bc3d df7c 1cbd
00000030: 9671 213e 41bc 913e 448e 013c debf c4bb
00000040: 52d7 15bd 2bc3 d23d 189a 7c3b b6e6 6b3e
00000050: aba8 7c3d 529b 9a3d 48b9 093d 009c 343e
00000060: 9891 373d 7b3d 4e3e 707d a03d a386 a83d
00000070: e0bc 173b eaf6 ad3d a6de 903e 29ef 133d
00000080: ce39 6f3d 0508 5e3e 8ccf c93d 624e e63d
00000090: 6f74 65be c5c6 e03d 93d3 dd3d a233 f33d
000000a0: 61a1 1fbe b6c7 e6bd 2838 97be 9f9b e6bd
000000b0: 4848 bebc 6331 7dbe 49de a9bd d171 2cbd
000000c0: 0d0c debd 0cfd 7fbd 3277 81be 6388 6cbe
000000d0: a823 92bd e492 c63d 699c 8d3d 24ee 41be
000000e0: 5283 693d e2f4 8a3d b141 0b3e 3036 783e
000000f0: ebc9 233e 4f32 953e 7754 033e ca1d 073e
00000100: 46ee d63d 2e75 103d 6126 ff3e bc58 7cbd
00000110: 1fda 153f adac da3e b301 d83d 7625 813d
00000120: 5a96 913d d5c3 e03d 8b97 1abe 0144 8e3d
00000130: ad45 2a3e 295b 2e3e 2a3a 073e faec b3be
00000140: 9d3c 603e c961 603e 9f94 913d ea51 eebc
00000150: 66e2 f13e 4eaa bf3e cb68 a83e 74c4 f63e
00000160: e4f0 58bd 00b0 4fbe 031a 9bbe 72c6 ab3d
00000170: fe5d fbbd 30ca 51be a481 9cbe 4531 9d3d
00000180: c33c 87be 0493 bbbe b932 71be f60c 9a3e
00000190: 9ab8 ca3d 1ee3 a7bb 98d1 613c dabf fb3d
000001a0: 66ca 853d f2c8 1bbd 2474 993e 5b71 da3d
000001b0: 54b9 663d 8bbb 60bd 7eaa 623e 3d90 2a3c
000001c0: 8b12 3c3e 219e 8a3d 7c21 693e 55bf 1e3d
000001d0: 0cd3 a23b 201c c63e 97ae 543e 4082 8e3c
000001e0: 21e8 4b3c 9524 363e 9374 4c3e 7c41 c23e
000001f0: 52da 023e 8f9d c63d 5e3a 84be e6c8 84be
00000200: fa2e 42be f9c8 e1be ec13 63be 3cce 51bd
00000210: c4e0 e0bd 63ad 9fbe 44dd 85be 80a9 b7be
00000220: 4054 adbe fe44 b93c 5d6a dcbe 2339 3abe
00000230: e92c c9be ead9 6dbc c5a6 32be 80be e2bc
00000240: 7f7f c1bd f555 153e eaea 03be e4c9 e2bd
00000250: 3e8b 45bd e71d 163e 7887 15be 44a6 093e
00000260: 7f56 ba3e 5c3e e93d dbd3 e53d e4f0 f83d
00000270: a4cd 0e3e 2270 db3b ee45 30bc ba10 03bd
00000280: 06e2 2d3c dc5c a63c bca0 9dbd f5b4 45be
00000290: ab52 3ebe 3023 50be c8b8 8fbd 575f 9fbd
000002a0: 8075 693d 2004 7bbc a376 8dbe 1b82 e73d
000002b0: 59ba 9a3d 0d56 e33d cf57 12bd e831 4b3c
000002c0: 9a05 93bc a24c 383e d80d 1e3e b9ba dc3d
000002d0: 4310 773d 3442 85be 1926 973d 1d24 7c3c
000002e0: 0a22 44be 0b36 183c 3d1a b43e 6e80 dbbd
000002f0: 4761 283e 43c4 253d 248a dabd cf37 1dbe
00000300: 4427 0c3e 3483 ebbd 5d0a f1bc 5e47 bf3a
00000310: 7b27 14be 2d8c b8bc a7ad 34be 7ded 4fbc
00000320: a224 483c 1137 36be 8352 cd3d 672a 05be
00000330: 4cd0 fd3c 32a4 19be 12f6 a13d 6b14 2cbd
00000340: abe6 d2bd 5890 a3bd c6d1 da3d fb3c e7bd
00000350: 73d0 d53c e7ca 8dbe c3b7 fdbd c584 88be
00000360: 085c 243e f317 013e d4fe 1abe ccf1 793b
00000370: 1f41 1c3e 44e9 f13d 5912 033e cf49 ca3d
00000380: e843 9f3e 465c cb3d 659b 97bd 62ee 993e
00000390: d1f4 f83c eb6f f2bd 46ac c13d d0ca 463d
000003a0: 3959 7c3e 58ba 373d 8ed3 1e3e a387 c9bd
000003b0: 6da5 21be a8c3 83be d180 0ebd 654e ff3c
000003c0: b998 ac3d 77c1 403c 0755 eabc 1f6f 0dbd
000003d0: 694a 903e 8514 7abe f1c9 e2bd da84 193e
000003e0: 1a9c 833d a16d 2e3e 78e6 963d 0ba0 a1be
000003f0: 42f0 233e afd7 453d cbf1 0b3e 9e25 d83c
-0.3804003 -0.112465136 0.065497294 -0.20008098 -0.18777105 0.06944429 -0.12792301 -0.016836606
0.019176995 0.37914735 0.09189154 -0.038205024 0.15765986 0.2846394 0.007907454 -0.0060043177
-0.0365823 0.102911316 0.0038543995 0.23037228 0.06168429 0.07549156 0.033623964 0.17637634
0.044816583 0.2014064 0.07836425 0.08228805 0.002315335 0.08494361 0.28294867 0.036116753
0.058404736 0.21682747 0.098540395 0.11245419 -0.22407697 0.10975412 0.1083137 0.118750826
-0.15588905 -0.112685606 -0.2953503 -0.11260151 -0.023227826 -0.24725871 -0.08294351 -0.04210073
-0.10842142 -0.062497184 -0.2528625 -0.23098902 -0.07135707 0.09695986 0.069145985 -0.189385
0.057010002 0.06784989 0.13599278 0.24239421 0.15994994 0.29139945 0.1282519 0.13194957
0.10494666 0.035268 0.49833968 -0.06160806 0.5853595 0.42709866 0.10547199 0.06305973
0.071087554 0.10974852 -0.15096872 0.069465645 0.16628142 0.17026962 0.13205782 -0.35141736
0.21898122 0.21912302 0.07108425 -0.029091794 0.4724304 0.3743462 0.3289245 0.48196757
-0.052964106 -0.20281982 -0.30293283 0.0838746 -0.12273787 -0.20487285 -0.30567658 0.07675413
-0.26413545 -0.36635602 -0.23554505 0.30088013 0.09898491 -0.00512351 0.013782881 0.12292452
0.06532745 -0.038033433 0.2997142 0.10666152 0.056329086 -0.054866355 0.2213535 0.010410366
0.18366449 0.06768442 0.2276668 0.038756687 0.0049690064 0.38693333 0.20769726 0.017396092
0.012445481 0.17787392 0.19966345 0.37940586 0.12778595 0.09698021 -0.2582578 -0.25934523
-0.18963233 -0.44098642 -0.22175568 -0.05122207 -0.10980371 -0.3118697 -0.26145375 -0.35871506
-0.3385334 0.022615906 -0.430499 -0.18185858 -0.39292076 -0.014517287 -0.1744643 -0.027678728
-0.09448146 0.14583571 -0.12882581 -0.11073664 -0.048228495 0.14659844 -0.14602458 0.13442332
0.36394116 0.11388847 0.11222049 0.12155321 0.13945633 0.006696717 -0.01075886 -0.031998374
0.01061297 0.02030795 -0.07696673 -0.19307311 -0.18586223 -0.20325923 -0.07017666 -0.077818565
0.056996822 -0.015320808 -0.27629575 0.113041125 0.07555074 0.11100397 -0.035728272 0.012402035
-0.017947007 0.17997983 0.15434968 0.10777802 0.060318243 -0.2602707 0.073803134 0.015389469
-0.1915361 0.009290229 0.35176268 -0.107178554 0.16443358 0.040470373 -0.106708795 -0.1535332
0.13686854 -0.114996344 -0.029423887 0.0014593413 -0.14468186 -0.022527779 -0.17644368 -0.012690899
0.012215765 -0.17794444 0.100255035 -0.13004456 0.030983113 -0.15004042 0.07908262 -0.04201166
-0.10297903 -0.07986516 0.10684542 -0.11290928 0.026100373 -0.27693865 -0.123885654 -0.26663795
0.16050732 0.12606792 -0.15136272 0.0038138507 0.15259217 0.1181207 0.12799968 0.09877359
0.31106496 0.09929709 -0.07402686 0.30064684 0.030390175 -0.11837753 0.09456687 0.04853326
0.2464341 0.044855446 0.15510389 -0.09840324 -0.15785761 -0.2573521 -0.034790818 0.031165311
0.08427567 0.011764876 -0.028604997 -0.0345298 0.2818177 -0.2442189 -0.110736735 0.14992085
0.064262584 0.17034008 0.07368177 -0.31567416 0.1600962 0.048301395 0.13666455 0.026385125

res_blocks.0.conv.0.bias f4 [10]
00000000: 006a 73bd 6a68 943d a8fc b3bd 66aa e6bc
00000010: 86de 393d 2b7c 863b 9113 d6bc e7e7 febc
00000020: 8356 6e3d f707 15bd
-0.05942726 0.07246478 -0.08788425 -0.028157424 0.04537823 0.0041041574 -0.026132377 -0.031116439
0.058187973 -0.03638455

res_blocks.0.conv.1.weight f4 [10]
00000000: 3632 303f b5dd 8c3f fce9 a53f cdff 8d3f
00000010: cf6a 353f de40 7b3f f221 923f 81a8 203f
00000020: 3934 963f 7b07 953f
0.68826616 1.100516 1.2962031 1.1093689 0.708661 0.98145854 1.1416609 0.62757117
1.1734687 1.1642908

res_blocks.0.conv.1.bias f4 [10]
00000000: f144 8fbc 191b e33e 3ef0 453e 5b61 fe3d
00000010: 3fbd 49be a6d6 313d 20ff 3c3e 0d40 0abe
00000020: 87bf f33d 0aca 98be
-0.017488929 0.4435661 0.19329926 0.12420913 -0.19701098 0.043417595 0.18456697 -0.13500996
0.11901765 -0.29841644

res_blocks.0.conv.1.running_mean f4 [10]
00000000: 025a 4a3f 5961 d6bc f572 eebd e03f 0f3f
00000010: 5925 edbe 0783 bcbf 51bc 2ebf d203 5fbf
00000020: 8d46 d2bd ed5f 523e
0.7904359 -0.026169466 -0.1164302 0.5595684 -0.46317557 -1.4727486 -0.682561 -0.87115204
-0.10267363 0.20544405

res_blocks.0.conv.1.running_var f4 [10]
00000000: 8caf 0a41 0b52 e440 9557 4840 c635 8b40
00000010: 68ae 393f 32c1 9a41 f6b3 0341 1644 1a41
00000020: 10f2 3c40 514d 2641
8.667858 7.135015 3.1303456 4.350314 0.7253175 19.344334 8.231436 9.641623
2.9522743 10.393876

res_blocks.0.conv.3.weight f4 [10, 10, 3, 3]
00000000: 3efc af3e 32ff db3e 2e1d d23e cae8 943e
00000010: 1c4f 073e 8e63 df3d 5aa3 143d 3a41 c4bd
00000020: 41b4 733e 4017 f13e 5e4d e23e 73f5 ce3e
00000030: 7111 863e 2714 183f 315b 533e 853c fb3e
00000040: fdda af3e fa64 113f 9f36 58be 4d78 2dbe
00000050: b818 04bf acce 25bf 493e fbbe 21e5 31be
00000060: a0ce d2be 1ee3 4bbe 6462 d0bd 2cb0 f33e
00000070: 9cae 5c3f 1b82 293f b496 1e3f 885d 703f
00000080: a4a6 0c3f f4c3 683f 6b3b 513f 695a d03e
00000090: 97b0 05bf 6e30 f9bc f200 c9be 78cd 6bbe
000000a0: 7ae6 dcbe 6bad 1ebf 2d58 7dbe 55fe 9fbe
000000b0: 4365 0ebe 208c 113d 08cc 2ebd 63c5 21be
000000c0: cf9a a0be 87cb 96be 43b3 d4bd 3068 ecbd
000000d0: d884 35be 96ea 4b3d c02d 06bf 8ed7 0ebf
000000e0: 1ee8 dabe 4a63 fabe 2e24 83be f6e8 cdbe
000000f0: c8f4 b4be 390b 4dbe a5a2 adbe 9265 243f
00000100: be2d 533e 04f0 af3e 1863 b13e 9c01 6c3e
00000110: 8778 0f3f d1e4 153f 7be6 123f 9145 f53e
00000120: c7ad e4be 9e64 16bf 5b8d 90be 9a08 efbd
00000130: 7ff7 a8be 7093 cebe 5ddc 4fbd f64a 83be
00000140: 67d7 08bf ec06 43be 5786 423e 30dc 513e
00000150: 669c 1dbd 1059 18be 8caa a53b ca33 4d3d
00000160: b143 a03d 1198 183d edb8 853e da47 c23d
00000170: 9fd0 6f3e 3744 183e 19e1 8c3e 83da e63e
00000180: b7a0 123e 72ff b83e b9f6 a33d 4aba 0b3f
00000190: 7d02 b33e 63c3 013f e2c5 413f 2da7 433f
000001a0: 7eb3 503f fd60 2e3f 9238 d73e b7c7 103f
000001b0: ac28 1bbf 58cd 11bf c5e6 0cbf 3fa8 d7be
000001c0: a62f d0be 1a6e 4dbf ff9c 24bf 1ae3 0abf
000001d0: 041e 0ebf 73cc 063f 6e74 6f3f dca1 4b3f
000001e0: da39 473f dd28 6b3f 92e0 3a3f 4ad4 4c3f
000001f0: dd5d 3b3f 0cba 043f 746e d4be 82fe 0fbf
00000200: 1c2b d2be bca7 10bf d019 4bbe b561 a4be
00000210: d1f1 a7be 9ec7 80be b286 86be 3d03 98be
00000220: fc4b 5abe 7e30 17be 2705 5fbe 0134 2fbe
00000230: 70df 983d 69b6 09be 74c4 51be ad53 c4bd
00000240: deac 28bf 9df6 26bf 6bd6 d8be a822 e6be
00000250: ded6 b6be 83dc aabe faee 0ebf 0a29 10bf
00000260: 0384 f3be 6277 b63e 41cf e93e ac9d f33e
00000270: 1b4d 143f b847 743e a515 c53e d7ec 123f
00000280: 4241 cb3e 0d9d e03e 2eca 89be 9749 53bf
00000290: 841b debe cd2a 02bf a338 b8be e2e2 07bf
000002a0: 37d4 26bf e2a0 17bf c90c 30bf b6de 92bc
000002b0: 4287 fb3c 1a48 8e3c 1dfe 69be 9d1e bbbd
000002c0: f1f3 21be 3da8 1d3e e801 313c 6c88 003e
000002d0: 9de0 053e ca99 a23d cb73 bbbd 3681 e93c
000002e0: 975b 0a3e 4ccf cf3d 3dde 33be 48e2 a53d
000002f0: d2be 573e f562 4dbe eece 9bbe 4ea8 25bd
00000300: 0769 8cbe b0c7 d63d 77af 24bc 2efb b2bc
00000310: 716f 0cbd e619 b1be ea70 033e e5d2 21be
00000320: 7aaf 8b3e d58c 123e 1c4c 093c e63e 2c3d
00000330: 85a6 793d 9850 a0bd c351 903d 4f8e aa3d
00000340: e6c0 f9bd 951c a1bc 0ed5 7cbc e7f3 b2bd
00000350: 654a 373e 45c1 55be 7f16 a23d b607 563d
00000360: f952 b5bd d67a bebc e2b7 63be fc24 49be
00000370: e6fa 9abd 581e 5a3c 7d21 4dbe d398 fdbd
00000380: 1a19 73bc c652 fe3d 6bff 33be bf3d 4e3e
00000390: 52fa ccbc 47e4 c93d 5de5 69bc aec3 4ebd
000003a0: c640 f7bd d49e 9dba 8914 25be 0a2d 7c3d
000003b0: cc48 0b3e f844 633c a81f 2d3b be15 0c3d
000003c0: 4805 85bb 7437 4dbd f34f ac3e bc51 bc3c
000003d0: e795 d23c a001 d53d 51b2 16be 489b 56bd
000003e0: db03 98bc 8e43 f7bd 16de 483d 5f9a 93bd
000003f0: c942 d43e 0a33 9c3e fb03 69bd 1799 973d
0.34372133 0.42968136 0.41037887 0.29083854 0.13213772 0.109076604 0.036288597 -0.095827535
0.2379923 0.4708805 0.4419965 0.40421638 0.26185182 0.5940575 0.20640256 0.4906961
0.34346762 0.56794703 -0.21114586 -0.16940422 -0.5160022 -0.6476848 -0.49070957 -0.17372562
-0.41173267 -0.19910857 -0.101750165 0.47595346 0.8620393 0.6621415 0.61948705 0.9389272
0.54941773 0.90924 0.8173129 0.40693977 -0.5222258 -0.0304186 -0.39258534 -0.23027599
-0.4314459 -0.61983365 -0.24740668 -0.31248727 -0.13905816 0.035534024 -0.042675048 -0.15797953
-0.3136811 -0.29452154 -0.10385754 -0.1154331 -0.17726457 0.049784265 -0.5241356 -0.5579766
-0.42755216 -0.48903877 -0.2561354 -0.40216798 -0.35343003 -0.20023812 -0.3391315 0.64217484
0.20622918 0.34362805 0.34645915 0.23047489 0.56043285 0.5855227 0.57382935 0.47904637
-0.44663832 -0.5874728 -0.28232846 -0.116715625 -0.33001325 -0.4034686 -0.050747264 -0.25643128
-0.5345368 -0.19045609 0.18996559 0.20494151 -0.03847923 -0.14877725 0.005055731 0.050098218
0.07825411 0.037254397 0.2611765 0.09486361 0.23419426 0.14869772 0.27515486 0.45088586
0.1431912 0.3613239 0.08006043 0.5458113 0.34962836 0.5068876 0.7569257 0.76426965
0.81523883 0.6811674 0.42035347 0.5655474 -0.60608935 -0.56953955 -0.55039626 -0.4212055
-0.40661353 -0.80246127 -0.6430206 -0.5425278 -0.5551455 0.52655715 0.9353703 0.7954385
0.7782265 0.9185923 0.7299892 0.8001143 0.731901 0.51846385 -0.4149052 -0.56247723
-0.41048515 -0.5650594 -0.19834065 -0.32105795 -0.3280168 -0.25152296 -0.2627464 -0.2968997
-0.21318048 -0.14764592 -0.21779309 -0.17109682 0.07464492 -0.1344849 -0.20485097 -0.095862724
-0.65888774 -0.6522005 -0.42351088 -0.44948316 -0.35710806 -0.33371362 -0.558334 -0.5631262
-0.47561654 0.35637957 0.45665935 0.47581232 0.57930154 0.23855484 0.38493076 0.5739264
0.39698225 0.4386982 -0.26912063 -0.82534164 -0.43380368 -0.5084656 -0.3598071 -0.5308057
-0.65167564 -0.5922986 -0.6876951 -0.017928462 0.030704144 0.017368365 -0.22850843 -0.091366984
-0.15815713 0.15396209 0.010803677 0.12552041 0.13073964 0.07939489 -0.09152945 0.028503995
0.13511501 0.101469606 -0.17565246 0.080998 0.21068886 -0.2005728 -0.30431312 -0.04044371
-0.2742388 0.10487306 -0.0100516 -0.021848287 -0.034285966 -0.3459007 0.12836042 -0.15803106
0.27282315 0.14311536 0.008379962 0.042052172 0.06094982 -0.07827872 0.07046845 0.083279245
-0.121949956 -0.01966695 -0.015431656 -0.08737927 0.17899473 -0.20874508 0.07914447 0.052253447
-0.088537164 -0.023251932 -0.22238114 -0.19643015 -0.07567386 0.013312899 -0.20032306 -0.123826645
-0.014837528 0.124181315 -0.17577903 0.20140742 -0.025021706 0.098579936 -0.014275876 -0.050479583
-0.120729014 -0.0012025484 -0.16121115 0.06156639 0.13601989 0.013871424 0.0026416574 0.034200422
-0.0040594675 -0.050101712 0.33654746 0.022988193 0.025706245 0.104007006 -0.1471646 -0.05239418
-0.018556526 -0.12073432 0.049039923 -0.07207178 0.41457203 0.3050769 -0.05688856 0.074022464

res_blocks.0.conv.3.bias f4 [10]
00000000: a39b cd3d 2599 033d a36b 803d a893 56bd
00000010: f439 6a3d d3c8 94bd 6130 94bb 7e67 653d
00000020: e475 303d 086f a43d
0.10039451 0.032128472 0.0627053 -0.05238691 0.057184175 -0.07264867 -0.004522369 0.0560069
0.04308118 0.0802899

res_blocks.0.conv.4.weight f4 [10]
00000000: 988c aa3f 37e2 533f 2e54 9f3f 59e6 783f
00000010: b84a 803f 3b7d 8e3f 36a3 5e3f e57b 8c3f
00000020: 8eec 6c3f 0338 8b3f
1.3324156 0.8276705 1.2447565 0.9722648 1.0022802 1.1131967 0.8696779 1.097531
0.92548454 1.0876468

res_blocks.0.conv.4.bias f4 [10]
00000000: 17db 943d a508 2b3e e635 e73d 6991 79be
00000010: 656a 21bd e0d6 80be 2ed6 21bd 3f8b 49bd
00000020: c40f 143d 40f5 103f
0.072683506 0.16702516 0.11289577 -0.24371876 -0.039408106 -0.25163937 -0.0395109 -0.04920506
0.036147848 0.5662422

res_blocks.0.conv.4.running_mean f4 [10]
00000000: 3a77 a13e 5a9d aabe 73bf b13e 5172 9f3e
00000010: 4f58 b93e 9b8e 453f 5db4 bf3e 61c3 3c3e
00000020: c261 a9bc 600a 2f3d
0.31536275 -0.33323175 0.34716377 0.31141904 0.36200187 0.77170724 0.37442294 0.18433906
-0.020676497 0.042734504

res_blocks.0.conv.4.running_var f4 [10]
00000000: c231 5042 0787 c242 1f70 4440 bc4d 4641
00000010: d4d3 9f3f c3b1 9640 b0fc 4c3f 54a2 7640
00000020: 65ff 0740 a8d7 7740
52.04859 97.263725 3.0693433 12.393978 1.248652 4.7091994 0.8007307 3.8536577
2.124963 3.8725376

final.0.weight f4 [10, 10, 1, 1]
00000000: f86d cc3b fcd1 693e 082e a7bd da67 933e
00000010: 08ff 813e 44a8 763f 7ea7 923d 1218 1dbe
00000020: 606b b5bb 4c5e dc3d 213b 40bf 4a63 70bd
00000030: 5db8 e3be e6d4 9fbe e29b 94be fa93 263e
00000040: f279 63bd c80c 753e ab05 eabe f4c5 8ebf
00000050: 58cb 00bc 706a 0cbf 69e9 233f 7bbd c5be
00000060: f262 773e a53f eabd fd0e 1b3e 2099 9dbe
00000070: e8db d2be 31df 8c3f 8782 debe 948d be3e
00000080: ed92 a73e de11 20be fd8c dabd a924 5e3e
00000090: 60ff 5c3f d2bd cbbe 3eaa c23e 4b1d 0e3e
000000a0: 6b3d 963f c5d4 a03f 685e 06bf e0a7 01be
000000b0: b181 b4be 3876 833d abf5 953e 1646 173d
000000c0: 0e9e f93e 5365 563e cee3 ddbd 96cf ef3e
000000d0: b875 0abf 0f71 35be d2e7 9bbd 6807 17bf
000000e0: 8181 603e 4e35 b0bd 9499 e3bd d975 0b3e
000000f0: 15a1 013f aa35 f23e e794 fb3e ddf4 8c3e
00000100: a25f 7b3e a4ad a93e fbbc 89be a395 853e
00000110: 5040 273d 2657 e5be 74c8 1b3f ee5d 71be
00000120: 74fa 7d3e fc55 64be 191d 6dbf 89d7 063f
00000130: 144c 73bd 4ea3 1d3f af42 923e b039 1fbf
00000140: fe86 2cbf 6ca3 29be 7789 a53c 8200 ff3c
00000150: c6f4 133f 55be 3e3f 8908 263c a554 103e
00000160: 335e 9ebe 76b6 ab3d 83a0 e93e 2e0c 01be
00000170: dff0 b43d 219e 953e bbc9 abbc a744 ce3e
00000180: 0a63 073f 8789 eabc da8a 5bbe c1fb 5c3e
0.0062386952 0.22834009 -0.08163077 0.2879017 0.25389886 0.963505 0.07160853 -0.15341213
-0.0055364817 0.10760173 -0.75090224 -0.05868844 -0.44476596 -0.31217116 -0.2902518 0.16267386
-0.055536218 0.23930657 -0.4570745 -1.115416 -0.007860981 -0.5484991 0.6402803 -0.38621125
0.24158838 -0.114379205 0.15142436 -0.30780888 -0.411834 1.1005613 -0.4345896 0.3721739
0.32729283 -0.15631816 -0.10671423 0.21693672 0.8632717 -0.3979326 0.3802051 0.13878362
1.1737493 1.2564932 -0.524878 -0.12661695 -0.35255197 0.06419033 0.29288992 0.036932074
0.487534 0.2093709 -0.10834466 0.46838063 -0.54085875 -0.1771891 -0.076125756 -0.58995676
0.21924402 -0.08603917 -0.11113277 0.13619174 0.50636417 0.47306567 0.4913704 0.27530566
0.245482 0.3314029 -0.26901993 0.26090726 0.040832818 -0.4479305 0.6085274 -0.23570988
0.24802572 -0.22298425 -0.92622524 0.5267263 -0.059398726 0.6157731 0.285665 -0.621974
-0.6739348 -0.16566247 0.02020715 0.031128172 0.5779537 0.74509174 0.010133871 0.1409479
-0.30931243 0.08384411 0.45630273 -0.12602302 0.08835005 0.29222205 -0.020970216 0.40286753
0.52885497 -0.028630031 -0.21439686 0.21580411

final.0.bias f4 [10]
00000000: 7dd9 b83d b7c5 863e 2046 973e 5edd 883e
00000010: 4ede 11be ef21 1ebe 7b6d 793e e9a6 5bbd
00000020: c3c3 633e 764a 903e
0.090258576 0.2632272 0.2954569 0.2673139 -0.14244959 -0.15442632 0.2435817 -0.053625975
0.22242646 0.2818181

final.1.weight f4 [10]
00000000: 358e 9b3f 2e0d 3340 e245 3640 f1c0 d33e
00000010: e154 5f40 d744 1c3f b6c1 3e3f 1073 083f
00000020: 4814 ad3e 5bc7 0a3f
1.2152773 2.7976794 2.8480153 0.4135814 3.4895556 0.6104254 0.7451433 0.5330057
0.33804536 0.5421044

final.1.bias f4 [10]
00000000: 01c1 7abe 16bc ad3f 5842 0040 e542 22bf
00000010: f60f f83f 4a0e 15bf 29b7 c4be 7feb 28bf
00000020: 8f29 18bf dec6 09bf
-0.24487688 1.3573024 2.0040493 -0.6338332 1.9379871 -0.5822493 -0.3842099 -0.6598434
-0.59438413 -0.5381907

final.1.running_mean f4 [10]
00000000: 8898 b13e 8c4f 44bf 95b3 003e 3599 1d3f
00000010: 1f09 553f f07d 55be 96f8 f53e b64d 8abe
00000020: 0bdc 903e fc2a 0d3f
0.34686685 -0.7668388 0.12568505 0.615619 0.8321704 -0.20848823 0.4804122 -0.27012414
0.2829288 0.55143714

final.1.running_var f4 [10]
00000000: 23a1 493f e0f1 823f f4d5 c73f 2e46 b63f
00000010: cc3d ba40 6e40 3b3f b6c8 153f 67d5 853f
00000020: 5e3c 963f 1c90 393f
0.787615 1.0230064 1.5612168 1.4240167 5.8200436 0.73145187 0.58509386 1.045575
1.1737173 0.7248552
