消融实验/model_weights_14.pth (torch, 43039 bytes, 24 tensors)

initial.0.weight f4 [20, 3, 3, 3]
-0.56446624 -0.61959046 -0.5836125 -0.4182123 -0.3921591 -0.52766955 -0.53332156 0.39110538
-0.53724116 -0.42650843 -0.7457866 -0.40317485 -0.37135655 -0.24984741 -0.48247623 -0.39318985
0.5776675 -0.73395264 -0.5831603 -0.5375731 -0.29916048 -0.569705 -0.64440703 -0.43007213
-0.4822518 0.4976567 -0.48800948 -0.49690408 -0.3692348 -0.58498836 -0.5898329 0.54090387
-0.3979832 -0.575911 -0.29370847 -0.41255927 -0.5384225 -0.5751613 -0.6996576 -0.6803638
0.40306726 -0.40674543 -0.5282038 -0.44696116 -0.22053137 -0.16621336 -0.45802328 -0.6675265
-0.5894861 0.632888 -0.24527878 -0.56087524 -0.47679204 -0.374005 0.3964968 0.50317645
0.29337427 0.63090813 0.32866645 0.50539386 0.64415085 0.5293781 -0.46380025 0.44174346
0.63301903 0.49204847 0.5489993 0.60239047 0.5417697 0.5205786 0.4117664 -0.60798705
0.5486752 0.54191166 0.2609621 0.63092256 0.29792327 0.44584012 0.48323613 0.42004877
-0.39102554 -0.4833646 -0.55067605 -0.4855818 -0.55954015 -0.5260093 -0.3283123 -0.39279574
-0.7323528 -0.4850769 -0.5631431 -0.39015722 -0.47830716 -0.4640534 -0.53402805 -0.5794099
-0.44694087 -0.5911815 -0.6568412 -0.31623387 -0.46267334 -0.49095652 -0.5827947 -0.526114
-0.49933407 -0.4992628 -0.42237997 -0.493748 -0.4194531 -0.51077807 -0.6959954 -0.42653495
-0.62825084 -0.4558105 -0.46513125 -0.44977018 -0.64812726 -0.48747098 -0.4908932 -0.60201746
-0.51048374 -0.559169 -0.49626628 -0.40678984 -0.451361 -0.50033 -0.32182938 -0.47494596
-0.5634711 -0.517867 -0.2609571 -0.58038926 -0.5660617 -0.4981594 -0.54758394 0.52575535
0.6276176 0.6342995 0.5452681 0.56043464 0.6172314 0.6582317 0.42519036 0.35843298
0.5010718 0.6003026 0.5601745 0.53219783 0.5019956 0.59987855 0.35037225 0.5322003
0.3400208 0.45359188 0.5119652 0.30867192 0.56206614 0.60590696 0.60442686 0.57313895
0.47175682 0.48374066 -0.4433788 -0.4910926 -0.5069064 -0.4262312 -0.6239944 -0.5169925
-0.65374315 -0.5419009 -0.56158537 -0.6040381 -0.47412202 -0.45235437 -0.62844086 -0.46128273
-0.39140502 -0.54098976 -0.3779891 -0.49238443 -0.72614807 -0.5206107 -0.57535905 -0.32874894
-0.48567346 -0.4199294 -0.3635125 -0.50381774 -0.4751713 -0.43501806 -0.54841805 0.39623612
-0.5579409 0.55483896 0.6163235 -0.60592467 -0.5171621 0.4745336 -0.40946385 -0.45976037
0.4795203 -0.7755801 0.34640896 0.6522138 -0.56042516 -0.50437444 0.58079076 -0.42874855
-0.35669988 0.6539389 -0.25463384 0.68773127 0.61431235 -0.5110549 -0.53217775 0.5385592
-0.3359713 -0.51086605 0.6465094 -0.5594713 -0.47675127 0.5994753 -0.47586653 -0.56570524
0.54014206 -0.5068264 -0.55631584 0.3263746 -0.6384031 -0.45731077 0.40554562 -0.6731304
-0.5656954 0.5292905 -0.55711085 -0.53661937 0.5052639 -0.36978233 -0.60852575 0.4689911
-0.584569 -0.3957926 0.39972755 -0.50531185 -0.4668996 0.52117217 -0.679884 -0.57507473
0.4102124 -0.67833346 -0.6249793 0.31108227 -0.63935983 -0.5422936 0.3182549 -0.5451181
00000000: dc80 10bf 7b9d 1ebf a167 15bf ec1f d6be
00000010: 14c9 c8be 5a15 07bf c387 08bf f73e c83e
00000020: a388 09bf 505f dabe dfeb 3ebf ef6c cebe
00000030: 7222 bebe 00d8 7fbe 2007 f7be 2e50 c9be
00000040: 04e2 133f 52e4 3bbf fe49 15bf 649e 09bf
00000050: 902b 99be 30d8 11bf dcf7 24bf 6a32 dcbe
00000060: b5e9 f6be dccc fe3e 61dc f9be 366a febe
00000070: 580c bdbe ccc1 15bf 4aff 16bf ad78 0a3f
00000080: 74c4 cbbe e76e 13bf f560 96be f83a d3be
00000090: 0fd6 09bf c53d 13bf c31c 33bf 522c 2ebf
000000a0: d55e ce3e f040 d0be 5d38 07bf 18d8 e4be
000000b0: fad2 61be d633 2abe 0782 eabe 04e3 2abf
000000c0: 90e8 16bf f304 223f 5c2a 7bbe 8595 0fbf
000000d0: 161e f4be 957d bfbe a101 cb3e 2cd0 003f
000000e0: 2735 963e 3283 213f f846 a83e 7e61 013f
000000f0: 12e7 243f 5385 073f 3a77 edbe 332c e23e
00000100: 890d 223f c7ed fb3e 388b 0c3f 4336 1a3f
00000110: 6bb1 0a3f a444 053f 0cd3 d23e 0aa5 1bbf
00000120: fa75 0c3f b9ba 0a3f d39c 853e 2484 213f
00000130: 6689 983e 2845 e43e ba6a f73e a210 d73e
00000140: 8034 c8be 917b f7be 1bf9 0cbf 2d9e f8be
00000150: 063e 0fbf 8ca8 06bf 8d18 a8be 861c c9be
00000160: 797b 3bbf 005c f8be 252a 10bf b0c2 c7be
00000170: ade4 f4be 6898 edbe 10b6 08bf 3554 14bf
00000180: 6fd5 e4be ac57 17bf bf26 28bf 68e9 a1be
00000190: 85e3 ecbe a75e fbbe 0932 15bf 68af 06bf
000001a0: b7a8 ffbe 609f ffbe 3042 d8be 8acc fcbe
000001b0: 8fc2 d6be 5ac2 02bf c12c 32bf ca62 dabe
000001c0: 0cd5 20bf fe5f e9be af25 eebe 4748 e6be
000001d0: abeb 25bf cc95 f9be 5a56 fbbe d11d 1abf
000001e0: 10af 02bf b325 0fbf 9d16 febe c246 d0be
000001f0: ca18 e7be a015 00bf d2c6 a4be 1e2c f3be
00000200: a43f 10bf ef92 04bf 2b9c 85be 6494 14bf
00000210: 6be9 10bf c00e ffbe 762e 0cbf e797 063f
00000220: 8cab 203f 7461 223f b196 0b3f a578 0f3f
00000230: e102 1e3f df81 283f 8db2 d93e 8784 b73e
00000240: 3e46 003f 6ead 193f 9967 0f3f 1e3e 083f
00000250: c982 003f a491 193f fe63 b33e 473e 083f
00000260: 3517 ae3e 323d e83e 2710 033f 3f0a 9e3e
00000270: 91e3 0f3f b81c 1b3f b8bb 1a3f 3cb9 123f
00000280: 1c8a f13e dbac f73e 8c02 e3be 7d70 fbbe
00000290: 9ec4 01bf fa3a dabe 19be 1fbf 9f59 04bf
000002a0: b65b 27bf 04ba 0abf 0fc4 0fbf 3ea2 1abf
000002b0: 1fc0 f2be fe9a e7be 80e1 20bf 402d ecbe
000002c0: 3d66 c8be 4e7e 0abf ca87 c1be d019 fcbe
000002d0: d7e4 39bf be46 05bf bb4a 13bf c851 a8be
000002e0: 31aa f8be fc00 d7be 4f1e babe 33fa 00bf
000002f0: a749 f3be b0ba debe 2065 0cbf 76df ca3e
00000300: 37d5 0ebf ed09 0e3f 60c7 1d3f e11d 1bbf
00000310: bc64 04bf 11f6 f23e 3fa5 d1be b665 ebbe
00000320: af83 f53e 6b8c 46bf 845c b13e 7cf7 263f
00000330: 0678 0fbf af1e 01bf b4ae 143f ee84 dbbe
00000340: 5ea1 b6be 8a68 273f 5e5f 82be 280f 303f
00000350: 9343 1d3f 7ed4 02bf cd3c 08bf 04df 093f
00000360: 6e04 acbe 1ec8 02bf a481 253f 8339 0fbf
00000370: be18 f4be 3777 193f c7a4 f3be 0fd2 10bf
00000380: c046 0a3f 60bf 01bf b76a 0ebf 921a a73e
00000390: 636e 23bf a324 eabe ada3 cf3e 4652 2cbf
000003a0: 6ad1 10bf 957f 073f d19e 0ebf e35f 09bf
000003b0: fa58 013f 1c54 bdbe 58c8 1bbf 9a1f f03e
000003c0: 50a6 15bf 54a5 cabe 17a9 cc3e 1e5c 01bf
000003d0: 770d efbe 8a6b 053f e10c 2ebf 1938 13bf
000003e0: 5c07 d23e 43a7 2dbf a5fe 1fbf 2d46 9f3e
000003f0: 16ad 23bf c1d3 0abf 4ef2 a23e dc8c 0bbf

initial.0.bias f4 [20]
-0.5691682 0.13941006 -0.62419415 0.4844156 -0.4370192 0.46081117 -0.15508017 -0.47084758
-0.4315455 0.3767833 -0.53954613 0.47172624 -0.4689539 0.34243983 -0.34050596 0.66615736
0.0154540455 -0.6316023 -0.35618907 0.39282036
00000000: 02b5 11bf 83c1 0e3e 30cb 1fbf 5205 f83e
00000010: fbc0 dfbe 71ef eb3e 56cd 1ebe ef12 f1be
00000020: 88f3 dcbe bee9 c03e b21f 0abf 1a86 f13e
00000030: ba1a f0be 4654 af3e cc56 aebe 4a89 2a3f
00000040: f732 7d3c b0b0 21bf 6a5e b6be c01f c93e

initial.1.weight f4 [20]
0.50000024 0.50000024 0.5000004 0.50000024 0.5000007 1.4999999 0.5000007 0.50000036
1.4999998 1.499999 1.4999998 1.4999977 0.5000007 0.50000024 1.4999983 1.4999999
1.4999995 0.5000004 0.5000037 1.4999996
00000000: 0400 003f 0400 003f 0700 003f 0400 003f
00000010: 0c00 003f ffff bf3f 0c00 003f 0600 003f
00000020: feff bf3f f8ff bf3f feff bf3f edff bf3f
00000030: 0c00 003f 0400 003f f2ff bf3f ffff bf3f
00000040: fcff bf3f 0700 003f 3e00 003f fdff bf3f

initial.1.bias f4 [20]
-0.49999925 -0.49999976 -0.49999928 0.49999952 -0.4999985 0.4999998 -0.4999994 0.49999863
0.4999998 0.49999875 -0.4999991 -0.49999937 -0.49999976 -0.49999958 0.4999997 0.49999982
0.4999994 -0.49999908 -0.4999979 0.49999195
00000000: e7ff ffbe f8ff ffbe e8ff ffbe f0ff ff3e
00000010: ceff ffbe f9ff ff3e ecff ffbe d2ff ff3e
00000020: f9ff ff3e d6ff ff3e e2ff ffbe ebff ffbe
00000030: f8ff ffbe f2ff ffbe f6ff ff3e faff ff3e
00000040: ecff ff3e e1ff ffbe baff ffbe f2fe ff3e

initial.1.running_mean f4 [20]
-0.01149006 0.03781114 -0.035584867 -0.0022411374 -0.0006214787 0.03845143 -0.0034771431 0.042114746
-0.03279566 -0.053043336 0.022880746 -0.021621566 0.0013942069 -0.04938904 0.0029344466 0.03587576
-0.07010367 -0.04053312 -0.09333036 0.034887634
00000000: ce40 3cbc dbdf 1a3d 70c1 11bd 0ce0 12bb
00000010: bbea 22ba 3f7f 1d3d c8e0 63bb 8380 2c3d
00000020: be54 06bd f843 59bd 6770 bb3c b61f b1bc
00000030: d2bd b63a 294c 4abd d84f 403b 76f2 123d
00000040: 8392 8fbd 0f06 26bd fd23 bfbd 56e6 0e3d

initial.1.running_var f4 [20]
0.9000687 0.9031206 0.90063417 0.90004873 0.900096 0.90174717 0.90006673 0.9023658
0.9011673 0.90370405 0.9011395 0.90131986 0.9000896 0.9020134 0.90018433 0.9004759
0.90526414 0.90067714 0.90693736 0.9019679
00000000: e76a 663f e932 673f f68f 663f 9869 663f
00000010: b16c 663f e7d8 663f c66a 663f 7201 673f
00000020: e6b2 663f 2659 673f 14b1 663f e6bc 663f
00000030: 466c 663f 5aea 663f 7b72 663f 9785 663f
00000040: 64bf 673f c792 663f 0c2d 683f 5ee7 663f

res_blocks.0.conv.0.weight f4 [20, 20, 3, 3]
-0.30484486 -0.56555426 -0.50961256 -0.46228334 -0.63987625 0.46991807 0.4172339 0.3658699
-0.6090965 -0.40104574 -0.4513049 -0.5273069 -0.6790601 -0.62273484 -0.43607706 -0.40035897
-0.43092436 -0.4776979 0.3937978 -0.47427315 0.3000132 0.49729937 0.5608114 0.5331925
0.30349588 0.5001913 0.82114327 0.63993216 -0.43711117 -0.4099568 0.4344483 0.49914476
-0.5053459 -0.1596004 0.42793453 0.44172055 -0.41816467 -0.47562692 -0.36756882 -0.3925335
-0.58680093 -0.40870062 -0.5232389 -0.512982 -0.5909705 -0.63792133 -0.567562 -0.56638944
-0.5841928 -0.65278983 -0.5259446 -0.51482433 -0.6022155 -0.58519715 0.63209987 -0.31035018
0.45657337 0.36844477 0.36190423 0.3981639 0.41250128 0.5236588 0.46897575 -0.44536492
-0.62385386 -0.43994796 -0.40417683 -0.482811 -0.45494452 -0.52687997 -0.34685 -0.54241896
0.53398216 0.73430896 0.39870656 0.3079186 0.48110208 0.622274 0.51932955 0.46055892
0.4956499 0.58826214 0.5595264 0.5431496 0.6036778 0.5193645 0.50946736 0.60402954
0.6387368 0.33390725 -0.52655625 -0.5980358 -0.60722226 -0.38158154 -0.49078012 -0.471101
-0.62194383 -0.436268 -0.31780592 0.38185394 0.6107964 0.41926578 0.46494702 0.58550304
0.70483214 0.32572588 0.57843363 0.58674836 -0.614404 -0.5474881 -0.39955395 -0.4697006
-0.5971936 -0.66724646 -0.28587806 -0.40139294 -0.56064206 0.3135033 0.4919086 0.565338
0.22996879 0.49969578 0.55605286 0.5300967 0.4036501 0.5789403 -0.5437972 -0.39148208
-0.46355143 -0.5627616 -0.38330388 -0.45401302 -0.5888766 -0.42932856 -0.5068837 -0.64369625
-0.42467067 -0.44526348 -0.3328613 -0.63877445 -0.55193 -0.56219536 -0.49327058 -0.41498846
0.38436925 0.3367957 0.5276468 0.6667635 0.602865 0.5025725 0.42743728 0.5951323
0.5992994 0.670254 0.5465223 0.5008802 0.5062945 0.46632364 0.32631725 0.44594193
0.4695372 0.268086 0.8802607 0.49828523 0.5852871 0.3219201 0.5656328 0.48579258
0.45159417 0.4157525 0.34790364 -0.45149338 -0.6195983 -0.4943657 -0.5482134 -0.56872
-0.6103418 -0.62183553 -0.5069658 -0.3246665 -0.3400798 -0.5282936 -0.46851268 -0.62040323
-0.50604063 -0.554566 -0.5420699 -0.5823336 -0.4591322 0.3222284 0.54843706 0.3188385
0.58473134 0.60849696 0.53296524 0.45525485 0.37153074 0.59194535 -0.6833418 -0.4684514
-0.64476347 -0.5146715 -0.55080324 -0.372494 -0.36609322 -0.53451866 -0.42101192 -0.44820428
-0.532303 -0.6132858 -0.42951128 -0.604081 -0.6985253 -0.55604124 -0.65533996 -0.45305943
-0.52303386 -0.41046196 -0.5560798 -0.50986433 -0.6025573 -0.687701 -0.6133147 -0.42987943
-0.41250652 0.57263625 0.45880863 0.5126612 0.40491873 0.23567003 0.5658002 0.6497771
0.5075314 0.54275006 -0.613917 -0.39548093 -0.41459382 -0.429202 -0.44338533 -0.65648794
-0.51175636 -0.4626736 -0.6226912 0.37880406 0.35799766 0.30193073 0.40884534 0.41044512
0.54561263 0.45730543 0.28701192 0.3613676 -0.44203013 -0.42154813 -0.31050795 -0.47657257
00000000: a014 9cbe 2ac8 10bf f875 02bf 67b0 ecbe
00000010: eece 23bf 1a99 f03e af9f d53e 4d53 bb3e
00000020: c0ed 1bbf de55 cdbe 7011 e7be 96fd 06bf
00000030: e2d6 2dbf 8d6b 1fbf 7e45 dfbe dafb ccbe
00000040: 1ea2 dcbe d294 f4be de9f c93e eed3 f2be
00000050: 559b 993e 069e fe3e 5691 0f3f 4e7f 083f
00000060: d063 9b3e 890c 003f 7236 523f 98d2 233f
00000070: 09cd dfbe dce5 d1be 0270 de3e e78f ff3e
00000080: 595e 01bf 4a6e 23be 3c1a db3e 3229 e23e
00000090: ae19 d6be 5f85 f3be fb31 bcbe 27fa c8be
000000a0: 9638 16bf 3541 d1be fcf2 05bf ca52 03bf
000000b0: d849 17bf d04e 23bf be4b 11bf e6fe 10bf
000000c0: a98d 15bf 3c1d 27bf 4ea4 06bf 87cb 03bf
000000d0: cc2a 1abf 7bcf 15bf 4cd1 213f 38e6 9ebe
000000e0: fcc3 e93e cba4 bc3e 834b b93e 24dc cb3e
000000f0: 5e33 d33e 810e 063f 971d f03e df06 e4be
00000100: e3b4 1fbf dc40 e1be 44f0 cebe 0133 f7be
00000110: 7dee e8be 9be1 06bf 5396 b1be f8db 0abf
00000120: 0eb3 083f acfb 3b3f 4423 cc3e 82a7 9d3e
00000130: 0353 f63e 594d 1f3f c8f2 043f 61ce eb3e
00000140: d3c5 fd3e 5998 163f 1f3d 0f3f da0b 0b3f
00000150: a18a 1a3f 12f5 043f 746c 023f aea1 1a3f
00000160: 4184 233f e4f5 aa3e 64cc 06bf e018 19bf
00000170: eb72 1bbf a85e c3be 8847 fbbe 2634 f1be
00000180: b637 1fbf 855e dfbe 75b7 a2be 5c82 c33e
00000190: 275d 1c3f 01aa d63e 890d ee3e 87e3 153f
000001a0: e16f 343f 8bc5 a63e 3a14 143f 2435 163f
000001b0: 9549 1dbf 2e28 0cbf 5692 ccbe 997c f0be
000001c0: aee1 18bf aad0 2abf 9c5e 92be 6083 cdbe
000001d0: 3d86 0fbf 8183 a03e 72db fb3e feb9 103f
000001e0: f07c 6b3e 20d8 ff3e 7b59 0e3f 6bb4 073f
000001f0: 3aab ce3e 6e35 143f 4b36 0bbf 5770 c8be
00000200: 9d56 edbe 2511 10bf 6840 c4be 6574 e8be
00000210: 9ec0 16bf f4d0 dbbe 21c3 01bf 47c9 24bf
00000220: 6f6e d9be 93f9 e3be cc6c aabe b986 23bf
00000230: 494b 0dbf 09ec 0fbf f68d fcbe 5e79 d4be
00000240: 0ccc c43e 7c70 ac3e dc13 073f 03b1 2a3f
00000250: 5c55 1a3f 97a8 003f 0fd9 da3e 975a 183f
00000260: af6b 193f c495 2b3f e3e8 0b3f af39 003f
00000270: 849c 013f f9c1 ee3e 0e13 a73e 8052 e43e
00000280: 2e67 f03e 9142 893e c458 613f 3e1f ff3e
00000290: 60d5 153f b6d2 a43e 50cd 103f ceb9 f83e
000002a0: 5a37 e73e 83dd d43e 6d20 b23e 242a e7be
000002b0: ff9d 1ebf 801d fdbe b757 0cbf a297 11bf
000002c0: 5c3f 1cbf 9d30 1fbf 83c8 01bf b03a a6be
000002d0: f11e aebe 403e 07bf e5e0 efbe bfd2 1ebf
000002e0: e18b 01bf 0af8 0dbf 18c5 0abf d113 15bf
000002f0: 6013 ebbe 1ffb a43e 5f66 0c3f cd3e a33e
00000300: f4b0 153f 75c6 1b3f 6970 083f 2a17 e93e
00000310: 4739 be3e bb89 173f 7def 2ebf ddd8 efbe
00000320: 380f 25bf 83c1 03bf 7101 0dbf 89b7 bebe
00000330: 9270 bbbe 37d6 08bf e08e d7be 087b e5be
00000340: 0245 08bf 4c00 1dbf e7e8 dbbe 0da5 1abf
00000350: 8ed2 32bf b858 0ebf 5cc4 27bf 68f7 e7be
00000360: 8ce5 05bf 1228 d2be 3f5b 0ebf 7886 02bf
00000370: 3241 1abf 2c0d 30bf 3102 1dbf 2819 dcbe
00000380: 0e34 d3be 4a98 123f f7e8 ea3e c43d 033f
00000390: 8251 cf3e 7c53 713e 48d8 103f cb57 263f
000003a0: 94ed 013f abf1 0a3f aa29 1dbf 7a7c cabe
000003b0: a445 d4be 5dc0 dbbe 6703 e3be 980f 28bf
000003c0: 7702 03bf 8ee3 ecbe b168 1fbf 9bf2 c13e
000003d0: 784b b73e aa96 9a3e 2d54 d13e dd25 d23e
000003e0: 45ad 0b3f f023 ea3e 3af3 923e 2d05 b93e
000003f0: c651 e2be 28d5 d7be e6fa 9ebe 5201 f4be

res_blocks.0.conv.0.bias f4 [20]
0.3922127 -0.13363902 -0.13016184 0.25137118 -0.3994478 -0.33644924 0.062768556 -0.03389938
-0.20355967 0.089500695 0.10343589 0.069165885 0.5216516 0.3852077 0.16433623 0.12845328
-0.09867789 0.22419545 -0.19012484 -0.02606991
00000000: 1ad0 c83e abd8 08be 2549 05be b9b3 803e
00000010: 6c84 ccbe 1343 acbe cd8c 803d 14da 0abd
00000020: f271 50be 244c b73d 32d6 d33d d8a6 8d3d
00000030: f68a 053f f239 c53e c247 283e 4289 033e
00000040: a217 cabd 7e93 653e 16b0 42be 9090 d5bc

res_blocks.0.conv.1.weight f4 [20]
1.4999987 0.50000036 0.50000226 0.5000004 1.4999998 0.5000004 1.4999986 1.4999977
0.5000004 0.5000008 1.4999974 0.50000036 0.50000066 0.50000083 1.4999998 0.500001
1.4999998 1.4999998 0.50000054 1.4999976
00000000: f5ff bf3f 0600 003f 2600 003f 0700 003f
00000010: feff bf3f 0700 003f f4ff bf3f edff bf3f
00000020: 0700 003f 0d00 003f eaff bf3f 0600 003f
00000030: 0b00 003f 0e00 003f feff bf3f 1100 003f
00000040: feff bf3f feff bf3f 0900 003f ecff bf3f

res_blocks.0.conv.1.bias f4 [20]
0.4999998 0.49999785 -0.49998578 -0.499999 0.4999998 -0.49999976 -0.499986 0.49999946
-0.49999923 -0.49999905 0.4999987 -0.4999992 0.49999928 -0.49999887 0.49999875 0.499998
0.4999998 -0.4999989 -0.4999994 0.4999989
00000000: f9ff ff3e b8ff ff3e 23fe ffbe deff ffbe
00000010: f9ff ff3e f8ff ffbe 2afe ffbe eeff ff3e
00000020: e6ff ffbe e0ff ffbe d4ff ff3e e5ff ffbe
00000030: e8ff ff3e daff ffbe d6ff ff3e bdff ff3e
00000040: f9ff ff3e dbff ffbe ecff ffbe dbff ff3e

res_blocks.0.conv.1.running_mean f4 [20]
-0.01709578 -0.089373246 0.018315824 0.0022143405 -0.033865284 0.008520366 0.016159296 -0.013605294
0.019740483 0.013392026 -0.05268051 0.069499545 0.019171106 -0.036511585 -0.0917434 0.050215807
0.11119741 0.046813197 -0.051564213 -0.010870325
00000000: 730c 8cbc 5209 b7bd 110b 963c 781e 113b
00000010: 53b6 0abd 0199 0b3c 8060 843c bde8 5ebc
00000020: cbb6 a13c 3a6a 5b3c 85c7 57bd c755 8e3d
00000030: b90c 9d3c 2c8d 15bd f7e3 bbbd 17af 4d3d
00000040: 78bb e33d 32bf 3f3d ff34 53bd 7319 32bc

res_blocks.0.conv.1.running_var f4 [20]
0.94182336 0.9348585 0.930609 0.957248 0.9775769 0.94158524 1.0405381 1.1385432
0.9662921 0.9514187 0.9635827 0.9353925 0.9215792 0.9260926 0.94250774 1.2067304
0.93778056 1.0071288 0.9319785 0.9494433
00000000: 561b 713f e352 6f3f 643c 6e3f 340e 753f
00000010: 7b42 7a3f bb0b 713f 5a30 853f c9bb 913f
00000020: eb5e 773f 2d90 733f 5bad 763f e275 6f3f
00000030: 9dec 6b3f 6814 6d3f 3048 713f 2476 9a3f
00000040: 6312 703f 99e9 803f 2596 6e3f b70e 733f

res_blocks.0.conv.3.weight f4 [20, 20, 3, 3]
0.48900023 0.6644854 -0.3455961 0.43721998 0.5481464 -0.5068697 -0.49527648 -0.44586074
-0.5912709 -0.44101468 -0.2595427 -0.32117978 -0.6015598 -0.42730218 -0.4739343 -0.4761434
-0.61791897 -0.5389547 0.6226078 0.4814343 0.5004854 0.4590327 0.5832052 0.49208874
0.5783799 0.44210634 0.6635165 -0.5342317 -0.39714003 0.34110692 0.50672495 -0.455798
-0.43677622 -0.43359384 -0.5224917 -0.521674 0.5564108 0.5490046 0.3624326 0.5363358
0.44996563 0.48047704 0.61322796 0.37034714 0.4494707 0.55286145 -0.36322537 -0.36900944
0.49012315 0.5034714 0.6476321 0.6189722 0.38966072 0.6056825 -0.47448295 0.69854176
0.4499856 -0.41237763 0.34811208 -0.67861706 -0.6066642 -0.43696976 -0.3989904 0.6563292
0.32999694 0.58520633 0.5260072 0.5183391 0.5857937 0.6290123 0.37887383 0.3945266
-0.475799 -0.6261436 -0.66871977 -0.4937689 -0.55591846 -0.45030612 -0.35739365 -0.4252169
-0.501808 0.39087185 -0.5878632 0.49101537 -0.44544876 -0.39619416 -0.56585735 0.5098802
-0.56714565 -0.4925213 0.2692989 -0.4147413 -0.54765344 0.45412055 -0.4069609 -0.4762183
0.4462294 0.5568888 -0.69004947 -0.59811115 -0.3670711 -0.51655585 -0.44118008 -0.59858686
-0.5340668 0.390194 -0.43435836 -0.28835398 0.5405413 0.47004694 -0.37484348 0.27312124
0.4578097 0.53194094 0.461175 0.50056934 0.42130947 -0.6099021 -0.5449724 -0.46130782
-0.5776597 -0.5533042 -0.55149007 -0.6765958 -0.70152736 -0.4775684 -0.57937145 -0.5100381
-0.59189516 -0.64363825 -0.5995377 -0.5461195 -0.45612276 -0.5211173 -0.64284 -0.4502552
0.4802941 0.51771086 0.51300305 0.5762319 0.43764386 -0.5384408 -0.5503231 0.40885192
0.56558967 0.49012607 0.45471615 0.55041385 0.51033646 0.5054002 0.66459364 0.44482803
0.52992016 0.7341998 0.41097403 0.31122833 0.38649988 0.76004505 0.23069564 0.5056062
0.47867605 0.5299674 -0.45174336 -0.43267134 -0.45946142 -0.42285836 -0.5129946 -0.48490676
-0.55376256 -0.7441765 -0.50201696 -0.4091284 -0.61041147 -0.5230034 -0.6122927 -0.46465158
-0.5260796 -0.6265756 -0.41510642 -0.46504125 -0.4929894 -0.65938747 -0.36766618 -0.34904146
-0.6164062 -0.63662934 -0.36596507 -0.5932842 -0.42491663 -0.52666724 -0.5275668 -0.5824879
-0.5575942 -0.44774705 -0.5129534 -0.50376886 -0.5504776 -0.6688542 0.46634623 0.5716151
0.4795892 0.45400044 0.35297197 0.60815376 0.22312987 0.53644776 0.45149103 -0.45159248
-0.46876281 0.50298953 0.5612156 -0.40318936 0.27210355 0.3724963 0.5376835 0.48683038
0.52307105 0.44209546 0.37904748 0.64561355 0.5584516 0.48733824 0.39046174 0.56928885
0.40517956 0.6910263 0.4500063 -0.35421446 0.45735526 0.6610175 -0.47881386 0.52992314
-0.37820572 0.6009983 0.70867807 0.5533744 0.4340738 0.3692351 0.51559806 0.6603026
0.51323575 0.46854433 0.42823473 0.6048123 0.4547764 0.3366449 0.41522 0.4541993
0.4231731 0.47057235 0.50187016 0.32807556 -0.46621847 -0.6014645 -0.618904 -0.34828714
00000000: 3d5e fa3e b71b 2a3f f9f1 b0be 4cdb df3e
00000010: 5353 0c3f 36c2 01bf e194 fdbe dc47 e4be
00000020: 885d 17bf adcc e1be c8e2 84be ad71 a4be
00000030: d3ff 19bf 5ac7 dabe 84a7 f2be 11c9 f3be
00000040: f02f 1ebf eff8 09bf 3a63 1f3f 8e7e f63e
00000050: d01f 003f 5606 eb3e f04c 153f 0ef3 fb3e
00000060: b510 143f c35b e23e 38dc 293f 69c3 08bf
00000070: f055 cbbe 91a5 ae3e bab8 013f 5b5e e9be
00000080: 22a1 dfbe 0300 debe 04c2 05bf 6d8c 05bf
00000090: f070 0e3f 918b 0c3f c490 b93e 4e4d 093f
000000a0: e561 e63e 1601 f63e 82fc 1c3f 249e bd3e
000000b0: 0621 e63e 5488 0d3f adf8 b9be ceee bcbe
000000c0: 6cf1 fa3e 80e3 003f 38cb 253f f674 1e3f
000000d0: 9c81 c73e 020e 1b3f 6eef f2be a2d3 323f
000000e0: 8364 e63e 2923 d3be bf3b b23e d9b9 2dbf
000000f0: 584e 1bbf 80ba dfbe 7848 ccbe 3105 283f
00000100: 5cf5 a83e 15d0 153f 68a8 063f dfb1 043f
00000110: 93f6 153f f306 213f c0fb c13e 64ff c93e
00000120: ed9b f3be f24a 20bf 3831 2bbf 47cf fcbe
00000130: ac50 0ebf 868e e6be 4dfc b6be 08b6 d9be
00000140: 7d76 00bf 5b20 c83e 347e 16bf 5e66 fb3e
00000150: dc11 e4be f6d9 cabe 07dc 10bf 8287 023f
00000160: 7530 11bf c02b fcbe 8ce1 893e f958 d4be
00000170: 0433 0cbf 7d82 e83e 2e5d d0be e3d2 f3be
00000180: 2e78 e43e 4490 0e3f 15a7 30bf d01d 19bf
00000190: bef0 bbbe 013d 04bf 5be2 e1be fd3c 19bf
000001a0: 9ab8 08bf 82c7 c73e 3864 debe 22a3 93be
000001b0: ea60 0a3f fea9 f03e 7ceb bfbe 8cd6 8b3e
000001c0: 0866 ea3e 482d 083f 211f ec3e 5025 003f
000001d0: e0b5 d73e 8b22 1cbf 5083 0bbf 8a30 ecbe
000001e0: 82e1 13bf 58a5 0dbf 742e 0dbf 6235 2dbf
000001f0: 4c97 33bf d883 f4be b051 14bf db91 02bf
00000200: 7186 17bf 7ac5 24bf 4d7b 19bf 7dce 0bbf
00000210: ec88 e9be f267 05bf 2a91 24bf d987 e6be
00000220: 1ce9 f53e b388 043f 2b54 033f ef83 133f
00000230: db12 e03e 42d7 09bf fae1 0cbf 0a55 d13e
00000240: 7cca 103f cef1 fa3e 8ed0 e83e ece7 0c3f
00000250: 69a5 023f e861 013f cf22 2a3f 80c0 e33e
00000260: d9a8 073f 85f4 3b3f 306b d23e 5259 9f3e
00000270: 50e3 c53e 5092 423f 7a3b 6c3e 686f 013f
00000280: 0715 f53e f2ab 073f e84a e7be 1987 ddbe
00000290: 873e ebbe e480 d8be 9d53 03bf b345 f8be
000002a0: 62c3 0dbf 5a82 3ebf 2f84 00bf 4779 d1be
000002b0: ed43 1cbf 8de3 05bf 37bf 1cbf d0e6 edbe
000002c0: 27ad 06bf 4267 20bf d488 d4be e319 eebe
000002d0: 1b69 fcbe 9ecd 28bf be3e bcbe 90b5 b2be
000002e0: cccc 1dbf 24fa 22bf c65f bbbe 79e1 17bf
000002f0: ac8e d9be aad3 06bf 9e0e 07bf ed1d 15bf
00000300: 7ebe 0ebf 1a3f e5be ea50 03bf fff6 00bf
00000310: 1aec 0cbf 073a 2bbf efc4 ee3e 5e55 123f
00000320: b78c f53e bf72 e83e beb8 b43e f7af 1b3f
00000330: 287c 643e a454 093f d529 e73e 2137 e7be
00000340: ae01 f0be ecc3 003f d3ab 0f3f d66e cebe
00000350: 2851 8b3e d6b7 be3e a0a5 093f d541 f93e
00000360: fce7 053f 565a e23e 8312 c23e ee46 253f
00000370: aff6 0e3f 6684 f93e 9aea c73e eabc 113f
00000380: b273 cf3e 19e7 303f 3a67 e63e 995b b5be
00000390: 782a ea3e 7138 293f 1727 f5be 0ba9 073f
000003a0: 2ea4 c1be 06db 193f ed6b 353f f2a9 0d3f
000003b0: ec3e de3e 620c bd3e 3cfe 033f 9709 293f
000003c0: 6b63 033f 0be5 ef3e 9541 db3e fbd4 1a3f
000003d0: 74d8 e83e b85c ac3e b797 d43e d08c e83e
000003e0: 25aa d83e dcee f03e 907a 003f 85f9 a73e
000003f0: 30b4 eebe 94f9 19bf 7e70 1ebf b152 b2be

res_blocks.0.conv.3.bias f4 [20]
0.09122694 0.13435316 -0.42174911 -0.08148424 -0.02348664 0.21210586 0.41242075 -0.23932531
-0.34124795 0.09256551 0.28531712 -0.0063062846 0.014126969 0.056713134 0.012849484 -0.38452858
-0.32589257 -0.18750353 0.36461496 -0.27392778
00000000: 31d5 ba3d e093 093e 80ef d7be 36e1 a6bd
00000010: 0e67 c0bc 4732 593e d028 d33e b211 75be
00000020: 0db8 aebe fc92 bd3d 1615 923e f3a4 cebb
00000030: cd74 673c 084c 683d a486 523c eee0 c4be
00000040: 64db a6be ed00 40be d0ae ba3e 4340 8cbe

res_blocks.0.conv.4.weight f4 [20]
0.50000125 1.4999821 1.4999989 0.5000016 1.4999903 1.4999845 0.50000143 0.5000061
1.4999995 0.500001 0.5000003 1.4999937 0.5000008 0.50000143 1.4999968 1.4999983
0.50000036 0.5000014 1.4999998 1.4999987
00000000: 1500 003f 6aff bf3f f7ff bf3f 1b00 003f
00000010: afff bf3f 7eff bf3f 1800 003f 6600 003f
00000020: fcff bf3f 1100 003f 0500 003f cbff bf3f
00000030: 0d00 003f 1800 003f e5ff bf3f f2ff bf3f
00000040: 0600 003f 1700 003f feff bf3f f5ff bf3f

res_blocks.0.conv.4.bias f4 [20]
0.49999937 -0.49999472 0.4999997 0.49999756 -0.49999532 0.49999952 -0.49999955 -0.4999843
0.49999955 -0.49998552 0.49999937 -0.49998564 -0.4999985 -0.49999732 0.49999443 0.4999991
0.49999928 0.49999896 -0.49999547 -0.499998
00000000: ebff ff3e 4fff ffbe f6ff ff3e aeff ff3e
00000010: 63ff ffbe f0ff ff3e f1ff ffbe f1fd ffbe
00000020: f1ff ff3e 1afe ffbe ebff ff3e 1efe ffbe
00000030: ceff ffbe a6ff ffbe 45ff ff3e e2ff ff3e
00000040: e8ff ff3e ddff ff3e 68ff ffbe bdff ffbe

res_blocks.0.conv.4.running_mean f4 [20]
-0.015419036 -0.0102638705 0.035656504 -0.018342083 0.0035502792 -0.03587019 0.06029864 -0.0011906608
0.028145028 -0.015964193 0.006713188 -0.026487622 -0.006895499 -0.061752167 -0.04349971 0.025344849
-0.014193657 -0.0049913186 -0.028554395 0.042959284
00000000: 20a0 7cbc cb29 28bc 8e0c 123d 2342 96bc
00000010: cdab 683b 9fec 12bd b5fb 763d f20f 9cba
00000020: 6790 e63c 57c7 82bc 4dfa db3b 92fc d8bc
00000030: a3f3 e1bb d7ef 7cbd c02c 32bd 00a0 cf3c
00000040: 838c 68bc 378e a3bb e8ea e9bc 13f6 2f3d

res_blocks.0.conv.4.running_var f4 [20]
0.96233046 0.98987305 0.9924211 0.93395674 0.9826554 0.9978797 0.942685 0.96530336
1.1461612 0.9483514 0.9470038 1.0416687 0.9550469 0.9821071 0.95161265 0.98138624
0.9552275 0.9615872 1.0815258 0.9376241
00000000: 4a5b 763f 5268 7d3f 4f0f 7e3f ca17 6f3f
00000010: 4e8f 7b3f 0b75 7f3f ce53 713f 1f1e 773f
00000020: 69b5 923f 28c7 723f d76e 723f 6655 853f
00000030: f47d 743f 5f6b 7b3f e39c 733f 213c 7b3f
00000040: ca89 743f 942a 763f 706f 8a3f 2208 703f

final.0.weight f4 [20, 20, 1, 1]
0.21335107 -0.64682114 0.93641084 0.6328955 0.528367 -0.70178306 0.33315468 -0.2699625
0.83759654 0.40713152 -0.53869396 1.0827672 -0.0020586476 -0.4999522 0.41055733 -0.8342977
0.32446894 0.22409424 -0.42648914 0.5540318 0.56920034 0.44406426 -0.9532943 0.40406787
0.5073319 0.70896405 0.2635638 0.57962024 -0.7367681 -0.7333392 -0.9096315 0.89266217
0.12791547 0.37436283 -0.84519416 0.09246973 -0.39744163 -0.9216372 0.38587284 -0.009480178
-0.29117316 0.25497192 -0.6568966 0.19051196 -0.015442885 1.0765586 -0.41817668 0.93567544
-0.6422453 -0.26452953 0.91770756 -0.6414123 0.60980415 -0.6745863 0.2828086 0.41289884
0.031117626 -0.4085479 0.9599203 0.7961544 0.047892474 0.372052 -0.34320307 0.60760665
0.71556437 0.8927169 0.028602041 0.4047017 -1.2444104 -0.3391891 -0.25978932 -0.095387734
0.38104904 -0.896961 0.0946598 0.4859476 0.05017712 -0.39917898 -0.29494345 0.4488722
0.4117415 0.18125597 0.12351861 0.687966 0.9582421 -0.37074113 0.9112882 -0.47024035
0.8122594 1.2113707 -0.24150433 0.599895 0.43370765 0.7790477 0.7072234 0.120088
0.38874817 -0.47173727 -0.14390291 0.58664024 -0.19788203 -0.36759508 0.46251896 -0.63659984
-0.69877905 -0.83535314 0.0042804927 -0.31746373 0.87666845 0.45122066 0.32907727 0.68585247
0.2137371 0.5429788 0.35058925 0.23322806 0.7352344 0.7571262 0.23951809 -0.7731498
0.022126175 -0.658007 -0.4635708 -0.7222615 -0.5817343 -0.20561391 -1.0513355 -0.466291
-0.014339671 0.42878854 -0.46728784 -0.93620706 -0.4405432 0.1516595 -0.5513956 -0.7885721
-0.513419 0.5699829 0.14226344 -0.7593769 -0.2619742 -0.23562121 -0.71684754 -1.0328221
-0.5980828 -0.31525224 -0.32759494 -1.2091285 -0.31195664 -0.6887501 -0.34315068 -0.5070155
-0.3339591 -0.26059067 0.44186428 -0.70635283 0.34044707 -0.46221563 -0.57481366 -0.8065477
-0.78948736 -0.049115576 0.53677714 -0.33910167 -0.8134885 -0.047877416 -0.3994379 0.39588395
-0.28360093 0.8386659 0.6187176 -0.346961 -0.26443228 0.64723474 -0.65843195 -0.5899776
-0.5678665 0.06302855 -0.4764415 0.37969443 -0.08220832 -0.6579304 0.19135797 0.20649767
-0.4141574 1.0081848 -0.21454959 0.26663598 -0.6241889 -0.71832705 -1.0269042 -0.3946833
-0.6128366 -0.5969776 0.033723056 0.48873678 -0.93604475 -1.3597294 -0.45999706 0.1018837
0.022371352 0.82458985 0.45950955 -0.59769344 -0.5897999 0.84261703 -0.5301402 0.26739836
-0.78116506 -0.057978466 0.5921705 -0.30545405 -0.3020284 -0.6178436 -0.7647848 0.610041
-0.31767058 -0.51604843 0.9627913 0.47505116 -0.24073415 0.583869 -0.50996876 -0.47142276
0.4698912 -0.13245243 0.13691606 -0.5580634 -0.43740574 0.4201219 -0.3764589 -0.24045542
0.9843664 -0.8285401 0.35688394 0.53647155 0.45871675 -0.2167401 -0.14073049 0.70814466
0.9971608 0.43548825 -0.31859374 -0.78424793 0.57877254 0.08606351 -0.71030194 -0.45374072
-0.1696994 0.54073507 0.3288073 0.8679745 0.14626959 -0.12741528 0.8151875 0.19858778
00000000: b478 5a3e 1296 25bf 9fb8 6f3f 7105 223f
00000010: 0f43 073f 0ea8 33bf 4093 aa3e 8638 8abe
00000020: ba6c 563f 8b73 d03e d9e7 09bf 1e98 8a3f
00000030: 60ea 06bb bcf9 ffbe 9234 d23e 8994 55bf
00000040: cb20 a63e f678 653e c95c dabe 07d5 0d3f
00000050: 1db7 113f 645c e33e 180b 74bf fce1 ce3e
00000060: 81e0 013f ab7e 353f d6f1 863e fe61 143f
00000070: d69c 3cbf 1ebc 3bbf 9cdd 68bf 8285 643f
00000080: 46fc 023e 7cac bf3e a55e 58bf c560 bd3d
00000090: 787d cbbe 6af0 6bbf 2091 c53e c052 1bbc
000000a0: a614 95be ae8b 823e 602a 28bf 9115 433e
000000b0: 2804 7dbc accc 893f 411b d6be 6d88 6f3f
000000c0: 306a 24bf 6a70 87be e2ee 6a3f 9933 24bf
000000d0: 201c 1c3f b0b1 2cbf 4acc 903e 7a67 d33e
000000e0: 64ea fe3c 312d d1be 56bd 753f c6d0 4b3f
000000f0: e62a 443d 9a7d be3e 50b8 afbe 1c8c 1b3f
00000100: 3a2f 373f 1889 643f d44e ea3c 1035 cf3e
00000110: d748 9fbf 32aa adbe 1b03 85be a55a c3bd
00000120: dc18 c33e 3c9f 65bf ffdc c13d 20ce f83e
00000130: 8686 4d3d 3061 ccbe d402 97be 94d2 e53e
00000140: c8cf d23e 2a9b 393e 53f7 fc3d 8a1e 303f
00000150: 5b4f 753f c8d1 bdbe 2f4a 693f 58c3 f0be
00000160: 3bf0 4f3f 320e 9b3f e94c 77be b892 193f
00000170: ee0e de3e ac6f 473f 980c 353f b3f0 f53d
00000180: 000a c73e 8c87 f1be 495b 13be 0e2e 163f
00000190: 96a1 4abe 6c35 bcbe 49cf ec3e 35f8 22bf
000001a0: 2fe3 32bf b4d9 55bf 6043 8c3b 9b8a a2be
000001b0: 586d 603f 6506 e73e d17c a83e 0794 2f3f
000001c0: e6dd 5a3e a900 0b3f 6f80 b33e 56d3 6e3e
000001d0: 5238 3c3f 06d3 413f 3b44 753e 25ed 45bf
000001e0: f441 b53c 2673 28bf 2759 edbe 21e6 38bf
000001f0: 8aec 14bf 748c 52be 2992 86bf b2bd eebe
00000200: f0f0 6abc 2c8a db3e 5a40 efbe 44ab 6fbf
00000210: e18e e1be a14c 1b3e 4328 0dbf dcdf 49bf
00000220: 6d6f 03bf 66ea 113f 82ad 113e 8666 42bf
00000230: 7b21 86be b046 71be 5283 37bf 8433 84bf
00000240: f41b 19bf be68 a1be 86ba a7be b9c4 9abf
00000250: c8b8 9fbe ed51 30bf 72b1 afbe c5cb 01bf
00000260: b0fc aabe 246c 85be 093c e23e 8ad3 34bf
00000270: 144f ae3e 87a7 ecbe fd26 13bf e979 4ebf
00000280: d81b 4abf 6a2d 49bd 3a6a 093f bc9e adbe
00000290: c840 50bf 1c1b 44bd 2083 ccbe 4db1 ca3e
000002a0: 2434 91be cfb2 563f 4764 1e3f dfa4 b1be
000002b0: ab63 87be 2db1 253f ff8e 28bf c608 17bf
000002c0: b35f 11bf 1d15 813d 24f0 f3be 4f67 c23e
000002d0: d65c a8bd 206e 28bf 58f3 433e 2074 533e
000002e0: 700c d4be 330c 813f e3b2 5bbe 8384 883e
000002f0: d8ca 1fbf 48e4 37bf 9971 83bf ee13 cabe
00000300: dce2 1cbf 86d3 18bf 3021 0a3d b53b fa3e
00000310: a1a0 6fbf 9d0b aebf bc84 ebbe 67a8 d03d
00000320: 2044 b73c 5218 533f d644 eb3e 7002 19bf
00000330: 20fd 16bf c0b5 573f 45b7 07bf 70e8 883e
00000340: 6ffa 47bf d47a 6dbd 7c98 173f 7964 9cbe
00000350: 77a3 9abe 002b 1ebf f0c8 43bf a62b 1c3f
00000360: b8a5 a2be c01b 04bf 7e79 763f e839 f33e
00000370: 0383 76be 7078 153f 508d 02bf 535e f1be
00000380: 9495 f03e 9ca1 07be b933 0c3e 3edd 0ebf
00000390: a5f3 dfbe 381a d73e 39bf c0be f239 76be
000003a0: 70ff 7b3f 341b 54bf 7eb9 b63e 3356 093f
000003b0: ecdc ea3e 1ef1 5dbe a71b 10be f848 353f
000003c0: ee45 7f3f 51f8 de3e b81e a3be 79c4 48bf
000003d0: 702a 143f 1142 b03d 59d6 35bf b450 e8be
000003e0: aec5 2dbe 9d6d 0a3f 6e59 a83e 9433 5e3f
000003f0: b2c7 153e 2779 02be 21b0 503f 985a 4b3e

final.0.bias f4 [20]
-0.4292997 -0.179255 -0.32947564 0.18515079 0.25933123 -0.5716777 -0.17847 -0.12635213
0.37568054 0.54242754 -0.22272515 -0.22775993 -0.14695142 -0.5268596 0.30092335 -0.5778073
0.6019282 -0.43760294 -0.24970868 -0.09527576
00000000: 2ccd dbbe 9f8e 37be 08b1 a8be 2b98 3d3e
00000010: 10c7 843e 7859 12bf d7c0 36be 7462 01be
00000020: 3359 c03e 88dc 0a3f 1012 64be e639 69be
00000030: 6f7a 16be 45e0 06bf a012 9a3e 2eeb 13bf
00000040: f717 1a3f 7e0d e0be a2b3 7fbe f01f c3bd

final.1.weight f4 [20]
1.4999995 1.499997 1.5 0.50000024 0.5000004 1.4999999 1.4999964 1.4999986
1.4999999 1.4999999 1.4999999 0.5000002 0.5000012 0.5000004 0.5000003 0.5000004
0.5000004 0.5000009 0.50000036 1.4999994
00000000: fcff bf3f e7ff bf3f 0000 c03f 0400 003f
00000010: 0700 003f ffff bf3f e2ff bf3f f4ff bf3f
00000020: ffff bf3f ffff bf3f ffff bf3f 0300 003f
00000030: 1400 003f 0700 003f 0500 003f 0700 003f
00000040: 0700 003f 0f00 003f 0600 003f fbff bf3f

final.1.bias f4 [20]
-0.49999976 -0.49999955 0.49999988 -0.4999998 -0.4999998 0.49999982 -0.49999702 -0.49999622
0.49999985 0.49999994 0.49999982 -0.4999998 -0.49999958 -0.49999982 -0.4999998 -0.49999982
-0.49999985 -0.49999964 -0.49999985 -0.4999994
00000000: f8ff ffbe f1ff ffbe fcff ff3e f9ff ffbe
00000010: f9ff ffbe faff ff3e 9cff ffbe 81ff ffbe
00000020: fbff ff3e feff ff3e faff ff3e f9ff ffbe
00000030: f2ff ffbe faff ffbe f9ff ffbe faff ffbe
00000040: fbff ffbe f4ff ffbe fbff ffbe ecff ffbe

final.1.running_mean f4 [20]
-0.05541798 -0.03763849 0.023694491 0.09820684 0.103449784 -0.036661353 -0.0092298 -0.12105625
-0.0003350873 -0.09803981 0.027790505 0.026459781 0.032474842 0.047105797 0.011916543 -0.108444646
0.037276313 0.041414462 -0.0947573 -0.032874774
00000000: f7fd 62bd d12a 1abd f31a c23c ab20 c93d
00000010: 7bdd d33d 372a 16bd 9638 17bc 57ec f7bd
00000020: a8ae afb9 19c9 c8bd eaa8 e33c 2fc2 d83c
00000030: 5704 053d 02f2 403d 9b3d 433c 3a18 debd
00000040: 0caf 183d 36a2 293d 1e10 c2bd b3a7 06bd

final.1.running_var f4 [20]
0.99337304 1.0637982 1.228604 1.0571169 1.0802835 1.1177598 1.0683872 1.0462
1.2454518 1.3174543 0.99873626 0.96254045 1.1420027 0.96219385 1.0037194 1.0711632
0.9481274 0.9852585 1.1265141 1.0530479
00000000: b24d 7e3f 8a2a 883f e542 9d3f 9b4f 873f
00000010: bb46 8a3f c112 8f3f e9c0 883f e2e9 853f
00000020: f76a 9f3f 58a2 a83f 2ead 7f3f 0d69 763f
00000030: 252d 923f 5652 763f e179 803f e01b 893f
00000040: 7ab8 723f e739 7c3f 9d31 903f 46ca 863f
