消融实验/model_weights_6.pth (torch, 43009 bytes, 24 tensors)

initial.0.weight f4 [20, 3, 3, 3]
0	0xbc96d77c	-0.018413298
1	0xbe342714	-0.17593032
2	0xbe58cf35	-0.21172793
3	0xbdbeac0c	-0.09310159
4	0xbe73db69	-0.23814167
5	0xbe787793	-0.24264364
6	0x3d883496	0.06650655
7	0x3cf8e9c7	0.030384911
8	0xbe8c670f	-0.27422377
9	0xbd1ed28a	-0.038775004
10	0xbe117445	-0.1420451
11	0xbeb7c647	-0.3589346
12	0xbe06e194	-0.13171989
13	0xbdc9e431	-0.09857977
14	0xbeb2ef0f	-0.34948012
15	0x3e188d2e	0.14897606
16	0xbdf1ddb5	-0.118098654
17	0xbd83596c	-0.0641354
18	0xbe0e7fce	-0.13915941
19	0xbe86ea5c	-0.26350677
20	0xbe9c3760	-0.30510998
21	0x3d7942fe	0.060854904
22	0xbc9149e8	-0.017735437
23	0xbe7a8ec8	-0.24468529
24	0xbe167cad	-0.14695998
25	0xbe143cfc	-0.14476389
26	0xbe3517f3	-0.17684917
27	0xbea82e18	-0.32847667
28	0xbde1c170	-0.110232234
29	0x3dee3022	0.11630274
30	0xbe7b3f8f	-0.24535964
31	0xbe82bc6e	-0.25534385
32	0x3d21e19d	0.039521802
33	0xbe595518	-0.21223867
34	0xbc1b8c24	-0.009493861
35	0x39daab60	0.00041707885
36	0xbea937be	-0.3305034
37	0xbdd387ba	-0.10328622
38	0xbc99a2fc	-0.018754475
39	0xbe7d3841	-0.2472849
40	0xbde2ae85	-0.11068443
41	0x3dec67db	0.11543246
42	0xbe038846	-0.12844953
43	0xbe0ee844	-0.1395579
44	0x3ddd64d4	0.10810247
45	0xbe4edfeb	-0.20202605
46	0xbe691f40	-0.22765827
47	0xbcc0e7e4	-0.023548074
48	0xbec8d107	-0.39221975
49	0xbd3e7e92	-0.046507426
50	0xbc9a1080	-0.018806696
51	0xbea41169	-0.32044533
52	0xbc99f3f8	-0.018793091
53	0x3df63339	0.12021489
54	0xbdd7d082	-0.105378166
55	0xbea44ce0	-0.320899
56	0xbe6b4aed	-0.229778
57	0xbda2b21e	-0.079441294
58	0xbd9c2e1a	-0.07625981
59	0xbd19f356	-0.03758558
60	0xbe5a007f	-0.21289252
61	0xbe184fbf	-0.1487417
62	0xbdc0095a	-0.09376784
63	0xbb96a324	-0.0045970846
64	0xbde41722	-0.11137225
65	0xbddb1639	-0.10697598
66	0x3d8440e1	0.06457687
67	0xbdccd9f8	-0.10002512
68	0x3d187826	0.037223957
69	0xbdc8e668	-0.098095715
70	0xbd2c786e	-0.04210704
71	0xbe92128f	-0.28529784
72	0xbdfbcc8e	-0.12294875
73	0xbd2bc68a	-0.04193739
74	0xbe153cc0	-0.14573956
75	0xbe65c083	-0.22436719
76	0xbcaa50e2	-0.020790521
77	0xbe376b6c	-0.17912072
78	0x3dbb5629	0.09147293
79	0xbe4f4ee4	-0.20244938
80	0xbd3f413b	-0.046693068
81	0x3faba471	1.3409559
82	0x3fce0fcd	1.6098572
83	0x3f923692	1.1422904
84	0x3fd425ca	1.6574032
85	0x3fb93a85	1.4470984
86	0x3fb24779	1.3928062
87	0x3fb53b3e	1.4158704
88	0x3fbb7b9b	1.4647096
89	0x3fb831b0	1.4390163
90	0x3faec9ae	1.3655298
91	0x3f9c20ed	1.2197548
92	0x3fb47a61	1.4099847
93	0x3fb73baa	1.4315083
94	0x3fa891fa	1.3169549
95	0x3fb6013e	1.4219129
96	0x3fb2b787	1.3962258
97	0x3faa2c4b	1.3294767
98	0x3fba8902	1.4573061
99	0x3fc7a8a1	1.5598336
100	0x3fb1c025	1.3886763
101	0x3fac73f0	1.3472881
102	0x3fa82b5f	1.3138236
103	0x3f9e6c06	1.2376716
104	0x3fb785a2	1.4337656
105	0x3fb60c6e	1.4222543
106	0x3fb0a23f	1.3799514
107	0x3fa2af1e	1.2709692
108	0x3fcdf755	1.6091105
109	0x3ff21db5	1.8915316
110	0x3fdfc56f	1.7482127
111	0x3fefab90	1.8724232
112	0x3fee6101	1.8623353
113	0x3fdd013c	1.7266002
114	0x3ffacccb	1.9593748
115	0x3fc840a3	1.5644726
116	0x3fdadb82	1.7098238
117	0x3fd4f735	1.6637942
118	0x4001eef9	2.0302107
119	0x3ff0b641	1.880562
120	0x3feaef53	1.8354286
121	0x3fe02c59	1.7513534
122	0x3fd60a52	1.67219
123	0x3ff41b23	1.9070781
124	0x3ffe2d04	1.9857488
125	0x3fbd9543	1.4811176
126	0x3fde9e63	1.7392086
127	0x3ffb160a	1.9616101
128	0x3fe06ac0	1.7532578
129	0x3fefa0b9	1.8720924
130	0x3fea145b	1.8287462
131	0x3fd111ca	1.6333554
132	0x3ffb05df	1.9611167
133	0x3fe33000	1.7749023
134	0x3fed50a0	1.854023
135	0x3d1e8092	0.038696833
136	0xbda9f42e	-0.08298527
137	0x3d062904	0.03275396
138	0xbca500de	-0.020142015
139	0x3b4e390f	0.0031467115
140	0x3e147653	0.14498262
141	0xbd003046	-0.031296037
142	0xbc84b887	-0.01620127
143	0xbd91b184	-0.071139365
144	0x3df7b3c3	0.12094834
145	0x3e417952	0.18893936
146	0x3c0dd17a	0.0086559
147	0x3cdb7d5b	0.026793173
148	0x3ddd7a03	0.108142875
149	0x3d9974e9	0.07493002
150	0x3d9497b4	0.072554976
151	0x3c15f619	0.009152913
152	0x3ce0ad74	0.027426459
153	0x3c126c41	0.008936943
154	0x3cce85e1	0.025210323
155	0x3da43d35	0.08019487
156	0x3d23ec70	0.040020406
157	0x3dbf7e5c	0.09350273
158	0x3cabb2cb	0.020959279
159	0x3e0669f3	0.13126354
160	0x3dd98c8b	0.106225096
161	0x3e118757	0.14211784
162	0x3d583554	0.052785233
163	0x3e9db6c1	0.30803493
164	0x3db142eb	0.08655342
165	0x3e10554a	0.14095035
166	0x3e32b393	0.17451315
167	0xbcb1472d	-0.021640385
168	0x3e39c608	0.18141949
169	0x3c00413b	0.007828052
170	0xbd169e15	-0.036771853
171	0xbd9a4734	-0.07533112
172	0x3d1131b4	0.03544779
173	0xbd90fc0b	-0.070793234
174	0xbd24f042	-0.04026819
175	0xbd44e610	-0.048070967
176	0x3e788815	0.24270661
177	0x3e262f05	0.16228874
178	0x3d684008	0.05670169
179	0xbb870cd4	-0.0041214023
180	0x3d934538	0.07190937
181	0xbde99562	-0.11405446
182	0x3e10b7cb	0.14132611
183	0x3da6bee4	0.08141878
184	0x3cbc2d03	0.022970682
185	0x3e2b2960	0.16715002
186	0x3c495fa9	0.012290874
187	0x3df8a9f3	0.1214179
188	0x3abe0bd6	0.0014499377
189	0xbd8508a3	-0.06495788
190	0xbe18b1d6	-0.14911589
191	0xbe344bee	-0.1760709
192	0x3c95b2f6	0.018273812
193	0xbd6f7f91	-0.058471266
194	0xbe44a9ec	-0.19205445
195	0xbe164666	-0.14675292
196	0x3d82cb92	0.06386484
197	0xbdfd5074	-0.12368861
198	0xbe7f6473	-0.24940662
199	0xbdc6bd63	-0.097040914
200	0xbdd00caf	-0.10158669
201	0xbe2d9614	-0.16951782
202	0xbe954d3b	-0.29160485
203	0xbe3b0aee	-0.18265888
204	0xbc805418	-0.015665099
205	0xbe7f7346	-0.24946317
206	0xbe27cc5a	-0.16386548
207	0xbdaad52e	-0.08341442
208	0xbca2afdd	-0.019859249
209	0xbe428b6b	-0.18998496
210	0xbdcdcd7d	-0.100489594
211	0xbe2f897f	-0.17142294
212	0xbd971d8e	-0.07378684
213	0xbdecbd45	-0.11559538
214	0x3d2a7b37	0.041621413
215	0xbdf30358	-0.11865872
216	0x3d416ba6	0.047221802
217	0xbd857a5c	-0.06517479
218	0x3d48c1d2	0.049012966
219	0x3c4b57ce	0.012411071
220	0x3d8874fe	0.066629395
221	0xbd167fa7	-0.036742833
222	0x3e110a93	0.1416419
223	0xbc918b6b	-0.017766675
224	0x3c8319a5	0.01600344
225	0xbc9f148a	-0.019418973
226	0x3e1b5e4a	0.15172687
227	0x3e056c60	0.13029623
228	0x3e14fab2	0.14548758
229	0x3ce5760d	0.028010393
230	0x3d96b3ec	0.07358536
231	0xbda12fba	-0.07870431
232	0x3e05037b	0.12989609
233	0x3e04ccb1	0.12968709
234	0x3cfefffd	0.031127924
235	0x3d0834f9	0.033253644
236	0x39cae1a4	0.00038696558
237	0xbd98728c	-0.07443723
238	0x3d5b4610	0.053533614
239	0x3e091e45	0.13390453
240	0x3b87ce28	0.004144449
241	0xbd59161c	-0.0529996
242	0x3ca86af1	0.020558806
243	0xbe8dfa7f	-0.27730176
244	0xbdec3c94	-0.11534992
245	0xbe2fd6d4	-0.17171794
246	0xbecf24a3	-0.4045764
247	0xbd9fae87	-0.0779696
248	0xbe41402c	-0.18872136
249	0xbe7cf8b0	-0.24704242
250	0xbd3b6e76	-0.04575964
251	0xbe1d8a40	-0.1538477
252	0xbe5403af	-0.2070453
253	0xbe26b4a8	-0.16279852
254	0xbe4bdaa9	-0.19907631
255	0xbd62f84a	-0.05541257

initial.0.bias f4 [20]
0	0x3d54de26	0.05196967
1	0xbe35aaf8	-0.17741
2	0xbd1c7047	-0.038193014
3	0x3e2ff560	0.17183447
4	0x3d9c6b41	0.076376446
5	0x3e0e8c8a	0.13920799
6	0x3d693d4e	0.05694323
7	0x3d8afdb1	0.06786669
8	0x3e09c4dd	0.13454004
9	0x3ce28bad	0.027654493
10	0x3e01ad0b	0.12663667
11	0xbd5dce9b	-0.054152112
12	0xbde10d6a	-0.10988887
13	0x3ddfb635	0.10923425
14	0xbe2238f4	-0.15842038
15	0x3dc95225	0.09830121
16	0xbe2a2d1b	-0.16618769
17	0x3e2e073d	0.16994949
18	0xbcfad5b8	-0.030619487
19	0x3e10e235	0.14148791

initial.1.weight f4 [20]
0	0x3f727c40	0.9472084
1	0x3f7583cc	0.9590423
2	0x3f58498b	0.8448722
3	0x3f715100	0.9426422
4	0x3f531062	0.82446873
5	0x3f83cda3	1.029713
6	0x3f7c873f	0.9864387
7	0x3f79b940	0.97548294
8	0x3f637f39	0.88866
9	0x3f87a58e	1.0597398
10	0x3f5192bb	0.8186452
11	0x3f7b5576	0.9817728
12	0x3f86f410	1.0543232
13	0x3f710277	0.94144386
14	0x3f82d3d1	1.0220891
15	0x3f846762	1.034405
16	0x3f645606	0.8919376
17	0x3fac5361	1.3462945
18	0x3fa5f481	1.2965242
19	0x3f453920	0.7704029

initial.1.bias f4 [20]
0	0xbe1c9fbc	-0.15295309
1	0x3cae6205	0.021286974
2	0xbe1f75f4	-0.1557234
3	0x3d9bb091	0.07602037
4	0x3d833b72	0.06407823
5	0x3e24e1b2	0.16101721
6	0xbc551472	-0.013005363
7	0xbdb24e8d	-0.087063886
8	0x3c378b67	0.01120267
9	0x3d9e3f70	0.077269435
10	0xbdb917a9	-0.09037716
11	0xbe02f670	-0.12789321
12	0x3d83aa6e	0.06428991
13	0xbea20dce	-0.31651157
14	0x3d0d1f66	0.034453772
15	0xbe1abdf7	-0.15111528
16	0xbdca25d5	-0.09870497
17	0x3ed864ba	0.42264348
18	0x3ebc6946	0.36799067
19	0xbe14d29a	-0.14533463

initial.1.running_mean f4 [20]
0	0xbf488e9d	-0.7834261
1	0xbf5bfbdc	-0.8593118
2	0xbf62ae61	-0.8854733
3	0x4134dc94	11.303852
4	0x41679c4f	14.475661
5	0x3ef75e85	0.483143
6	0x3f3b381f	0.7313251
7	0xbf678b30	-0.9044676
8	0x3eebafeb	0.46032652
9	0xbfa872f1	-1.3160077
10	0x3f8b95c8	1.0905085
11	0xbf8e3cfb	-1.111236
12	0xbf371fc1	-0.7153283
13	0xbf3bf712	-0.73423874
14	0x3eb67964	0.3563949
15	0xbee10974	-0.43952525
16	0x40156abf	2.3346403
17	0x3f555f71	0.8334876
18	0x3f55e968	0.83559275
19	0xbf10ac8c	-0.56513286

initial.1.running_var f4 [20]
0	0x3ee38c09	0.44442776
1	0x3ecc51de	0.3990621
2	0x3ed97af6	0.42476624
3	0x41c8e629	25.112383
4	0x42266b25	41.604633
5	0x3e9ea9b4	0.30988848
6	0x3eba5589	0.36393383
7	0x3eeb3d4e	0.4594521
8	0x3e9c652e	0.30545944
9	0x3f206bfe	0.62664783
10	0x3ef591d3	0.47962818
11	0x3f025e76	0.50925386
12	0x3eb64d95	0.35606065
13	0x3ecfaa2c	0.40559518
14	0x3ea3feb2	0.32030255
15	0x3ea8f514	0.3299948
16	0x3fbb8cd2	1.465235
17	0x3ebe2da7	0.37144205
18	0x3ed772bb	0.4207972
19	0x3eb7f04b	0.35925516

res_blocks.0.conv.0.weight f4 [20, 20, 3, 3]
0	0xbe49d226	-0.19709072
1	0xbe39c97f	-0.18143271
2	0xbcf4264c	-0.029803418
3	0xbddca60c	-0.107738584
4	0xbbfff884	-0.007811608
5	0xbe225eb9	-0.15856446
6	0x3d9874d4	0.07444158
7	0x3d62f3e0	0.05540836
8	0xbbbcded7	-0.0057638693
9	0xbda52e2d	-0.08065448
10	0xbd6895f0	-0.056783617
11	0xbd99aa11	-0.07503141
12	0xbd888db4	-0.06667653
13	0xbe22a68c	-0.15883845
14	0xbd4c1cf8	-0.049832314
15	0xbdc65799	-0.09684677
16	0xbacd276a	-0.0015652005
17	0x3e5484c1	0.20753767
18	0xbe44cd4e	-0.19218943
19	0x3cbd8117	0.023132844
20	0xbcad29e8	-0.021138147
21	0x3d70820f	0.058717784
22	0x3ddf08d2	0.10890354
23	0xbde8f8f2	-0.113756076
24	0x3d016e17	0.03159913
25	0xbdbc2e13	-0.091884755
26	0xbcd9a6be	-0.026568767
27	0x3d19c4d4	0.037541226
28	0x3c91697a	0.01775049
29	0x3d7166f6	0.05893608
30	0xbc1c0a9d	-0.009524015
31	0xbde7b25c	-0.11313316
32	0x3db5184e	0.088425264
33	0xbca55edc	-0.020186834
34	0x3ce868de	0.028370317
35	0xbca2ea5e	-0.019887146
36	0x3cdbb268	0.02681847
37	0xbd93fbd4	-0.07225767
38	0x3c9172c0	0.017754912
39	0x3c38213c	0.011238392
40	0x3d86b115	0.065767445
41	0xbdca3ed2	-0.09875263
42	0xbddd509c	-0.10806391
43	0xbb9c1312	-0.0047630155
44	0xbd581697	-0.05275592
45	0xbe0c7886	-0.13717851
46	0x3d3706f7	0.044684377
47	0xbe686186	-0.22693452
48	0x3d51ff32	0.051268764
49	0x3db28455	0.087166466
50	0x3e212452	0.15736511
51	0x3d58792a	0.052849926
52	0x3cd5af74	0.02608464
53	0x3d60f472	0.05492062
54	0x3e327281	0.17426492
55	0x3e5445e6	0.20729789
56	0xbe5b9d40	-0.21446705
57	0x3d8c8b4e	0.06862508
58	0x3d9c63e1	0.07636238
59	0xbca0aad5	-0.019612709
60	0x3e16f4f0	0.14741874
61	0x3cede687	0.029040588
62	0x3e83b019	0.2572029
63	0xbdc93e0d	-0.09826288
64	0xbe1ca765	-0.15298231
65	0xbe0c9c41	-0.13731481
66	0xbd327504	-0.043568626
67	0xbca20d0b	-0.01978161
68	0xbd4eaeb7	-0.05045959
69	0xbde0fe76	-0.109860346
70	0xbd3a28ac	-0.045448944
71	0xbd858a67	-0.06520539
72	0x3d755a9d	0.05990087
73	0x3cb67ee3	0.022277301
74	0xbd8a255a	-0.067454055
75	0x3e296dec	0.16545838
76	0x3ba55fc1	0.005046815
77	0xbd72ffe3	-0.059326064
78	0x3d30650b	0.043065112
79	0x3d937028	0.071991265
80	0x3d76159f	0.060079213
81	0xbd83def8	-0.06439012
82	0x3d4d3a4b	0.05010442
83	0x3df29455	0.11844698
84	0xbc87b8cc	-0.01656761
85	0x3d97ed40	0.07418299
86	0x3d5f11ff	0.05446052
87	0xbe019c6c	-0.12657326
88	0xbd2ecb4c	-0.042674348
89	0x3db9843e	0.09058426
90	0x3ea792d5	0.3272921
91	0xbdff99a8	-0.124804795
92	0x3acfcee7	0.0015854508
93	0xbbaaf1b8	-0.0052168034
94	0x3c83289e	0.016010579
95	0x3de65f0f	0.112486
96	0x3d5546ae	0.05206936
97	0x3d4d578b	0.050132316
98	0x3c0b0af4	0.008486498
99	0xbcefab1b	-0.029256394
100	0x3d79f61b	0.06102572
101	0xbdc9a421	-0.09845758
102	0xbe112401	-0.1417389
103	0xbd7eb6de	-0.062186114
104	0xbb9992fe	-0.0046867123
105	0xbe0aa22d	-0.13538428
106	0x3dba53c5	0.09098009
107	0xbdf0d98c	-0.11760244
108	0x3c868379	0.016420113
109	0xbe264762	-0.16238168
110	0xbd320d00	-0.04346943
111	0xbcbf518b	-0.023354312
112	0x3df4c7bd	0.119521596
113	0xbd383ef5	-0.044981916
114	0x3daf0337	0.08545535
115	0x3e0af14e	0.13568613
116	0x3d7667fb	0.060157757
117	0x3c4b4054	0.012405474
118	0x3ca55997	0.020184321
119	0x3d20f5d2	0.039296933
120	0xbe31ae2a	-0.17351595
121	0x3c942da8	0.018088177
122	0x3d7a0e29	0.06104866
123	0xbe10e571	-0.14150025
124	0xbd86ede7	-0.06588345
125	0xbe150d5a	-0.14555874
126	0xbd7be285	-0.061495323
127	0xbd731b20	-0.05935204
128	0x3e0a31c5	0.13495548
129	0x3aa60782	0.0012667032
130	0x3df00eb8	0.117215574
131	0x3e46b92b	0.19406573
132	0x3e433904	0.19064718
133	0x3dd0d010	0.10195935
134	0xbdf00a4b	-0.11720713
135	0xbdff4462	-0.12464215
136	0xbd96bac2	-0.0735984
137	0x3d2b4bae	0.04182022
138	0xbb7d34d8	-0.0038636234
139	0x3dd285b7	0.1027941
140	0xbd8e1e83	-0.069394134
141	0x3da5d54c	0.08097324
142	0xbd2126cd	-0.039343644
143	0xbd5c1a12	-0.0537358
144	0xbda15401	-0.078773506
145	0x3d6d0f79	0.057876084
146	0x3db91b9b	0.090384685
147	0x3e1411ed	0.14459963
148	0x3d855d11	0.06511892
149	0x3d15559e	0.036458604
150	0x3c6120a4	0.013740692
151	0xbba08589	-0.004898731
152	0x3d86d617	0.06583803
153	0xbde9ff6a	-0.114256695
154	0x3cb2b8ea	0.02181669
155	0x3dc6286a	0.09675677
156	0xbd294a73	-0.041330766
157	0x3c35eebb	0.011104281
158	0xbe3a6531	-0.18202664
159	0x3dbd64e8	0.09247762
160	0xbd5085b1	-0.050908748
161	0x3cfadd77	0.03062318
162	0x3d8d6872	0.06904687
163	0xbd96c2b1	-0.07361353
164	0x3dbe942b	0.093056045
165	0xbd565c80	-0.05233431
166	0x3e07a630	0.13246989
167	0x3ced1c68	0.02894421
168	0x3bd95b08	0.006633166
169	0xbcff86c9	-0.0311922
170	0xbd22caff	-0.039744373
171	0x3e1d2c07	0.15348826
172	0x3cabe8d8	0.020985052
173	0x3d3e76d4	0.046500042
174	0x3bf13b92	0.0073618377
175	0xbe11a234	-0.14222032
176	0x3d275392	0.040851183
177	0x3d2a5a52	0.041590042
178	0xbdb314cd	-0.08744202
179	0x3d99eaa6	0.07515459
180	0x3e3ba462	0.18324426
181	0xbd3d6f87	-0.04624894
182	0x3e0fbd75	0.14037116
183	0x3de26309	0.11054046
184	0x3ce18c4a	0.027532715
185	0x3d895d42	0.06707241
186	0x3d457b6d	0.04821341
187	0x3de676a2	0.11253096
188	0x3d5b2e1a	0.053510763
189	0x3e3c6853	0.18399172
190	0x3cae4819	0.021274613
191	0x3e49fd91	0.19725634
192	0x3d9c874f	0.076429956
193	0x3d778bf6	0.06043621
194	0xbe44d8ae	-0.19223282
195	0x39f5acf0	0.0004685889
196	0x3e17041a	0.14747658
197	0x3d9ee16a	0.07757838
198	0x3e2b32bd	0.16718574
199	0xbde85ec7	-0.11346202
200	0x3d9af56d	0.075663425
201	0x3d2817f8	0.041038483
202	0x3df64b1a	0.12026043
203	0x3e105554	0.1409505
204	0xbd3a7b6a	-0.045527853
205	0xbd80922d	-0.06277881
206	0x3e156fc0	0.1459341
207	0x3caa13e1	0.020761432
208	0xbd00a76a	-0.03140966
209	0xbe13e469	-0.144426
210	0xbdaa4c77	-0.08315366
211	0x3afc612d	0.0019255035
212	0xbdedb3bf	-0.116065495
213	0x3d20f7b4	0.039298728
214	0x3da67fbe	0.08129834
215	0x3d85d9b6	0.06535666
216	0x3d0c1f12	0.03420932
217	0x3d920a12	0.07130827
218	0x3db972f8	0.09055132
219	0xbdef649a	-0.1168911
220	0x3db10074	0.086426646
221	0xbd91e1c2	-0.07123138
222	0x3e02092f	0.12698816
223	0x3c078585	0.00827158
224	0x3c1c6719	0.009546065
225	0xbd269865	-0.04067268
226	0xbd9aff18	-0.075681865
227	0x3cd3a804	0.025836952
228	0xbd0dd922	-0.034630902
229	0x3d43648e	0.04770332
230	0x3df085a9	0.11744244
231	0x3df225de	0.11823629
232	0x3dc7ab0c	0.097494215
233	0xbd222548	-0.039586335
234	0xbdf92350	-0.121649384
235	0xbe2d2b22	-0.16910985
236	0xbdf11784	-0.117720634
237	0x3c4d04dd	0.0125133665
238	0x3d54390c	0.051812217
239	0x3d466232	0.04843349
240	0x3c101a71	0.008795367
241	0xbd04f811	-0.032463137
242	0x3dd9861c	0.106212825
243	0x3d33f414	0.043933943
244	0x3e4f9298	0.20270765
245	0x3e11406c	0.14184731
246	0x3c495b52	0.012289839
247	0x3cc03e8c	0.023467325
248	0xbd8d9b49	-0.06914384
249	0xbd98dacd	-0.07463608
250	0xbd37c93e	-0.044869654
251	0xbdb6e48b	-0.0893031
252	0x3cefae93	0.029258048
253	0xbdbf65b6	-0.09345572
254	0xba5973f2	-0.000829517
255	0xbe497fe4	-0.19677693

res_blocks.0.conv.0.bias f4 [20]
0	0x3c9c2990	0.019062787
1	0xbd879b95	-0.06621472
2	0x3d75c17e	0.05999898
3	0xbd8fea36	-0.07027094
4	0x3d290ba0	0.041270852
5	0x3d8bfaa9	0.06834919
6	0xbc740564	-0.014893863
7	0xbb35c4ee	-0.0027735787
8	0x3d6a767a	0.057241894
9	0x3d172692	0.036902018
10	0x3d1a798d	0.037713576
11	0x3d818962	0.06325032
12	0xbbdaac5a	-0.006673378
13	0x3b50da92	0.003186856
14	0x3c2ecfeb	0.010669689
15	0xbd89630a	-0.06708343
16	0x3d2f34aa	0.042774834
17	0xbd8bcffe	-0.06826781
18	0x3d30fa95	0.043207724
19	0xbd69e2a7	-0.05710092

res_blocks.0.conv.1.weight f4 [20]
0	0x3f9669a4	1.1750989
1	0x3f7915da	0.9729897
2	0x3f8246af	1.0177821
3	0x3f852a16	1.0403469
4	0x3f7931a8	0.97341394
5	0x3f80f87b	1.007583
6	0x3fa6ca28	1.3030443
7	0x3f48abc7	0.7838711
8	0x3f6ec0b1	0.93262774
9	0x3f69fe2a	0.9140345
10	0x3f7b86bd	0.9825247
11	0x3f86ec9b	1.0540956
12	0x3f8eb0d8	1.1147718
13	0x3f5e24e1	0.8677502
14	0x3f4b2a23	0.7936117
15	0x3f80e53f	1.006996
16	0x3f8bf550	1.0934238
17	0x3f93ba07	1.1541146
18	0x3f3a9004	0.72876
19	0x3f851ab7	1.0398778

res_blocks.0.conv.1.bias f4 [20]
0	0x3e2752c4	0.16340166
1	0x3bb57fa8	0.0055388995
2	0x3d9feb01	0.07808495
3	0xbc010ef7	-0.007877103
4	0x3d73e21d	0.05954181
5	0x3d6f249e	0.05838453
6	0x3e6965dd	0.22792764
7	0xbe4cd9b5	-0.20004924
8	0x3d3055f1	0.04305071
9	0xbcd268f8	-0.025684819
10	0x3c83f71f	0.016109047
11	0x3e092aea	0.13395277
12	0x3de07d78	0.10961431
13	0xbd11699c	-0.035501108
14	0xbd4aad93	-0.04948194
15	0x3a1637ec	0.0005730379
16	0x3db20030	0.08691442
17	0xbd60d006	-0.054885887
18	0xbe1e363c	-0.15450376
19	0x3e005886	0.12533769

res_blocks.0.conv.1.running_mean f4 [20]
0	0x3e8573f3	0.26065025
1	0x3de51dff	0.11187362
2	0x3eb89b3a	0.36055928
3	0x3c8a55d3	0.016886627
4	0xbf675ce4	-0.90376115
5	0x3e876b56	0.26449078
6	0xc00893a2	-2.1340108
7	0x3ee5e9ad	0.44904843
8	0x3ef3c0a3	0.47607908
9	0x3e149e82	0.14513591
10	0xbfae562d	-1.3620049
11	0xbfb0377e	-1.3766935
12	0xbfd763f0	-1.6827374
13	0xbe2ef564	-0.17085797
14	0xbf20d215	-0.6282056
15	0x3e565f84	0.20934874
16	0x3f16d793	0.5892269
17	0x3fb4f4cc	1.4137206
18	0x3f5aa57f	0.85408777
19	0xbfad634a	-1.3545926

res_blocks.0.conv.1.running_var f4 [20]
0	0x40580aa4	3.3756495
1	0x4104eaa0	8.3072815
2	0x429f67f5	79.70304
3	0x408ac9d2	4.3371363
4	0x4127f4a5	10.497228
5	0x40e35d97	7.1051745
6	0x40856609	4.1687055
7	0x40622d4d	3.534015
8	0x40de2517	6.9420276
9	0x3ff9d130	1.9516964
10	0x415a7c0c	13.655285
11	0x40961d38	4.6910667
12	0x4030db2e	2.7633777
13	0x40af6abc	5.481779
14	0x41810257	16.126143
15	0x4082b8b1	4.0850453
16	0x40514dd4	3.2703753
17	0x402f3275	2.7374547
18	0x410b698b	8.713267
19	0x40c93067	6.2871585

res_blocks.0.conv.3.weight f4 [20, 20, 3, 3]
0	0x3db50bc0	0.08840132
1	0xbc8593ee	-0.01630589
2	0x3e070d58	0.13188684
3	0x3d378482	0.044804104
4	0x3e36f1d0	0.17865682
5	0x3dc390af	0.095490806
6	0x3bc3bc70	0.0059733912
7	0x3e43499e	0.19071051
8	0x3e068b31	0.13139035
9	0x3cd0f1ec	0.025505982
10	0xbe2402fe	-0.16016766
11	0xbe90e6c2	-0.28301054
12	0xbe4a8c83	-0.19780163
13	0x3d47dc16	0.048793875
14	0xbdf1a623	-0.11799266
15	0xbe3f509d	-0.18683095
16	0xbe1d1a1b	-0.1534199
17	0xbd525214	-0.051347807
18	0x3e0882fe	0.1333122
19	0x3cda08ce	0.026615527
20	0xbcf3de11	-0.029768975
21	0x3e0edc05	0.13951118
22	0xbd628bc7	-0.055309083
23	0xbdaee5c6	-0.085399196
24	0x3e75f67f	0.24019812
25	0x3d977030	0.07394445
26	0x3bbf6ea6	0.0058420477
27	0xbd1bb3dd	-0.038013328
28	0xbd9c0bcd	-0.07619438
29	0xbe031d28	-0.12804091
30	0xbe3dbd37	-0.18529211
31	0xbe53903b	-0.20660488
32	0xbdf0f50a	-0.117654875
33	0xbce0556c	-0.027384482
34	0xbdfbaf69	-0.12289316
35	0xbdf557c5	-0.11979631
36	0x3d9a1a89	0.075245924
37	0x3e20e308	0.15711606
38	0x3d126778	0.035743207
39	0x3d82ed7c	0.06392953
40	0x3e020370	0.12696624
41	0x3e0de303	0.1385613
42	0x3e341436	0.17585835
43	0x3d889211	0.06668485
44	0x3d1abed7	0.037779655
45	0x3ea2bfaf	0.31786868
46	0x3e2900ae	0.16504166
47	0x3e7fb8b3	0.24972801
48	0x3de1a878	0.11018461
49	0x3dbd0665	0.09229735
50	0x3e29a6f3	0.16567592
51	0x3d53e454	0.051731423
52	0x3cb39987	0.021923793
53	0x3e1e46e9	0.15456738
54	0x3dc9eabb	0.098592244
55	0x3e12de8a	0.14342704
56	0xbe0439a1	-0.12912609
57	0xbdd43869	-0.10362322
58	0xbd744c93	-0.05964334
59	0x3d00c37b	0.031436425
60	0xbdeca9f1	-0.11555851
61	0xba2f2e68	-0.0006682635
62	0xbddfaac4	-0.10921243
63	0xbd937917	-0.072008304
64	0xbd474923	-0.048653733
65	0x3d533c66	0.051571272
66	0xbdf78fd1	-0.12087978
67	0xbc781014	-0.015140552
68	0xbd81d83d	-0.06340072
69	0xbdb83146	-0.08993773
70	0x3d73c055	0.059509594
71	0xbd877303	-0.066137336
72	0xbeae462c	-0.34037912
73	0xbe59bb26	-0.21262798
74	0xbe151207	-0.14557658
75	0xbd87e360	-0.06635165
76	0xbd327c5a	-0.043575622
77	0xbdc787f9	-0.097427316
78	0xbe3df403	-0.18550114
79	0xbc26656a	-0.010156015
80	0xbe14f70c	-0.14547366
81	0x3a751b28	0.0009350055
82	0x3cc91939	0.02454816
83	0xbd4fb580	-0.0507102
84	0xbd01ac30	-0.03165835
85	0x3d89545a	0.06705542
86	0x3e1d9c08	0.15391552
87	0x3e16dc74	0.14732534
88	0x3e386084	0.18005568
89	0x3e852a77	0.2600896
90	0xbd3917aa	-0.045188583
91	0xbd8dc323	-0.06921985
92	0x3c792996	0.015207669
93	0x3e2fd5d7	0.17171417
94	0x3db0de2d	0.08636127
95	0xbd0754e1	-0.03303993
96	0x3e388de4	0.18022877
97	0x3d3ba516	0.045811735
98	0x3e003d16	0.12523302
99	0xbdac45ec	-0.08411774
100	0xbc67dd84	-0.0141519345
101	0xbcdd5d3a	-0.027021993
102	0xbd852dd7	-0.06502884
103	0xbe1f987b	-0.1558551
104	0xbccbc55d	-0.024874384
105	0xbd8ac9d8	-0.0677678
106	0xbd9db3a2	-0.07700278
107	0xbe24e7d0	-0.16104054
108	0xbc76c599	-0.015061759
109	0xbdb9632e	-0.0905212
110	0xbc68e6f0	-0.014215216
111	0x3d7a6291	0.061129157
112	0xbdf6077d	-0.12013147
113	0xbdf2382e	-0.11827122
114	0xbd29fe4f	-0.041502293
115	0xbd5938b0	-0.053032577
116	0x3e4b74a6	0.19868717
117	0x3c44cfde	0.01201245
118	0xbdb6a3f9	-0.08917994
119	0xbe123f7c	-0.1428203
120	0xbe28f9ec	-0.16501588
121	0xbd60441c	-0.054752454
122	0x3d3f0cf8	0.046643227
123	0xbd9579d5	-0.07298628
124	0x3dbd1782	0.092329994
125	0xbd90f744	-0.07078412
126	0xbd9236fa	-0.07139392
127	0xbd8f0d5b	-0.06984969
128	0x3a8d7fdc	0.0010795551
129	0x3d3a5f74	0.045501187
130	0xbd55c964	-0.052194014
131	0x3d0ababf	0.0338695
132	0xbe6944f4	-0.2278021
133	0xbe074dda	-0.13213292
134	0xbd3ed41a	-0.046588995
135	0xbe31a251	-0.17347075
136	0xbe113e95	-0.1418403
137	0xbe0b83d0	-0.13624501
138	0xbe821138	-0.25403762
139	0xbe0a8f02	-0.13531116
140	0xbd1a2bdb	-0.03763948
141	0x3d773512	0.060353346
142	0xbdc5ebc0	-0.09664106
143	0xbd97a11d	-0.07403777
144	0xbe29ce47	-0.16582595
145	0xbe6f33d0	-0.23359609
146	0x3d39e9b9	0.04538891
147	0x39ef1c98	0.00045606936
148	0x3d405623	0.046957146
149	0xbca08a7c	-0.019597284
150	0xbdcd6095	-0.10028187
151	0x3e0fc99b	0.1404175
152	0xbd904e31	-0.07046164
153	0x3c5eff18	0.013610624
154	0xbd696446	-0.056980394
155	0xbdbdda47	-0.09270149
156	0xbd5659aa	-0.052331604
157	0xbc24f090	-0.01006712
158	0xbe51154a	-0.20418277
159	0xbe598199	-0.21240844
160	0xbddc7ebc	-0.1076636
161	0xbe7a4fbe	-0.24444482
162	0x3ddc114e	0.10745488
163	0xbdfa134e	-0.12210713
164	0xbdc19f34	-0.09454194
165	0x3d9ae7ad	0.0756372
166	0xbcc32718	-0.023822352
167	0x3da2424a	0.079228
168	0xbd63861d	-0.055547822
169	0x3d20ba8f	0.039240416
170	0xbbb50724	-0.005524533
171	0x3c3eb055	0.0116387205
172	0xbcee17c2	-0.029064063
173	0xbe867408	-0.262604
174	0xbdc40241	-0.095707424
175	0xbe3fb2da	-0.1872057
176	0xbe951a64	-0.29121697
177	0xbe2a6268	-0.16639102
178	0xbe0406d8	-0.12893236
179	0xbdbd2898	-0.09236258
180	0xbe30456c	-0.17213982
181	0xbe2b077a	-0.16702071
182	0xbdb0d7f6	-0.08634941
183	0xbd27ea0e	-0.040994696
184	0x3da061d4	0.07831159
185	0x3dc247bf	0.09486341
186	0xbd18dc97	-0.037319746
187	0xbe321a3e	-0.17392823
188	0xbea1490f	-0.31501052
189	0x3b910771	0.004425936
190	0xbda88466	-0.08228378
191	0x3c4003cf	0.011719658
192	0xbdc1b5ac	-0.09458479
193	0x3e0defe1	0.13861038
194	0x3d82cc4a	0.06386621
195	0x3d89e742	0.06733562
196	0x3e6e8916	0.23294482
197	0xbdc1cda3	-0.0946305
198	0x3b0c3e24	0.0021399343
199	0xbdb4d74d	-0.08830128
200	0xbcd3304a	-0.025779862
201	0xbdc22a7e	-0.09480761
202	0x3c5fafbe	0.01365274
203	0xbe6ea76b	-0.23306052
204	0xbde31347	-0.11087661
205	0x3a0136c8	0.00049291225
206	0xbe883b8d	-0.26607934
207	0x3e20faf9	0.15720738
208	0x3df37499	0.118874736
209	0xbd19cf88	-0.037551433
210	0xbd108213	-0.0352803
211	0xbe58acaa	-0.21159616
212	0xbd0b6bd8	-0.034038395
213	0x3d57f970	0.052728117
214	0xbce539e9	-0.027981715
215	0xbe40658c	-0.18788737
216	0xbd85511c	-0.06509611
217	0xbc87d7b4	-0.016582347
218	0x3dbcd0b5	0.09219495
219	0xbe14fea0	-0.14550257
220	0x3d073ed3	0.0330189
221	0xbddc661e	-0.10761665
222	0x3c342724	0.01099566
223	0x3de7ef18	0.113249004
224	0x3dafb844	0.08580068
225	0xbd60cdc9	-0.054883752
226	0xbe8764da	-0.2644413
227	0x3e1c7f09	0.15282835
228	0xbd095297	-0.03352603
229	0xbe3aa7cd	-0.18228073
230	0xbe4ee705	-0.20205314
231	0x3cbf2253	0.023331797
232	0xbda484d8	-0.080331504
233	0xbe22c61d	-0.15895887
234	0x3e7d2245	0.24720104
235	0x3c598bb3	0.013277936
236	0x3e40e563	0.18837504
237	0xbdd732b7	-0.1050772
238	0x3d82d870	0.063889384
239	0x3e4fbfb9	0.2028798
240	0x3e1c392a	0.15256181
241	0xbcf57826	-0.029964518
242	0x3e1fa1ae	0.1558902
243	0x3cdeb5a6	0.027186226
244	0xbdf3547c	-0.118813485
245	0x3e66c99e	0.22537848
246	0x3d26e184	0.040742412
247	0xbd9359ab	-0.07194837
248	0xbd8e7f2b	-0.06957849
249	0x3b162a4c	0.0022913394
250	0xbd9012c8	-0.07034832
251	0x3cf33c06	0.029691707
252	0xbd1b2361	-0.037875537
253	0x3d913349	0.0708986
254	0x3d49b011	0.049240176
255	0x3d01acee	0.03165906

res_blocks.0.conv.3.bias f4 [20]
0	0x3c8f5a80	0.017499208
1	0xbd66aa68	-0.056314856
2	0x3d6499e8	0.05581084
3	0xbd68974b	-0.05678491
4	0x3d81923a	0.06326719
5	0xbd769294	-0.06019838
6	0xbca70748	-0.020389214
7	0x3bf463a5	0.0074581676
8	0xbca4ada8	-0.020102337
9	0xbd96c0c7	-0.07360988
10	0xbc1f3a43	-0.0097184805
11	0xbd77e074	-0.06051679
12	0xbd01a2b5	-0.03164931
13	0x3d01aba8	0.031657845
14	0x3d908f20	0.07058549
15	0x3d77264f	0.06033927
16	0xbcfad204	-0.030617721
17	0x3c4fbfa7	0.012679971
18	0xbd8a5d49	-0.06756074
19	0xbac727bb	-0.0015194336

res_blocks.0.conv.4.weight f4 [20]
0	0x3f645074	0.8918526
1	0x3f9f4c57	1.2445172
2	0x3f658120	0.89650154
3	0x3f805d4a	1.002847
4	0x3f6b6b95	0.9196103
5	0x3f4fb264	0.8113158
6	0x3f849462	1.0357783
7	0x3f83a144	1.0283589
8	0x3f910929	1.133092
9	0x3f930ff2	1.1489241
10	0x3f7f31fd	0.9968565
11	0x3f9f4ac3	1.244469
12	0x3f692ec3	0.9108698
13	0x3f80e692	1.0070364
14	0x3f8bd4c0	1.0924301
15	0x3f8ef512	1.116854
16	0x3f5a0715	0.85167056
17	0x3f5dec83	0.86689013
18	0x3f941271	1.1568128
19	0x3f6f87ed	0.9356678

res_blocks.0.conv.4.bias f4 [20]
0	0xbd8097be	-0.062789425
1	0x3e328337	0.17432867
2	0xbd949433	-0.07254829
3	0x3dcd47bc	0.10023448
4	0x3d89a48d	0.06720839
5	0xbc291307	-0.010319478
6	0xbdc698bb	-0.096971
7	0xbdf5e8de	-0.120073065
8	0x3e04d388	0.12971318
9	0x3e183918	0.1486553
10	0xbd1237ac	-0.035697624
11	0xbc62d263	-0.013844105
12	0x3d8842a8	0.06653339
13	0xbe269a3e	-0.16269776
14	0x3d9530a1	0.07284666
15	0xbd22f96e	-0.039788656
16	0xbe1ca9cc	-0.15299147
17	0x3d3115e1	0.043233756
18	0x3e2b96eb	0.1675679
19	0xbdfcc433	-0.123421095

res_blocks.0.conv.4.running_mean f4 [20]
0	0xbf53f44f	-0.8279466
1	0xbb320c36	-0.0027167923
2	0x3f8758bf	1.0573958
3	0xbe0f3749	-0.13985933
4	0x3cd0f6ea	0.025508363
5	0xbf9d2949	-1.2278224
6	0xbf0a0299	-0.53910214
7	0xbfa47a05	-1.2849737
8	0xbf814bb4	-1.0101228
9	0xbeda1cc4	-0.4260007
10	0xbf0d5eb5	-0.55222636
11	0x3fa7166d	1.3053719
12	0xbf12ddfc	-0.5736997
13	0x3f49875b	0.7872216
14	0x3e166d83	0.14690213
15	0xbf1c1d45	-0.6098216
16	0x3d209344	0.039202943
17	0xbf2f5169	-0.684836
18	0xbf4a05ab	-0.789149
19	0xbd7c0fbf	-0.061538454

res_blocks.0.conv.4.running_var f4 [20]
0	0x4138f91d	11.560819
1	0x40df0a9b	6.9700446
2	0x3ff193dd	1.8873249
3	0x406542fd	3.5822136
4	0x41947f31	18.562105
5	0x3fa81988	1.3132792
6	0x3fa90117	1.3203458
7	0x3fe0c70c	1.7560744
8	0x3f75fe03	0.96090716
9	0x40d56aa2	6.6692667
10	0x40fda65e	7.9265585
11	0x4091d461	4.557175
12	0x40f78ebe	7.7361746
13	0x401cdb23	2.450875
14	0x3f9d4db7	1.2289342
15	0x409fe36f	4.996513
16	0x4029e1e0	2.6544113
17	0x3fe6b382	1.8023531
18	0x415bdef5	13.741933
19	0x3ff84a8a	1.9397748

final.0.weight f4 [20, 20, 1, 1]
0	0x3e453944	0.19260126
1	0x3d10e842	0.03537775
2	0xbe5a0862	-0.2129226
3	0x3df29b81	0.11846066
4	0x3e27e425	0.16395624
5	0xbc7dc369	-0.015488484
6	0xbe6773cb	-0.22602765
7	0xbd5f812f	-0.05456656
8	0x3e30d5f8	0.17269123
9	0xbe11a00d	-0.14221211
10	0xbede4e4d	-0.43419114
11	0x3dc4b6c5	0.09605173
12	0xbe0662a9	-0.13123573
13	0xbedbaab6	-0.4290368
14	0xbe84b016	-0.25915593
15	0xbeb7dc54	-0.35910285
16	0x3c4d748a	0.012539992
17	0xbe56bdcb	-0.20970838
18	0x3dfa3729	0.12217552
19	0xbe6e9940	-0.23300648
20	0x3e7df59b	0.24800722
21	0xbe150d36	-0.14555821
22	0xbf28fe63	-0.66013163
23	0xbcd49fd6	-0.025955122
24	0xbddbee6d	-0.107388355
25	0x3e02b720	0.12765169
26	0x3e49bafe	0.19700238
27	0x3f39cb3c	0.72575736
28	0x3f13b0cb	0.5769164
29	0x3daa356d	0.083109714
30	0x3ec533c5	0.3851606
31	0xbdfd0f4b	-0.123564325
32	0xbe18f02c	-0.14935368
33	0xbe2557a4	-0.16146713
34	0x3d3f9d18	0.046780676
35	0x3d249204	0.040178314
36	0x3c56713b	0.01308852
37	0xbd1d4c0c	-0.038402602
38	0x3e2025c2	0.15639403
39	0x3f04a3b3	0.51812285
40	0xbe5943b8	-0.21217239
41	0xbdbd89e9	-0.0925482
42	0xbe9ac22d	-0.3022627
43	0xbd20e88a	-0.039284267
44	0xbe3bb3a5	-0.18330248
45	0xbebb2c0c	-0.36557043
46	0x3e9ffe59	0.3124874
47	0xbdeaa2cc	-0.11456832
48	0xbec90d29	-0.39267853
49	0xbe4858aa	-0.19565073
50	0xbe715379	-0.23566999
51	0x3e989507	0.298012
52	0x3e2dceb1	0.16973378
53	0x3f224d4a	0.63399184
54	0xbea2c25b	-0.31788906
55	0xbc383cbb	-0.011244948
56	0x39c5b200	0.00037707388
57	0x3dcde59b	0.100535594
58	0x3ec5cf44	0.38634694
59	0x3f40134c	0.75029445
60	0x3db853f8	0.09000391
61	0x3e0d4eda	0.1379961
62	0x3d94ff12	0.07275213
63	0xbecb86f9	-0.39751413
64	0x3ec4acc5	0.38413063
65	0x3f1af092	0.6052333
66	0xbeef8f8b	-0.46789202
67	0xbd4e33b8	-0.05034229
68	0x3d3f96c0	0.046774626
69	0xbd07eed2	-0.03318674
70	0xbe87cdea	-0.26524287
71	0x3f309148	0.6897168
72	0x3ee737d1	0.45159772
73	0x3e7f933e	0.24958512
74	0xbebeb6b9	-0.3724878
75	0xbf13bfcd	-0.5771454
76	0xbe4855ff	-0.19564055
77	0x3e227cc9	0.15867914
78	0x3dcd10df	0.100129835
79	0xbd916b03	-0.07100489
80	0x3e4d8667	0.20070802
81	0x3cf859ff	0.030316351
82	0x3e00b1a9	0.12567772
83	0x3e89a25d	0.26881686
84	0x3db73ff9	0.08947749
85	0x3e17ff26	0.14843425
86	0xbe93ee7c	-0.28892887
87	0x3d4de9f7	0.050271954
88	0xbdd8aa8e	-0.10579406
89	0x3e024675	0.1272219
90	0x3bf7e0d2	0.0075646425
91	0xbd84d306	-0.06485562
92	0xbe9f8d27	-0.31162378
93	0x3ed27034	0.4110123
94	0xbc2ac6aa	-0.010423342
95	0x3df3c2f8	0.11902422
96	0xbe1b429b	-0.15162127
97	0xbef9f512	-0.48819786
98	0x3e7eabd3	0.24870233
99	0xbefdc12b	-0.49561438
100	0xbe2481d0	-0.16065145
101	0xbeea2d1a	-0.45737535
102	0xbd2a4772	-0.04157204
103	0xbe808273	-0.25099525
104	0xbe3321c5	-0.17493351
105	0xbe807429	-0.25088623
106	0xbdd5cc31	-0.10439337
107	0xbe7fa6bc	-0.24965948
108	0x3e23cc18	0.15995824
109	0xbee7f935	-0.45307317
110	0xbe691bfb	-0.2276458
111	0xbca4ec8e	-0.02013233
112	0xbc1fd9ff	-0.009756564
113	0x3e379b0d	0.17930241
114	0x3f4bfae7	0.7967972
115	0x3f048b28	0.51774836
116	0x3e508985	0.2036496
117	0x3cbde29e	0.023179349
118	0x3e012aba	0.12613955
119	0xbf0c79df	-0.5487346
120	0x3e8565b0	0.26054144
121	0xbf28654d	-0.6577957
122	0xbe944674	-0.2896
123	0xbe51f229	-0.20502533
124	0x3e0cf0f7	0.13763796
125	0xbe9ef979	-0.31049708
126	0x3e922202	0.2854157
127	0x3f119379	0.5686565
128	0xbe92f101	-0.28699496
129	0xbee87a94	-0.4540602
130	0x3b71611c	0.0036831563
131	0x3eb69959	0.3566387
132	0x3f1176d0	0.5682192
133	0xbd4aead1	-0.049540345
134	0xbea9af08	-0.3314135
135	0x3ea4dbbb	0.3219889
136	0xbe9960dd	-0.29956713
137	0x3e721c5f	0.23643635
138	0x3eb1b60f	0.34709212
139	0xbed4b11d	-0.41541377
140	0xbeb98ed2	-0.36241776
141	0xbf0dcd4d	-0.5539139
142	0x3df8f1ac	0.1215547
143	0x3e723d9f	0.23656319
144	0x3ce837d0	0.028346926
145	0xbcd25088	-0.025673166
146	0x3cbd386b	0.023098191
147	0xbdd93caa	-0.10607274
148	0xbc33d69c	-0.01097646
149	0x3ed65ec5	0.41869178
150	0x3ecf9f2c	0.40551126
151	0xbf1b3b4b	-0.6063735
152	0x3e42b208	0.19013226
153	0xbec2a78d	-0.38018456
154	0xbccee9f3	-0.02525804
155	0x3e2c176e	0.16805813
156	0xbde6cd5b	-0.11269637
157	0xbc319194	-0.010837931
158	0xbe1557e7	-0.14584313
159	0x3e89d974	0.26923716
160	0xbec84ec5	-0.39122596
161	0x3e166f4c	0.14690894
162	0x3e404596	0.18776545
163	0xbe1cfa3f	-0.15329836
164	0xbea6f74d	-0.3261055
165	0xbf006d03	-0.5016634
166	0xbdd7d01d	-0.10537741
167	0xbe5148c7	-0.20437919
168	0xbf2126f5	-0.6295007
169	0xbd9c4e04	-0.07632068
170	0x3ead8186	0.3388788
171	0xbf13cfcf	-0.57738966
172	0x3f008d6e	0.50215805
173	0x3d81f1f0	0.06344974
174	0x3db203a1	0.086920984
175	0x3db9c901	0.090715416
176	0xbd8df6bf	-0.06931829
177	0xbd6e70cf	-0.05821305
178	0xbeb61754	-0.35564673
179	0xbdf8f7e2	-0.12156655
180	0x3ef597cc	0.47967374
181	0xbe3ff82b	-0.18747012
182	0xbeb4ab30	-0.35286856
183	0x3c9db141	0.01924956
184	0x3df85f67	0.121275716
185	0x3e4661c9	0.1937324
186	0xbed60e44	-0.4180776
187	0x3ed3828e	0.41310543
188	0x3dce28d3	0.1006638
189	0x3f237656	0.6385244
190	0x3e27131b	0.16315882
191	0xbd2c883c	-0.04212211
192	0xbf089719	-0.53355557
193	0x3ce77123	0.02825219
194	0xbe0a0042	-0.13476661
195	0xbd585a5e	-0.052820556
196	0x3d52a652	0.051428147
197	0x3ce46a83	0.02788282
198	0xbef645f3	-0.48100242
199	0xbf1594b2	-0.58430016
200	0x3da3f4ff	0.08005714
201	0x3e10c0d9	0.14136066
202	0x3eb3ad58	0.35093188
203	0xbecf1c18	-0.4045112
204	0xbdb4d18c	-0.088290304
205	0x3e5f4db3	0.21806984
206	0x3e895ed3	0.26830158
207	0x3eae66c3	0.34062776
208	0xbe3d04cf	-0.18458866
209	0x3c876d26	0.016531538
210	0x3de0f25e	0.10983728
211	0xbe8568c9	-0.26056507
212	0x3dbd0f25	0.09231404
213	0xbe9bc73f	-0.3042545
214	0xbef9dc31	-0.48800805
215	0x3e6ece13	0.23320799
216	0x3cc97874	0.02459357
217	0x3d9292c2	0.07156898
218	0xbed72f01	-0.4202805
219	0x3d9975bd	0.0749316
220	0xbe10fab3	-0.14158134
221	0x3e95f09c	0.29285133
222	0x3e46af9f	0.19402932
223	0x3eb509da	0.3535908
224	0xbecb1d90	-0.39670992
225	0x3dd00bdc	0.10158512
226	0xbec397c2	-0.3820172
227	0xbd815986	-0.06315903
228	0x3f78f1c9	0.97243935
229	0x3e250d30	0.16118312
230	0xbd6f712b	-0.058457535
231	0xbe9529a0	-0.2913332
232	0xbe6af6cd	-0.2294571
233	0x3ee791d3	0.45228443
234	0x3e84c234	0.25929415
235	0x3e7fcbe5	0.24980123
236	0xbe254621	-0.16140033
237	0xbf189530	-0.5960264
238	0x3ddd3653	0.10801377
239	0xbdb36690	-0.087597966
240	0x3e68d338	0.22736824
241	0xbe52c3e1	-0.20582534
242	0x3ec02f56	0.37536114
243	0x3c351694	0.011052746
244	0xbec19019	-0.3780525
245	0xbe9b530f	-0.30336806
246	0xbe38a905	-0.18033226
247	0xbdd53bd9	-0.10411806
248	0x3c90bb0d	0.017667318
249	0x3ecf6e3c	0.4051379
250	0xbe20d941	-0.15707876
251	0x3e86ce3d	0.26329222
252	0x3ebc9e3b	0.3683947
253	0x3f0cd3d0	0.550107
254	0xbd1b8d6a	-0.03797666
255	0x3daa463d	0.08314178

final.0.bias f4 [20]
0	0x3e197091	0.14984347
1	0xbe23ac31	-0.15983655
2	0x3e084f80	0.13311577
3	0x3c13e134	0.009025861
4	0x3dbdbea3	0.09264877
5	0x3df6e5e8	0.1205557
6	0xbe15dc0a	-0.1463472
7	0x3e29ebbc	0.16593832
8	0x3e2d133a	0.16901866
9	0xbe4087bd	-0.1880178
10	0xbdd9bab6	-0.106313154
11	0x3df81e03	0.12115099
12	0x3deef56a	0.11667903
13	0xbe3da7c7	-0.18521033
14	0xbe1b0ecf	-0.15142368
15	0x3dad7785	0.08470062
16	0xbd8d2058	-0.06890935
17	0x3e28a7fc	0.16470331
18	0x3e57d5eb	0.21077697
19	0xbd440e62	-0.04786528

final.1.weight f4 [20]
0	0x3f0aaac8	0.5416684
1	0x403e067c	2.9691458
2	0x3fc4f08e	1.5385911
3	0x3f4a138d	0.7893608
4	0x3f089f9f	0.5336856
5	0x3fb1e1de	1.3897054
6	0x3f5c8bba	0.86150706
7	0x3f77429e	0.96586025
8	0x3f85ef41	1.046364
9	0x3f345484	0.7044146
10	0x3f2efc7c	0.6835401
11	0x3f6c8149	0.92384773
12	0x3ee5831e	0.44826597
13	0x40993aaa	4.788411
14	0x40a711ee	5.2209387
15	0x3f08e558	0.5347495
16	0x3f118a8e	0.5685204
17	0x3f84a9a5	1.0364271
18	0x3fa9f3bc	1.3277507
19	0x3fddd4c7	1.733056

final.1.bias f4 [20]
0	0xbf186012	-0.5952159
1	0x3f87ab83	1.0599216
2	0xbd662cf6	-0.05619522
3	0xbece8b72	-0.40340763
4	0xbf1dc017	-0.6162123
5	0xbd041001	-0.032241825
6	0xbe738d3b	-0.23784344
7	0xbdda2fc0	-0.10653639
8	0xbe268526	-0.1626173
9	0xbee9dc95	-0.45676103
10	0xbeac4f44	-0.33654225
11	0xbe9f1cea	-0.31076747
12	0xbf1b59ef	-0.606841
13	0x40379fda	2.8691316
14	0x4040cab4	3.012372
15	0xbf1eec6a	-0.6207949
16	0xbf0c396e	-0.5477513
17	0xbe8f12f5	-0.2794415
18	0x3e8e226d	0.2776064
19	0x3d309bc2	0.043117292

final.1.running_mean f4 [20]
0	0xbf04c138	-0.5185733
1	0x3f0d2d82	0.55147564
2	0x3e93fdc5	0.28904548
3	0x3f102164	0.5630095
4	0x3c8cecba	0.017202724
5	0xbf1a15f7	-0.60189766
6	0xbd9f104d	-0.07766781
7	0x3d980836	0.07423441
8	0xbf5ca4c8	-0.86188936
9	0xbecbe2e3	-0.39821538
10	0xbcb27b3d	-0.02178728
11	0x3f0b1b3d	0.5433844
12	0xbd48855c	-0.048955306
13	0xbf3cbbbd	-0.73723966
14	0x3e116f4f	0.14202617
15	0xbf9c9a3d	-1.223457
16	0x3f4d4065	0.80176383
17	0xbe23842b	-0.15968387
18	0x3d4a4df1	0.049390737
19	0x3cb62a48	0.022236958

final.1.running_var f4 [20]
0	0x3fd782a4	1.6836743
1	0x3f93a7d2	1.153559
2	0x3fae66fc	1.3625178
3	0x3f3c9726	0.73668134
4	0x3f60aae7	0.87760776
5	0x3f4c8e0b	0.7990424
6	0x3fb30fdd	1.3989216
7	0x3f7d5096	0.9895109
8	0x405408e3	3.3130424
9	0x3f9c37c3	1.2204517
10	0x3fe57d84	1.7928929
11	0x3f8ee182	1.116257
12	0x3fb191c7	1.3872613
13	0x4063ee9e	3.561439
14	0x4099ce15	4.8064065
15	0x400d74b0	2.210247
16	0x3fb5e7d0	1.4211369
17	0x3f93465a	1.1505845
18	0x4061a346	3.5255904
19	0x3f97e148	1.1865625
