消融实验/model_weights_13.pth (torch, 43039 bytes, 24 tensors)

initial.0.weight f4 [20, 3, 3, 3]
0	0xbfbc3b3d	-1.4705578
1	0x3fbe9e10	1.4891987
2	0x3fca2e19	1.5795318
3	0x3fa0d692	1.2565482
4	0x3fceb2f5	1.6148363
5	0x3fc93a30	1.5720882
6	0x3fce0a71	1.6096936
7	0x3fc761df	1.5576743
8	0x3fc87cc0	1.5663071
9	0xbfabfce2	-1.3436549
10	0x3fbf6940	1.4953995
11	0x3fc313ae	1.5240381
12	0x3fd6789e	1.675556
13	0x3fc38e29	1.5277759
14	0x3fc6693b	1.5500864
15	0x3fc8f4c9	1.5699703
16	0x3fcb1c7f	1.5868071
17	0x3fbd23fb	1.4776605
18	0xbfa8c530	-1.3185177
19	0x3fc716d7	1.5553845
20	0x3f9f7509	1.2457591
21	0x3fc180af	1.5117396
22	0x3faec21b	1.3652986
23	0x3fc75ffa	1.5576165
24	0x3fc4d80d	1.5378433
25	0x3fc6fa26	1.5545089
26	0x3faba172	1.3408644
27	0x3fd63e24	1.6737714
28	0xbfacb5b8	-1.3492956
29	0x3fbadd65	1.4598814
30	0x3fc85329	1.5650378
31	0xbfc346c2	-1.5255969
32	0xbfaf0409	-1.3673106
33	0x3fb5b580	1.4196014
34	0xbf9d21d4	-1.2275949
35	0xbfbfe9d3	-1.4993232
36	0x3fdd7672	1.7301772
37	0xbf92f263	-1.148022
38	0x3fbfdf8b	1.4990095
39	0x3fbad317	1.459567
40	0xbfa8d744	-1.3190694
41	0xbfbe069d	-1.4845768
42	0x3f9b5342	1.2134783
43	0xbfcb3f35	-1.5878664
44	0xbfaeb15f	-1.3647879
45	0x3ffb6527	1.9640244
46	0xbf947568	-1.159833
47	0x3fcc0509	1.5939037
48	0x3fd8158f	1.6881579
49	0xbfaba4dc	-1.3409686
50	0xbfb85eea	-1.4403965
51	0x3fb3dc9c	1.40517
52	0xbfce7e24	-1.6132245
53	0xbfd0504b	-1.6274503
54	0xbfa42a48	-1.2825403
55	0x3fbd0af8	1.4768972
56	0xbf018050	-0.50586414
57	0xbfaecc90	-1.3656178
58	0xbfb691af	-1.4263209
59	0x3fabaf3a	1.341285
60	0xbfd422d3	-1.6573128
61	0xbfd157dd	-1.6354939
62	0xbff82b0f	-1.938814
63	0xbf9ca237	-1.2237004
64	0x3fb6676a	1.425031
65	0xbf0cb7bf	-0.54967874
66	0xbfa99322	-1.3248026
67	0xbfc458a8	-1.5339556
68	0x3fb49175	1.410689
69	0xbfd45c22	-1.6590617
70	0xbfb85b2f	-1.4402827
71	0xbfda202a	-1.7041066
72	0xbf9dbc25	-1.2323042
73	0x3fbfcf1f	1.4985083
74	0xbefeffde	-0.49804586
75	0xbfb2f132	-1.3979857
76	0xbfaeb8b2	-1.3650115
77	0x3fc0d61b	1.506534
78	0xbfcd5ed5	-1.6044565
79	0xbfd3da0b	-1.6550916
80	0xbfcd1e0c	-1.6024795
81	0x3eadf960	0.3397932
82	0x3f037518	0.51350546
83	0x3fbe944c	1.4889007
84	0x3f11a441	0.56891257
85	0x3f2bf14d	0.6716507
86	0x3fc20d45	1.51603
87	0x3fcb5784	1.5886083
88	0x3fd3520b	1.6509413
89	0x3fe16388	1.76085
90	0x3f0d5378	0.5520549
91	0x3ef6e506	0.48221606
92	0x3fb60b99	1.4222289
93	0x3f233513	0.6375286
94	0x3f1d60b9	0.6147571
95	0x3fd643db	1.6739458
96	0x3fb9f2f6	1.4527271
97	0x3fdffa34	1.7498231
98	0x3fdb0282	1.711014
99	0x3ec1fa2a	0.37886173
100	0x3ef18282	0.47169882
101	0x3fd16cd2	1.6361334
102	0x3f053efd	0.5204924
103	0x3f158b87	0.58416027
104	0x3fcd0beb	1.6019262
105	0x3fa870bb	1.3159403
106	0x3fda5048	1.705575
107	0x3fccf45e	1.6012075
108	0xbf7a945e	-0.9788264
109	0xbfa258e1	-1.2683374
110	0xbfc36ab9	-1.5266944
111	0x3fba61d6	1.4561107
112	0x3eefc318	0.46828532
113	0xbfd4222a	-1.6572926
114	0xbfdda994	-1.7317376
115	0xbfc2d04e	-1.521982
116	0xbfce1884	-1.6101232
117	0xbf9dd607	-1.2330941
118	0xbfb7585e	-1.4323843
119	0xbfd1bead	-1.6386315
120	0x3fb64bc4	1.4241872
121	0x3e7547aa	0.23953119
122	0xbfd03f27	-1.6269273
123	0xbfb9dd37	-1.4520634
124	0xbfe81a1c	-1.8132968
125	0xbfc84556	-1.564616
126	0xbf88be2c	-1.0683036
127	0xbfa6117c	-1.2974086
128	0xbfb4ef90	-1.4135609
129	0x3fdc9a95	1.7234675
130	0x3eef3280	0.46718216
131	0xbfb2e20a	-1.3975232
132	0xbfbd2680	-1.4777374
133	0xbfde50f8	-1.736846
134	0xbfd986a0	-1.6994209
135	0xbee83830	-0.45355368
136	0x3fd9e9b2	1.7024443
137	0x3fcae166	1.5850036
138	0xbf318145	-0.69337875
139	0x3fe3d207	1.779847
140	0x3fc7d78e	1.5612657
141	0x3fd180d9	1.6367446
142	0x3fe52324	1.7901349
143	0x3fcd7a6c	1.6052985
144	0xbf2e4278	-0.68070173
145	0x3fd90ce2	1.6957057
146	0x3fe4abe7	1.786496
147	0xbf8544f2	-1.0411665
148	0x4001e946	2.0298629
149	0x3fa73bb2	1.3065093
150	0x3fba4720	1.4552956
151	0x3ffd515d	1.9790455
152	0x3fc2a846	1.5207603
153	0xbf294a70	-0.6612921
154	0x3fc8c99b	1.5686525
155	0x3fe39d03	1.7782291
156	0xbf6a9cd6	-0.9164556
157	0x3fdef5aa	1.7418721
158	0x3fc11e3b	1.5087351
159	0x3fe868d4	1.8156991
160	0x3fe35e6f	1.7763194
161	0x3fd8d502	1.6940005
162	0xbfdd4393	-1.7286247
163	0xbff07fda	-1.8789017
164	0x3f353bd8	0.7079444
165	0xbfd5eec7	-1.6713494
166	0xbfdc97a1	-1.7233773
167	0xbf914348	-1.1348658
168	0xbfb5b3f5	-1.4195544
169	0x3faedf7c	1.3661952
170	0x3f8d9f79	1.1064292
171	0xbfe88eda	-1.8168595
172	0xbfda33b6	-1.7047031
173	0x3f2c0faa	0.672114
174	0xbfd7c9f6	-1.6858509
175	0xbfd6ce4c	-1.6781707
176	0xbf88cd87	-1.0687722
177	0xbfb7bc01	-1.4354249
178	0x3f9f292d	1.2434441
179	0x3f912894	1.1340508
180	0xbfdc8410	-1.7227802
181	0xbfe99504	-1.8248601
182	0x3f2d868c	0.6778343
183	0xbfcde83d	-1.6086498
184	0xbfc594a8	-1.5435991
185	0xbf908a22	-1.1292155
186	0xbfc2e525	-1.5226179
187	0x3f909685	1.1295935
188	0x3f960bfe	1.172241
189	0x3fc203d9	1.5157424
190	0x3fb843c0	1.4395676
191	0x3fc98713	1.5744346
192	0x3fe46827	1.7844285
193	0x3fc51069	1.5395633
194	0x3fc82cf8	1.5638723
195	0x3fc41ede	1.532192
196	0x3fc96a7e	1.5735624
197	0x3fba746b	1.4566778
198	0x3fbb5197	1.4634274
199	0x3fbcf0b2	1.4760954
200	0x3fad8391	1.3555776
201	0x3fbfbb7f	1.4979094
202	0x3fc22671	1.5167981
203	0x3fa063b6	1.2530429
204	0x3fb32485	1.399552
205	0x3fc8edb7	1.5697545
206	0x3fb7dea8	1.4364824
207	0x3fe5cbe5	1.7952849
208	0x3fbd95cb	1.4811338
209	0x3fbfc1b7	1.4980992
210	0x3fb45ce4	1.4090848
211	0x3fb30a4e	1.398752
212	0x3fc58b12	1.5433066
213	0x3fba183e	1.4538648
214	0x3fb716b6	1.4303806
215	0x3fbbed48	1.4681787
216	0xbfdea653	-1.7394508
217	0xbfd0d779	-1.6315757
218	0xbfc332f2	-1.5249922
219	0x3fab103a	1.3364327
220	0xbfb73ae6	-1.4314849
221	0xbfd1fdc9	-1.6405574
222	0x3f90bfab	1.1308492
223	0xbfe2fd62	-1.7733576
224	0xbfd9ac39	-1.7005683
225	0xbfe37935	-1.7771364
226	0xbf9a92bf	-1.2076033
227	0xbfe4c3d2	-1.787226
228	0x3fc07602	1.5036013
229	0xbfb352dc	-1.4009662
230	0xbfc150b9	-1.510276
231	0x3f870431	1.0548154
232	0xbfc3c7bd	-1.529533
233	0xbfecd989	-1.8503886
234	0xbfd7c299	-1.6856261
235	0xbfbc0cd8	-1.469142
236	0xbfc7149d	-1.5553166
237	0x3fb05618	1.3776274
238	0xbfae8e39	-1.3637153
239	0xbfbd7e10	-1.4804096
240	0x3f90b380	1.1304779
241	0xbfc0d73b	-1.5065683
242	0xbfd3792e	-1.6521356
243	0x3fad6843	1.3547443
244	0x3fc8cc27	1.5687302
245	0x3fb18b20	1.3870583
246	0x3fc6bcec	1.5526404
247	0x3fb09ee5	1.3798491
248	0x3fd501fe	1.6641233
249	0x3fabc04e	1.3418062
250	0x3fd0c0a9	1.6308795
251	0x3fc2910e	1.5200517
252	0x3fb56a63	1.4173092
253	0x3fb40b15	1.4065882
254	0x3fce730e	1.6128862
255	0x3fb8234e	1.4385774

initial.0.bias f4 [20]
0	0x3f8876da	1.0661271
1	0xbfa0d936	-1.2566288
2	0x3f8dd327	1.1080064
3	0xbf5579d5	-0.83389026
4	0x3f927a36	1.1443546
5	0xbf2546fe	-0.6456145
6	0xbf6e9a9e	-0.9320468
7	0x3fb64f64	1.4242978
8	0xbf6adc21	-0.9174214
9	0x3fcd8ef8	1.6059256
10	0x3f90e83a	1.132087
11	0xbf3a339c	-0.72735
12	0x3f0ec804	0.5577395
13	0xbac7f216	-0.0015254642
14	0x3f9b5f57	1.213847
15	0xbf97e347	-1.1866235
16	0xbfb2b407	-1.396119
17	0x3f937ccf	1.1522464
18	0xbf91113a	-1.1333382
19	0xbfbc4704	-1.4709172

initial.1.weight f4 [20]
0	0x3f64bf85	0.89354736
1	0xbf14173d	-0.5784796
2	0x3f46b7e2	0.7762433
3	0x3f518b7f	0.8185348
4	0x40216a6f	2.5221212
5	0x403a5218	2.9112606
6	0x3f97b663	1.1852535
7	0x403b4e30	2.9266472
8	0x3fe017b0	1.7507229
9	0x3f4df7f0	0.8045645
10	0xbf3bc900	-0.73353577
11	0x3fa2ad7b	1.2709192
12	0x401a9944	2.4156046
13	0xbf37c644	-0.71786904
14	0xbe2e5a43	-0.1702662
15	0x403b4505	2.9260876
16	0xbf335674	-0.7005379
17	0x3e5f297a	0.21793166
18	0x402cd532	2.7005124
19	0xbf971c96	-1.1805599

initial.1.bias f4 [20]
0	0xbe2a3a79	-0.16623868
1	0xbfcac30e	-1.5840776
2	0x3f23780d	0.6385506
3	0xbf0a385a	-0.53992236
4	0xbe8cbd5c	-0.2748822
5	0x3f21d7be	0.6321982
6	0x3fdd0c1d	1.7269322
7	0x3f87d898	1.0612974
8	0x3f3bcfe9	0.7336412
9	0x3e4d5bb4	0.20054513
10	0xbfddf819	-1.7341338
11	0x3e875175	0.26429334
12	0x3ff997ad	1.9499413
13	0xbeed8a37	-0.46394512
14	0xbf0638a1	-0.5243016
15	0x3f15705b	0.58374566
16	0xbfdd2906	-1.7278144
17	0x3f012272	0.50443184
18	0x3fd9e75a	1.7023728
19	0x3fb587c1	1.4182054

initial.1.running_mean f4 [20]
0	0x409ac137	4.836086
1	0xbf56583c	-0.83728385
2	0xc028fe4b	-2.6405208
3	0x4037d7d6	2.8725486
4	0xc063956f	-3.5559957
5	0x407caa08	3.947878
6	0xc0158718	-2.3363705
7	0x40c15195	6.0412087
8	0xc06739ca	-3.6129022
9	0x40c08cae	6.017173
10	0xc071c3a2	-3.7775655
11	0x3fa5c90b	1.2951978
12	0x40b9f7df	5.8115077
13	0x3fe39114	1.7778649
14	0xc0ab0f58	-5.345623
15	0xc0a29866	-5.0811033
16	0x40aa0479	5.313046
17	0x40bd270e	5.9110174
18	0x40ae06b6	5.438319
19	0x40a95e32	5.2927485

initial.1.running_var f4 [20]
0	0x410a2823	8.634799
1	0x3f4c99a0	0.79921913
2	0x4073b22f	3.8077505
3	0x40ac4b8a	5.384221
4	0x40c11f61	6.0350804
5	0x40e582ec	7.1722317
6	0x401c33a1	2.4406512
7	0x415201ce	13.125441
8	0x40a8fb3f	5.2806697
9	0x414d6e4d	12.839429
10	0x40e6dfb6	7.2148085
11	0x3ff6d1d5	1.9282786
12	0x414fe965	12.994481
13	0x400f450d	2.2385895
14	0x414f25e5	12.946752
15	0x41194bf6	9.581045
16	0x414f1d2f	12.944625
17	0x414fcf5a	12.988123
18	0x41508011	13.031266
19	0x414e36b5	12.888356

res_blocks.0.conv.0.weight f4 [20, 20, 3, 3]
0	0xbfafcfe8	-1.3735323
1	0xbfc497e9	-1.5358859
2	0xbfc71e76	-1.5556171
3	0xbfb9f2d6	-1.4527233
4	0xbfc7efa9	-1.5620013
5	0xbfbf61ef	-1.4951762
6	0xbfd75f40	-1.6825943
7	0xbfb5f5e1	-1.4215661
8	0xbfb14252	-1.3848364
9	0x3fc35b72	1.5262282
10	0x3fab26f5	1.3371264
11	0x3fb3bcd6	1.4042003
12	0x3fb728e6	1.4309356
13	0x3fb1c5ed	1.3888527
14	0x3fb66d6a	1.425214
15	0x3fb8d95e	1.4441335
16	0x3fcd3e22	1.6034586
17	0x3fbcce8a	1.4750531
18	0x3ebeb36b	0.3724626
19	0x3ed889ab	0.42292532
20	0x3f8e9c84	1.1141515
21	0x3f999084	1.1997228
22	0x3fb73c97	1.4315366
23	0x3f9cc98d	1.2249008
24	0xbfde94c7	-1.7389153
25	0xbff17536	-1.8863895
26	0x3fc6e945	1.5539938
27	0x3fb71f93	1.4306511
28	0x3fcb7ca6	1.5897415
29	0x3fbdf218	1.4839506
30	0x3fb6c561	1.4278985
31	0x3fbf3843	1.4939045
32	0x3fb1dd65	1.3895689
33	0x3fc5de6c	1.5458503
34	0x3fcf8f48	1.6215601
35	0x3fbe87f2	1.4885237
36	0x3fbc28e9	1.4699985
37	0x3fa9bb22	1.3260233
38	0x3fb90e5d	1.4457508
39	0x3fd2a4bd	1.6456524
40	0x3fb06725	1.3781477
41	0x3fc68d58	1.5511885
42	0x3facb1b4	1.3491731
43	0x3fb586db	1.418178
44	0x3f9a83ca	1.2071469
45	0xbfb7b7af	-1.4352931
46	0xbfc5c3c3	-1.5450367
47	0xbfd286d7	-1.64474
48	0xbfcb7f86	-1.5898292
49	0xbfbcff7f	-1.4765471
50	0xbfb8836c	-1.4415107
51	0xbfe53043	-1.7905353
52	0xbfc3900e	-1.5278337
53	0xbfc586d7	-1.5431775
54	0x3fa80354	1.3126016
55	0x3facfbe6	1.3514373
56	0x3fbf4720	1.4943581
57	0x3fad91c0	1.3560104
58	0x3fdeafad	1.7397362
59	0x3faf5bbd	1.3699871
60	0x3fcc4249	1.5957729
61	0x3fbdd3f7	1.4830312
62	0x3fcd3a18	1.6033354
63	0xbfd04ec7	-1.6274041
64	0xbfcb18e2	-1.5866969
65	0xbfcd6075	-1.6045061
66	0xbfb43b7a	-1.4080651
67	0xbfc9bb53	-1.5760292
68	0xbfd5d825	-1.6706587
69	0xbfc4da19	-1.5379058
70	0xbfc83e61	-1.5644037
71	0xbfb1c985	-1.3889624
72	0x3fa6c832	1.3029845
73	0x3faf6687	1.3703164
74	0x3fbaecaa	1.4603474
75	0x3fc790e7	1.5591096
76	0x3fbf0738	1.4924078
77	0x3f99d7aa	1.201894
78	0x3fd059e6	1.6277435
79	0x3fbbfcad	1.4686486
80	0x3fcb9ec9	1.5907832
81	0xbfb97890	-1.4489918
82	0xbfc2330f	-1.5171832
83	0xbfcf12f4	-1.6177659
84	0xbfbc52c1	-1.4712754
85	0xbfa9da0f	-1.3269671
86	0xbfd82b5f	-1.6888236
87	0xbfb9a172	-1.4502394
88	0xbfbdba7e	-1.4822538
89	0xbfc23cb5	-1.5174776
90	0xbfbe0971	-1.4846631
91	0xbfca0f98	-1.5786009
92	0xbfbf41e5	-1.4941984
93	0xbfbe5b89	-1.4871684
94	0xbfcacf99	-1.5844604
95	0xbfbd15e7	-1.4772309
96	0xbfc401ab	-1.5313009
97	0xbfc20039	-1.5156318
98	0xbfb62e5a	-1.4232895
99	0x3fc263d8	1.518672
100	0x3fb25ba9	1.3934222
101	0x3fcacfee	1.5844705
102	0x3fc6fc18	1.5545683
103	0x3fbf182a	1.4929249
104	0x3fbd5043	1.4790119
105	0x3fdb4974	1.7131791
106	0x3fb20fad	1.3911034
107	0x3fb7898c	1.4338851
108	0xbfc104b6	-1.5079563
109	0xbfb611d4	-1.4224191
110	0xbfbaabf2	-1.4583724
111	0xbfb521d1	-1.4150945
112	0xbfce420a	-1.6113904
113	0xbfba4087	-1.4550942
114	0xbfd64dd7	-1.6742505
115	0xbfac1c03	-1.3446048
116	0xbfa87e9a	-1.3163636
117	0xbfb62929	-1.4231311
118	0xbfb9b74b	-1.4509062
119	0xbfd39fb7	-1.6533116
120	0xbfbf8ccc	-1.4964843
121	0xbfc5bdca	-1.5448544
122	0xbfc49d02	-1.5360415
123	0xbfb1d6b6	-1.389365
124	0xbfb8b111	-1.4429036
125	0xbfc2b9c5	-1.5212942
126	0x3fa34c54	1.2757668
127	0x3fae9a2f	1.3640803
128	0x3fc3f611	1.5309469
129	0x3fb71947	1.4304589
130	0x3fbaec81	1.4603425
131	0x3fc68116	1.5508144
132	0xbfb37de1	-1.402279
133	0x3fbd78a0	1.4802437
134	0x3fbcaf6c	1.4741035
135	0x3fbdeb68	1.4837465
136	0x3fb44b94	1.4085565
137	0x3fd09658	1.6295881
138	0x3f9d2da4	1.2279553
139	0x3fb00ee7	1.3754548
140	0x3f9d894e	1.2307527
141	0x3fb6ac69	1.4271365
142	0x3fa4a3e9	1.2862521
143	0x3fb5c616	1.4201076
144	0xbfc1efe0	-1.5151329
145	0xbfc85bc4	-1.5653005
146	0xbfbf84f3	-1.4962448
147	0xbfb11277	-1.383376
148	0xbfb7da17	-1.4363431
149	0xbfb526b3	-1.4152435
150	0xbfb1c34f	-1.3887728
151	0xbfb42ad2	-1.4075568
152	0xbfaec161	-1.3652765
153	0xbfc1e3e9	-1.5147678
154	0xbfc9c945	-1.5764548
155	0xbfad37c3	-1.3532642
156	0xbfb16a9b	-1.3860658
157	0xbfd550a2	-1.6665232
158	0xbfc2fa80	-1.5232697
159	0xbfacda25	-1.3504072
160	0xbfaed19b	-1.3657717
161	0xbfbc6af8	-1.4720144
162	0xbfb92512	-1.4464438
163	0xbfc60eba	-1.5473244
164	0xbfc9ccb9	-1.5765601
165	0xbfd17a61	-1.6365472
166	0xbfcc4ce0	-1.596096
167	0xbfbfbc89	-1.4979411
168	0xbfd7a241	-1.6846391
169	0xbfd8eb75	-1.6946856
170	0xbfbbd81a	-1.4675324
171	0xbfa6ec9c	-1.3040957
172	0xbfbc6ea6	-1.4721267
173	0xbfbb67fb	-1.4641107
174	0xbfc5967b	-1.5436548
175	0xbfc02c02	-1.501343
176	0xbfcd841e	-1.6055944
177	0xbfb29990	-1.3953114
178	0xbfc47b7a	-1.5350182
179	0xbfc45309	-1.533784
180	0xbfcf75a0	-1.6207771
181	0xbfd9e7c6	-1.7023857
182	0xbfc1bf34	-1.5136476
183	0xbfb32c15	-1.3997828
184	0xbfbacd19	-1.4593841
185	0xbfb03864	-1.3767209
186	0xbfabad54	-1.341227
187	0xbfac6735	-1.3468996
188	0xbfae258c	-1.3605208
189	0xbfbd948c	-1.4810958
190	0xbfd381f9	-1.652404
191	0xbfad9260	-1.3560295
192	0xbfbb7ffd	-1.4648434
193	0xbfd7280c	-1.6809096
194	0xbfaff813	-1.3747581
195	0xbfca42b6	-1.5801609
196	0xbfaef57b	-1.3668665
197	0xbfc043d0	-1.5020695
198	0xbfc1c655	-1.5138651
199	0xbfc13371	-1.5093824
200	0xbfd12fb8	-1.6342688
201	0xbfd1e33d	-1.6397473
202	0xbfbd6515	-1.4796473
203	0xbfcb835c	-1.5899463
204	0xbfb25770	-1.3932934
205	0xbfc1e151	-1.5146886
206	0xbfb9c9b4	-1.451468
207	0xbf021738	-0.5081668
208	0xc0071a15	-2.110967
209	0xbfe84aa9	-1.8147784
210	0xbfd9ee21	-1.7025796
211	0xbfd8d30b	-1.6939405
212	0xbfc6cd7f	-1.5531462
213	0xbfc6fd51	-1.5546056
214	0xbfb2927d	-1.3950955
215	0xbfdc100c	-1.7192397
216	0x3fb6ace3	1.4271511
217	0x3fb213fa	1.3912346
218	0xbffacfaf	-1.959463
219	0xbfb5e570	-1.4210644
220	0xbfb02957	-1.3762616
221	0xbfcde236	-1.6084659
222	0xbfb1ccf9	-1.3890678
223	0xbfb6e228	-1.4287767
224	0xbfd2892e	-1.6448114
225	0xbfd08036	-1.6289127
226	0xbfbef55b	-1.4918627
227	0xbfcb1d57	-1.5868329
228	0xbfbc5bbf	-1.4715499
229	0xbfc2d30c	-1.5220656
230	0xbfbb2e20	-1.4623451
231	0xbfb7ede9	-1.436948
232	0xbfb3ee2a	-1.4057057
233	0xbfbac2ab	-1.4590658
234	0xbfb8c72e	-1.4435785
235	0xbfd09859	-1.6296493
236	0xbfd0bd3e	-1.6307752
237	0xbfc760ad	-1.5576378
238	0xbfb016fb	-1.3757013
239	0xbfc3d713	-1.530001
240	0xbfce733b	-1.6128916
241	0xbfbb617d	-1.4639126
242	0xbfaa6b66	-1.3314025
243	0xbfc371eb	-1.526914
244	0xbfb43c25	-1.4080855
245	0xbfc96381	-1.5733491
246	0xbfd054f6	-1.6275928
247	0xbfc035b1	-1.5016385
248	0xbfc41d68	-1.5321474
249	0xbfc2cffb	-1.5219721
250	0xbfc0540c	-1.5025649
251	0xbfa4944b	-1.2857755
252	0xbfdbdaa7	-1.7176102
253	0xbfc87f2e	-1.5663812
254	0xbfbfad03	-1.4974674
255	0xbfc6d676	-1.5534198

res_blocks.0.conv.0.bias f4 [20]
0	0xbdab92e5	-0.08377627
1	0xbe9f94ca	-0.31168205
2	0xbf453703	-0.77037066
3	0x3e344218	0.17603338
4	0xbed1a831	-0.40948632
5	0x3c973281	0.0184567
6	0xbf167b47	-0.58781856
7	0xbe7245f0	-0.23659492
8	0x3e0cfe06	0.13768777
9	0x3f66c897	0.90149826
10	0x3da81ca4	0.08208588
11	0x3dab5a45	0.08366827
12	0x3ed962c8	0.42458177
13	0xbeb756de	-0.35808462
14	0xbdf6ea61	-0.12056423
15	0xbf331263	-0.6994993
16	0x3cf9fdf4	0.030516602
17	0xbeece5d4	-0.46269095
18	0xbe2573c1	-0.16157438
19	0x3eb17aad	0.34663907

res_blocks.0.conv.1.weight f4 [20]
0	0xbf292365	-0.6606963
1	0xbf7d1757	-0.9886374
2	0x3eeedde7	0.46653673
3	0x3fc7300d	1.5561539
4	0xbf0c3df9	-0.5478206
5	0x3ed9581e	0.4245004
6	0x3f950925	1.1643416
7	0x3f25f186	0.6482166
8	0xbef27868	-0.47357488
9	0x402f804b	2.7422054
10	0x4043d99a	3.0601563
11	0xbf23bd1b	-0.6396043
12	0xbf217289	-0.6306539
13	0x4029a09e	2.6504283
14	0x3fac4b48	1.3460474
15	0x3fc84e8d	1.5648972
16	0xbf3b4885	-0.7315753
17	0x3d99191d	0.07475493
18	0x40142d32	2.3152585
19	0x404bb8cc	3.183154

res_blocks.0.conv.1.bias f4 [20]
0	0x3fdb9b03	1.7156681
1	0xbff9fe9a	-1.9530823
2	0x4001bc33	2.0271118
3	0x400331e7	2.0499208
4	0xbf1374a4	-0.57599854
5	0xbed034bc	-0.40665233
6	0x3e8fdfbd	0.28100386
7	0xbf550daa	-0.83223975
8	0xbf972141	-1.1807023
9	0x3f38fa71	0.72257143
10	0x3fe52d5e	1.790447
11	0xbf9bfe9f	-1.2187079
12	0xbfe23d87	-1.7675027
13	0x3fca5dc4	1.5809865
14	0x3d56df4a	0.05245904
15	0x3fd8f2dc	1.6949115
16	0xbeb2df41	-0.34935954
17	0x3ed5ac9d	0.41733256
18	0x4004a1a6	2.0723662
19	0x40039eec	2.0565748

res_blocks.0.conv.1.running_mean f4 [20]
0	0xc0e8a9f4	-7.270746
1	0xc1fa335e	-31.275082
2	0xc114af23	-9.292758
3	0x418f4dca	17.912983
4	0xc0a17883	-5.045961
5	0x4199706b	19.179892
6	0xc0c39d68	-6.1129646
7	0x4140a1ec	12.039532
8	0xc0fa9ac6	-7.8313932
9	0x4148b3b4	12.543873
10	0xc1c55d7b	-24.670645
11	0xc0988fb1	-4.7675405
12	0xc0824b96	-4.071727
13	0xc08c75ee	-4.3893957
14	0xc0dbe97e	-6.8722525
15	0x40119ad7	2.2750757
16	0xc196ac0c	-18.834007
17	0xc078210a	-3.8770165
18	0x41c4eb07	24.61476
19	0xbf853834	-1.0407777

res_blocks.0.conv.1.running_var f4 [20]
0	0x456007a3	3584.4773
1	0x4441fe3e	775.97253
2	0x454c1b70	3265.7148
3	0x43528bf0	210.54663
4	0x455240b0	3364.043
5	0x449ed9b3	1270.8031
6	0x4557c2df	3452.1794
7	0x437ac037	250.75084
8	0x45513d22	3347.8208
9	0x45046ddf	2118.867
10	0x433896cd	184.58907
11	0x4567f32f	3711.199
12	0x457757cd	3957.4875
13	0x450fffdc	2303.9912
14	0x4553c150	3388.082
15	0x454f4e90	3316.9102
16	0x44b3bd3a	1437.9133
17	0x454e7b00	3303.6875
18	0x43827c61	260.9717
19	0x45058c9c	2136.788

res_blocks.0.conv.3.weight f4 [20, 20, 3, 3]
0	0xbfc0f1e5	-1.507382
1	0xbfb23e5d	-1.3925282
2	0xbfbabbc2	-1.4588549
3	0xbfbbb6b2	-1.4665129
4	0xbfc0cdbc	-1.5062785
5	0xbfbc5b6c	-1.47154
6	0xbfb100e8	-1.3828402
7	0xbfd69b6b	-1.676618
8	0xbfb5ddab	-1.4208273
9	0x3fd6d938	1.678504
10	0x3fc146c0	1.5099716
11	0x3fb47774	1.4098954
12	0x3facbfa7	1.3495988
13	0x3fc952a0	1.572834
14	0x3fc4cc68	1.537488
15	0xbfb18ea4	-1.3871655
16	0xbfa29f26	-1.2704818
17	0x3fb560b7	1.417014
18	0xbfbe730b	-1.4878858
19	0xbfbc7859	-1.4724227
20	0xbfc5333d	-1.5406262
21	0xbfaab269	-1.3335696
22	0xbfc866b5	-1.5656344
23	0xbfd8623d	-1.690498
24	0xbfca3b95	-1.5799433
25	0xbf990291	-1.1953908
26	0xbfaea06b	-1.3642706
27	0x3fc9a0ae	1.575216
28	0x3fac654c	1.3468413
29	0xbfbe146a	-1.484998
30	0x3fbbed4b	1.4681791
31	0xbfbcd8f6	-1.4753711
32	0xbfbfe6fb	-1.4992365
33	0x3fd16f2b	1.6362051
34	0xbfaf452f	-1.3692988
35	0xbfc60c1f	-1.5472449
36	0xbfb88d71	-1.4418164
37	0x3fb331b3	1.3999542
38	0x3fc000e2	1.500027
39	0xbfb465d3	-1.4093574
40	0x3fb9c0bf	1.4511946
41	0x3fc889a1	1.5667001
42	0xbfb63e96	-1.423785
43	0xbfc4f632	-1.5387633
44	0x3fd6db2f	1.678564
45	0x3fafc338	1.3731451
46	0xbfd9011f	-1.6953467
47	0xbfcb8578	-1.5900106
48	0xbfbe5b36	-1.4871585
49	0xbfd27da3	-1.6444591
50	0xbfc13187	-1.509324
51	0xbff10e31	-1.8832456
52	0xbfc09662	-1.5045893
53	0xbfdc4eb8	-1.7211523
54	0xbfbf1ee5	-1.4931303
55	0xbfd0db22	-1.6316874
56	0xbfb1cd9d	-1.3890873
57	0x3fc4e87d	1.538345
58	0xbfada676	-1.3566425
59	0x3fb6a344	1.4268575
60	0xbfaba974	-1.3411088
61	0xbfc32c43	-1.5247883
62	0x3fc42ef5	1.532683
63	0xbfb93567	-1.4469422
64	0xbfc6e516	-1.5538661
65	0x3fa9d2e4	1.3267484
66	0x3fb72b6d	1.4310127
67	0x3fb49c57	1.4110211
68	0x3f775a8b	0.9662253
69	0x3fc6c858	1.552989
70	0x3fb95a81	1.4480745
71	0x3fa6ddf0	1.303648
72	0x3fb9cd29	1.4515735
73	0xbfa3ae10	-1.2787495
74	0x3fbaf977	1.4607381
75	0xbfced01e	-1.6157262
76	0x3fb97419	1.4488555
77	0x3fc16943	1.5110248
78	0xbfb63778	-1.4235678
79	0xbfc0f263	-1.507397
80	0xbfc5c1bb	-1.5449747
81	0xbfd06467	-1.628064
82	0xbfaea4c4	-1.3644032
83	0xbfcd9ebe	-1.6064069
84	0x3fc07a30	1.5037289
85	0xbedb4772	-0.42827946
86	0xbfb1c4b3	-1.3888153
87	0x3fd3de52	1.6552222
88	0x3fd68cea	1.6761754
89	0x3fb7647b	1.4327539
90	0xbfbc3c22	-1.4705851
91	0xbfe37714	-1.7770715
92	0xbfca1298	-1.5786924
93	0xbfc2cd62	-1.5218928
94	0x3fa40af8	1.2815847
95	0xbfce4f6e	-1.611799
96	0xbfc731dc	-1.5562091
97	0xbfc198d6	-1.5124767
98	0xbfc7de63	-1.5614742
99	0xbfee8b2e	-1.8636224
100	0xbfca127c	-1.5786891
101	0xbfa8f691	-1.3200246
102	0xbfc08d2d	-1.5043083
103	0x3fb54db8	1.4164343
104	0x3fc5db8a	1.5457623
105	0x3f1463d1	0.5796481
106	0x3fa888e6	1.3166778
107	0x3fb71124	1.4302106
108	0xbfbbb221	-1.4663736
109	0xbfd26eca	-1.644006
110	0xbfb1a09e	-1.3877141
111	0xbfce71e2	-1.6128504
112	0xbfd2d5d9	-1.6471511
113	0xbfbd389f	-1.4782904
114	0xbfbc2024	-1.4697309
115	0xbfbb3d6f	-1.4628123
116	0xbfc267ba	-1.5187905
117	0xbf308d08	-0.68965197
118	0xbfc3ed4a	-1.530679
119	0xbfc0b3df	-1.5054892
120	0xbf7f286e	-0.99671066
121	0xbfc2a302	-1.5205996
122	0xbfac148e	-1.3443773
123	0x3fc9c206	1.5762336
124	0xbfa39b2e	-1.2781732
125	0xbfc401ef	-1.531309
126	0xbfb55b98	-1.4168577
127	0x3fc8c146	1.5683982
128	0x3fbd3b61	1.4783746
129	0x3fb9cf1f	1.4516333
130	0x3fb7c0c6	1.4355705
131	0x3fb4bfa3	1.4120983
132	0x3fa707b7	1.3049229
133	0x3fb279f9	1.3943473
134	0x3fb915c0	1.4459763
135	0xbfc2596b	-1.5183538
136	0xbfb59ee9	-1.418912
137	0xbfbfa407	-1.4971932
138	0xbfac19fe	-1.3445432
139	0xbfc1adfa	-1.5131218
140	0xbfce60ab	-1.6123251
141	0xbfb63f19	-1.4238006
142	0xbfb5faf6	-1.4217212
143	0xbfbe8437	-1.4884099
144	0x3fc1f0c3	1.51516
145	0x3fbba528	1.4659777
146	0x3fb7076b	1.4299139
147	0xbfc08c8b	-1.504289
148	0x3fa1a0c3	1.2627186
149	0xbfca1681	-1.5788118
150	0x3fb0836a	1.3790104
151	0xbfd8cdce	-1.6937807
152	0xbf03fd72	-0.515586
153	0xbfbad4d6	-1.4596202
154	0xbfd0b788	-1.6306009
155	0xbfd11f3a	-1.6337655
156	0xbfbd118e	-1.4770982
157	0xbfc65b37	-1.5496587
158	0xbfc70af6	-1.555022
159	0xbfc67be9	-1.5506564
160	0xbfbc05b3	-1.4689239
161	0xbfb4f115	-1.4136072
162	0xbfb9d84f	-1.4519137
163	0xbfc5c711	-1.5451375
164	0x3fa9b588	1.3258524
165	0xbf9ec9dc	-1.2405353
166	0x3fabe007	1.3427743
167	0xbf9bad1a	-1.2162201
168	0x3fbbe5e0	1.4679527
169	0x3fb954b8	1.4478979
170	0x3fc8171f	1.5632056
171	0x3fbbd0ff	1.4673156
172	0x3fb674d0	1.4254398
173	0x3fad7143	1.355019
174	0x3fbb69f6	1.4641712
175	0xbfbd996c	-1.4812446
176	0xbf9062d7	-1.1280164
177	0x3fc21060	1.5161247
178	0x3fd9ca74	1.7014909
179	0x3fc587c5	1.5432059
180	0x3faa2d1b	1.3295015
181	0x3fb6a437	1.4268864
182	0xbfd42d61	-1.6576349
183	0x3f212474	0.6294625
184	0xbfced86d	-1.6159798
185	0xbfb97ea5	-1.4491774
186	0x3fa7e029	1.3115283
187	0xbfd54401	-1.6661378
188	0xbfb48868	-1.4104128
189	0xbfa87e76	-1.3163593
190	0xbfbdf87d	-1.4841458
191	0xbf9d6665	-1.2296873
192	0xbfc19c3a	-1.5125802
193	0xbfad840f	-1.3555926
194	0xbfaa0842	-1.328377
195	0x3ff82e07	1.9389046
196	0xbf98c32c	-1.1934562
197	0x3fcbf4a5	1.5934035
198	0x3fa92051	1.3212987
199	0x3fb768e8	1.432889
200	0x3fa56d32	1.2923949
201	0x3faa0f8c	1.3285995
202	0x3f9080b9	1.1289283
203	0x3f919df1	1.1376325
204	0x3fc8edc8	1.5697565
205	0x3f8eec93	1.1165947
206	0xbfde424e	-1.7363985
207	0x3fb7f2e3	1.4370998
208	0x3fb3af46	1.4037864
209	0x3fbda45b	1.4815782
210	0x3fbf5381	1.4947358
211	0x3faf3aaa	1.3689778
212	0x3fbeb136	1.489783
213	0x3fa77d90	1.3085194
214	0x3fab8302	1.3399355
215	0x3fc24505	1.5177313
216	0x3fa45f55	1.2841593
217	0x3edf59dc	0.43623245
218	0xbfe97a45	-1.8240439
219	0xbfc9e0e1	-1.5771753
220	0xbfc8a294	-1.5674615
221	0xbfcc4da9	-1.59612
222	0xbfbca601	-1.473816
223	0xbfcae4d4	-1.5851083
224	0xbfc78719	-1.5588104
225	0x3fa51376	1.2896564
226	0x3f8eeac5	1.1165396
227	0xbff989d6	-1.9495189
228	0x3fa41926	1.2820175
229	0x3f66408c	0.8994224
230	0x3fa71f31	1.3056394
231	0x3fb0b9a1	1.380665
232	0x3f9be33d	1.2178723
233	0x3fac264c	1.3449187
234	0xbfcce4fc	-1.600738
235	0xbfcc699c	-1.596973
236	0xbfb7e73e	-1.4367445
237	0xbfc2b9d1	-1.5212957
238	0xbfd26e6b	-1.6439947
239	0xbfb53959	-1.4158126
240	0xbfcce2a3	-1.6006664
241	0xbfce032e	-1.609472
242	0xbfc11fc9	-1.5087825
243	0xbff46f8c	-1.9096541
244	0xbfc93b12	-1.5721152
245	0xbfac98b6	-1.3484104
246	0xbfe2edd9	-1.7728835
247	0xbfcabb5b	-1.5838426
248	0xbfc00a3c	-1.5003123
249	0xbfc3f06a	-1.5307744
250	0xbfbef06b	-1.491712
251	0xbfbf70fd	-1.4956356
252	0xbfc4e826	-1.5383346
253	0xbfb40880	-1.4065094
254	0xbfbaa863	-1.4582638
255	0xbfbbd591	-1.467455

res_blocks.0.conv.3.bias f4 [20]
0	0x3e591c9e	0.21202323
1	0xbf0c3241	-0.5476418
2	0xbe7a2312	-0.24427441
3	0xbf5e88ff	-0.8692779
4	0x3cc6fad3	0.024289524
5	0xbe9cde76	-0.30638474
6	0xbead1f2d	-0.33812848
7	0x3e83991b	0.25702748
8	0x3d3dd37b	0.04634426
9	0xbc765d14	-0.01503684
10	0x3ee025dc	0.43778884
11	0x3e1192e1	0.14216186
12	0x3eb81954	0.35956824
13	0xbd210792	-0.03931386
14	0xbe9d09b3	-0.30671462
15	0x3eb80daa	0.35947925
16	0x3df5facb	0.120107256
17	0x3f428c0f	0.7599496
18	0xbf0574a5	-0.5213111
19	0x3f104003	0.56347674

res_blocks.0.conv.4.weight f4 [20]
0	0xbf89d97c	-1.0769496
1	0xbf887ca1	-1.0663034
2	0x3f2d8156	0.67775476
3	0x3f296684	0.6617205
4	0x3f6bf314	0.9216778
5	0xbd45ffe8	-0.048339754
6	0x3f7e6f35	0.9938844
7	0x3efcf89f	0.49408433
8	0xbf638636	-0.88876665
9	0x3fd674d8	1.6754408
10	0x40485a4e	3.1305118
11	0x3fed80ff	1.8554991
12	0x3f271ee6	0.6528152
13	0xbf44698f	-0.7672357
14	0x403a4df4	2.911008
15	0x3fc59599	1.5436279
16	0x3fe0447b	1.7520899
17	0xbf86d3e9	-1.053342
18	0x3f9da981	1.2317353
19	0x4054a6aa	3.3226724

res_blocks.0.conv.4.bias f4 [20]
0	0xbfeb3988	-1.8376932
1	0xbffbb0c2	-1.9663317
2	0x3fbac292	1.4590628
3	0x3e224ab7	0.15848814
4	0xbea9915b	-0.3311871
5	0x3ee0904d	0.43860093
6	0x3fee5aa9	1.8621417
7	0xbf11a897	-0.5689787
8	0xbf2d2f96	-0.67650735
9	0x400ec023	2.230477
10	0x3fd290b4	1.645041
11	0x3f9eca96	1.2405574
12	0xbf05c641	-0.52255636
13	0xbfd76e15	-1.6830469
14	0x3f738506	0.9512485
15	0x3f123b5b	0.5712182
16	0x3f69e656	0.9136709
17	0x3f6ad9ad	0.91738397
18	0x3f918ae2	1.1370509
19	0x3f8b06e7	1.0861481

res_blocks.0.conv.4.running_mean f4 [20]
0	0xc18cab8a	-17.58376
1	0xc06d5ed9	-3.708914
2	0x418ec5cc	17.84658
3	0xc02d3aa9	-2.7067053
4	0x4174ed6b	15.307963
5	0xc1ce3aa1	-25.778627
6	0xc10c0dd4	-8.753376
7	0x419b652e	19.424404
8	0x41c02c4e	24.021633
9	0x40f27b47	7.5775485
10	0x409bfc6e	4.874564
11	0x410b8847	8.720771
12	0x41e78f50	28.944977
13	0x41418bf9	12.096673
14	0xc11eacd4	-9.917194
15	0xc19459ac	-18.543785
16	0xc1c22081	-24.265871
17	0x41eee5a6	29.862133
18	0x4005a2bd	2.0880578
19	0xc1d2c8ca	-26.348042

res_blocks.0.conv.4.running_var f4 [20]
0	0x42d6cbe6	107.39824
1	0x4324d76f	164.84154
2	0x43ebb44f	471.40866
3	0x43b848d9	368.56912
4	0x440e11f5	568.2806
5	0x441019ab	576.40106
6	0x44a300cf	1304.0253
7	0x441d6e19	629.7203
8	0x433a64ce	186.39377
9	0x4457bcf7	862.9526
10	0x4445f674	791.8508
11	0x4430f6df	707.85736
12	0x43c34ee3	390.6163
13	0x4448132a	800.29944
14	0x43df4496	446.53583
15	0x4416f3f7	603.81195
16	0x43859d50	267.229
17	0x4381ae7e	259.36322
18	0x449d6c9f	1259.3944
19	0x43df8aca	447.0843

final.0.weight f4 [20, 20, 1, 1]
0	0xbfd90a29	-1.6956226
1	0x3f6d1079	0.9260326
2	0x3fdbe490	1.7179127
3	0x3f81072a	1.0080311
4	0xbfb4d808	-1.4128428
5	0xbfc1998f	-1.5124987
6	0x3fa349c6	1.2756889
7	0xbfc779cc	-1.5584044
8	0x3fd5304d	1.6655365
9	0x3fd7d08e	1.6860521
10	0xbf6e109b	-0.9299409
11	0x3f9dc233	1.232489
12	0x3fee420c	1.8613906
13	0xbfdbeade	-1.7181051
14	0x3ff19bed	1.887571
15	0x3fe8deba	1.8192971
16	0xbfd3ffa8	-1.6562395
17	0xbf9d23c3	-1.2276539
18	0xbfb42e53	-1.4076637
19	0xbfc75ce9	-1.5575229
20	0xbec21f67	-0.37914583
21	0xbfe0ddfc	-1.7567744
22	0x3e1b3431	0.15156628
23	0x3f45e4c8	0.7730222
24	0x3f644f5b	0.89183587
25	0xbf875e85	-1.057572
26	0x3fce8a3d	1.6135937
27	0x3bcb482f	0.0062036733
28	0x3f9ce9d9	1.2258865
29	0x3f9c8403	1.2227787
30	0x401609e3	2.3443534
31	0xbfff52e5	-1.9947172
32	0xbc2aa0c8	-0.01041431
33	0x3ea3450c	0.31888616
34	0xbfd17af1	-1.6365644
35	0x400141e8	2.0196476
36	0xbfaeeb42	-1.3665545
37	0x3e002f1e	0.12517974
38	0xbe1302eb	-0.14356582
39	0xbf84de62	-1.0380366
40	0x3f914ba7	1.1351212
41	0xbec06acf	-0.37581488
42	0xbe957cbe	-0.29196733
43	0x3f670c9c	0.90253615
44	0x3f93c26d	1.1543709
45	0x40348a22	2.820931
46	0xc00264fc	-2.0374136
47	0x3ff8b4e8	1.9430208
48	0x3ea00256	0.31251782
49	0xbc62ab9c	-0.01383486
50	0x3d5616a8	0.0522677
51	0x3effcbb1	0.49960092
52	0x3fcccff0	1.6000957
53	0x40092f17	2.1434991
54	0xbf72eafb	-0.948898
55	0x3f0aa427	0.54156727
56	0x3cf57099	0.029960917
57	0x3ff50347	1.9141625
58	0x3fdcbad9	1.7244521
59	0xbe09e716	-0.13467059
60	0x3ffdce99	1.9828674
61	0xbf98f80f	-1.1950701
62	0xbfe9932d	-1.824804
63	0xbfc12a62	-1.5091059
64	0x3fa3b302	1.2789004
65	0x3fba8d47	1.4574364
66	0xbfabc2e7	-1.3418854
67	0xbfe704ac	-1.8048301
68	0xbfacf80e	-1.35132
69	0xbfccb352	-1.5992224
70	0xbfb399f4	-1.4031358
71	0xbe1e0add	-0.15433832
72	0x3f8a9e2c	1.082952
73	0x3f538baa	0.82634985
74	0x3fa99d8c	1.3251204
75	0xbfb5d504	-1.4205632
76	0x3f8fd0aa	1.1235554
77	0x3fca4146	1.580117
78	0x3fdaee73	1.7104019
79	0x3fff30ed	1.9936806
80	0x3fbdc1d2	1.4824774
81	0xbfa4e133	-1.2881225
82	0x3fdebb78	1.7400961
83	0xbfb7e06a	-1.4365361
84	0xbf7ff927	-0.9998955
85	0xbecdf5d7	-0.40226623
86	0x3fd48c39	1.6605293
87	0xbfedb3db	-1.8570513
88	0x3fe44b8a	1.7835553
89	0xbfd61cc2	-1.6727526
90	0xbfafe93e	-1.3743055
91	0xbfa3ccab	-1.2796835
92	0xc0051171	-2.0791895
93	0x3fcdb44f	1.6070651
94	0x400cad72	2.1980863
95	0xbfc1d946	-1.5144432
96	0x3f0fdc5a	0.56195605
97	0x3fcc5dfe	1.5966184
98	0x3f45ae06	0.77218664
99	0x3fde10c7	1.734887
100	0xbf559027	-0.83423084
101	0x3fb0839d	1.3790165
102	0x3ffc6b80	1.9720306
103	0x3fc7edad	1.5619408
104	0x3fdba5f2	1.7160017
105	0xbfb2a6f7	-1.3957204
106	0x3fba825f	1.4571036
107	0xbfc52ac4	-1.5403676
108	0x3f992423	1.1964153
109	0x3fcacff2	1.584471
110	0x3fb8d2b0	1.4439297
111	0x3ff28ba4	1.8948865
112	0x3f6a9ac9	0.91642433
113	0xbf96dc7b	-1.1786035
114	0xbfd46d8d	-1.6595932
115	0x3fac21e5	1.3447844
116	0xbfed7bc2	-1.8553393
117	0xbfd6af49	-1.6772243
118	0xc00ab55e	-2.1673198
119	0xbfbd3a19	-1.4783355
120	0xbfb5df99	-1.4208862
121	0x3f8f0718	1.117404
122	0x3fbeeb13	1.4915489
123	0xbf5749d5	-0.84097034
124	0xbfbd1241	-1.4771196
125	0xbfab7900	-1.3396301
126	0x3fc61b8b	1.5477155
127	0xbfc1ea6b	-1.5149664
128	0x3fe3411c	1.7754245
129	0x3fdabdd0	1.7089176
130	0x4022e3fe	2.5451655
131	0x3f999e63	1.2001461
132	0xbfb6a0ad	-1.4267784
133	0xbfad88d9	-1.3557388
134	0xbfb75f5f	-1.432598
135	0x3fa7c8ca	1.3108151
136	0xbfbf3c86	-1.4940345
137	0xbfdd9644	-1.7311482
138	0xbfbfdde9	-1.4989597
139	0xbfd22167	-1.6416444
140	0xbfb79ad6	-1.4344127
141	0x3f990bee	1.1956766
142	0x3fcf28c9	1.6184322
143	0xbff5ca9e	-1.9202459
144	0xc00e7710	-2.226017
145	0xbfa84488	-1.3145914
146	0x3f978f9e	1.1840703
147	0x3f8dca06	1.1077278
148	0x40008254	2.0079546
149	0xbfa97b04	-1.3240666
150	0xbfb64584	-1.4239964
151	0x3fee74ed	1.8629433
152	0xbf87aa09	-1.0598766
153	0xbfa31db6	-1.2743442
154	0x3fcc6f25	1.5971419
155	0x3f5a6267	0.853064
156	0xbfc82697	-1.5636777
157	0xbf876772	-1.0578444
158	0xbf6185d6	-0.8809484
159	0xbfa7b6da	-1.3102677
160	0x3ef03517	0.46915504
161	0x3fe099ae	1.7546899
162	0x4001801b	2.023444
163	0x3ef8397b	0.48481354
164	0x3e7ccf09	0.24688353
165	0xbfd63c4b	-1.673715
166	0xbeff3f1f	-0.49852845
167	0xc006888f	-2.1020849
168	0x400465ee	2.0687213
169	0x3fe3397e	1.775192
170	0x3ec26517	0.3796775
171	0x3f3c2a5c	0.73502135
172	0xc00ba10e	-2.181705
173	0xbf0678dd	-0.5252817
174	0xbe44c7da	-0.19216862
175	0x3fb72a36	1.4309757
176	0xbfface1d	-1.9594151
177	0xbfc2753d	-1.5192028
178	0xbf5b2ca5	-0.85615
179	0xbfe03978	-1.7517538
180	0x40192646	2.392961
181	0xbf20b175	-0.6277078
182	0xbfdcbb4e	-1.7244661
183	0xbe1fdf83	-0.15612607
184	0xbe1f09f4	-0.1553114
185	0x401ba42a	2.4318948
186	0xbfdc3c4d	-1.7205902
187	0x3fa04c22	1.2523234
188	0xbfc937e6	-1.5720184
189	0xbf488026	-0.7832054
190	0xbf9cf6d2	-1.2262824
191	0xbf3f8055	-0.74805194
192	0x3dd398af	0.103318565
193	0x3f6903b2	0.91021264
194	0xbde114dd	-0.109903075
195	0xbfcfd478	-1.6236715
196	0x4003e446	2.0608077
197	0x3f7b51e0	0.98171806
198	0xbff24000	-1.8925781
199	0x3fd850e4	1.6899686
200	0xbfc305fc	-1.5236201
201	0xbfc3a22f	-1.528387
202	0x3f9a03f1	1.2032453
203	0xbfa6d92c	-1.3035026
204	0xbf20a4b1	-0.627513
205	0x4019ee62	2.4051747
206	0xc01681a5	-2.3516629
207	0xbfb7b77e	-1.4352872
208	0xbfa1a458	-1.2628279
209	0xbf81966b	-1.0124029
210	0x3ea710ab	0.32629904
211	0xbf92c62b	-1.1466726
212	0xbfef97ef	-1.8718241
213	0x3fb5761a	1.4176667
214	0x3fe71537	1.8053349
215	0xbf8fecd1	-1.1244146
216	0x3fe29d11	1.7704183
217	0x3f7af915	0.9803632
218	0x3fc9b86c	1.5759406
219	0x3ff50e5f	1.9145011
220	0xbf8813d0	-1.0631046
221	0x3ff3e085	1.9052893
222	0x3e2516d8	0.16121995
223	0x3fae5bef	1.3621806
224	0x3ffe342c	1.9859672
225	0xc01f3393	-2.4875228
226	0x3edd855a	0.43265802
227	0x3f352950	0.7076616
228	0x3fc9bbca	1.5760434
229	0xbf803699	-1.0016662
230	0x3fafd7eb	1.3737768
231	0x3fa73f44	1.3066182
232	0x3fcb73af	1.5894679
233	0xbf85158a	-1.0397198
234	0xbfca273b	-1.5793222
235	0x3fe0c336	1.7559574
236	0xc00b7854	-2.1792192
237	0xbfcf2c1e	-1.6185338
238	0xbfe788b9	-1.80886
239	0xbfd401ba	-1.6563027
240	0xbf6c2659	-0.92246014
241	0x3fcfd53a	1.6236947
242	0xbff0f221	-1.8823892
243	0x3f398089	0.72461754
244	0x3fca6db2	1.5814726
245	0xbfe3d8c2	-1.7800524
246	0x4003db75	2.0602696
247	0x3e6721f2	0.22571543
248	0xbfc85b17	-1.5652798
249	0xbff8c5e9	-1.9435397
250	0xbfa84bf6	-1.3148181
251	0x3e6f241f	0.23353623
252	0xbfc34e94	-1.5258355
253	0xbfbb0f90	-1.4614124
254	0xbfa63b30	-1.2986813
255	0xbfd92ad7	-1.6966199

final.0.bias f4 [20]
0	0xbe9ee099	-0.3103073
1	0x3f91f3ab	1.1402487
2	0xbe107342	-0.14106467
3	0xbf173e06	-0.59079015
4	0x3f7fad23	0.9987356
5	0xbe2c8fc9	-0.16851725
6	0xbf4791c9	-0.77956825
7	0x3f19544c	0.5989425
8	0x3f28b686	0.6590351
9	0xbe959f05	-0.29222885
10	0xbf8ca27c	-1.0987086
11	0xbf41c9f8	-0.75698805
12	0x3ef2bd1e	0.4740991
13	0x3e554468	0.20826876
14	0x3e4aba0c	0.19797534
15	0xbda2ba7e	-0.07945727
16	0xbeee906e	-0.46594566
17	0x3f428cc5	0.7599605
18	0xbbc81f8a	-0.0061072754
19	0xbca50413	-0.020143544

final.1.weight f4 [20]
0	0xbf5e9dff	-0.8695983
1	0x40519428	3.2746677
2	0x405697f7	3.3530252
3	0xbf62904d	-0.88501436
4	0x40006e1c	2.0067205
5	0x3fd37dac	1.6522727
6	0xbf752fe4	-0.957762
7	0x3ec24920	0.37946415
8	0xbf75e2b6	-0.9604906
9	0x3ef3d739	0.4762514
10	0x403e5a66	2.9742675
11	0xbf6b248a	-0.9185263
12	0xbf777721	-0.9666615
13	0x3e2b575b	0.16732542
14	0xbf3f2041	-0.7465859
15	0x3f43c7c3	0.7647669
16	0x3fff2c94	1.9935479
17	0x405b9ebf	3.431564
18	0xbf356469	-0.7085634
19	0x3f50dfa8	0.8159127

final.1.bias f4 [20]
0	0xbff957a8	-1.9479876
1	0x40027f0a	2.0390038
2	0x4016839e	2.3517833
3	0xbff3ea12	-1.9055808
4	0x3ebccaca	0.36873466
5	0xc004dfa9	-2.0761511
6	0xbff8e9aa	-1.9446309
7	0xc00a91a7	-2.16514
8	0xc000c04b	-2.0117366
9	0xc0009994	-2.0093737
10	0x3f9bfcca	1.218652
11	0xbff5df87	-1.920884
12	0xbffa5ccd	-1.955957
13	0xc009a1f2	-2.1505094
14	0xbfef55b1	-1.8698026
15	0xc005d869	-2.0913336
16	0xbf738dfa	-0.95138514
17	0x401c1f31	2.4394038
18	0xc0003879	-2.0034468
19	0xbf09d69f	-0.5384311

final.1.running_mean f4 [20]
0	0x3fbbfc0f	1.4686297
1	0x3f23ad00	0.6393585
2	0x3fce31b5	1.6108919
3	0xbd896873	-0.06709375
4	0x3e2077cf	0.15670703
5	0x3f45a31f	0.7720203
6	0xbeea7458	-0.45791888
7	0xbf8dffdb	-1.1093706
8	0xbfabdf56	-1.3427532
9	0xbfb71408	-1.4302988
10	0xbeaed878	-0.34149528
11	0xbfd84edc	-1.6899066
12	0xc09f6561	-4.9811254
13	0x40a1fab9	5.061856
14	0x4067c828	3.6215916
15	0xbfc84766	-1.5646789
16	0x4051e0f8	3.279356
17	0xbf6d29dc	-0.92642
18	0x3dac19d6	0.08403365
19	0xc0928a10	-4.5793533

final.1.running_var f4 [20]
0	0x41dc642d	27.548914
1	0x426c53d7	59.081875
2	0x428471a1	66.22193
3	0x424269c2	48.60328
4	0x4256db73	53.714306
5	0x42cd7220	102.7229
6	0x42aea79f	87.327385
7	0x41d27eb3	26.311865
8	0x425110ae	52.26629
9	0x41e895e9	29.073198
10	0x420ebc08	35.683624
11	0x420d961d	35.396595
12	0x413054b6	11.020681
13	0x41792b67	15.573096
14	0x4291f1fc	72.972626
15	0x42694b76	58.323692
16	0x4200ed21	32.23157
17	0x41decce9	27.850054
18	0x422a103e	42.51586
19	0x41c4358b	24.526144
