消融实验/model_weights_5.pth (torch, 83009 bytes, 24 tensors)

initial.0.weight f4 [30, 3, 3, 3]
-0.012876345 0.21460514 0.17268805 0.21328776 0.025553003 -0.13477466 0.15019867 0.025907014
-0.19197726 0.047984708 0.08955391 -0.055160947 0.008976923 0.030992236 0.11823206 0.082681775
-0.128528 -0.04029841 0.09475745 -0.07969501 0.10156239 0.012749173 0.09731726 0.15903436
0.06339054 -0.014478862 0.033094887 -0.07363977 -0.018103799 0.0709496 -0.10994672 -0.00866332
0.105174996 -0.17805952 0.12549016 0.07136334 0.09923552 -0.15103012 -0.19302638 -0.014546154
-0.16827136 -0.031377386 -0.004631197 0.04170919 -0.032983366 -0.16511539 -0.02029012 -0.1191029
-0.043625705 0.022854326 -0.010782998 0.008901898 -0.1297462 -0.12215945 0.011994659 -0.025081936
-0.051547464 -0.046211418 -0.13719088 -0.049343638 -0.2476939 -0.15346238 -0.13003464 0.1225168
0.058321998 0.08595765 -0.061997693 -0.053307306 -0.13930216 -0.060422793 -0.17330766 -0.078515485
-0.14535192 -0.00694282 -0.037870973 -0.038862985 -0.10037113 -0.0016753743 -0.18804453 -0.17986447
-0.22241637 -0.23638433 -0.17033385 -0.1734475 0.046533376 -0.08505057 -0.034865864 0.07776311
-0.05063428 -0.1892373 -0.02002154 -0.116644315 -0.2104268 0.0026138094 -0.01033111 -0.13470064
-0.10173331 -0.034897167 -0.08829178 -0.013729679 -0.0965097 -0.038560953 -0.06641337 -0.044286843
-0.13094373 -0.021236878 0.023070801 0.12169156 0.16086395 0.1372439 0.2160678 0.11618171
0.16846 0.1915279 0.069876 0.17072801 0.069071494 0.09923766 0.11758592 0.07451385
0.18030784 0.1923188 -0.0052074436 0.08272007 0.10171088 0.13282202 0.23890805 0.016767232
0.14638446 0.19268773 0.24070677 0.23701714 -0.02210459 0.058542483 0.14150219 -0.06865777
-0.17006676 0.062285207 -0.17830911 -0.15156564 -0.057824172 -0.24703187 -0.104593694 0.10763749
-0.3732251 -0.13356268 -0.02492185 -0.19115977 -0.023118876 0.054372583 -0.18209122 -0.077341974
0.013418762 -0.20167944 0.09104356 0.15020415 -0.22492985 -0.012520889 0.1218668 -0.13623318
-0.16845626 -0.003303405 0.027597232 -0.12194669 -0.17822064 0.026396643 0.056122437 0.026287992
0.022697533 0.097629085 -0.081800126 -0.02044831 -0.15313739 -0.10296806 -0.021869045 -0.04514895
-0.13175145 -0.0021062037 -0.08822652 -0.06559093 -0.060670696 -0.08858866 -0.06774032 -0.09014411
-0.026845895 -0.15634759 -0.089660645 -0.11994894 0.030722203 -0.17755635 -0.22360326 0.027630512
-0.10200577 0.089624345 0.12503314 -0.040051065 0.06773655 0.17670956 -0.33670557 -0.20054977
-0.032756586 -0.1796711 -0.08359254 0.052199617 0.011211601 0.01483058 0.14199863 -0.24842633
-0.12245975 -0.03213072 -0.2954347 -0.24178028 0.109461546 -0.011680989 0.035781026 0.112563305
-0.19160329 -0.10781056 -0.14495555 0.058561083 -0.16677715 -0.28232846 -0.055613328 -0.13743415
-0.1874176 0.019479703 -0.14062613 -0.14445187 -0.13186297 -0.09598793 -0.12053758 0.10541925
-0.044466615 -0.13063982 -0.11853847 -0.19351925 -0.34053096 -0.061600372 -0.21512188 -0.18646224
-0.010329615 -0.009347052 -0.21283357 -0.01181807 0.06038547 -0.053130962 -0.013315131 0.025220467
-0.102043115 -0.012800158 0.068590716 0.051589753 0.1610162 0.013965361 0.09393875 0.11493985
00000000: 4ef7 52bc 73c1 5b3e 23d5 303e 1b68 5a3e
00000010: 8854 d13c 5e02 0abe aecd 193e f23a d43c
00000020: b095 44be 9d8b 443d 0a68 b73d 72f0 61bd
00000030: f213 133c 6ee3 fd3c a623 f23d 1055 a93d
00000040: d89c 03be f20f 25bd 3210 c23d 2337 a3bd
00000050: f1ff cf3d e8e1 503c 464e c73d e7d9 223e
00000060: e6d2 813d c038 6dbc 818e 073d 73d0 96bd
00000070: 6b4e 94bc 064e 913d bf2b e1bd 99f0 0dbc
00000080: fd65 d73d 3c55 36be 7e80 003e f126 923d
00000090: fe3b cb3d a4a7 1abe b5a8 45be fe52 6ebc
000000a0: 544f 2cbe 9385 00bd 4cc1 97bb 41d7 2a3d
000000b0: 9119 07bd 0214 29be 7737 a6bc 39ec f3bd
000000c0: deb0 32bd ff38 bb3c 2cab 30bc 44d9 113c
000000d0: 30dc 04be bc2e fabd 3f85 443c a278 cdbc
000000e0: 6f23 53bd 2f48 3dbd c47b 0cbe 8e1c 4abd
000000f0: 78a3 7dbe 3e25 1dbe cd27 05be 17ea fa3d
00000100: 0ce3 6e3d 900a b03d 4bf1 7dbd c358 5abd
00000110: 3aa5 0ebe e47d 77bd 9077 31be bacc a0bd
00000120: 22d7 14be 9880 e3bb 981e 1bbd cb2e 1fbd
00000130: 618f cdbd 3c98 dbba bf8e 40be 642e 38be
00000140: 1ec1 63be bc0e 72be ff6b 2ebe 399c 31be
00000150: c899 3e3d fe2e aebd 82cf 0ebd 4442 9f3d
00000160: e465 4fbd 6cc7 41be 3604 a4bc 37e3 eebd
00000170: 207a 57be 724c 2b3b d143 29bc f7ee 09be
00000180: 8e59 d0bd 55f0 0ebd 52d2 b4bd 73f2 60bc
00000190: e1a6 c5bd 17f2 1dbd bc03 88bd 1f66 35bd
000001a0: 1d16 06be f6f8 adbc fafe bc3c 6d39 f93d
000001b0: 85b9 243e aa89 0c3e e140 5d3e adf0 ed3d
000001c0: c780 2c3e e41f 443e 261b 8f3d 53d3 2e3e
000001d0: 5b75 8d3d 1d3d cb3d e3d0 f03d b89a 983d
000001e0: 9ea2 383e 38ef 443e 34a3 aabb 2469 a93d
000001f0: cb4d d03d 7f02 083e 50a4 743e 6f5b 893c
00000200: cfe5 153e ef4f 453e d67b 763e 9fb4 723e
00000210: af14 b5bc 3eca 6f3d f3e5 103e 729c 8cbd
00000220: fb25 2ebe c61e 7f3d aa96 36be 0634 1bbe
00000230: 0ad9 6cbd ecf5 7cbe 3835 d6bd 0b71 dc3d
00000240: 5c17 bfbe a8c4 08be e828 ccbc 63bf 43be
00000250: cc63 bdbc c9b5 5e3d 1f76 3abe 7865 9ebd
00000260: 5eda 5b3c 0e85 4ebe 0c75 ba3d 1ecf 193e
00000270: 0354 66be 6a24 4dbc 4d95 f93d b680 0bbe
00000280: cc7f 2cbe f07d 58bb 9713 e23c 30bf f9bd
00000290: 797f 36be c63d d83c a4e0 653d ea59 d73c
000002a0: 2df0 b93c c2f1 c73d d386 a7bd 3783 a7bc
000002b0: 0cd0 1cbe ebe0 d2bd b626 b3bc 1bee 38bd
000002c0: dae9 06be 3c08 0abb 1bb0 b4bd 8a54 86bd
000002d0: d681 78bd f96d b5bd 70bb 8abd 7a9d b8bd
000002e0: eceb dbbc 9519 20be 00a0 b7bd caa7 f5bd
000002f0: 21ad fb3c 55d1 35be 41f8 64be 6259 e23c
00000300: 67e8 d0bd f88c b73d b008 003e 960c 24bd
00000310: 76b9 8a3d 5af3 343e ac64 acbe eb5c 4dbe
00000320: c52b 06bd b3fb 37be 9132 abbd 44cf 553d
00000330: ddb0 373c f6fb 723c 1768 113e 7963 7ebe
00000340: 2dcc fabd 809b 03bd 3843 97be 4095 77be
00000350: 602d e03d 9e61 3fbc 208f 123d 9787 e63d
00000360: a733 44be c8cb dcbd 3a6f 14be bfdd 6f3d
00000370: a1c7 2abe 5b8d 90be cdca 63bd 8abb 0cbe
00000380: 66ea 3fbe e693 9f3c 4c00 10be 31eb 13be
00000390: 1607 07be 5295 c4bd 68dc f6bd 0ce6 d73d
000003a0: a022 36bd 72c6 05be 4cc4 f2bd e929 46be
000003b0: 135a aebe ac50 7cbd e948 5cbe f5ef 3ebe
000003c0: 8c3d 29bc 6124 19bc 0bf1 59be 94a0 41bc
000003d0: c156 773d da9f 59bd b527 5abc 279b ce3c
000003e0: fbfb d0bd c1b7 51bc 4a79 8c3d c74f 533d
000003f0: 6ee1 243e f8ce 643c f662 c03d 9665 eb3d

initial.0.bias f4 [30]
0.065096304 0.18426113 0.12896806 -0.16374116 0.14167063 0.047928017 0.0502687 0.055371698
-0.050130375 0.16713133 -0.09429953 0.11573103 0.10712698 0.028533036 0.08862286 -0.01188212
0.030449372 -0.06267785 0.082183845 -0.18921462 -0.155381 -0.049218643 0.18460293 0.011138278
-0.102338366 0.16938558 -0.124871045 -0.14688632 -0.15417947 0.13024804
00000000: 3651 853d f3ae 3c3e 3410 043e c3ab 27be
00000010: 1b12 113e 2b50 443d 8de6 4d3d 6fcd 623d
00000020: 8255 4dbd 7a24 2b3e 1d20 c1bd 6404 ed3d
00000030: 6465 db3d 1dbe e93c e77f b53d 39ad 42bc
00000040: f670 f93c 3f5d 80bd 0150 a83d 7ac1 41be
00000050: 321c 1fbe 7d99 49bd 8d08 3d3e 537d 363c
00000060: c796 d1bd 6a73 2d3e 64bc ffbd 5e69 16be
00000070: 39e1 1dbe be5f 053e

initial.1.weight f4 [30]
1.0511788 0.91818386 1.2358799 0.9799019 0.9330609 0.9934128 1.1049855 0.7661404
0.79893744 0.9768951 1.0475069 0.9806925 0.8402389 0.845477 1.1142123 0.8503881
1.012708 1.0956607 0.95771223 1.0418723 0.95532477 0.9845673 0.8829966 1.0459063
0.96946436 0.9082565 0.9861329 0.8173467 1.1402898 0.91450316
00000000: 078d 863f 190e 6b3f 5031 9e3f dada 7a3f
00000010: 14dd 6e3f 4d50 7e3f 2a70 8d3f c721 443f
00000020: 2a87 4c3f cc15 7a3f b514 863f aa0e 7b3f
00000030: e619 573f 2e71 583f 829e 8e3f 09b3 593f
00000040: 6aa0 813f 9c3e 8c3f a12c 753f 125c 853f
00000050: 2a90 743f 9a0c 7c3f 110c 623f 42e0 853f
00000060: d12e 783f 7f83 683f 3573 7c3f a23d 513f
00000070: 04f5 913f e11c 6a3f

initial.1.bias f4 [30]
0.16612415 -0.19150935 -0.033282608 -0.024990272 -0.016535772 -0.065297335 -0.018462328 -0.13428037
-0.028792355 0.13306397 0.09480626 -0.1240843 -0.16242227 -0.014957824 0.13503847 0.09161415
-0.04740236 0.07460435 -0.11721246 0.12940101 -0.026090933 -0.1876396 -0.2082589 0.13220812
0.021491699 -0.22886194 0.10177144 -0.063094854 0.088028856 -0.020284975
00000000: 731c 2a3e 071b 44be 5853 08bd 66b8 ccbc
00000010: 0776 87bc 9cba 85bd 4f3e 97bc cb80 09be
00000020: f2dd ebbc ec41 083e c929 c23d e91f febd
00000030: 0652 26be a911 75bc 8647 0a3e 33a0 bb3d
00000040: fa28 42bd 2aca 983d 160d f0bd b381 043e
00000050: a7bc d5bc 9824 40be d241 55be 9161 073e
00000060: 5c0f b03c c95a 6abe 8b6d d03d e037 81bd
00000070: 7948 b43d ad2c a6bc

initial.1.running_mean f4 [30]
0.48553756 -0.26963213 -0.47160223 -0.605966 1.2036756 -0.46423608 -0.4912257 -0.2516283
-0.7038962 0.50449914 -0.56926453 -0.32415214 -0.34379604 0.7632398 0.9420619 1.9025706
-0.38754198 0.40388742 -2.3057911 0.31139794 -1.2463374 -3.1303117 -0.2390739 0.870558
1.1538898 -1.6311942 0.59479934 0.52146167 -0.5894656 6.5898023
00000000: 6198 f83e 390d 8abe d975 f1be 9620 1bbf
00000010: 0b12 9a3f 5ab0 edbe ef81 fbbe 6dd5 80be
00000020: 8b32 34bf db26 013f 52bb 11bf 45f7 a5be
00000030: 0906 b0be af63 433f f82a 713f 6f87 f33f
00000040: e76b c6be 55ca ce3e 1592 13c0 8d6f 9f3e
00000050: fc87 9fbf 0757 48c0 cacf 74be e4dc 5e3f
00000060: a9b2 933f f9ca d0bf c544 183f 837e 053f
00000070: 38e7 16bf a9df d240

initial.1.running_var f4 [30]
0.28617996 0.28171834 0.31583202 0.29923186 0.4849019 0.31225607 0.3019541 0.27483794
0.36397028 0.2787369 0.29576355 0.29528424 0.28431678 0.35452017 0.39215857 0.97307754
0.28390664 0.2881956 1.3108147 0.2903996 0.49812752 2.0516496 0.28303948 0.39676
0.54631567 0.82479 0.3388977 0.3251592 0.2937062 8.198062
00000000: 2e86 923e 633d 903e bcb4 a13e eb34 993e
00000010: 1045 f83e 07e0 9f3e ba99 9a3e 8fb7 8c3e
00000020: 505a ba3e 9ab6 8e3e 526e 973e 7f2f 973e
00000030: f891 913e ab83 b53e 02c9 c83e 9c1b 793f
00000040: 365c 913e 608e 933e c7c8 a73f 42af 943e
00000050: 920a ff3e 3a4e 0340 8dea 903e 2024 cb3e
00000060: 58db 0b3f 7025 533f 0084 ad3e 447b a63e
00000070: a960 963e 432b 0341

res_blocks.0.conv.0.weight f4 [30, 30, 3, 3]
-0.09747399 -0.18302888 0.040035974 0.13628855 -0.055439457 0.037620034 -0.12712315 0.039322887
-0.14413017 0.15983365 0.02985441 0.05798332 0.053973585 0.01678397 0.08938071 -0.15864664
0.07552505 0.017711729 0.023630843 0.15628451 -0.0046750954 0.13167907 -0.0046006124 -0.021299202
0.10584575 0.027095858 0.055095684 0.02118691 0.06458508 -0.051732372 -0.07763211 0.027104544
0.08064453 0.12149635 -0.03254175 0.024574595 0.0046719057 -0.16221368 -0.02827381 0.075484194
-0.13099492 -0.16326062 -0.115965456 0.1563298 -0.0071247863 0.038839746 0.25079718 0.20815377
0.09581617 0.09801534 0.14050132 0.01534478 0.17683494 0.18886119 0.09573445 0.18327197
0.1613578 0.06659381 0.059034105 -0.18431336 -0.04664271 0.042077918 0.14268832 0.09577429
0.14816983 0.08890984 -0.083686054 0.06813552 0.29696095 0.14507733 0.15625924 0.15210961
0.02192485 0.06545233 -0.0616489 -0.13001807 0.04965879 -0.033411667 -0.019516075 -0.054129925
0.018933496 -0.111748315 -0.030310608 -0.07637801 0.008311889 -0.21812552 -0.069601595 -0.1791573
-0.015947059 -0.0821391 -0.10581208 -0.10189674 0.046238456 0.0144016 -0.014375419 -0.07657964
0.06452777 -0.1685085 -0.09290572 -0.05146955 0.103585705 0.15646525 0.076549724 0.16360317
0.07070413 0.10287544 -0.0065117744 0.04644954 0.06548055 0.09783768 0.0048059253 0.12672903
0.021167537 -0.06685275 -0.022228604 -0.09839194 -0.106405854 -0.04856112 -0.091062196 -0.08419675
-0.07123344 -0.04257129 0.08122886 -0.14737289 -0.056739528 -0.11557436 -0.039528187 0.10093767
-0.19285347 -0.00091974414 -0.13471194 -0.033335786 -0.16056155 0.033120155 -0.047617935 -0.0350118
0.009453678 -0.037811007 0.014258519 0.09502028 0.083809935 -0.020833299 0.0944018 0.26300114
0.10919087 0.102287084 -0.0061985767 0.05750467 0.015836598 -0.028309962 0.10045767 0.10858216
0.05181252 0.0042579584 -0.020686297 -0.16346915 -0.31129465 -0.00042220647 -0.20894018 -0.13002007
-0.06546782 -0.088243976 0.011000871 0.09841094 0.0100039765 -0.06476656 0.018128205 0.03120551
-0.036861725 -0.05384974 0.08457558 -0.13028577 -0.08759416 0.010552005 -0.091928944 0.011779711
0.13881029 -0.14188929 0.044989873 0.08230379 0.15041009 0.045711044 -0.1529541 0.014281453
-0.08577743 0.02054765 0.07838566 -0.0037843182 -0.20070572 0.04608991 -0.0048533813 -0.050176114
0.103607796 0.024610395 0.054082625 0.12587051 0.10963849 -0.019546984 0.06662635 -0.028057065
-0.13168983 0.0040353974 0.14893387 -0.11857341 -0.012502515 0.07681654 0.018009111 -0.04917988
-0.08023531 -0.017451696 -0.11764221 0.018355992 0.010368982 -0.013705161 -0.0813706 0.10607463
-0.077724375 0.16669539 0.0918912 0.08052428 0.12620167 0.09707097 -0.029179996 0.15450852
0.015273018 -0.05875242 -0.08884303 -0.1975468 0.078570016 0.20817676 -0.021067921 0.0370752
-0.060744494 -0.041884854 -0.10512637 -0.07473186 -0.025317796 -0.06349544 -0.009539928 -0.042528357
-0.057241872 -0.009000962 -0.038268555 -0.1318894 -0.13678673 -0.010261861 -0.11347732 -0.13252547
-0.0923219 -0.16655506 0.018570535 -0.010822823 0.13844462 -0.016116697 0.0725269 0.054136444
00000000: 71a0 c7bd ec6b 3bbe c3fc 233d 3a8f 0b3e
00000010: 7c14 63bd 7717 1a3d 922c 02be 0911 213d
00000020: dc96 13be 6fab 233e 3c91 f43c eb7f 6d3d
00000030: 6813 5d3d 897e 893c 3c0d b73d 4474 22be
00000040: e1ac 9a3d 3018 913c 7895 c13c 0c09 203e
00000050: 8b31 99bb e1d6 063e bcc0 96bb aa7b aebc
00000060: a8c5 d83d 22f8 dd3c 03ac 613d 2c90 ad3c
00000070: 2f45 843d 53e5 53bd 95fd 9ebd 590a de3c
00000080: f628 a53d 14d3 f83d 804a 05bd a950 c93c
00000090: c916 993b 581b 26be 7a9e e7bc 7597 9a3d
000000a0: 8823 06be cb2d 27be 4c7f edbd eb14 203e
000000b0: 0a77 e9bb 6d16 1f3d 7d68 803e 4326 553e
000000c0: 453b c43d 44bc c83d 94df 0f3e ac68 7b3c
000000d0: 3814 353e d464 413e 6c10 c43d a6ab 3b3e
000000e0: fb3a 253e 5662 883d bfcd 713d a4bc 3cbe
000000f0: 6d0c 3fbd e559 2c3d e31c 123e 5025 c43d
00000100: d5b9 173e 5d16 b63d 9863 abbd a38a 8b3d
00000110: 440b 983e 278f 143e 6c02 203e 9fc2 1b3e
00000120: be9b b33c df0b 863d 8f83 7cbd 7523 05be
00000130: 0467 4b3d acda 08bd 2de0 9fbc 57b7 5dbd
00000140: 6b1a 9b3c 4ddc e4bd f44d f8bc 136c 9cbd
00000150: 972e 083c 4c5c 5fbe 488b 8ebd 0375 37be
00000160: 68a3 82bc 8b38 a8bd 01b4 d8bd 3daf d0bd
00000170: 8964 3d3d b0f4 6b3c e186 6bbc c9d5 9cbd
00000180: 2327 843d 7e8d 2cbe 5b45 bebd bcd1 52bd
00000190: be24 d43d 6d38 203e 1ac6 9c3d 9787 273e
000001a0: 54cd 903d 5cb0 d23d b960 d5bb df41 3e3d
000001b0: ab1a 863d 1f5f c83d 067b 9d3b 41c5 013e
000001c0: 8b67 ad3c 18ea 88bd c318 b6bc b781 c9bd
000001d0: 50eb d9bd 06e8 46bd d17e babd 586f acbd
000001e0: d6e2 91bd 3c5f 2ebd 515b a63d ebe8 16be
000001f0: b567 68bd 40b2 ecbd 4fe8 21bd 69b8 ce3d
00000200: 617b 45be fc1a 71ba edf1 09be 1b8b 08bd
00000210: 3f6a 24be 00a9 073d 060b 43bd 8868 0fbd
00000220: 99e3 1a3c b7df 1abd 909c 693c fe99 c23d
00000230: 8ba4 ab3d 98aa aabc bb55 c13d 16a8 863e
00000240: 769f df3d e47b d13d 6e1d cbbb 048a 6b3d
00000250: c1bb 813c 4bea e7bc c0bc cd3d 5360 de3d
00000260: 5d39 543d 5886 8b3b 4f76 a9bc 7564 27be
00000270: 0362 9fbe 985b ddb9 6af4 55be fb23 05be
00000280: fe13 86bd 42b9 b4bd ff3c 343c ad8b c93d
00000290: b8e7 233c 55a4 84bd 9a81 943c b3a2 ff3c
000002a0: 52fc 16bd 8c91 5cbd f635 ad3d a269 05be
000002b0: 9164 b3bd 51e2 2c3c 3e45 bcbd b0ff 403c
000002c0: 4924 0e3e 6d4b 11be 4d47 383d e48e a83d
000002d0: 1a05 1a3e 813b 3b3d 00a0 1cbe c1fc 693c
000002e0: 14ac afbd 8c53 a83c a988 a03d 5302 78bb
000002f0: cd85 4dbe c6c8 3c3d 1d09 9fbb 7885 4dbd
00000300: 5330 d43d bd9b c93c be85 5d3d 33e4 003e
00000310: 258a e03d ff20 a0bc 6573 883d eed7 e5bc
00000320: b3d9 06be 5e3b 843b 1f82 183e 9ed6 f2bd
00000330: 59d7 4cbc fd51 9d3d d887 933c d870 49bd
00000340: 6952 a4bd dcf6 8ebc 66ee f0bd 4e5f 963c
00000350: aae2 293c 9d8b 60bc a1a5 a6bd a83d d93d
00000360: f52d 9fbd 32b2 2a3e 7431 bc3d eae9 a43d
00000370: 033b 013e 25cd c63d e30a efbc 7b37 1e3e
00000380: ae3b 7a3c 61a6 70bd 56f3 b5bd b549 4abe
00000390: 51e9 a03d 4a2c 553e a296 acbc 2adc 173d
000003a0: 38cf 78bd 748f 2bbd 7f4c d7bd 040d 99bd
000003b0: 4467 cfbc e609 82bd 5c4d 1cbc 3732 2ebd
000003c0: 7476 6abd c578 13bc 7dbf 1cbd 040e 07be
000003d0: d211 0cbe 5d21 28bc cc66 e8bd c2b4 07be
000003e0: 4413 bdbd 698d 2abe 3c21 983c 3652 31bc
000003f0: 6dc4 0d3e 2a07 84bc fc88 943d 2dbe 5d3d

res_blocks.0.conv.0.bias f4 [30]
0.056937665 0.0007353458 0.038594004 -0.030371059 0.0036563014 0.03496071 -0.01584266 0.015093633
0.053659905 0.025037311 0.03128589 0.042674802 0.004692945 -0.029462028 -0.04809156 -0.02207854
0.013391414 0.008951116 -0.05629991 -0.043923955 -0.005702562 -0.029206999 0.028722933 0.041913934
-0.009097405 0.05352322 -0.020163564 -0.022298219 0.030346729 -0.028286258
00000000: 7837 693d 39c4 403a bf14 1e3d bacc f8bc
00000010: 8f9e 6f3b f632 0f3d 77c8 81bc 494b 773c
00000020: 7dca 5b3d 0c1b cd3c a225 003d c6cb 2e3d
00000030: 47c7 993b 5a5a f1bc a8fb 44bd 0ede b4bc
00000040: a967 5b3c b4a7 123c bc9a 66bd 9be9 33bd
00000050: 8fdc babb 8443 efbc 5b4c eb3c f2ad 2b3d
00000060: 480d 15bc 2a3b 5b3d 0f2e a5bc c1aa b6bc
00000070: b499 f83c 95b8 e7bc

res_blocks.0.conv.1.weight f4 [30]
0.8149246 0.9631367 0.95989805 1.3684778 0.94485456 0.9378664 1.0239443 1.1268964
1.0499445 1.0047833 1.0027254 0.84937984 1.1289141 0.92331487 1.0190845 1.0080073
0.9646599 0.9622232 1.0111998 0.9377436 1.1087253 1.1496341 1.0690761 0.8551461
0.9373675 1.0690513 0.97391534 0.9369273 0.995782 0.87110776
00000000: e69e 503f 2090 763f e1bb 753f 482a af3f
00000010: fde1 713f 0318 703f 9b10 833f 243e 903f
00000020: 9564 863f bd9c 803f 4e59 803f f570 593f
00000030: 4280 903f 5d5e 6c3f 5c71 823f 6206 813f
00000040: f4f3 763f 4254 763f ff6e 813f f70f 703f
00000050: b6ea 8d3f 3627 933f 7cd7 883f dbea 5a3f
00000060: 51f7 6f3f acd6 883f 8452 793f 78da 6f3f
00000070: 92eb 7e3f eb00 5f3f

res_blocks.0.conv.1.bias f4 [30]
-0.120658286 -0.008259883 0.019221183 0.17439595 0.026591467 -0.10327913 0.054608237 0.41046926
0.04713012 0.045419104 -0.07739783 -0.17834392 0.099157594 -0.03688101 0.03709845 0.08350689
-0.035053663 -0.047824163 0.071062796 0.020164177 0.07856903 0.1310027 0.084010825 -0.15576759
-0.043077517 0.1370266 -0.1418096 -0.13246192 0.048721664 -0.047318526
00000000: b11b f7bd 7654 07bc be75 9d3c da94 323e
00000010: 59d6 d93c 0284 d3bd e3ac 5f3d 0729 d23e
00000020: 830b 413d 6209 3a3d c182 9ebd ca9f 36be
00000030: 2313 cb3d 8b10 17bd 8bf4 173d a905 ab3d
00000040: 6e94 0fbd 45e3 43bd 5f89 913d 582f a53c
00000050: cde8 a03d 9225 063e de0d ac3d 8a81 1fbe
00000060: 0d72 30bd b350 0c3e 8936 11be 19a4 07be
00000070: 5e90 473d 12d1 41bd

res_blocks.0.conv.1.running_mean f4 [30]
0.26920453 -0.5067891 -0.4070725 -2.5576005 1.178081 1.0918859 -0.40088224 -2.6816008
-2.3654516 -1.3108224 0.8254421 1.5700382 3.1437259 0.09785593 -0.4262494 -1.0278727
0.41446272 1.0709162 0.29032737 0.054409347 -2.39826 -1.5662392 -2.139146 1.5169458
-0.30935174 -0.12589888 1.6609268 -3.017778 -0.38081992 1.318694
00000000: 2dd5 893e eebc 01bf cf6b d0be baaf 23c0
00000010: 5ccb 963f ebc2 8b3f 7040 cdbe 599f 2bc0
00000020: 8f63 17c0 07c9 a7bf 2c50 533f 03f7 c83f
00000030: ce32 4940 b168 c83d 5d3d dabe 5591 83bf
00000040: 7534 d43e c813 893f caa5 943e 56dc 5e3d
00000050: 187d 19c0 877a c8bf c5e7 08c0 482b c23f
00000060: 5a63 9ebe a3eb 00be 4099 d43f 4623 41c0
00000070: d4fa c2be f7ca a83f

res_blocks.0.conv.1.running_var f4 [30]
12.429306 1.6122485 57.08115 4.2497067 29.565752 4.2958245 7.7154026 15.890758
42.55238 6.259896 2.2438757 7.540846 56.217243 4.6381774 4.242984 1.5025715
3.3634777 7.537866 19.249588 3.1221426 13.976509 28.024685 22.870157 5.175016
45.381886 4.1168633 3.2851503 4.5492043 3.0330396 19.295797
00000000: 70de 4641 295e ce3f 1953 6442 99fd 8740
00000010: a986 ec41 6577 8940 94e4 f640 8b40 7e41
00000020: a335 2a42 1151 c840 a99b 0f40 9c4e f140
00000030: 75de 6042 f36b 9440 86c6 8740 4354 c03f
00000040: 3843 5740 3336 f140 28ff 9941 2fd1 4740
00000050: c89f 5f41 8e32 e041 15f6 b641 bb99 a540
00000060: 0d87 3542 58bd 8340 e73f 5240 1593 9140
00000070: 521d 4240 cb5d 9a41

res_blocks.0.conv.3.weight f4 [30, 30, 3, 3]
0.21235895 -0.060504135 -0.078362964 0.074863985 -0.058383934 0.062073957 -0.045697805 0.053636964
-0.0048142704 0.042094868 -0.06605916 0.020818327 0.14541347 -0.010308548 0.19392988 -0.084750466
0.0057156654 -0.08440017 -0.21304916 -0.15842617 -0.041662596 -0.14484675 0.062187262 0.03770163
-0.19564933 -0.16560915 -0.21964991 -0.030341508 -0.15750976 -0.12606956 0.0730259 0.14146726
0.007900232 0.043777023 -0.037027016 -0.04701323 0.08248774 0.07001912 -0.062345598 -0.04904156
0.041652136 -0.09580559 0.019826278 -0.1154895 -0.016507162 0.08500419 0.11790874 -0.031281263
-0.08560721 -0.20179686 0.10925983 -0.0954864 -0.10722571 -0.17698856 0.016484205 0.049490593
-0.04878644 -0.015742088 -0.123320125 -0.010078883 0.1342773 -0.08702662 0.09443024 0.00054116314
-0.026271615 -0.016154889 -0.12548704 -0.031572998 -0.095421575 -0.10480485 -0.07314898 0.00245663
0.033554748 0.10134998 -0.016082352 0.120076016 0.119612366 0.0569873 0.13521802 0.11061739
0.11090785 0.22985443 0.16129264 0.23330605 0.0156673 0.021009821 0.15978307 0.031044768
0.08396906 0.15710734 -0.009700719 -0.120799385 -0.07945051 0.09083042 -0.002763976 0.176796
-0.10044538 -0.0716377 0.054144654 0.15079868 0.01874821 0.11751113 0.08961807 0.007662778
0.10795284 -0.03550288 -0.02546959 -0.009539915 0.026570173 0.062355153 -0.118204966 -0.12933093
-0.07689435 -0.011690414 -0.1514226 -0.049744394 -0.1504109 -0.19631854 -0.015431445 -0.082588375
-0.10530848 -0.26513955 -0.04644573 -0.088903144 -0.06229651 -0.16107284 0.011333605 -0.10333178
0.08603507 -0.055199336 0.06169132 -0.04768461 -0.08136804 -0.08530121 0.03621858 -0.16446042
-0.0014136358 0.0020954115 0.09979801 -0.20041698 -0.17622942 -0.072719425 0.14888778 -0.085931554
-0.05139653 0.04082297 0.061540667 0.010709079 -0.032050602 -0.13752146 -0.25676593 -0.08827055
0.097967625 0.10469395 0.1884446 0.24370942 -0.22784425 0.009275161 0.01044976 -0.13379407
0.02697586 0.10048945 0.1465169 0.105011486 -0.1565419 -0.06756386 0.08629042 0.093854785
0.096971124 -0.16654082 -0.0674634 -0.033059765 0.21973556 0.118585676 -0.08304534 0.16705313
0.056653716 0.10545864 -0.13049075 0.041285466 0.002002877 -0.10219734 0.12564579 0.081078395
-0.20421605 -0.13332716 0.10600784 -0.0021954803 0.12705107 0.14506903 0.16690513 0.15555674
0.032279752 0.14400427 0.074787825 0.044590652 0.012971131 0.11263477 0.14635609 0.06314874
0.101409204 0.08552419 0.038897824 -0.020533515 0.014328047 0.008915292 0.01689892 -0.04101135
-0.018116292 0.10864022 0.03616541 -0.070771754 -0.012150688 -0.03129675 -0.064262845 0.050099734
-0.017675102 -0.05867963 0.014786052 0.110195726 0.014176581 0.11617147 0.1318766 0.17910269
0.021741338 -0.038257074 -0.028507527 -0.07527221 -0.009266075 0.015908986 -0.02678021 -0.026706971
-0.043052815 -0.014610532 0.010925084 -0.046081323 -0.12882785 -0.036046863 -0.101050936 -0.10901412
-0.022983756 -0.10006988 -0.124167636 -0.0031374586 0.00209348 -0.0611149 -0.09102566 -0.010887116
0.045328382 -0.1079193 -0.016442355 -0.001725977 -0.07430805 -0.023698501 -0.0007693209 -0.076789066
00000000: a074 593e 2fd3 77bd c37c a0bd 4a52 993d
00000010: fe23 6fbd 4341 7e3d 9f2d 3bbd 6fb2 5b3d
00000020: 07c1 9dbb ab6b 2c3d 064a 87bd 328b aa3c
00000030: 45e7 143e 2fe5 28bc 8e95 463e a791 adbd
00000040: 7a4a bb3b ffd9 acbd 8f29 5abe 783a 22be
00000050: 66a6 2abd b552 14be 12b8 7e3d 066d 1a3d
00000060: 4c58 48be 7295 29be e8eb 60be c18e f8bc
00000070: 3d4a 21be 6118 01be 9a8e 953d cbdc 103e
00000080: fa6f 013c 894f 333d a4a9 17bd f290 40bd
00000090: 55ef a83d 2f66 8f3d 195e 7fbd cedf 48bd
000000a0: 6e9b 2a3d b935 c4bd b86a a23c c285 ecbd
000000b0: 073a 87bc ad16 ae3d 237a f13d c820 00bd
000000c0: d552 afbd d6a3 4ebe 9ec3 df3d 608e c3bd
000000d0: 2799 dbbd 7d3c 35be e209 873c a6b6 4a3d
000000e0: 4ad4 47bd 8df5 80bc 438f fcbd e621 25bc
000000f0: fd7f 093e 033b b2bd a464 c13d d8dc 0d3a
00000100: 9237 d7bc 4257 84bc ad7f 00be b052 01bd
00000110: 636c c3bd eda3 d6bd 22cf 95bd 6aff 203b
00000120: b470 093d 9490 cf3d 23bf 83bc 6aea f53d
00000130: 54f7 f43d 846b 693d 9876 0a3e 5f8b e23d
00000140: a823 e33d f65e 6b3e e629 253e c8e7 6e3e
00000150: b658 803c ca1c ac3c 2c9e 233e 9951 fe3c
00000160: f8f7 ab3d bfe0 203e c4ef 1ebc ab65 f7bd
00000170: f3b6 a2bd 4d05 ba3d d323 35bb 030a 353e
00000180: 4fb6 cdbd c9b6 92bd c9c6 5d3d f86a 1a3e
00000190: d995 993c ada9 f03d ae89 b73d 0a18 fb3b
000001a0: 6116 dd3d 786b 11bd 9aa5 d0bc 4e4d 1cbc
000001b0: b1a9 d93c 1e68 7f3d 7215 f2bd 546f 04be
000001c0: c97a 9dbd 2689 3fbc 870e 1bbe c7c0 4bbd
000001d0: 5105 1abe ba07 49be 2cd4 7cbc 1824 a9bd
000001e0: f9ab d7bd 5fc0 87be e13d 3ebd da12 b6bd
000001f0: a02a 7fbd 47f0 24be 96b0 393c 9d9f d3bd
00000200: 2833 b03d b318 62bd 0ab0 7c3d f050 43bd
00000210: 49a4 a6bd 67b2 aebd ef59 143d 5068 28be
00000220: bf49 b9ba 2c53 093b e662 cc3d 1c3a 4dbe
00000230: 7c75 34be eced 94bd 0a76 183e e2fc afbd
00000240: 2b85 52bd fd35 273d 1112 7c3d 2275 2f3c
00000250: 7e47 03bd 6dd2 0cbe d376 83be 31c7 b4bd
00000260: 40a3 c83d c869 d63d 9ff7 403e f68e 793e
00000270: 0150 69be d8f6 173c 7835 2b3c 5001 09be
00000280: 7bfc dc3c 6acd cd3d 8708 163e 4310 d73d
00000290: 854c 20be ec5e 8abd 08b9 b03d f036 c03d
000002a0: cc98 c63d ad89 2abe 402a 8abd ad69 07bd
000002b0: 5c02 613e 0cdd f23d ad13 aabd fa0f 2b3e
000002c0: ba0d 683d b3fa d73d 5e9f 05be f31a 293d
000002d0: b342 033b d74c d1bd 4aa9 003e 6e0c a63d
000002e0: 031e 51be ea86 08be a31a d93d 0ce2 0fbb
000002f0: ad19 023e fa8c 143e 2ee9 2a3e 444a 1f3e
00000300: c637 043d db75 133e 5c2a 993d b0a4 363d
00000310: de84 543c 0fad e63d 5fde 153e 2054 813d
00000320: a1af cf3d 4e27 af3d 5353 1f3d e735 a8bc
00000330: 2fc0 6a3c 7211 123c 9b6f 8a3c 84fb 27bd
00000340: 9e68 94bc c37e de3d 2e22 143d c8f0 90bd
00000350: ae13 47bc 0531 00bd 3d9c 83bd 6135 4d3d
00000360: 60cb 90bc 0d5a 70bd 3241 723c 4cae e13d
00000370: e444 683c 4feb ed3d a90a 073e b266 373e
00000380: e41a b23c 73b3 1cbd 9e88 e9bc 5128 9abd
00000390: bcd0 17bc 9053 823c 2c62 dbbc 94c8 dabc
000003a0: 2658 30bd 0361 6fbc 20ff 323c c5bf 3cbd
000003b0: 73eb 03be e0a5 13bd cbf3 cebd cc42 dfbd
000003c0: 6e48 bcbc 70f1 ccbd 9a4b febd d29d 4dbb
000003d0: c432 093b 9e53 7abd a96b babd e05f 32bc
000003e0: 41aa 393d cb04 ddbd 1eb2 86bc 2e3a e2ba
000003f0: d22e 98bd 5c23 c2bc 40ac 49ba 9643 9dbd

res_blocks.0.conv.3.bias f4 [30]
-0.014132082 -0.030649928 0.05614395 -0.06019686 0.04803723 0.040702723 0.02365186 -0.01924341
0.010392594 0.021772102 -0.024070567 0.023060873 0.014444952 -0.05772758 0.023321485 0.006821496
0.039372325 0.0213033 -0.016752312 -0.03012018 -0.030111382 -0.004425388 0.05696448 0.029232165
-0.022051908 0.0205475 -0.035803363 -0.058576412 0.037442047 0.011314174
00000000: 408a 67bc 8f15 fbbc 33f7 653d fc90 76bd
00000010: b0c2 443d e6b7 263d 8cc1 c13c 5ba4 9dbc
00000020: b345 2a3c 685b b23c a32f c5bc 28ea bc3c
00000030: 85aa 6c3c c173 6cbd b30c bf3c db86 df3b
00000040: e044 213d 4284 ae3c 253c 89bc 99be f6bc
00000050: 25ac f6bc d802 91bb 9653 693d 4b78 ef3c
00000060: 34a6 b4bc 3b53 a83c 8ca6 12bd d2ed 6fbd
00000070: d55c 193d 165f 393c

res_blocks.0.conv.4.weight f4 [30]
0.99522936 1.2172141 1.1096108 0.80751884 0.9126232 0.99620986 0.9176414 1.0742921
1.4119617 1.0148264 0.8737925 0.96541315 1.2511021 1.1501461 1.0606974 1.0790789
1.0028081 0.9146082 1.1774254 1.0307845 0.9696479 0.9475591 1.0021288 1.0859278
1.0106077 1.2070308 0.8435006 1.0583342 0.93441856 0.8878277
00000000: 5ac7 7e3f accd 9b3f ba07 8e3f 8eb9 4e3f
00000010: ada1 693f 9c07 7f3f 8cea 6a3f 6782 893f
00000020: 29bb b43f d5e5 813f deb0 5f3f 5125 773f
00000030: 1d24 a03f fd37 933f efc4 873f 421f 8a3f
00000040: 045c 803f c323 6a3f e0b5 963f bff0 833f
00000050: d83a 783f 3c93 723f c245 803f afff 8a3f
00000060: 985b 813f fc7f 9a3f a8ef 573f 7f77 873f
00000070: 0e36 6f3f ad48 633f

res_blocks.0.conv.4.bias f4 [30]
0.2943977 0.063716404 0.04059296 0.04703674 -0.05739708 0.022934323 0.091773234 -0.0106614595
0.020461164 0.074511126 0.11012398 -0.07447479 -0.030524865 0.059658077 0.06743899 0.13243341
0.013650852 0.0120192915 -0.059577785 -0.067825556 -0.021923443 -0.08022156 0.018062854 0.08039764
0.012353014 -0.17012008 0.031507615 0.082407475 0.07357862 -0.032246176
00000000: 4cbb 963e bf7d 823d ce44 263d 99a9 403d
00000010: 3319 6bbd c3e0 bb3c 9bf3 bb3d 67ad 2ebc
00000020: 2c9e a73c 4a99 983d ae88 e13d 3d86 98bd
00000030: 480f fabc 075c 743d 741d 8a3d a09c 073e
00000040: d3a7 5f3c 90ec 443c d607 74bd 20e8 8abd
00000050: cb98 b3bc 344b a4bd 8df8 933c 85a7 a43d
00000060: 4c64 4a3c f533 2ebe 210e 013d 40c5 a83d
00000070: 63b0 963d 9114 04bd

res_blocks.0.conv.4.running_mean f4 [30]
-0.2213472 0.5510997 -0.23844111 -0.4437567 -0.75796485 -0.07618208 -1.4207083 -1.0395021
0.10741996 -0.9350928 -0.6438174 0.8111096 -1.214041 0.32223058 0.5176062 -0.7886278
-0.3695302 0.41438997 1.2039586 0.25804588 -0.39186218 -0.18107624 -0.5725626 -1.1653241
0.04860402 -0.9137101 0.10967382 0.20944975 -0.20147443 -0.821676
00000000: d7a8 62be df14 0d3f e829 74be 1434 e3be
00000010: fc09 42bf 5a05 9cbd c5d9 b5bf 680e 85bf
00000020: fffe db3d 3e62 6fbf 38d1 24bf e1a4 4f3f
00000030: b265 9bbf 68fb a43e d781 043f 83e3 49bf
00000040: 1033 bdbe ec2a d43e 511b 9a3f 971e 843e
00000050: 29a2 c8be 0d6c 39be 7693 12bf 5729 95bf
00000060: 0215 473d e8e8 69bf ab9c e03d ff79 563e
00000070: 504f 4ebe 5c59 52bf

res_blocks.0.conv.4.running_var f4 [30]
5.602885 2.9358187 2.5056021 16.575294 4.007269 4.013205 19.792994 11.372602
4.549103 13.113898 1.7752923 4.9578724 8.5894 14.741478 2.811078 1.6592762
5.647101 5.7366266 2.849829 2.915266 3.7730305 3.8009756 7.536858 61.472893
8.338243 26.982082 7.916663 49.885265 14.088831 2.8624437
00000000: d54a b340 74e4 3b40 c95b 2040 349a 8441
00000010: 8c3b 8040 2d6c 8040 0d58 9e41 2ef6 3541
00000020: 4092 9140 87d2 5141 c73c e33f e4a6 9e40
00000030: 2f6e 0941 18dd 6b41 b4e8 3340 2a63 d43f
00000040: 0db5 b440 7292 b740 9963 3640 b893 3a40
00000050: 5579 7140 2f43 7340 f12d f140 3ee4 7542
00000060: 7169 0541 4edb d741 4e55 fd40 838a 4742
00000070: da6b 6141 4732 3740

final.0.weight f4 [30, 30, 1, 1]
-0.23954281 0.12906247 0.059364032 0.102537565 -0.21456473 -0.06349731 0.03668876 -0.23882557
-0.27706927 0.06763069 0.1366242 -0.035843607 -0.32810682 0.4661078 -0.31350142 -0.113903984
-0.038902216 -0.42134136 0.26976693 0.20964503 0.22351283 0.06496771 0.067581356 -0.12164244
-0.38473463 -0.17750795 0.5038892 0.14509015 0.08816746 -0.68911797 -0.42870572 -0.09403082
0.4612885 0.17442143 -0.045862474 0.009489108 0.12408667 0.32663622 -0.5235984 0.073462136
0.1444371 -0.35333204 0.7247379 0.18066935 -0.17773183 -0.2523177 0.05531379 -0.2764516
-0.14471796 -0.22640508 -0.06619853 0.21695293 0.030775461 -0.21349333 0.049085587 0.12054939
-0.011189341 -0.12030791 -0.28445643 0.28336567 -0.5455245 0.3680902 -0.44230807 0.22269332
-0.034922495 -0.25841272 -0.15854417 0.6748363 -0.027384002 -0.028401539 -0.03726843 -0.14754674
-0.30888948 -0.47666076 0.40245265 -0.14901808 0.00531962 0.10055555 0.25072885 0.017646022
-0.034775905 -0.10445637 0.4746428 0.19115882 -0.028049769 -0.11648575 0.08101413 0.052349225
-0.2135416 0.3176149 -0.038379673 0.4656788 -0.44606495 -0.4489051 -0.17817274 -0.14733784
-0.56051415 0.27646577 0.15365842 0.32423052 0.03291735 -0.0025199358 0.4248214 0.30533513
0.3447352 0.09843031 0.04269073 -0.47874433 0.1901749 -0.5214788 0.066736266 -0.27608633
-0.041665047 -0.06951904 0.09534185 0.12524432 -0.18609169 0.3022714 -0.6324659 0.26994574
0.21491878 0.08546445 -0.41803023 0.2694312 -0.031740118 -0.0751775 0.12148018 0.5236127
0.121686146 0.49242395 0.3332569 -0.281524 0.1436618 -0.041128892 -0.36937204 -0.13116705
-0.117082275 0.082170695 -0.055994287 -0.17031565 -0.02929562 -0.2366904 -0.1781218 0.35550147
0.6277689 -0.2355743 -0.3552919 0.49298948 0.28510642 0.16076219 0.041194607 -0.18153933
0.2828236 0.30761164 -0.35740066 0.05311174 -0.20846009 0.26083717 0.71370125 -0.06194535
-0.14280906 -0.1614747 -0.13497896 -0.28207603 -0.48019293 -0.07068865 -0.3631959 -0.05854332
-0.01847136 -0.2506645 0.2635574 0.18284132 0.15167552 0.034192294 0.18503058 -0.29022083
-0.09797078 0.40267903 -0.16666369 -0.3885193 -0.043242544 0.29408157 -0.04664308 0.3639687
0.08833678 -0.20133387 0.006718194 0.2990144 -0.40892813 -0.05359582 0.5034066 -0.05017169
0.41701925 -0.12979537 0.078396015 -0.2506962 -0.43002105 -0.0856052 0.10502007 0.1347398
-0.012476191 0.05810557 0.36472687 0.47850266 0.15367551 -0.2651327 -0.10982012 0.17396039
0.06299494 0.29443288 -0.11538772 -0.14769039 0.3588062 -0.028305333 -0.17796358 -0.027513713
-0.026259435 -0.23865753 0.008506574 0.0940253 0.16341531 0.17976269 0.26040387 -0.42148042
0.16364323 0.16157883 0.010793823 0.1759924 -0.20084842 -0.17207326 -0.08723461 0.06159382
0.31378576 0.274156 0.2493958 0.40001813 0.02277612 -0.14173257 -0.026123527 0.33790046
-0.049250033 -0.025240006 0.15614215 -0.30005082 -0.08611348 -0.19861655 0.42313546 -0.48224723
-0.3578855 0.15185867 -0.10285402 -0.44789544 0.4357035 -0.26240325 -0.046677563 0.41768295
00000000: b64a 75be f428 043e b327 733d 37ff d13d
00000010: dbb6 5bbe e10a 82bd f446 163d b18e 74be
00000020: 06dc 8dbe f681 8a3d 37e7 0b3e bfd0 12bd
00000030: 9efd a7be aea5 ee3e 4283 a0be 7e46 e9bd
00000040: ee57 1fbd 0eba d7be e41e 8a3e 30ad 563e
00000050: 8ce0 643e ca0d 853d 1868 8a3d ac1f f9bd
00000060: f0fb c4be a5c4 35be e2fe 003f 8392 143e
00000070: 2491 b43d 096a 30bf 517f dbbe 3b93 c0bd
00000080: 022e ec3e 889b 323e 4ada 3bbd 3478 1b3c
00000090: 2721 fe3d dd3c a73e 8b0a 06bf 5173 963d
000000a0: 52e7 133e f0e7 b4be 6c88 393f 6301 393e
000000b0: 55ff 35be c92f 81be b690 623d 108b 8dbe
000000c0: f230 14be bcd6 67be 1893 87bd e928 5e3e
000000d0: d21c fc3c ff9d 5abe f80d 493d 99e2 f63d
000000e0: 7f53 37bc fe63 f6bd 46a4 91be 4e15 913e
000000f0: 7ea7 0bbf 5276 bc3e 3476 e2be b809 643e
00000100: e40a 0fbd ac4e 84be 6759 22be 12c2 2c3f
00000110: 6a54 e0bc 58aa e8bc c8a6 18bd 7e16 17be
00000120: c326 9ebe e10c f4be 460e ce3e 3298 18be
00000130: 3550 ae3b 11f0 cd3d 885f 803e 648e 903c
00000140: 2e71 0ebd 39ed d5bd 6204 f33e 23bf 433e
00000150: a1c8 e5bc 1590 eebd bcea a53d 246c 563d
00000160: a6aa 5abe 6c9e a23e 0134 1dbd 746d ee3e
00000170: a062 e4be e4d6 e5be ea72 36be bbdf 16be
00000180: db7d 0fbf ec8c 8d3e a258 1d3e 8b01 a63e
00000190: 58d4 063d 8225 25bb 3182 d93e e354 9c3e
000001a0: 2281 b03e d595 c93d 7adc 2e3d fa1d f5be
000001b0: 36bd 423e a27f 05bf 06ad 883d 305b 8dbe
000001c0: f8a8 2abd 0060 8ebd 9642 c33d 0c40 003e
000001d0: d28e 3ebe 51c3 9a3e 49e9 21bf 5436 8a3e
000001e0: ab13 5c3e fc07 af3d 0f08 d6be e3f2 893e
000001f0: ed01 02bd a9f6 99bd 9aca f83d 7b0b 063f
00000200: 9636 f93d fe1e fc3e a6a0 aa3e ea23 90be
00000210: 141c 133e c576 28bd 551e bdbe a850 06be
00000220: d5c8 efbd 1c49 a83d 445a 65bd 3a67 2ebe
00000230: 5efd efbc f85e 72be 9065 36be 4a04 b63e
00000240: 76b5 203f 643a 71be d2e8 b5be 1e69 fc3e
00000250: 78f9 913e d89e 243e adbb 283d 72e5 39be
00000260: 41ce 903e 467f 9d3e 38fd b6be b28b 593d
00000270: 9076 55be 738c 853e 20b5 363f 68ba 7dbd
00000280: 8a3c 12be a059 25be ed37 0abe 456c 90be
00000290: d9db f5be 36c5 90bd d0f4 b9be 1fcb 6fbd
000002a0: 4051 97bc 1957 80be fff0 863e c13a 3b3e
000002b0: d450 1b3e 380d 0c3d a878 3d3e d397 94be
000002c0: e8a4 c8bd f22b ce3e e3a9 2abe 00ec c6be
000002d0: 181f 31bd dc91 963e d00c 3fbd 1b5a ba3e
000002e0: eae9 b43d 772a 4ebe 4c24 dc3b 6a18 993e
000002f0: 075f d1be 4a87 5bbd 41df 003f d480 4dbd
00000300: 8c83 d53e 14e9 04be 178e a03d 415b 80be
00000310: b82b dcbe c751 afbd c314 d73d 3bf9 093e
00000320: f068 4cbc 1b00 6e3d 7bbd ba3e 4dfe f43e
00000330: 1d5d 1d3e 79bf 87be 5fe9 e0bd ac22 323e
00000340: 7e03 813d e8bf 963e 6650 ecbd 263c 17be
00000350: 72b5 b73e 96e0 e7bc 163c 36be 7064 e1bc
00000360: 071e d7bc a462 74be 285f 0b3c 5690 c03d
00000370: 5856 273e b613 383e a853 853e 48cc d7be
00000380: 1792 273e ec74 253e 93d8 303c 5a37 343e
00000390: 35ab 4dbe f933 30be 0fa8 b2bd cd49 7c3d
000003a0: 87a8 a03e 2d5e 8c3e 9d61 7f3e 2dcf cc3e
000003b0: fc94 ba3c 5822 11be 0201 d6bc 4a01 ad3e
000003c0: 67ba 49bd 21c4 cebc bae3 1f3e 43a0 99be
000003d0: 445c b0bd 2362 4bbe 36a5 d83e 1ce9 f6be
000003e0: c53c b7be d780 1b3e 21a5 d2bd 8d52 e5be
000003f0: 8714 df3e b859 86be f930 3fbd 8ada d53e

final.0.bias f4 [30]
0.12416553 -0.123761944 0.13784546 0.0043102847 0.18038489 -0.15189548 -0.025776684 -0.012267457
-0.034848884 -0.07020798 -0.027210167 -0.13472438 0.0981762 -0.104511194 0.15115224 -0.015143957
-0.022873087 0.14683978 -0.091306426 -0.001403284 0.104963005 0.120913245 0.0093162535 -0.1257729
-0.14125969 -0.03520832 -0.15971862 0.09060199 -0.06684107 0.16371955
00000000: 7f4a fe3d e776 fdbd 5c27 0d3e 4a3d 8d3b
00000010: d1b6 383e 7d8a 1bbe a029 d3bc 72fd 48bc
00000020: b4bd 0ebd 34c9 8fbd dbe7 debc 30f5 09be
00000030: 9b10 c93d f709 d6bd a7c7 1a3e 5c1e 78bc
00000040: 5760 bbbc 2b5d 163e ddfe babd 66ee b7ba
00000050: d8f6 d63d 5da1 f73d 33a3 183c 9cca 00be
00000060: 61a6 10be 9936 10bd 478d 23be 898d b93d
00000070: f9e3 88bd 19a6 273e

final.1.weight f4 [30]
0.5663703 1.6675556 0.66011053 1.0892149 0.6471153 0.8062065 0.5544073 0.9598428
0.6523466 0.70193684 2.0518398 4.15483 0.5751876 0.62468266 6.305789 0.7002369
0.8092994 1.0805048 4.900595 1.8093044 2.4835947 0.58427995 0.8416832 0.59074426
0.9871774 0.54611444 0.8701769 0.6599205 0.53509307 0.9949382
00000000: a5fd 103f 7672 d53f 01fd 283f 656b 8b3f
00000010: 59a9 253f 8d63 4e3f a3ed 0d3f 42b8 753f
00000020: 3000 273f 22b2 333f 5851 0340 5ef4 8440
00000030: 7f3f 133f 34eb 1f3f 06c9 c940 ba42 333f
00000040: 3f2e 4f3f fb4d 8a3f add1 9c40 4997 e73f
00000050: 37f3 1e40 5f93 153f 8d78 573f 043b 173f
00000060: a8b7 7c3f 28ce 0b3f eac3 5e3f 8df0 283f
00000070: dcfb 083f 45b4 7e3f

final.1.bias f4 [30]
-0.5466716 0.15231909 -0.34709784 -0.041910395 -0.42461085 -0.3206731 -0.41788253 -0.31171495
-0.3991193 -0.37658477 0.61395085 2.6257226 -0.49573052 -0.41086847 3.847543 -0.31225422
-0.37438387 -0.24419698 2.7992933 0.2651254 0.35020745 -0.49169114 -0.34954023 -0.41363966
-0.2706107 -0.49212354 -0.22235486 -0.39264295 -0.5344565 -0.2872757
00000000: acf2 0bbf 89f9 1b3e cfb6 b1be 3caa 2bbd
00000010: 9866 d9be 442f a4be b3f4 d5be 1a99 9fbe
00000020: 5d59 ccbe b8cf c0be e22b 1d3f d70b 2840
00000030: 64d0 fdbe 5a5d d2be 253e 7640 c9df 9fbe
00000040: 3eaf bfbe c60e 7abe 9f27 3340 84be 873e
00000050: 644e b33e f1be fbbe f0f6 b2be 94c8 d3be
00000060: 7c8d 8abe 9ef7 fbbe feb0 63be 7f08 c9be
00000070: 24d2 08bf cd15 93be

final.1.running_mean f4 [30]
-0.6291605 -0.5383319 0.077974826 -0.58456707 0.9329727 -0.46184254 0.7277246 0.60586536
-0.06538097 0.49637115 -0.7022238 -1.281342 -0.37222534 1.2199699 1.0742483 0.28392032
-0.665659 0.632004 -1.359421 0.9001174 1.1389859 -0.9342913 -0.17142586 0.7121239
0.052000523 0.41182992 -0.22545955 1.0477784 -0.7314179 -0.03632002
00000000: aa10 21bf 1fd0 09bf 44b1 9f3d 30a6 15bf
00000010: 4dd7 6e3f a076 ecbe 294c 3a3f fe19 1b3f
00000020: 75e6 85bd 5c24 fe3e f0c4 33bf 0403 a4bf
00000030: 5294 bebe f927 9c3f f880 893f 015e 913e
00000040: a168 2abf 04cb 213f 8201 aebf 186e 663f
00000050: 4aca 913f b72d 6fbf 438a 2fbe c04d 363f
00000060: 80fe 543d 5fdb d23e dede 66be 9a1d 863f
00000070: 343e 3bbf 4dc4 14bd

final.1.running_var f4 [30]
7.1018553 1.1816846 3.7821572 3.7833595 2.6465635 2.857254 1.5377322 1.9493884
1.7648007 1.8874929 3.4730217 22.16751 2.1147308 1.4187105 11.8132715 1.5928231
3.2961922 1.0207456 6.6147103 1.2311369 2.3819742 2.1374602 2.8780398 2.4961379
1.3307257 2.1500235 1.6072125 1.9930632 5.4627857 2.0116913
00000000: 6642 e340 7141 973f dd0e 7240 9022 7240
00000010: 4c61 2940 40dd 3640 69d4 c43f 8f85 f93f
00000020: fde4 e13f 5e99 f13f fd45 5e40 0f57 b141
00000030: c057 0740 4e98 b53f 2903 3d41 a1e1 cb3f
00000040: d0f4 5240 cba7 823f b5ab d340 e595 9d3f
00000050: 4472 1840 26cc 0840 ce31 3840 b9c0 1f40
00000060: 3855 aa3f fc99 0940 24b9 cd3f b21c ff3f
00000070: 24cf ae40 8dbf 0040
