消融实验/model_weights_7.pth (torch, 77255 bytes, 36 tensors)

initial.0.weight f4 [20, 3, 3, 3]
0	0xbe62db37	-0.22153936
1	0xbe118974	-0.1421259
2	0xbe3a977c	-0.18221849
3	0xbdbffd27	-0.09374457
4	0xbe2aedef	-0.16692327
5	0xbe235adf	-0.15952633
6	0xbd847a81	-0.06468678
7	0xbdb9b055	-0.09066836
8	0x3d0e816b	0.03479139
9	0xbea6f319	-0.32607344
10	0xbe9d8050	-0.30761957
11	0xbe80dbfd	-0.25167838
12	0xbe86f625	-0.26359668
13	0xbe05f8b8	-0.1308316
14	0xbe8bcfe5	-0.27307048
15	0xbe316a50	-0.17325711
16	0xbe071987	-0.13193332
17	0x3cf43de6	0.029814672
18	0xbe519cdd	-0.20469995
19	0xbe29c630	-0.16579509
20	0xbde082e4	-0.109624654
21	0xbe03099e	-0.12796637
22	0xbd21024c	-0.03930883
23	0xbd0d9c29	-0.034572754
24	0xbe6b19a7	-0.22959004
25	0xbe03470b	-0.1282007
26	0xbc3abedd	-0.011398044
27	0xbd5adc80	-0.05343294
28	0x3bca39b0	0.0061714277
29	0xbdb83067	-0.08993607
30	0xbe12f58d	-0.14351483
31	0xbe131470	-0.14363265
32	0xbd99e91a	-0.07515164
33	0xbe76e864	-0.24112087
34	0xbd865ffb	-0.065612756
35	0xbdd66ebc	-0.1047034
36	0xbe13f271	-0.14447953
37	0xbe3c4044	-0.1838389
38	0xbdb5bfcc	-0.08874473
39	0xbe2f5dd8	-0.17125642
40	0xbd5a2bf6	-0.05326458
41	0x3c489390	0.012242213
42	0xbc1c9279	-0.009556406
43	0xbe2ee0f1	-0.17077996
44	0xbd9a92d5	-0.07547537
45	0xbd94cb4c	-0.07265338
46	0xbe5c04a0	-0.2148614
47	0xbdef1a62	-0.11674954
48	0x3c4f99c9	0.012670943
49	0x3ca5187f	0.020153282
50	0xbdb59f66	-0.088682935
51	0xbca5bd34	-0.02023182
52	0xbd913a62	-0.07091214
53	0xbc9fa434	-0.019487478
54	0xbce388df	-0.027775226
55	0x3ce35dfc	0.027754776
56	0x3e1935cb	0.14961927
57	0x3df3e3f6	0.119087145
58	0x3c0342b0	0.008011505
59	0x3e3cd1b0	0.18439364
60	0x3d892986	0.06697373
61	0x3e490df5	0.1963423
62	0x3df41e1e	0.11919807
63	0x3e170b86	0.1475049
64	0xbdad2b1f	-0.0845549
65	0x3db1a2db	0.0867364
66	0x3e05358b	0.13008706
67	0x3dc3f08b	0.09567364
68	0x3dabcdc3	0.08388855
69	0x3b113c36	0.0022161133
70	0x3db754a0	0.08951688
71	0x3dd49087	0.10379129
72	0xbc46f230	-0.012142703
73	0x3de08bd4	0.1096417
74	0x3dc9b70c	0.098493665
75	0x3de1d4f1	0.110269435
76	0x3e004e5b	0.1252989
77	0x3e0c8f38	0.13726509
78	0x3dac4100	0.08410835
79	0x3b98bd22	0.0046612183
80	0x3e5f2033	0.21789627
81	0xbd37f777	-0.044913735
82	0x3cddd4aa	0.027078945
83	0xbdbb27c5	-0.09138445
84	0xbdb2d4e5	-0.08732013
85	0xbe0f4715	-0.1399196
86	0x3d3db506	0.046315216
87	0x399f2960	0.0003035767
88	0xbda6b226	-0.08139448
89	0xbe506751	-0.20351912
90	0xbe1083ab	-0.14112727
91	0xbde7b8ba	-0.11314531
92	0xbe343eb0	-0.17602038
93	0x396b58c8	0.0002244442
94	0x3dc6d538	0.09708637
95	0x3c847c94	0.016172685
96	0xbdc76932	-0.09736861
97	0xbc22ced6	-0.009937009
98	0xbd2c51e5	-0.04207029
99	0xbe476096	-0.19470438
100	0xbe05201d	-0.13000531
101	0xbe597e26	-0.21239528
102	0xbd047030	-0.032333553
103	0xbd87a14c	-0.06622562
104	0xbdea8607	-0.11451345
105	0xbdc25a22	-0.09489848
106	0x3dd50bdf	0.10402655
107	0xbd331249	-0.04371861
108	0xbe0c64f2	-0.13710383
109	0xbdf03856	-0.11729495
110	0xbe63c099	-0.22241439
111	0x3d1b30dc	0.037888393
112	0xbc2a8ceb	-0.010409574
113	0xbd488505	-0.048954982
114	0xbd91c35c	-0.0711734
115	0xbd83f39d	-0.0644295
116	0xbe2992b6	-0.16559872
117	0xbe11354b	-0.14180486
118	0xbdd4c652	-0.10389389
119	0xbeaf6bcf	-0.3426194
120	0xbc0bc444	-0.00853068
121	0x3d8481c1	0.06470061
122	0xbe271fee	-0.16320774
123	0xbdde20e7	-0.108461194
124	0xbcead2eb	-0.028665027
125	0xbe4aba22	-0.19797567
126	0x3d93ea4a	0.072224215
127	0xbe3b00a6	-0.18261966
128	0xbdbe761c	-0.09299871
129	0xbd4a4dd4	-0.04939063
130	0xbe6f2019	-0.23352088
131	0xbdb52fcb	-0.088470064
132	0xbdf6d4a2	-0.12052275
133	0xbe5b334e	-0.2140629
134	0xbe5c6799	-0.21523894
135	0xbf24c880	-0.6436844
136	0xbf132c29	-0.5748926
137	0xbf2358e0	-0.6380749
138	0xbf00eadf	-0.50358385
139	0xbf1cb40b	-0.61212224
140	0xbf071d89	-0.5277944
141	0xbef8d6d8	-0.48601413
142	0xbf0af2cc	-0.5427673
143	0xbee5bd92	-0.44871193
144	0xbf315102	-0.69264233
145	0xbf026145	-0.5092967
146	0xbf09304e	-0.5358933
147	0xbf198092	-0.5996181
148	0xbf1f09d6	-0.62124383
149	0xbf12773a	-0.57213175
150	0xbf13f34b	-0.5779311
151	0xbee4ea1a	-0.44709855
152	0xbe89ba2b	-0.26899847
153	0xbf1e177a	-0.6175457
154	0xbf1b73af	-0.60723394
155	0xbee48e9f	-0.4464006
156	0xbf17a0d7	-0.592298
157	0xbec8daee	-0.3922953
158	0xbec5ac74	-0.38608134
159	0xbf0f9db6	-0.5610002
160	0xbf134bf8	-0.57537794
161	0xbeff1156	-0.49817914
162	0xbd8a1d42	-0.06743862
163	0xbdcf9a79	-0.10136885
164	0xbc186079	-0.009300345
165	0xbe6d2f43	-0.2316256
166	0xbdc51b39	-0.09624333
167	0xbd0b52cd	-0.03401451
168	0xbc9c5a10	-0.019085914
169	0xbe6022d8	-0.21888292
170	0xbe15caee	-0.14628193
171	0xbe5c8354	-0.21534473
172	0xbe3443b1	-0.17603947
173	0xbe8fb89b	-0.2807053
174	0xbdf5f148	-0.12008911
175	0xbd1f1bcf	-0.03884488
176	0xbd4a137e	-0.049334995
177	0xbe37ec56	-0.17961249
178	0x3d12a79d	0.03580438
179	0x3daf649e	0.08564113
180	0x3cc9cdaa	0.024634201
181	0xbe13f3dc	-0.14448494
182	0x3e38bddd	0.18041177
183	0xbd6a0d55	-0.05714162
184	0xbe3a92ef	-0.18220113
185	0xbc22da97	-0.009939811
186	0x3cdcfd70	0.026976317
187	0x3c8710a2	0.016487423
188	0x3c8b0878	0.016971812
189	0x3ec5143d	0.38492003
190	0x3ea06824	0.31329453
191	0x3ef0099b	0.46882328
192	0x3ee9c3b3	0.4565712
193	0x3ea3c25a	0.31984216
194	0x3ef7e21a	0.4841469
195	0x3eb6de9c	0.35716712
196	0x3e6afeab	0.2294871
197	0x3e826ad8	0.2547214
198	0x3e849c13	0.25900325
199	0x3eaa8397	0.3330352
200	0x3ed58c79	0.41708735
201	0x3ea17b15	0.31539217
202	0x3efb152b	0.49039587
203	0x3efd4230	0.4946456
204	0x3ed0a831	0.4075332
205	0x3f18065a	0.5938469
206	0x3ee8d873	0.45477638
207	0x3eaf1d15	0.34201875
208	0x3edf4088	0.4360392
209	0x3ef357cc	0.4752792
210	0x3ece4f7e	0.40295023
211	0x3e882408	0.2658999
212	0x3f021554	0.50813794
213	0x3ed4ec2a	0.4158643
214	0x3ecd3094	0.40076125
215	0x3f0fbece	0.5615052
216	0xc023ddec	-2.56042
217	0xc0159580	-2.3372498
218	0xc00d735b	-2.2101657
219	0xc025968a	-2.5873132
220	0xc01d6682	-2.4593816
221	0xc01f0d75	-2.4851964
222	0xc026874c	-2.6020079
223	0xc01a7aef	-2.4137533
224	0xc023f634	-2.561902
225	0xc01f183e	-2.4858546
226	0xc00f40fb	-2.238341
227	0xc010bc00	-2.2614746
228	0xc01b1d25	-2.4236538
229	0xc01b5cd6	-2.4275413
230	0xc015509b	-2.3330448
231	0xc0213ca8	-2.5193272
232	0xc02954f3	-2.64581
233	0xc01f83b3	-2.4924133
234	0xc0265c14	-2.59937
235	0xc01a391c	-2.4097357
236	0xc00c9588	-2.1966267
237	0xc00ffa17	-2.2496393
238	0xc027200e	-2.6113315
239	0xc0132cf5	-2.299619
240	0xc0154895	-2.332555
241	0xc02efef0	-2.7343102
242	0xc01b399e	-2.4253917
243	0xbdaac4c0	-0.08338308
244	0x3cc4d3d3	0.024026787
245	0xbd817924	-0.06321934
246	0x3cc17a61	0.023617925
247	0x3c3a19a8	0.011358656
248	0xbe18ebe4	-0.14933735
249	0xbccc99c8	-0.024975672
250	0xbe08ff20	-0.13378572
251	0xbe59c1a0	-0.21265268
252	0xbdb231a7	-0.08700877
253	0x3dcfe194	0.101504475
254	0xbb6e9886	-0.003640683
255	0x3dcd20c5	0.10016016

initial.0.bias f4 [20]
0	0xbdc3828c	-0.09546384
1	0x3df504c7	0.11963802
2	0x3da9a245	0.082829036
3	0xbc5973e8	-0.013272263
4	0x39d4da71	0.00040598543
5	0x3e3f3dea	0.18675962
6	0xbe16d454	-0.14729434
7	0xbda856eb	-0.08219703
8	0x3ddf451b	0.10901853
9	0xbdb01888	-0.08598429
10	0x3e21246d	0.15736552
11	0x3e11ae98	0.14226758
12	0x3db0f004	0.08639529
13	0x3d8fa50d	0.07013903
14	0xbc868967	-0.01642294
15	0xbdb8c56c	-0.0902203
16	0x3d46d7b2	0.048545547
17	0xbbb15d1b	-0.0054127104
18	0x3cf94268	0.030427173
19	0x3d17478e	0.036933474

initial.1.weight f4 [20]
0	0x3f4ba979	0.7955547
1	0x3f8ec157	1.1152753
2	0x3f78ffaa	0.9726511
3	0x3f839bb2	1.028189
4	0x3f647a8b	0.89249486
5	0x3f9999c5	1.2000052
6	0x3f863857	1.0485944
7	0x3f78b381	0.971489
8	0x3f2f5fff	0.68505853
9	0x3f88f16b	1.0698675
10	0x3f625e74	0.88425374
11	0x3f73d345	0.95244247
12	0x3f587302	0.8455049
13	0x3f387cfe	0.7206572
14	0x3f7ff555	0.9998372
15	0x3f9c7075	1.2221819
16	0x3f7c8533	0.98640746
17	0x3f45d6e0	0.77281
18	0x3f73133a	0.9495121
19	0x3f95e6ec	1.1711097

initial.1.bias f4 [20]
0	0xbe40859a	-0.18800965
1	0x3d657e9a	0.05602894
2	0x3d7f6eb0	0.06236142
3	0xbd757884	-0.059929386
4	0xbc852297	-0.016251845
5	0xbda70cc5	-0.081567325
6	0x3b841818	0.0040311925
7	0x3de07e1c	0.109615535
8	0xbecf9817	-0.40545723
9	0xbd20c564	-0.039250746
10	0xbe268e31	-0.16265179
11	0xbda4e629	-0.08051712
12	0xbd051971	-0.032494966
13	0xbe4647e6	-0.19363365
14	0x3da9c0e8	0.08288747
15	0x3e6429f5	0.2228163
16	0xbc8bce34	-0.017066099
17	0xbe7ae6f6	-0.24502167
18	0xbd424441	-0.047428373
19	0x3e820bc0	0.2539959

initial.1.running_mean f4 [20]
0	0xbfcbddeb	-1.5927099
1	0xbf5a5951	-0.85292536
2	0x3f7c5414	0.98565793
3	0xbf48da4d	-0.784581
4	0xbf74015f	-0.9531459
5	0xc0af6cc1	-5.4820256
6	0xbf7c41a7	-0.9853768
7	0x40851a78	4.159481
8	0xc1cc3e86	-25.530529
9	0xbf50b230	-0.8152189
10	0xbfad8b94	-1.3558221
11	0xbf81403b	-1.0097727
12	0x3f9a8df6	1.2074573
13	0x3feafdbd	1.8358685
14	0xbf85491e	-1.0412939
15	0x3f593646	0.8484844
16	0xbfd012e3	-1.6255764
17	0xc00e9964	-2.2281122
18	0xbf5dff58	-0.8671775
19	0x3f4e976b	0.80699795

initial.1.running_var f4 [20]
0	0x3f0a8b05	0.54118377
1	0x3e9e1158	0.30872607
2	0x3e9a5110	0.3013997
3	0x3e843b3f	0.2582645
4	0x3ea859b7	0.32880947
5	0x40aa3939	5.319485
6	0x3e8f1166	0.2794296
7	0x4043edd9	3.061392
8	0x42d56f97	106.71795
9	0x3e7ed85e	0.24887225
10	0x3f067067	0.5251526
11	0x3ebd107e	0.36926645
12	0x3ec270a0	0.3797655
13	0x3f30e8c2	0.6910516
14	0x3eaabd7e	0.33347696
15	0x3e9a06d3	0.3008333
16	0x3f1c749c	0.6111543
17	0x3f7ac55d	0.979574
18	0x3e95bd37	0.29245922
19	0x3e8409b9	0.25788668

res_blocks.0.conv.0.weight f4 [20, 20, 3, 3]
0	0x3c8eb5be	0.017420646
1	0x3d240005	0.04003908
2	0x3d769784	0.06020309
3	0xbd5470d1	-0.051865403
4	0xbcdc9b93	-0.026929652
5	0xbdc714cd	-0.09720764
6	0x3d41a95e	0.04728066
7	0xbd7ea3c7	-0.06216791
8	0x3d8ead33	0.06966629
9	0xbd869205	-0.0657082
10	0xbd0a9794	-0.033835962
11	0x3da70bc0	0.08156538
12	0x3cf73f94	0.030181684
13	0x3e13f5bf	0.14449213
14	0x3ca0d462	0.019632522
15	0x3e1701c6	0.1474677
16	0x3e227ef9	0.15868749
17	0x3e4745a5	0.19460161
18	0xbb9a81ed	-0.0047151954
19	0xbc99678f	-0.018726138
20	0xbbc594c1	-0.0060296957
21	0x3da1eb76	0.07906239
22	0xbcad0bef	-0.021123854
23	0xbd3fd5a0	-0.046834588
24	0xba449896	-0.0007499544
25	0xbc0a7ff9	-0.008453363
26	0x3d3f1945	0.04665496
27	0x3e735d89	0.2376615
28	0x3da443be	0.08020733
29	0x3eb32a26	0.34993094
30	0x3dc4fc0e	0.09618388
31	0x3df4f442	0.11960651
32	0x3c32e763	0.010919425
33	0x3df853a4	0.12125328
34	0x3d8176aa	0.063214615
35	0x3e255d43	0.16148858
36	0x3dbf901b	0.09353658
37	0x3d754b72	0.059886403
38	0x3e1d04d5	0.15333875
39	0x3d20d157	0.039262142
40	0x3dbb03a5	0.091315545
41	0x3de7f599	0.11326141
42	0xbc89d566	-0.01682539
43	0x3e3f37e6	0.18673667
44	0x3e348037	0.17627035
45	0xbe147d86	-0.14501008
46	0xbdff1768	-0.12455636
47	0x3e03f226	0.12885341
48	0xbcfb8078	-0.030700907
49	0xbd807773	-0.06272783
50	0x3e2d1dcb	0.16905896
51	0xbd650e1e	-0.055921666
52	0xbd962ea1	-0.073331125
53	0x3dee659f	0.116404764
54	0x3e1171e7	0.14203607
55	0x3c6898e1	0.014196605
56	0xbd8d493d	-0.06898735
57	0x3de1ec4c	0.11031398
58	0x3dabd2c2	0.08389808
59	0x3da75567	0.08170586
60	0x3dc30393	0.09522166
61	0x3dd83378	0.10556692
62	0x3cece274	0.028916575
63	0xbd2e8d17	-0.042615023
64	0x3e81cdc0	0.25352287
65	0x3e18a234	0.14905626
66	0xbbd11432	-0.0063805813
67	0x3e164b9b	0.14677279
68	0x3ded3d3d	0.11583946
69	0x3e45dbd2	0.19322136
70	0x3a80b6de	0.0009820124
71	0x3dd6d278	0.104893625
72	0xbd50ce37	-0.05097791
73	0x3d96b17e	0.07358073
74	0x3cb693f6	0.02228735
75	0x3d1da702	0.03848935
76	0x3d92b5b5	0.07163564
77	0xbd94aae1	-0.07259155
78	0x3c894d58	0.016760513
79	0x3e177d2e	0.14793846
80	0xbd8e7090	-0.06955063
81	0x3d816a8c	0.0631915
82	0x3dd09400	0.10184479
83	0xbd5c137b	-0.053729516
84	0x3d374071	0.04473919
85	0x3b8b4b71	0.0042509367
86	0x3e1a7ad0	0.15085912
87	0x3dc573e9	0.09641249
88	0xbcb5bb9c	-0.022184186
89	0x3d1e31d0	0.038621724
90	0xbd333f94	-0.043761805
91	0x3e12fd38	0.14354408
92	0x3dd8900c	0.1057435
93	0x3e1f5caa	0.15562692
94	0x3dc23ed3	0.09484639
95	0x3d8d5ec7	0.06902843
96	0x3e269847	0.16269027
97	0xbd350f4b	-0.044204038
98	0x3e0b4a2e	0.13602516
99	0xbdf790f4	-0.120881945
100	0xbca577f4	-0.0201988
101	0xbe2ab59c	-0.16670841
102	0x3dd6cb90	0.10488045
103	0x3d7e06a8	0.062018067
104	0x3d9d89c8	0.07692295
105	0x3e817cef	0.2529063
106	0x3e13ec7a	0.14445677
107	0x3c73ca59	0.014879786
108	0x3dd4b06e	0.10385214
109	0x3d60f131	0.054917518
110	0xbccfd91d	-0.025372082
111	0xbc4b4329	-0.012406149
112	0xbc6276dc	-0.013822284
113	0xbc2990e0	-0.010349482
114	0xbd1e037f	-0.038577553
115	0x3cbd8891	0.023136409
116	0x3c817472	0.015802596
117	0x3dc14336	0.094366476
118	0xbe215faf	-0.15759157
119	0x3cdb5ddf	0.02677816
120	0xbe093dc0	-0.13402462
121	0xbd7fdc0c	-0.062465712
122	0x3e458af9	0.19291295
123	0x3cb1226f	0.021622865
124	0x3dc4ac73	0.096032046
125	0x3df65465	0.12027816
126	0x3d06c94f	0.032906827
127	0x3d7d99f3	0.061914396
128	0xbe2d693e	-0.16934678
129	0x3e1eeb95	0.15519555
130	0x3c990f38	0.018684015
131	0x3e0583a5	0.130385
132	0x3dc03dc7	0.09386783
133	0xbe40725a	-0.18793622
134	0x3dd0ce15	0.10195557
135	0x3e4b0025	0.19824274
136	0xbd1cbf75	-0.038268525
137	0x3e14b94f	0.14523815
138	0x3e2a987c	0.1665973
139	0xbdd78151	-0.10522712
140	0x3cad4483	0.021150833
141	0x3dbd80d4	0.09253088
142	0xbd31e663	-0.043432605
143	0x3e2604b0	0.16212726
144	0x3e20a410	0.15687585
145	0x3d10c304	0.03534223
146	0x3dc1f581	0.09470654
147	0xbd546286	-0.05185177
148	0x3d7e5d12	0.062100478
149	0xbc1b7cd1	-0.009490208
150	0x3dd0d359	0.10196561
151	0xbdc6eeaf	-0.09713494
152	0x3e131641	0.14363958
153	0xbd104c34	-0.035228923
154	0xbe1d89a9	-0.15384544
155	0x3e646335	0.2230347
156	0x3d8662f6	0.06561844
157	0x3e2b24c5	0.16713245
158	0xbd94a1bc	-0.07257411
159	0x3d3dd533	0.0463459
160	0x3d94c192	0.07263483
161	0xbc863da0	-0.016386807
162	0x3e21fb23	0.15818457
163	0xbdce2b35	-0.10066835
164	0x3e6896bf	0.22713755
165	0xbde7dc80	-0.11321354
166	0x3dd8b866	0.10582046
167	0x3e099247	0.13434707
168	0x3be8f3d3	0.0071091442
169	0x3b99972d	0.004687211
170	0xbb8159d8	-0.003947478
171	0x3e340fc8	0.17584145
172	0xbdfb594d	-0.12272892
173	0x3e5e1da0	0.21690989
174	0xbdea53fe	-0.114418015
175	0xbc57d891	-0.013174192
176	0xbe1f8dde	-0.15581462
177	0xbd37168f	-0.044699248
178	0x3e507fc1	0.20361234
179	0x3ccbfdec	0.024901353
180	0xbe8aaf6c	-0.2708696
181	0xbd4b6104	-0.04965307
182	0xbe2f9939	-0.17148294
183	0x3c87bdda	0.01657002
184	0xbdea838e	-0.11450873
185	0xbe833bab	-0.2563146
186	0xbdb25226	-0.08707075
187	0xbd92d8b0	-0.07170236
188	0xbe00f042	-0.12591651
189	0xbe663b87	-0.22483645
190	0xbcb7da38	-0.022442922
191	0x3ca03dc6	0.019560706
192	0xbcb2ff73	-0.021850323
193	0xbdd03e5a	-0.101681426
194	0xbe2b94af	-0.16755937
195	0xbde9a985	-0.114092864
196	0x3d998734	0.07496491
197	0xbd318d46	-0.04334762
198	0xbda71cee	-0.08159815
199	0x3d686066	0.056732558
200	0xbe322b75	-0.1739939
201	0xbe299de5	-0.16564138
202	0xbd62a895	-0.055336554
203	0xbb511b7a	-0.0031907246
204	0xbb31dd7a	-0.0027140067
205	0xbe536070	-0.20642257
206	0x3beeac2a	0.007283707
207	0xbe67ebe2	-0.22648576
208	0xbe1c63c1	-0.15272428
209	0x3bedc9a9	0.007256706
210	0x3d0f5dc3	0.035001528
211	0xbd9f738a	-0.07785709
212	0xbd2dce93	-0.042433333
213	0xbd8d5cfb	-0.069025
214	0xbce14bc8	-0.027501956
215	0xbb6591e6	-0.003502959
216	0x3d1fdcae	0.039028816
217	0xbe178573	-0.14797
218	0xbd8f8cf6	-0.07009308
219	0x3b19ace3	0.0023448996
220	0x3d3bb4d1	0.045826737
221	0xbebdebe2	-0.37094027
222	0xbe091539	-0.13387002
223	0x3d9b2e96	0.07577245
224	0xbdc737c3	-0.097274326
225	0xbd92c5d0	-0.07166636
226	0xbce54dc2	-0.02799118
227	0xbd8caa93	-0.06868472
228	0xbd898cd1	-0.06716312
229	0xbe89ec06	-0.26937884
230	0xbe1329c6	-0.14371404
231	0x3e018138	0.1264695
232	0x3e2d1978	0.16904247
233	0xbb941b77	-0.0045198756
234	0xbc1c4a4e	-0.0095392
235	0xbe78144e	-0.24226496
236	0xbddf8aa5	-0.10915116
237	0xbe5affa8	-0.21386588
238	0xbd2a741c	-0.041614637
239	0x3d1e30c6	0.038620733
240	0xbd9fca20	-0.07802224
241	0xbdad497e	-0.08461283
242	0xbdf93857	-0.12168949
243	0xbe07d754	-0.13265735
244	0xbe52b2bd	-0.20575996
245	0xbe2503be	-0.16114709
246	0xbdeb1b7a	-0.1147985
247	0xbd47aebf	-0.048750635
248	0xbd5804f3	-0.052739095
249	0xbdc7f0c7	-0.097627215
250	0xbe2240b7	-0.15844999
251	0xbe814d10	-0.25254107
252	0xbcc6b750	-0.024257332
253	0xbd856c31	-0.065147765
254	0xbcb6cba9	-0.02231391
255	0xbd2bdfcd	-0.04196148

res_blocks.0.conv.0.bias f4 [20]
0	0x3d8596d9	0.065229125
1	0xbd2f3a7d	-0.04278039
2	0x3d678c6b	0.056530397
3	0x3d904c1d	0.070457675
4	0x3d3b9f7e	0.0458064
5	0xbc1166a5	-0.00887457
6	0xbc352e2c	-0.0110583715
7	0x3d239ec6	0.03994634
8	0x3c71172d	0.014714998
9	0x3d31963a	0.043356158
10	0xbd89f95c	-0.06737015
11	0xbd4ea48e	-0.0504499
12	0xbd6a21de	-0.057161205
13	0x3d4f0edb	0.050551277
14	0x3d29ff42	0.0415032
15	0xbb17ed7d	-0.0023182326
16	0xbd808f2f	-0.0627731
17	0xbd38a0c4	-0.045075193
18	0x3d8affd1	0.06787074
19	0x3ca48cd8	0.02008669

res_blocks.0.conv.1.weight f4 [20]
0	0x3f98127e	1.1880643
1	0x3fa098a9	1.2546588
2	0x3f87e747	1.0617455
3	0x3f89ae50	1.0756321
4	0x3f8d496e	1.1038034
5	0x3f7f1909	0.99647576
6	0x3f57e090	0.8432703
7	0x3f816e0b	1.0111707
8	0x3f8c8126	1.0976913
9	0x3f7d5325	0.98954993
10	0x3f5df4b8	0.86701536
11	0x3f6dff09	0.9296728
12	0x3f81f061	1.0151483
13	0x3f283a84	0.6571429
14	0x3f8e55d5	1.1119944
15	0x3f61a318	0.88139486
16	0x3f7a1bf5	0.9769891
17	0x3f68344c	0.907048
18	0x3f81840b	1.0118421
19	0x3f7d2e2c	0.9889858

res_blocks.0.conv.1.bias f4 [20]
0	0x3dc163d6	0.0944287
1	0x3d5924f6	0.053013764
2	0x3dd7b0da	0.10531779
3	0xbe0cefa5	-0.13763292
4	0x3e301701	0.17196275
5	0x3df9e5aa	0.12202008
6	0xbd63ca66	-0.055612944
7	0x3db6b0ee	0.089204654
8	0x3e30d800	0.17269897
9	0x3ba15f98	0.0049247257
10	0xbde5f77d	-0.11228845
11	0xbda3130a	-0.07962616
12	0x3dcccf43	0.100004695
13	0xbe711301	-0.23542406
14	0x3c9624ad	0.018328035
15	0xbd38cc69	-0.045116816
16	0x3e610e48	0.21978104
17	0xbcc36735	-0.023852924
18	0x3dcf0d6d	0.10109983
19	0x3a8f0534	0.0010911585

res_blocks.0.conv.1.running_mean f4 [20]
0	0x3fe9facf	1.8279666
1	0xc05e107f	-3.4697568
2	0xbf9ced7a	-1.2259972
3	0x4004113c	2.063552
4	0xc0538e85	-3.3055737
5	0xbfbf788e	-1.4958665
6	0xbfbf4d85	-1.4945532
7	0xbd9d96b7	-0.07694762
8	0xbf675eb5	-0.90378886
9	0xbfbe52c1	-1.4869004
10	0x3f4e80f8	0.8066554
11	0x3f0acdb8	0.5422015
12	0xbeb85990	-0.3600583
13	0xbecd139b	-0.4005402
14	0x3e8d1c0e	0.27560467
15	0xbf4996f3	-0.78745955
16	0x3f96765f	1.1754874
17	0x3fa5c965	1.2952086
18	0xbf2e1169	-0.67995316
19	0x3f55a7b1	0.83459

res_blocks.0.conv.1.running_var f4 [20]
0	0x403e5bf9	2.9743636
1	0x4094014d	4.625159
2	0x403eecd6	2.9832053
3	0x4154939d	13.286038
4	0x410d75ed	8.84129
5	0x4085145a	4.1587343
6	0x403d062f	2.9535024
7	0x403d7ea4	2.9608545
8	0x4056392a	3.347239
9	0x4026ba34	2.605115
10	0x3fbbe3e5	1.4678923
11	0x4048c54b	3.1370418
12	0x4065dd45	3.5916302
13	0x4280a2d3	64.318016
14	0x408e1333	4.4398437
15	0x420e99ff	35.650387
16	0x4089c125	4.304827
17	0x42a16fe1	80.71851
18	0x423165b7	44.34933
19	0x413d58fa	11.834223

res_blocks.0.conv.3.weight f4 [20, 20, 3, 3]
0	0xbe57d762	-0.21078256
1	0xbe8a08d7	-0.2695987
2	0xbe6ac7c4	-0.22927767
3	0x3cdfe8fa	0.027332772
4	0xbddb2248	-0.10699898
5	0xbc63fc02	-0.013915064
6	0xbe681590	-0.22664475
7	0xbd90ec86	-0.07076363
8	0xbe38eb36	-0.18058476
9	0x3e1c258c	0.15248698
10	0x3e71df33	0.236203
11	0x3e07657b	0.13222305
12	0x3db73204	0.089450866
13	0x3eb53bff	0.35397336
14	0x3e813b47	0.25240538
15	0x3e818e73	0.25303993
16	0x3e287208	0.1644975
17	0x3db42501	0.087961204
18	0xbbac3f2a	-0.005256553
19	0xbd0382e6	-0.032107256
20	0xbdafd4ce	-0.08585511
21	0xbce52a0e	-0.027974155
22	0xbd9407cd	-0.072280504
23	0xbe44914a	-0.19196048
24	0xbc5bf01c	-0.013423946
25	0xbd878441	-0.06617022
26	0xbd0808bf	-0.033211466
27	0xbe0542c2	-0.13013747
28	0x3ab9e010	0.0014181156
29	0xbd229e54	-0.039701775
30	0xbd3a5da9	-0.045499478
31	0xbda23169	-0.079195805
32	0xbe0e773e	-0.13912675
33	0xbd0f60be	-0.03500437
34	0xbe6ca153	-0.23108415
35	0xbcd3f09e	-0.025871571
36	0xbb9c3ded	-0.0047681243
37	0xbc17ae73	-0.0092579005
38	0x3cca3312	0.024682555
39	0xbcaafdf9	-0.020873057
40	0x3cda7bd3	0.026670372
41	0x3e4a0a6e	0.19730541
42	0x3b0737f8	0.0020632725
43	0x3e111198	0.14166868
44	0xbd16c85d	-0.036812175
45	0x3ce0700b	0.027397176
46	0xbce255c6	-0.02762879
47	0xbca9e765	-0.02074022
48	0xbd1eb548	-0.038747102
49	0xbd936647	-0.07197242
50	0xbdc2bd2e	-0.095087394
51	0x3d44b0fb	0.048020344
52	0x3d35cd8c	0.044385478
53	0x3d5e4ca1	0.054272298
54	0x3dda2d1b	0.106531344
55	0xbd81f53c	-0.06345603
56	0xbe11019a	-0.14160767
57	0x3caa5309	0.020791547
58	0xbe406a2d	-0.18790503
59	0x3c448d8b	0.011996637
60	0xbcc7e652	-0.024401817
61	0xbe08daab	-0.13364665
62	0xbd84b893	-0.06480517
63	0xbc684c5f	-0.014178365
64	0x3cd5d2e4	0.026101537
65	0x3d9a6d0d	0.07540331
66	0xbb291fc2	-0.0025806283
67	0x3cd9264b	0.026507517
68	0xbd6b6874	-0.05747266
69	0xbd83e7bb	-0.064406835
70	0x3da5bd9c	0.08092806
71	0xbd0631ed	-0.032762457
72	0x3e18eddf	0.1493449
73	0xbaf9cb64	-0.0019057808
74	0x3da6cab2	0.0814413
75	0x3d353587	0.0442405
76	0xbdcaa0f7	-0.09893983
77	0xbbb4f2d8	-0.0055221133
78	0x3c98c747	0.01864971
79	0x3cb0b6d5	0.021571556
80	0xbd2d6f3d	-0.042342413
81	0xbd2b2348	-0.041781694
82	0xbde3c423	-0.111213945
83	0xbe27e8fe	-0.16397473
84	0xbdc88326	-0.097906396
85	0x3da1b26d	0.0789536
86	0x3b168a49	0.0022970608
87	0x3e0c18ee	0.13681385
88	0xbb09b25a	-0.0021010847
89	0x3d8fbc1d	0.07018302
90	0x3cacbf58	0.021087334
91	0x3dccb4f7	0.09995454
92	0xbe62f2ff	-0.22163008
93	0xbd684312	-0.05670459
94	0xbc395e4f	-0.011313989
95	0xbd13de0d	-0.036100436
96	0xbe29a041	-0.16565038
97	0xbe53e945	-0.20694454
98	0xbc8eb55b	-0.017420461
99	0xbe1c303a	-0.15252772
100	0xbd5c0ce9	-0.05372325
101	0xbc22f14f	-0.009945228
102	0xbda9f116	-0.082979366
103	0xbda580de	-0.0808122
104	0xbd1adf90	-0.037810862
105	0xbca2c1a6	-0.01986773
106	0xbdf9a23f	-0.12189149
107	0xb8abbe00	-8.189306e-05
108	0xbd571485	-0.052509803
109	0xbda89018	-0.08230609
110	0x3d182618	0.037145704
111	0xbe9a0834	-0.30084383
112	0xbe049512	-0.12947491
113	0xbd21e9b5	-0.03952952
114	0xbca5aaf0	-0.02022311
115	0xbe0023d9	-0.12513675
116	0xbd8fabf0	-0.07015216
117	0x3d94474f	0.072401635
118	0x3d9391f3	0.07205572
119	0xbd3a83d1	-0.045535866
120	0xbc66e988	-0.014093764
121	0x3e0942a3	0.13404326
122	0xbc5ec612	-0.013597028
123	0xbd5d339d	-0.0540043
124	0xbe25b2cb	-0.16181485
125	0x3d9a6871	0.07539452
126	0xbccb66e9	-0.024829345
127	0xbead79f1	-0.33882096
128	0xbda9d651	-0.08292831
129	0xbe051594	-0.12996513
130	0xbdeb8c1d	-0.11501334
131	0x3c2c4b71	0.0105160335
132	0xbe001951	-0.12509657
133	0x3d92258c	0.07136068
134	0x3e08d275	0.13361533
135	0x3c4425a4	0.011971865
136	0x3df5803b	0.11987349
137	0xbe615558	-0.22005212
138	0xbdafac3d	-0.08577774
139	0x3b7b9b0a	0.003839197
140	0x3dc1c87d	0.09462068
141	0xbe6ff8ba	-0.23434725
142	0xbd9e6dab	-0.07735761
143	0xbc77e742	-0.01513082
144	0xbe11959d	-0.14217229
145	0xbe69f54e	-0.22847483
146	0xbe37b654	-0.17940646
147	0xbcae9e94	-0.02131585
148	0xbde7d828	-0.113205254
149	0xbe9537ac	-0.29144037
150	0xbe000d7d	-0.12505145
151	0xbdfbe4db	-0.1229951
152	0xbdfa895b	-0.1223323
153	0xbe9485e7	-0.2900841
154	0xbd1df420	-0.038562894
155	0xbbccfd0e	-0.0062557524
156	0x3d893757	0.06700008
157	0x3d7b1291	0.061297003
158	0xbd355898	-0.044273943
159	0xbe325087	-0.17413531
160	0xbdd2437f	-0.1026678
161	0xbe1cb081	-0.15301706
162	0xbd05ca51	-0.032663647
163	0xbd6fabf6	-0.058513604
164	0xbd0f15bc	-0.034932837
165	0xbe0f7da6	-0.14012775
166	0x3d9b7c88	0.07592112
167	0xbd90ac29	-0.07064087
168	0xbe337cb5	-0.1752804
169	0x3dfe00d4	0.12402502
170	0x3d875a11	0.06608976
171	0xbddb6fde	-0.10714696
172	0xbe21203d	-0.15734954
173	0x3c76f853	0.015073854
174	0xbe0ac16e	-0.1355035
175	0xbe0a4545	-0.13502987
176	0xbe0695d7	-0.13143097
177	0xbe54d459	-0.20784129
178	0xbdde1ec3	-0.10845711
179	0xbd8d8627	-0.06910353
180	0x3dfd025e	0.12353967
181	0xbe09cde5	-0.13457449
182	0xbdd0b603	-0.10190966
183	0xbd6eb30e	-0.05827623
184	0xbdc306b3	-0.09522762
185	0xbe3d9721	-0.18514682
186	0xbdee24fc	-0.11628148
187	0xbb922972	-0.004460507
188	0x3cc34303	0.023835665
189	0x3e340a64	0.17582089
190	0x3dda1424	0.10648373
191	0x3e3c4ab5	0.18387873
192	0x3ebea102	0.37232214
193	0x3e7aeb87	0.24503909
194	0x3f02eb08	0.5113988
195	0x3e5e2d42	0.21696952
196	0x3e9c0a3e	0.30476564
197	0x3e2b5148	0.16730225
198	0xbe043b1c	-0.12913173
199	0x3d08d9fe	0.03341102
200	0xbd5fa38d	-0.054599334
201	0x3b3cc728	0.002880523
202	0xbc0ddc8e	-0.008658541
203	0xbe1210de	-0.14264247
204	0x3dc16fe5	0.0944517
205	0xbe290e21	-0.16509296
206	0xbc384d8e	-0.011248959
207	0xbd6f3b79	-0.058406327
208	0x3dea23d9	0.11432619
209	0x3e6b2fd3	0.22967462
210	0x3e4ec350	0.20191693
211	0x3de3a2eb	0.111150585
212	0xbca3a500	-0.019976139
213	0xbc9dc3fa	-0.019258488
214	0x3dddc96a	0.10829432
215	0x3d39e474	0.045383886
216	0xbcafb863	-0.021450227
217	0xbbf9a636	-0.007618691
218	0x3dfa5877	0.122239046
219	0x3e462ae5	0.193523
220	0x3db2da72	0.087330714
221	0x3c8d3ca6	0.017240833
222	0x3dbe771e	0.093000636
223	0x3d6df017	0.058090296
224	0x3bfe5407	0.0077614817
225	0x3aba0e82	0.0014194997
226	0x3e2186e5	0.15774114
227	0x3afcba40	0.0019281581
228	0xbdca98d7	-0.09892433
229	0xbdd33f1e	-0.10314773
230	0xbd1ded92	-0.038556643
231	0x3e612c0f	0.21989463
232	0xbe10b48b	-0.14131372
233	0x3e25f3a4	0.16206223
234	0x3dcd1947	0.10014587
235	0xba3f030c	-0.0007286526
236	0xbb517457	-0.0031960213
237	0xbd593952	-0.05303318
238	0xbe5fd206	-0.21857461
239	0xbd86aa59	-0.0657546
240	0x3cb7040f	0.022340802
241	0xbc9c0c90	-0.019048959
242	0xbe23250d	-0.15932103
243	0xbc804937	-0.015659912
244	0xbdc67f51	-0.096922524
245	0x3e064372	0.13111666
246	0xbbf6895c	-0.0075236987
247	0x3cb7d3ae	0.022439804
248	0x3d82151b	0.06351682
249	0x3e25766d	0.16158457
250	0xbcb3db6c	-0.021955214
251	0xbe186d6a	-0.14885488
252	0x3ce71da0	0.028212368
253	0xbd2fc987	-0.0429168
254	0x3d79b66a	0.06096498
255	0x3d5c3056	0.053757034

res_blocks.0.conv.3.bias f4 [20]
0	0x3d848099	0.064698406
1	0xbba8ceb2	-0.005151593
2	0x3d2b5130	0.041825473
3	0x3d6839fd	0.056695927
4	0x3d2c5afa	0.04207895
5	0x3c678264	0.014130209
6	0x3d008584	0.03137733
7	0xbd839068	-0.06424028
8	0x3d5d0c86	0.05396702
9	0xbd976958	-0.073931396
10	0xbc5b50cd	-0.013385964
11	0xbd2b456c	-0.041814253
12	0x3c1433c8	0.009045549
13	0xbb900944	-0.004395636
14	0xbd516d24	-0.051129475
15	0xbd5b715c	-0.053574905
16	0xbcca4aa6	-0.024693798
17	0xbd1ab364	-0.037768736
18	0xbcf72e6a	-0.0301735
19	0x3d6df967	0.058099177

res_blocks.0.conv.4.weight f4 [20]
0	0x3f6559e1	0.8959027
1	0x3f83664a	1.0265591
2	0x3f78725e	0.9704951
3	0x3f86533b	1.049415
4	0x3f8a44f8	1.0802298
5	0x3f845417	1.0338162
6	0x3f6ee872	0.93323433
7	0x3f87f205	1.0620733
8	0x3f71d767	0.944693
9	0x3f82384d	1.0173432
10	0x3f5c844f	0.86139387
11	0x3f8632e6	1.0484283
12	0x3f7a67fc	0.9781492
13	0x3f70a30f	0.9399881
14	0x3f84671d	1.0343968
15	0x3f8aeaa5	1.0852858
16	0x3f7e78a0	0.9940281
17	0x3f999f24	1.2001691
18	0x3f85aaf4	1.0442796
19	0x3f85844e	1.0431001

res_blocks.0.conv.4.bias f4 [20]
0	0xbda08222	-0.07837321
1	0x3da44798	0.08021468
2	0xbc6d06c9	-0.01446695
3	0x3d55026d	0.052004267
4	0xbcd109b1	-0.025517317
5	0x3c52de3a	0.012870366
6	0x3d56d430	0.05244845
7	0x3da5365d	0.080670096
8	0xbde9667b	-0.113965
9	0x3c699128	0.014255799
10	0xbe138dd1	-0.14409567
11	0xbd87bde8	-0.066280186
12	0x3db8a440	0.09015703
13	0xbd03101a	-0.031997778
14	0x3cb45669	0.02201386
15	0x3e2216cd	0.1582901
16	0xbd6ebe2b	-0.058286827
17	0xbc3d4ee5	-0.011554454
18	0xbdb04dea	-0.08608611
19	0x3e262177	0.16223703

res_blocks.0.conv.4.running_mean f4 [20]
0	0xbfbe9013	-1.4887718
1	0xbe7dc72e	-0.24783012
2	0x3f1417a0	0.5784855
3	0xbed8788f	-0.4227948
4	0x3e78fa0d	0.24314137
5	0x3f15b069	0.58472306
6	0xbebab0d5	-0.36463037
7	0x3f5bed21	0.85908705
8	0xbf901b66	-1.1258361
9	0xbf904245	-1.1270224
10	0x400415a0	2.06382
11	0xbfb8cd71	-1.4437696
12	0xbf9ba758	-1.2160444
13	0xbf9e5e26	-1.2372482
14	0xbe8a43ce	-0.27004856
15	0x3e5bd618	0.21468389
16	0x3fbaa6d9	1.4582168
17	0x3d0f2aae	0.034952812
18	0xbe176d3a	-0.1478776
19	0x3f0c4751	0.5479632

res_blocks.0.conv.4.running_var f4 [20]
0	0x40d8da42	6.776643
1	0x40467438	3.1008434
2	0x409d349e	4.912673
3	0x404ae2d7	3.1700952
4	0x4081b198	4.052929
5	0x406ca8c8	3.6978016
6	0x40d1bed1	6.554543
7	0x401820d8	2.3770046
8	0x41e4c4a3	28.596014
9	0x40d57f17	6.671764
10	0x41910594	18.127724
11	0x3ff85d84	1.9403539
12	0x4112e499	9.18081
13	0x41839df1	16.45212
14	0x4159c36c	13.61021
15	0x408f9e65	4.4880853
16	0x405c6263	3.443505
17	0x40f57811	7.6709065
18	0x4100251c	8.00906
19	0x409ffba7	4.9994693

res_blocks.1.conv.0.weight f4 [20, 20, 3, 3]
0	0xbd9993e1	-0.07498909
1	0xbcc5e520	-0.024157107
2	0x3e1e021e	0.15430495
3	0xbcd0777b	-0.025447598
4	0xbd8acb09	-0.06777007
5	0xbc0ee37a	-0.008721227
6	0xbe266763	-0.16250376
7	0xbcc2f038	-0.023796186
8	0x3df782e4	0.12085512
9	0x3e307635	0.17232592
10	0x3e237e6a	0.15966192
11	0x3e389017	0.18023716
12	0x3e0dcd65	0.13847883
13	0x3d8f368a	0.069928244
14	0x3d48467e	0.04889535
15	0x3d8d912a	0.069124535
16	0x3dfcacd8	0.12337655
17	0xbd089cc2	-0.03335262
18	0xbe17ae5e	-0.1481261
19	0xbd04d3a1	-0.032428388
20	0xbe0ac282	-0.13550761
21	0xbdd82b7c	-0.10555169
22	0xba112ef8	-0.000553831
23	0xbe0952a0	-0.13410425
24	0x3d513ec8	0.051085263
25	0xbe24b4f0	-0.16084647
26	0xbd811de0	-0.06304526
27	0xbdad8ec4	-0.08474496
28	0xbd7da68a	-0.061926402
29	0xbe4165ae	-0.18886444
30	0xbdb6dd61	-0.089289434
31	0xbd4f93ac	-0.05067794
32	0xbe05e3c2	-0.13075164
33	0xbd47e432	-0.04880161
34	0xbda148fc	-0.07875249
35	0x3e381ce9	0.17979778
36	0x3d8658ed	0.0655993
37	0x3e187f02	0.148922
38	0xbd920674	-0.07130137
39	0x3d88f4a2	0.06687285
40	0x3e048bb8	0.12943923
41	0xbe1f7c86	-0.15574846
42	0xbe00f052	-0.12591675
43	0x3d47a677	0.048742738
44	0xbe2f9836	-0.17147908
45	0x3d0f75e9	0.035024557
46	0x3e18af6a	0.14910665
47	0x3d8ba9d8	0.068195045
48	0xbe835c91	-0.2565656
49	0xbe46ee06	-0.19426736
50	0xbe492005	-0.1964112
51	0xbe9a11ad	-0.3009161
52	0xbd8f4bc5	-0.06996874
53	0xbcf4aef4	-0.02986858
54	0xbd827565	-0.063700475
55	0xbda6d7fa	-0.08146663
56	0xbe091b05	-0.13389213
57	0xbe033fe1	-0.12817337
58	0xbe10cde1	-0.14141037
59	0xbdb13d10	-0.08654225
60	0xbcd016cd	-0.025401497
61	0xbc9b4b8b	-0.01895692
62	0xbd7eb146	-0.06218078
63	0xbe6c88bb	-0.23099034
64	0xbd8eb932	-0.06968917
65	0xbda9e6fe	-0.082960114
66	0xbe504f6b	-0.20342796
67	0xbd8e1da1	-0.06939245
68	0xbe2b93bd	-0.16755576
69	0xbdb0b7f4	-0.08628836
70	0xbe131a13	-0.14365415
71	0xbdb2a7b0	-0.0872339
72	0x3d5575d7	0.052114334
73	0xbd70d404	-0.058795944
74	0x3e3ccf91	0.18438555
75	0xbd9bc0e9	-0.07605154
76	0x3dcbf349	0.09958512
77	0x3c8fd6c3	0.017558461
78	0x3e5fa196	0.21838984
79	0xbcdaa5be	-0.02669036
80	0x3d3618f0	0.044457376
81	0xbe150772	-0.14553621
82	0x3e099458	0.13435495
83	0x3cad5fd1	0.021163853
84	0xbcf13b48	-0.029447213
85	0x3c9ee6a4	0.019397087
86	0xbe0de4f7	-0.13856874
87	0xbe67c343	-0.2263308
88	0xbc241ef5	-0.010017146
89	0x3bd84b0c	0.006600743
90	0xbe7f8e35	-0.24956591
91	0xbd75c885	-0.060005683
92	0xbe880a84	-0.26570523
93	0xbda332be	-0.07968663
94	0xbdcbcfea	-0.09951766
95	0xbe3173a3	-0.17329268
96	0x3d14a383	0.03628875
97	0xbdb6d98e	-0.08928214
98	0xbd999f01	-0.07501031
99	0x3dfeb5a1	0.12436987
100	0xbd91d8f7	-0.07121461
101	0x3e082435	0.13295062
102	0x3e06a6fc	0.13149637
103	0xbd81761e	-0.06321357
104	0x3e2462b1	0.16053273
105	0xbe4ccd90	-0.20000291
106	0x3dffa2d9	0.124822326
107	0x3d142efa	0.036177613
108	0xbe3b5720	-0.18294954
109	0x3d050a6d	0.032480646
110	0x3d7a3351	0.061084095
111	0x3cfe7f6f	0.031066624
112	0x3dab0c84	0.083519965
113	0x3d8ddfe9	0.06927473
114	0xbcb67979	-0.02227472
115	0x3d008495	0.03137644
116	0xbc6eb494	-0.01456942
117	0xbe4f39f4	-0.20236951
118	0xbdad4883	-0.08461096
119	0x3ddb4e68	0.10708314
120	0x3d9797dd	0.074020125
121	0x3dc75ccf	0.09734499
122	0xbd857161	-0.06515766
123	0x3d33a961	0.043862704
124	0xbe73b07e	-0.23797795
125	0x3d0ea156	0.03482183
126	0xbdf82479	-0.121163316
127	0xbe1b73ce	-0.15180895
128	0xbd94abb8	-0.07259315
129	0x3aaf7146	0.0013385199
130	0x3dd75178	0.10513586
131	0xbcc5afd1	-0.024131687
132	0x3da5720b	0.080783926
133	0xbe015739	-0.12630929
134	0x3cce030f	0.025147943
135	0xbe111d3a	-0.14171305
136	0xbe8c146f	-0.2735934
137	0xbd7a28a3	-0.06107391
138	0x3ddc6d40	0.10763025
139	0xbdac0185	-0.08398727
140	0xbe527f5a	-0.20556393
141	0xbd8fd30e	-0.07022677
142	0x3ca786ed	0.02045008
143	0xbd96353f	-0.07334375
144	0xbeabcf9d	-0.33556834
145	0xbd4066eb	-0.04697315
146	0xbe2cbb25	-0.16868265
147	0xbe837e71	-0.25682405
148	0xbdfc243c	-0.12311599
149	0xbdd37e98	-0.1032688
150	0xbe59ead3	-0.21280985
151	0xbe9249db	-0.28571972
152	0xbe2db34a	-0.16962925
153	0x3cd59f01	0.026076796
154	0x3c40b668	0.011762239
155	0xbe1f1e8d	-0.15538998
156	0x3c62822d	0.013824982
157	0xbe2b765b	-0.16744368
158	0x3e146d76	0.14494881
159	0xbe054ed6	-0.13018355
160	0x3cb6b131	0.022301288
161	0x3c86ad7c	0.016440146
162	0x3d2c2347	0.04202583
163	0x3def775e	0.11692689
164	0x3da23f56	0.079222366
165	0xbe37dd3c	-0.17955488
166	0x3d128c82	0.03577853
167	0xbdc1285c	-0.09431526
168	0x3df3140f	0.1186906
169	0x3e2946ba	0.16530886
170	0x3db97d36	0.09057085
171	0x3d585299	0.052813146
172	0xbdbb84ef	-0.091562144
173	0xbe3cdf53	-0.18444566
174	0xbe3677ff	-0.17819212
175	0xbe7a61c5	-0.24451359
176	0xbe0d0ffb	-0.13775627
177	0xbdf8cf39	-0.121488996
178	0xbc9ce8ae	-0.01915392
179	0xbe66c669	-0.22536625
180	0x3cb4f6c5	0.022090325
181	0xbccfeb1e	-0.025380667
182	0x3e414e0c	0.18877429
183	0x3e02e784	0.12783629
184	0xbd5dab7a	-0.05411861
185	0x3c0ce5a0	0.008599669
186	0xbc91c4b8	-0.017793998
187	0x3c61bdc2	0.013778152
188	0x3e370761	0.17873909
189	0x3e2b5559	0.16731776
190	0x3d68af3a	0.056807734
191	0x3e3ba07c	0.18322939
192	0x3e2594e9	0.16170086
193	0x3e14a584	0.14516264
194	0x3e8eca7f	0.27888867
195	0x3c8f7519	0.017511891
196	0x3d71914e	0.058976464
197	0x3dbf57b4	0.093429
198	0x3d9fe981	0.07808209
199	0xbda66293	-0.0812427
200	0xbe2ec9f4	-0.17069227
201	0x3db7ef22	0.08981158
202	0x3e39f7a9	0.18160881
203	0xbe160907	-0.14651881
204	0x3d796d24	0.0608951
205	0xbd769636	-0.060201846
206	0xbda65717	-0.0812208
207	0xbd579bae	-0.052638702
208	0xbe406063	-0.18786769
209	0xbc02dd89	-0.007987388
210	0xbd7ba517	-0.06143674
211	0x3e4297c0	0.190032
212	0xbb675362	-0.0035297503
213	0xbda99671	-0.082806475
214	0xbe04b794	-0.12960654
215	0x3d2152c8	0.039385587
216	0x3d127e2c	0.035764858
217	0x3e5d1c93	0.21592931
218	0x3c526e08	0.012843616
219	0x3c5c56db	0.013448442
220	0x3d2d4f05	0.042311687
221	0xbd99ce53	-0.07510056
222	0x3d5471c2	0.0518663
223	0xbd930135	-0.071779646
224	0x3c732fad	0.01484291
225	0xbde998df	-0.11406111
226	0x3ccb24fb	0.024797907
227	0xb8c33ac0	-9.3092676e-05
228	0xbdc7c7af	-0.097548835
229	0x3dc7d9f4	0.09758368
230	0x3e153d6e	0.14574215
231	0xbdbedabf	-0.09319066
232	0x3e5e7adb	0.21726553
233	0xbdf0677c	-0.11738488
234	0x3e770a02	0.24124911
235	0x3d9dd1c6	0.07706027
236	0x3c189e8c	0.009315144
237	0x3e965684	0.2936288
238	0x3da6f9bf	0.08153104
239	0x3dad32f5	0.08456985
240	0x3d26e994	0.0407501
241	0x3d72dc59	0.05929217
242	0xbc956c2b	-0.018240055
243	0xbd43dd37	-0.04781839
244	0x3d390531	0.045170967
245	0x3e73f5dc	0.23824257
246	0x3cf1e505	0.02952815
247	0xbd31caaa	-0.043406166
248	0xbd1c40c1	-0.03814769
249	0xbdac98e3	-0.08427598
250	0x3b206418	0.0024473723
251	0x3e506a13	0.20352964
252	0xbdea1989	-0.11430652
253	0xbdbc8e7c	-0.09206864
254	0xbd7d1490	-0.061787188
255	0xbc8b7ea4	-0.01702816

res_blocks.1.conv.0.bias f4 [20]
0	0x3d97b3af	0.07407319
1	0xbd9110ab	-0.07083257
2	0xbd768810	-0.060188353
3	0xbd23d800	-0.040000916
4	0xba53b368	-0.0008075745
5	0x3ce5e0ad	0.028061235
6	0xbbd8a5e4	-0.0066115726
7	0x3ae96470	0.0017806422
8	0x3d118eb5	0.035536487
9	0x3d537ffe	0.051635735
10	0xbd2551a4	-0.04036106
11	0xbd89ac18	-0.067222774
12	0xbb73c5e7	-0.0037196816
13	0xbd2c3bb1	-0.042049114
14	0x3cf2b38a	0.029626627
15	0xbd813eca	-0.06310804
16	0xbc0d2dc4	-0.008616868
17	0xbd3a85e0	-0.04553783
18	0xbd0dfff7	-0.034667935
19	0xbd0168b0	-0.03159398

res_blocks.1.conv.1.weight f4 [20]
0	0x3f94e391	1.1631948
1	0x3f7f9caf	0.99848455
2	0x3f6f38c2	0.9344598
3	0x3f5af8de	0.8553599
4	0x3f86ac11	1.052126
5	0x3f86968b	1.0514692
6	0x3f6e7a11	0.9315501
7	0x3f64247f	0.8911819
8	0x3f851401	1.039673
9	0x3f85c9cd	1.045221
10	0x3f9678b3	1.1755584
11	0x3f878763	1.0588192
12	0x3f87cae4	1.0608792
13	0x3f84687e	1.0344388
14	0x3f3b0d46	0.7306713
15	0x3f7f9f2f	0.9985227
16	0x3f997337	1.1988286
17	0x3f55b757	0.8348288
18	0x3f7c556c	0.98567843
19	0x3f7179d9	0.9432655

res_blocks.1.conv.1.bias f4 [20]
0	0x3dff5245	0.124668635
1	0xbccb32e9	-0.02480455
2	0xbd6d7971	-0.057977144
3	0xbd18cf92	-0.03730733
4	0xbd45642c	-0.048191234
5	0x3d67cdfb	0.056592923
6	0xbd172d16	-0.03690823
7	0xbdc12ffc	-0.094329804
8	0xbd557448	-0.052112848
9	0x3dcdc43c	0.10047194
10	0x3de177f3	0.110092066
11	0x3d146a77	0.036234345
12	0xbd459e5d	-0.04824673
13	0x3d646bdc	0.055766925
14	0xbe297bd8	-0.16551149
15	0xbcddbf34	-0.027068712
16	0x3e15d1ef	0.14630865
17	0xbded5c1a	-0.115898326
18	0xbd0f42fe	-0.034975998
19	0x3c2dad87	0.010600454

res_blocks.1.conv.1.running_mean f4 [20]
0	0xc0668bed	-3.6022904
1	0x3f11f796	0.5701841
2	0x4010c015	2.2617238
3	0x3fc4c149	1.5371486
4	0x3ff7cae2	1.935879
5	0x3fd1fcd5	1.6405283
6	0xbe021b06	-0.12705621
7	0x4074601e	3.8183665
8	0xbfb2d81c	-1.3972201
9	0x3f6b0709	0.9180761
10	0xbf1f2114	-0.6215985
11	0xbf5c7c47	-0.8612713
12	0x3f817be1	1.011593
13	0xbfa7a426	-1.3096969
14	0xbe9acda9	-0.3023503
15	0x3f36eb6b	0.7145297
16	0x3f284af6	0.6573938
17	0x3fed20a8	1.8525591
18	0x4054ae2a	3.3231301
19	0x3db8fa42	0.09032108

res_blocks.1.conv.1.running_var f4 [20]
0	0x41572468	13.446388
1	0x4014044c	2.3127623
2	0x40d49401	6.643067
3	0x416b4910	14.705338
4	0x40efd33b	7.494535
5	0x410bfa8d	8.74867
6	0x411e9cfc	9.913326
7	0x413e8d60	11.909515
8	0x40f800a4	7.750078
9	0x418f34d2	17.900791
10	0x41c42e63	24.52265
11	0x3fb4200b	1.4072279
12	0x414e5662	12.89609
13	0x412371ec	10.215313
14	0x414d4cf3	12.831286
15	0x403e6c85	2.9753735
16	0x409f9d3a	4.9879427
17	0x421d49c4	39.322037
18	0x4126bab5	10.420583
19	0x4021e1a0	2.529396

res_blocks.1.conv.3.weight f4 [20, 20, 3, 3]
0	0x3d9e3bb5	0.07726232
1	0x3d6ea84b	0.058265965
2	0x3da6c835	0.08143655
3	0xbda46b01	-0.08028222
4	0x3e8aafc7	0.27087232
5	0x3d1dd246	0.03853061
6	0x3d8135df	0.06309103
7	0x3e3a3cd9	0.18187274
8	0x3e00843a	0.1255044
9	0xbde8197b	-0.11332985
10	0xbe54167d	-0.20711704
11	0x3d6644a8	0.05621782
12	0xbd819384	-0.063269645
13	0xbdc88f96	-0.09793012
14	0xbe069103	-0.13141255
15	0x3da997bd	0.08280895
16	0xbd8e79c4	-0.06956819
17	0x3dab805e	0.083740935
18	0xbd978b36	-0.07399599
19	0x3e22ff78	0.15917766
20	0xbdd752f4	-0.10513869
21	0xbe2e447d	-0.17018314
22	0x3d5f76ee	0.05455678
23	0xbe29f813	-0.16598539
24	0x3b9dc624	0.00481488
25	0xbdb8b0da	-0.09018107
26	0xbdeaa959	-0.11458082
27	0xbb5b894f	-0.003349859
28	0x3d6a755a	0.05724082
29	0x3e30d801	0.17269899
30	0x3d03b7a5	0.03215756
31	0x3e450515	0.1924022
32	0x3dfd33d8	0.12363404
33	0x3da559a0	0.08073735
34	0x3e89eea7	0.2693989
35	0x3e1b2344	0.15150172
36	0xbc14fca4	-0.009093437
37	0x3e1f1ba1	0.15537883
38	0xbdf3156d	-0.11869321
39	0x3bb2f87e	0.0054617515
40	0xbde55297	-0.111973934
41	0xbcecf3da	-0.028924871
42	0xbd6d5301	-0.057940487
43	0xbdde35d3	-0.1085011
44	0x391a193b	0.00014695984
45	0xbd740da6	-0.05958333
46	0xbd87b3df	-0.066261046
47	0x3df5d741	0.12003947
48	0xbdb035f7	-0.08604043
49	0xbba57c3a	-0.0050502094
50	0x3d73f6e9	0.059561644
51	0x3cfa42ca	0.030549426
52	0x3dd47869	0.10374529
53	0x3decf883	0.11570837
54	0x3e8b0026	0.2714855
55	0x3d8f2889	0.06990153
56	0x3dd7e1a1	0.10541082
57	0x3dec82a8	0.11548358
58	0x3d7009a8	0.05860296
59	0xbd930bfb	-0.071800195
60	0x3e16a18c	0.14710063
61	0x3dd788b4	0.10524121
62	0x3b89f29c	0.0042098295
63	0x3da65201	0.0812111
64	0xbd8124c0	-0.06305838
65	0x3dd7db76	0.10539906
66	0x3d8938e6	0.06700306
67	0xbe024802	-0.12722781
68	0x3e770932	0.24124601
69	0xbe18109d	-0.14850087
70	0x3dc15c7b	0.094414674
71	0x3de7159e	0.1128342
72	0xbe140e31	-0.14458539
73	0x3d427085	0.04747059
74	0x3e2ab8a8	0.16672003
75	0x3d58ccd6	0.05292972
76	0xbdf5ddf4	-0.12005225
77	0xbd14200e	-0.036163382
78	0x3dd2b3de	0.10288213
79	0x3d1f7d38	0.038937777
80	0x3c38dbf2	0.011282908
81	0xbc9369b1	-0.017994734
82	0x3e417dfb	0.18895714
83	0x3b64ada6	0.0034893542
84	0x3d391694	0.045187548
85	0x3d031308	0.03200057
86	0xbd98cf57	-0.07461422
87	0xbdc177a6	-0.09446649
88	0xbe3e384a	-0.1857616
89	0x3e172374	0.14759618
90	0xbdbeee1c	-0.093227595
91	0xbe2a81c5	-0.16651066
92	0xbe8491dc	-0.25892532
93	0xbe50d0da	-0.2039217
94	0xbdf53d08	-0.119745314
95	0xbdbcfcb3	-0.09227886
96	0xbdb3ecb5	-0.08785383
97	0xbd39290a	-0.045205154
98	0xbe4a2f9d	-0.19744726
99	0xbe0e1368	-0.1387459
100	0xbd93c91c	-0.07216093
101	0xbe0da524	-0.13832527
102	0xbd6b1850	-0.057396233
103	0xbdd36c85	-0.10323433
104	0xbddd5a06	-0.10808186
105	0xbe1482da	-0.14503041
106	0xbe34756f	-0.17622922
107	0xbed270ae	-0.41101593
108	0xbe033626	-0.12813625
109	0x3d549a94	0.05190523
110	0x3d8fffb5	0.07031194
111	0x3d8d9fb7	0.06915229
112	0x3dbd114a	0.09231813
113	0x3dae7252	0.085178986
114	0x3c50c681	0.0127426395
115	0x3e412d1a	0.18864861
116	0x3d28cc2f	0.04121035
117	0x3cf36d0e	0.029715087
118	0x3de1938c	0.110144705
119	0x3e0e54b3	0.13899498
120	0x3d8db2a4	0.069188386
121	0x3dc10b28	0.09425956
122	0x3c077a94	0.008268971
123	0x3e26d232	0.1629112
124	0x3d1ccb2e	0.038279705
125	0xbae7f93e	-0.0017698181
126	0x3e0da925	0.13834055
127	0xbd9c2d1e	-0.07625793
128	0x3b7583b1	0.0037462527
129	0x3cda26fa	0.026629914
130	0xbd05492a	-0.032540478
131	0xbdada405	-0.0847855
132	0xbde9a921	-0.11409212
133	0x3e46dd3b	0.1942033
134	0x3d057942	0.032586344
135	0x3e95bb51	0.29244474
136	0x3ce4e242	0.02793992
137	0x3d721616	0.059103094
138	0x3e1faf21	0.1559415
139	0xbd5e8380	-0.054324627
140	0x3e4d8a3c	0.20072263
141	0x3de684de	0.11255811
142	0xbdbcaf1a	-0.092130855
143	0x3dd8e1a5	0.10589913
144	0x3c8673c2	0.01641262
145	0xbe233872	-0.15939501
146	0x3dae12bb	0.08499666
147	0xbd78d8b0	-0.060753524
148	0xbe5710e4	-0.21002537
149	0x3d0fc920	0.035103917
150	0xbdb85ab5	-0.09001676
151	0xbbe5bbef	-0.007010929
152	0xbd9b5d9a	-0.075862125
153	0xbe49d79a	-0.19711152
154	0xbdd1b5f6	-0.102397844
155	0xbe8b8943	-0.2725316
156	0xbe19aa89	-0.1500646
157	0xbd137960	-0.036004424
158	0xbcc55803	-0.024089819
159	0x3d157867	0.036491778
160	0xbe96714e	-0.2938332
161	0xbc780a08	-0.01513911
162	0xbea00c1a	-0.31259233
163	0x3c3cb00a	0.01151658
164	0x3e21cbd0	0.15800405
165	0xbe0a2898	-0.13492048
166	0xbe7e65ed	-0.24843569
167	0xbdbcb434	-0.092140585
168	0xbdf2c2eb	-0.11853584
169	0x3d2bb9a1	0.041925076
170	0xbd962c8e	-0.07332717
171	0xbda73e02	-0.08166124
172	0x3da7a8fb	0.08186527
173	0xbdd4ec59	-0.10396642
174	0xbd2e178c	-0.042502925
175	0xbd856c97	-0.065148525
176	0x3d6b0295	0.05737551
177	0xbda851c4	-0.082187206
178	0xbdef5fdf	-0.11688208
179	0xbdeeb027	-0.11654692
180	0x3e9fb425	0.31192127
181	0x3e898f59	0.26867178
182	0x3e756a10	0.23966241
183	0x3e74e421	0.2391515
184	0x3e662286	0.22474107
185	0x3e2e0e27	0.16997586
186	0x3e4132aa	0.18866983
187	0xbce8ecd6	-0.028433245
188	0x3eb1046b	0.34573683
189	0x3da2c701	0.07948113
190	0x3ce51be2	0.027967397
191	0x3d43309d	0.047653783
192	0xbcedbe02	-0.029021267
193	0xbe06c198	-0.13159788
194	0xbd366661	-0.04453123
195	0xbda799d7	-0.081836395
196	0xbca40a8a	-0.020024557
197	0xbe0274b2	-0.12739828
198	0x3d3d35b3	0.04619379
199	0xbe14251b	-0.1446728
200	0xbdbb66b6	-0.0915045
201	0xbe6fe89c	-0.23428577
202	0xbda2e56f	-0.07953917
203	0xbe7281ee	-0.23682377
204	0xbe447445	-0.19184978
205	0xbdf7bc1f	-0.12096428
206	0xbcdf5162	-0.027260486
207	0x3bdcb942	0.0067359516
208	0x3e1d6092	0.1536887
209	0x3cc4573e	0.023967382
210	0x3e5b62b6	0.21424374
211	0x3d9b37b8	0.07578987
212	0x3debfcd1	0.1152283
213	0x3da79098	0.08181876
214	0xbc95f76e	-0.01830646
215	0xbda148da	-0.078752235
216	0xbe687822	-0.22702077
217	0x3e082af8	0.13297641
218	0xbe3cb0cd	-0.18426819
219	0xbd9eda60	-0.077564955
220	0xbdad8417	-0.0847246
221	0x3e162e15	0.14666016
222	0xbd9ef54c	-0.077616304
223	0xbe0436f5	-0.1291159
224	0xbe02e404	-0.12782294
225	0xbe3f1cf9	-0.18663396
226	0x3ac69b81	0.0015152545
227	0xbdca328b	-0.098729216
228	0xbe46d91d	-0.1941876
229	0xbd83559b	-0.06412812
230	0xbd850bf4	-0.064964205
231	0x3daafb78	0.08348745
232	0xbe70ae14	-0.23503906
233	0xbe4fcb64	-0.20292431
234	0x3dcd3c97	0.10021322
235	0x3db08006	0.086181685
236	0x3cdb55e8	0.026774362
237	0xbdc4b914	-0.09605613
238	0xbdf320d4	-0.11871496
239	0xbda85e65	-0.08221129
240	0xbdaad15b	-0.08340713
241	0xbd1fde1d	-0.039030183
242	0x3d8f5232	0.069980994
243	0x3be0bb5f	0.006858274
244	0x3e16a57e	0.14711568
245	0xbdccd243	-0.10001042
246	0x3cc2ff7c	0.023803465
247	0x3d68aeb7	0.056807246
248	0x3d98340c	0.07431802
249	0x3c522899	0.012827062
250	0x3dace26a	0.084416226
251	0x3d533d05	0.051571865
252	0xbe1ca539	-0.15297402
253	0xbdf949d4	-0.12172285
254	0x3d813992	0.06309809
255	0x3d38c29b	0.045107465

res_blocks.1.conv.3.bias f4 [20]
0	0xbc47a0fe	-0.01218438
1	0x3c264318	0.010147832
2	0x3cce7600	0.025202751
3	0xbd305911	-0.04305369
4	0xb9cf7a7c	-0.00039573375
5	0x3d97dd23	0.07415225
6	0xbd9395dc	-0.07206318
7	0x3d54fad9	0.05199704
8	0x3d816323	0.06317737
9	0xbc2b8005	-0.010467534
10	0x3d1832b6	0.037157737
11	0xbd8b1b2e	-0.067922935
12	0xbd1e7852	-0.038688965
13	0xbd92e115	-0.07171837
14	0x3d238636	0.039922915
15	0x3d88968b	0.06669339
16	0x3c2d936f	0.010594233
17	0xbd66c23c	-0.05633758
18	0x3c0a6b11	0.008448378
19	0xbcda8a39	-0.026677238

res_blocks.1.conv.4.weight f4 [20]
0	0x3f923a2e	1.1424005
1	0x3f86eff8	1.0541983
2	0x3f83d4b4	1.0299287
3	0x3f81fcc7	1.0155267
4	0x3f832b1e	1.0247533
5	0x3f7d0791	0.9883967
6	0x3f62701f	0.88452333
7	0x3f7f6ec4	0.9977839
8	0x3f535f2c	0.82567096
9	0x3f6883f8	0.9082637
10	0x3f70bbb3	0.94036406
11	0x3f94aa8c	1.1614547
12	0x3f848ce9	1.0355502
13	0x3f7f32ed	0.9968708
14	0x3fa73fe1	1.3066369
15	0x3f7a0f19	0.9767929
16	0x3f8a20e7	1.0791291
17	0x3f826906	1.0188301
18	0x3f800876	1.0002582
19	0x3f835871	1.0261365

res_blocks.1.conv.4.bias f4 [20]
0	0xbe26d6c3	-0.16292863
1	0x3de1d04f	0.1102606
2	0x3c75cbba	0.0150021855
3	0xbc35cdc4	-0.011096422
4	0xbcfb002c	-0.03063973
5	0x3de5ce92	0.11221041
6	0x3cb8f960	0.022579849
7	0x3c8de33f	0.017320273
8	0xbdbf945e	-0.09354471
9	0x3dc5e9c0	0.09663725
10	0xbdc505c9	-0.09620244
11	0xbca35f6f	-0.019942967
12	0xbda88140	-0.082277775
13	0x3c80898a	0.015690584
14	0xbd22f472	-0.039783902
15	0x3dfd7e72	0.12377633
16	0xbc95d88e	-0.018291738
17	0x3a0a40a2	0.0005273913
18	0xbcd00e92	-0.025397573
19	0x3d7627a9	0.060096417

res_blocks.1.conv.4.running_mean f4 [20]
0	0xbea09fea	-0.31372005
1	0x3e2074c7	0.15669547
2	0x3ee50847	0.44732878
3	0xbe911918	-0.28339458
4	0xbf7d0037	-0.9882845
5	0xbf20b7bd	-0.6278036
6	0x3f8d82da	1.1055558
7	0xbf110f52	-0.56664
8	0x3f86d184	1.0532689
9	0xbf4c6a37	-0.7984957
10	0xbf570348	-0.8398938
11	0xbec29742	-0.38006026
12	0xbcc942ee	-0.024568047
13	0x3e070733	0.1318634
14	0x3e14d67f	0.14534949
15	0xbe3d6e33	-0.18499069
16	0xbf07b44e	-0.530095
17	0x3e3bd3e4	0.18342549
18	0xbf5f151e	-0.871416
19	0x3ec5e539	0.38651446

res_blocks.1.conv.4.running_var f4 [20]
0	0x408369e0	4.106674
1	0x413c8026	11.781286
2	0x40ab7027	5.3574405
3	0x4023df98	2.560522
4	0x40b64796	5.6962385
5	0x409960ed	4.7930818
6	0x3fefa5fc	1.872253
7	0x3ff32c29	1.8997852
8	0x41246036	10.273489
9	0x40980c70	4.7515182
10	0x40ccadbf	6.3962092
11	0x3fb5cac5	1.4202505
12	0x4075e246	3.8419356
13	0x411e0d9e	9.8783245
14	0x4092748e	4.576728
15	0x40b7f83e	5.749053
16	0x40352008	2.83008
17	0x40841891	4.127999
18	0x40190ef6	2.3915381
19	0x40205182	2.5049748
