消融实验/model_weights_11.pth (torch, 43039 bytes, 24 tensors)

initial.0.weight f4 [20, 3, 3, 3]
000000 a8 d9 72 3e ad 4e 1c 3d f7 db 41 3d a3 ec af 3c
       0.23715842 0.03816097 0.047328915 0.021475142
000010 3b b5 da 3d 8c 0b cd 3d 73 dc a2 3e 68 5e 4a 3e
       0.10679098 0.10011968 0.31808814 0.19762576
000020 5b 24 35 3e 04 51 34 be 06 34 6d 3e 55 35 f4 3d
       0.1768965 -0.1760903 0.23164377 0.11924235
000030 f4 65 13 3c 82 68 9f 3d 2d b6 8c 3d d9 84 f8 bd
       0.0089964755 0.07783605 0.06870685 -0.12134714
000040 50 de 36 3e 33 74 da bd 1b e7 70 3d 5b 71 89 bd
       0.17858243 -0.106666945 0.05881415 -0.06711074
000050 5b 50 c3 3d 6d 1d de 3d 8d 51 aa bd 5f ec 34 3d
       0.09536811 0.10845456 -0.08316336 0.044170734
000060 00 5b da bc 94 1c 34 bd be fc 9d 3d 42 77 a4 3d
       -0.02665472 -0.043972567 0.07714222 0.08030559
000070 be 43 44 3e f0 61 ea 3c 91 e7 99 3d 53 91 17 3e
       0.19166467 0.028611153 0.07514871 0.1480153
000080 14 6c 2a bd b9 76 f6 3c f7 84 1a bd 63 9d 04 be
       -0.041606978 0.030085908 -0.03772446 -0.12950663
000090 18 8a a4 3c 5d a5 52 bd 9c c3 1c 3e 1c a0 7f 3e
       0.02008538 -0.051427234 0.15308994 0.2496342
0000a0 db 24 90 3c af e9 53 3e 34 26 98 3d ac a7 6e 3c
       0.017595699 0.20694612 0.07429162 0.014566343
0000b0 fc d2 a2 bc f0 ac 1d bd 66 3a f1 3d 5d cc 30 3c
       -0.019875996 -0.038495004 0.11778717 0.0107909115
0000c0 80 c8 55 3d 08 21 0a 3c 6f 78 32 bc 77 89 2b 3e
       0.052193165 0.008430727 -0.010892971 0.16751657
0000d0 85 06 61 3d d3 78 28 3e 53 92 0d bf ef fa 44 bf
       0.054937858 0.16452341 -0.553014 -0.76945394
0000e0 b4 6a 25 bf 1f e4 57 bf df 32 5b bf e9 9f 15 bf
       -0.6461594 -0.8433246 -0.856245 -0.5844713
0000f0 28 00 86 bf e0 ba 5c bf 6d 36 4b bf db bc 24 bf
       -1.0468798 -0.8622265 -0.7937992 -0.6435067
000100 71 c9 26 bf 6d a0 0b bf 69 be 2f bf cf a7 53 bf
       -0.65151125 -0.54541665 -0.6864992 -0.8267793
000110 0f 85 0c bf 40 40 80 bf 2f be 41 bf f7 75 4f bf
       -0.5489053 -1.0019608 -0.7568082 -0.81039375
000120 f4 d1 1e bf ca 36 fd be 6e c1 21 bf f9 a7 41 bf
       -0.62039113 -0.49455863 -0.63185775 -0.7564693
000130 92 7f 46 bf cb 06 0a bf 0d e3 50 bf 3f 3e 7d bf
       -0.77538407 -0.53916615 -0.8159645 -0.98923105
000140 91 be 27 bf ea 37 0b 3d 3b 27 84 3e c4 44 b4 3e
       -0.65525156 0.03398887 0.2581118 0.35208714
000150 19 88 38 3e 2a 98 b6 3d 76 89 1e 3e b0 3b 95 3e
       0.18020667 0.08915742 0.15482125 0.291471
000160 97 fc 57 3e cd a6 c5 3d 43 99 c2 3d 65 77 2a 3e
       0.21092449 0.09650955 0.095018886 0.16647108
000170 d9 b1 05 3e 96 a5 6d 3e 7c d4 a8 3d ff 05 bd 3e
       0.13056125 0.23207697 0.08243653 0.36918637
000180 f6 2d 84 3d b3 8f 38 3e 58 84 6b 3e 10 c5 d3 3d
       0.06454079 0.18023567 0.22999704 0.10340321
000190 5d 1c 49 3e 1f 0e e2 3c 9e 6c b5 3e a1 d2 55 3e
       0.19639726 0.027594624 0.3543443 0.2088113
0001a0 97 69 67 3e 2c c5 78 3e ce de ef 3d 96 51 9e 3e
       0.22598873 0.24293965 0.117124185 0.3092162
0001b0 19 0e ca 3e 1d 6e c3 3e f3 39 da 3e 30 37 98 3e
       0.3946388 0.38169947 0.42622337 0.29729605
0001c0 40 19 da 3e 19 47 c5 3e b8 de a3 3e 0f d5 6c 3e
       0.4259739 0.38530806 0.32005858 0.2312815
0001d0 6e 4d f5 3e 3f 82 88 3e 10 cf 81 3e 33 81 93 3e
       0.47910637 0.2666187 0.2535329 0.2880951
0001e0 f5 e4 7c 3e 8b b6 b9 3e 54 0f 02 3f 93 b9 0f 3f
       0.24696715 0.36272082 0.5080464 0.5614254
0001f0 ab c3 06 3f f0 6b 12 3f c6 f4 bc 3e 78 7e bc 3e
       0.52642316 0.5719595 0.36905497 0.36815238
000200 f7 04 f2 3e 25 82 cc 3e 3b 10 a9 3e 40 8b da 3e
       0.47269413 0.39943042 0.33020195 0.42684364
000210 33 93 ab 3e 63 fd c9 3e cc b5 ad 3e 5c ea c0 3c
       0.33510742 0.3945113 0.33927763 0.023549251
000220 a3 e2 86 3e ad 83 9a 3e 03 c0 80 3e f8 88 5f bc
       0.26344785 0.30178586 0.25146493 -0.013643496
000230 a1 b6 b0 3e e0 51 0b 3e b4 ec a7 3d c3 ca 00 3f
       0.34514335 0.13605452 0.081994444 0.5030939
000240 4c bd 59 3e 3c 05 e4 3d 5f e5 4e 3e a1 6b 98 3e
       0.21263617 0.11133811 0.20204686 0.29769614
000250 7b bd f5 3d bf d7 08 3e c3 7f 76 3d df d9 7e 3e
       0.11999031 0.1336355 0.060180437 0.24887799
000260 6f 7b 8a 3e cb 50 72 3e f5 a4 ef 3a dc f9 90 3e
       0.27047297 0.23663633 0.0018283414 0.28315628
000270 91 3c 04 3d f5 71 a8 3e 2d c4 d2 3e 7b da 3b bd
       0.032284323 0.32899442 0.41165295 -0.045862656
000280 bc da fe 3d 58 22 33 3e a4 e3 aa be a3 6f bd be
       0.12444064 0.1749357 -0.333768 -0.36999235
000290 7d 8d 93 be 63 53 bf be 30 0f 60 be 9e 9f 0a bd
       -0.28818884 -0.37368307 -0.21880794 -0.03384363
0002a0 7b 42 08 be d8 0b fc bd 4b 41 26 be 30 85 b1 be
       -0.1330661 -0.123069465 -0.16235845 -0.34671926
0002b0 f9 88 7e be 4c d7 d7 be ce 82 06 be 63 e7 6a be
       -0.24856938 -0.42156446 -0.13135836 -0.2293983
0002c0 ea 98 2d be b4 a7 a7 be 1e 7c 7c be 07 38 73 be
       -0.16952863 -0.32745135 -0.24656722 -0.23751841
0002d0 78 f1 92 be f0 6d 52 be 23 7b a9 be 56 eb a4 be
       -0.2869985 -0.2054975 -0.33101758 -0.32210797
0002e0 56 a6 58 be b1 18 e8 be ad 54 72 bd 9a f5 09 be
       -0.21157202 -0.45331338 -0.059162784 -0.13472596
0002f0 a4 56 73 be 70 a2 ca 3d 8b bb 58 bd 6f bb 3f 3d
       -0.2376352 0.09894264 -0.05291323 0.04680961
000300 fb 61 36 bd f6 7a 2a 3d 4f b2 83 3d ae 7b dc 3c
       -0.044527035 0.04162117 0.06430494 0.026914444
000310 06 b8 b7 3b fc 8b f8 3d fe ec 6d be 31 e6 3a be
       0.005606654 0.12136075 -0.23234937 -0.18251874
000320 39 7a 2f be 70 32 57 bd 2e 8e a6 bd e9 d9 22 bd
       -0.17136468 -0.052538335 -0.081325874 -0.039758597
000330 48 00 7d bd b8 f3 b9 bc 11 91 54 bd 63 fa 31 be
       -0.061767846 -0.022699222 -0.05189616 -0.17380671
000340 01 bd 81 be a1 98 78 be 24 03 38 be 8a 97 3c 3d
       -0.2533951 -0.24276973 -0.17969948 0.046042956
000350 1f 35 3e be f3 76 ca bd 03 3a 8d bd 7b 9d e4 bc
       -0.18574952 -0.09885969 -0.068958305 -0.027907124
000360 b1 85 35 bd 24 7c 65 bd 6f 6a 1e 3c 4d dd f9 bd
       -0.04431695 -0.056026593 0.00966893 -0.12200413
000370 23 64 11 3c da d7 2e be fd a2 5e be ea 70 4f be
       0.008873972 -0.17074528 -0.21741863 -0.20257917
000380 cc 5b 8a 3d 98 59 0d be f8 75 5a bd f1 04 b2 3d
       0.0675579 -0.13803709 -0.05333516 0.08692349
000390 83 c1 43 bd 25 b9 0f bc 96 88 22 bd 8f be 82 be
       -0.04779197 -0.008772169 -0.03968104 -0.2553601
0003a0 d8 63 fd bc 9b d6 2e be 6e fe 9f bd 38 2d 29 bd
       -0.030931398 -0.17074053 -0.078122005 -0.04130289
0003b0 ca 3b 23 be b2 d9 0f 3d 00 e6 0e bd ba c3 54 b9
       -0.15940776 0.03511972 -0.034887314 -0.0002029081
0003c0 96 6c d3 3d 72 2a 06 3e 28 f2 2e bd 4d 51 ba bd
       0.103234455 0.13102129 -0.042711407 -0.09097538
0003d0 87 73 e0 3c 8e 5d 07 3d 49 2a 61 bc db ac 9d bd
       0.027398838 0.033048205 -0.013742992 -0.07698985
0003e0 f5 cc 17 be 82 17 c1 bc b6 a9 98 bc 64 89 3c bd
       -0.14824279 -0.02357078 -0.018635612 -0.046029463
0003f0 e5 2f a8 be ca 45 86 3c 25 ad 93 bd 78 c2 61 bd
       -0.3284904 0.0163907 -0.07210759 -0.0551171

initial.0.bias f4 [20]
000000 16 b2 e5 3d fa a1 bc bd 90 35 ee 3d 2c 40 9c bd
       0.11215608 -0.09210582 0.1163131 -0.07629427
000010 81 5c 19 be 37 2e 47 3c 9a 97 0a 3e d0 72 34 bc
       -0.14976694 0.012157015 0.13534394 -0.011013702
000020 a5 a2 0b be d5 79 1f 3e 87 72 17 3e 88 11 bf bb
       -0.13636263 0.15573819 0.14789782 -0.0058309473
000030 19 c7 b2 bd 91 be 36 3e ef 65 36 bd e1 f7 c4 3d
       -0.08729381 0.17846133 -0.044530805 0.09617592
000040 45 75 25 3e 11 12 36 be a2 d4 31 3e 49 8c fa 3d
       0.16158016 -0.1778033 0.17366269 0.122337885

initial.1.weight f4 [20]
000000 c9 1f 87 3f f6 2a 8a 3f 2d f7 83 3f 6a ae 6a 3f
       1.0556575 1.0794361 1.0309807 0.91672385
000010 58 39 8c 3f 27 cd 86 3f 67 72 7a 3f 03 f1 83 3f
       1.0955 1.0531358 0.97830814 1.0307926
000020 ef 5e 8f 3f e2 5a 6e 3f 4e 9e 5f 3f 01 69 75 3f
       1.1200846 0.93107426 0.8735093 0.9586335
000030 a7 ab 67 3f 4a b9 98 3f 3f fc 4b 3f 1d d6 84 3f
       0.90496296 1.1931546 0.7968177 1.0377842
000040 84 e6 81 3f 83 33 6c 3f b0 6a 90 3f 9f df 39 3f
       1.0148473 0.922661 1.1282558 0.72606844

initial.1.bias f4 [20]
000000 54 39 43 3c ca 62 ae 3d 49 fc 82 bd 50 e1 29 bd
       0.011915524 0.08514936 -0.06395776 -0.04147464
000010 71 93 e0 3d db 0f 0d bd 1a 22 60 bd 9b e3 dd bb
       0.10965622 -0.03443895 -0.05472002 -0.0067715175
000020 5e fa 21 3e f4 82 47 be 87 3e cf bc d9 43 2d be
       0.15818164 -0.19483548 -0.02529837 -0.16920413
000030 35 d4 db 3d 4c 98 34 3e 9b 01 20 3d 95 22 1d 3d
       0.10733835 0.17636222 0.03906403 0.038363058
000040 bc 6b 38 be 8f c1 b2 be b6 a9 fe 3d 9d d7 7d bc
       -0.18009847 -0.34913298 0.124347135 -0.015493301

initial.1.running_mean f4 [20]
000000 b9 83 33 3f c8 41 01 3f 56 1c dd c0 ec 27 df 3f
       0.7012287 0.50491 -6.909709 1.7434058
000010 3b c8 65 40 ba 6e e4 3f 8b e6 08 c0 19 b2 15 bf
       3.590346 1.7846291 -2.1390712 -0.5847488
000020 eb 1b 2d bf 8b d8 34 bf 6d 80 08 3f 12 c6 9e bf
       -0.67620724 -0.7064292 0.5332096 -1.2404196
000030 55 54 05 3f 20 2a 36 3f 9f 95 f2 3f 9c d7 1f bf
       0.52081805 0.7115803 1.8951911 -0.6243837
000040 0b 6c e2 be c0 28 d7 bf ee 91 bd 3f 0c 2a 59 bf
       -0.44223055 -1.6809311 1.4810159 -0.84829783

initial.1.running_var f4 [20]
000000 9f 3b 89 3e a2 42 85 3e 50 5c 0b 41 00 84 43 3f
       0.268033 0.260274 8.710037 0.7637329
000010 d7 e9 24 40 38 fa 42 3f ad 2d 8e 3f 11 ed 86 3e
       2.5767725 0.76163054 1.1107689 0.26352742
000020 0d 7f 83 3e 41 1a a5 3e 9e 98 71 3e 1b c0 ef 3e
       0.2568287 0.32246593 0.23593375 0.46826252
000030 c9 63 8c 3e cb 0f 84 3e bd 57 69 3f d3 1f 97 3e
       0.2741988 0.257933 0.91149503 0.29516467
000040 57 be 84 3e 8e af 1b 3f 0f c6 02 3f 9f bb c8 3e
       0.25926468 0.6081475 0.51083463 0.39205644

res_blocks.0.conv.0.weight f4 [20, 20, 3, 3]
000000 eb c0 9b 3d 73 ed a7 3d d8 7f ab bc c2 e4 4a 3d
       0.076051556 0.08199587 -0.020934984 0.049534567
000010 47 e9 86 3d b9 62 43 3e 4a 6f 33 3e 2d fc 1b 3e
       0.06587463 0.19080628 0.17522922 0.15232916
000020 f6 81 da 3d 60 c1 ee bd 73 b5 4f 3e 75 3a 23 3d
       0.10669319 -0.11657977 0.20284061 0.03985067
000030 87 12 ec bc 58 60 0a 3e 8b 90 2a 3c 84 25 48 3d
       -0.028817428 0.13513315 0.010410438 0.048863903
000040 ba c7 69 3d eb 8d af 3e fa 6f 33 3c ac 4c 0c be
       0.05707524 0.34287962 0.01095199 -0.13701123
000050 ae eb 8e 3d ae 49 3d be ff 4c ca bd e4 dd 13 3d
       0.06978546 -0.18485138 -0.09877967 0.036100283
000060 75 e7 34 3d c5 53 80 3e 1c af 66 3e 87 51 25 3e
       0.044166047 0.2506391 0.22527736 0.16144381
000070 e2 29 13 3d f8 10 6f 3d 70 ec e8 3c 95 75 85 3d
       0.035928614 0.058365792 0.028433055 0.065165676
000080 46 87 01 3e bf 98 8d bd c2 59 94 be 09 69 51 3d
       0.12649259 -0.069139 -0.2897473 0.05112556
000090 f2 8a 27 3e 8b ad fb 3c e7 47 1d 3e a1 88 89 3d
       0.16361597 0.0307224 0.1535946 0.06715513
0000a0 56 20 b2 bd 1f 1e 5d 3d b6 e5 5a 3c bf a5 15 3e
       -0.08697574 0.053983804 0.013360431 0.14614008
0000b0 b6 34 8e 3d f8 dd 56 3c c4 c0 0a bd 80 28 86 3e
       0.069436476 0.013114445 -0.033875242 0.26202774
0000c0 87 28 44 bd b0 f7 fb 3c 67 fb f7 bd f4 e8 74 bd
       -0.047890212 0.030757755 -0.12108498 -0.059792474
0000d0 af cc 2c 3c 8f 1e 1b 3e 99 21 0f be 32 cc 63 be
       0.010546847 0.15148376 -0.1397766 -0.22245863
0000e0 b8 d4 8a 3c 95 ee c8 3d 2d 48 90 3d f5 a1 af 3d
       0.016947135 0.09811131 0.070450164 0.08575813
0000f0 62 d8 53 be 36 cb fa bc bd da 38 be 85 5c f8 bd
       -0.20688012 -0.030614477 -0.18052192 -0.12127022
000100 ba 1f a7 3d 9a 35 65 bd 60 58 ba bd 5a 43 4e 3e
       0.08160348 -0.05595932 -0.090988874 0.2014288
000110 c0 a6 28 3e 03 20 18 3d bc 3e fe 3c 1b ed 66 3d
       0.1646986 0.037139904 0.031035773 0.056378465
000120 5b 5f 90 bd c8 f5 c0 bd fe 2b b8 bd a7 48 c8 3d
       -0.070494376 -0.09421879 -0.08992766 0.09779482
000130 62 77 26 3e 17 16 16 bd 1e cc 5c bd 00 3c 37 be
       0.16256478 -0.03664216 -0.0539056 -0.17893982
000140 8d 63 61 3d cd 7d b7 bd 33 76 1b be c9 c6 b4 3d
       0.05502658 -0.089595415 -0.15181808 0.08826978
000150 cc 5d 1e be 18 bc 3c be 7c 1d 9c 3d 5d d9 d6 3c
       -0.15465468 -0.18431127 0.07622811 0.026226694
000160 0d c4 c4 bc 9b f5 0a bc c9 ab 38 bd 09 7b ac 3d
       -0.024019266 -0.0084814085 -0.045085702 0.084219046
000170 b8 e6 09 3b 60 7a 9d bc 16 c7 06 3c 6c 9a df 3d
       0.002104206 -0.019223392 0.008226177 0.109181255
000180 6a c2 97 3d 78 c2 a0 3d ca d3 6c 3d 23 89 28 bd
       0.074101284 0.07849592 0.057819165 -0.04114641
000190 38 f1 4b 3e e1 02 7b bd 1c b4 13 be f4 bd aa bc
       0.19916236 -0.061282042 -0.14424175 -0.02084253
0001a0 78 e1 30 bd db cd 2d be fe 7b 3a 3e c0 42 5e 3d
       -0.043183774 -0.16973059 0.18211362 0.054262877
0001b0 66 81 ce 3c 4e cb de 3c 17 1c 65 be c7 d2 de bd
       0.025208186 0.027196553 -0.22373997 -0.10880046
0001c0 7c f7 8e bd 9f 47 56 3e dc 86 f6 3b 88 1d 82 39
       -0.06980798 0.20925759 0.0075234007 0.00024817535
0001d0 9d d4 a9 3d 11 d4 73 bd f1 57 ad 3d 67 ca 2b 3e
       0.08292506 -0.059528414 0.08464039 0.16776429
0001e0 0b 41 a2 3e 07 06 64 3d e2 2d 5d bd b8 48 37 3d
       0.3169025 0.05566981 -0.053998835 0.044747084
0001f0 d2 81 75 3e ab 59 f0 3d d7 b6 b5 bd 94 19 42 bd
       0.23975304 0.11735853 -0.088727646 -0.047387674
000200 c7 7e 5f bd e0 85 be 3d 2f cc 0f 3e 88 90 9b bd
       -0.054564264 0.093028784 0.14042734 -0.075959265
000210 10 12 30 bb 25 a0 af bc b3 02 a5 bb 89 7a 30 bd
       -0.0026866235 -0.021438668 -0.005035722 -0.04308561
000220 5c a0 b5 bd 7f ee ba bc f0 01 04 bd e8 39 a1 bd
       -0.08868477 -0.022818802 -0.03222841 -0.07872373
000230 99 0e 85 bd 40 63 2a be 51 82 65 be 32 c2 cf 3b
       -0.06496925 -0.16639423 -0.22412993 0.0063402886
000240 ec 7d f3 bd f7 dc 1c be b2 3d a7 bc 81 30 85 bc
       -0.11889252 -0.15318666 -0.02041516 -0.01625848
000250 73 ee 2b be 4e 96 5d be ae fd 14 3e 4a fa f5 3c
       -0.1679018 -0.21639368 0.14549896 0.030026574
000260 94 6f d8 bd 10 97 1f 3d fc 8e c3 bc 81 82 1b be
       -0.10568157 0.038962424 -0.023871891 -0.15186502
000270 8c 0c ab bd 55 d7 c9 bc 63 dc 36 bd dd 00 d0 bd
       -0.083520025 -0.024638811 -0.04464377 -0.10156415
000280 48 b3 31 bc 3c af 08 3c 42 13 3a 3e cd 15 0c 3e
       -0.010845967 0.00834256 0.18171409 0.13680191
000290 10 57 67 3d a1 97 6f 3c a6 3a 9e bd eb 0e c8 3d
       0.056479514 0.0146235535 -0.0772603 0.097684704
0002a0 0b 85 84 3e 6b bd b8 3d f3 31 89 3e 6a 94 79 3d
       0.25882754 0.090205036 0.2679592 0.060932554
0002b0 9a 63 80 3c c0 cb 1b 3d d9 2e 10 3e 7e 9a 89 bd
       0.015672494 0.038036108 0.14080371 -0.0671892
0002c0 3e 77 cf 3d 37 9c 90 bc 47 43 2e 3d a7 07 97 3c
       0.101301655 -0.017652614 0.04254463 0.018436266
0002d0 46 50 cc bc a0 9e 15 3e 17 5d 90 bd c0 5a 91 3d
       -0.024940621 0.14611292 -0.070490055 0.07097387
0002e0 35 5f 50 3c f4 6b 5b 3d e8 ce d2 bd 09 89 53 bd
       0.012718012 0.05356975 -0.102933705 -0.05164436
0002f0 b0 e9 89 bd 53 c1 86 3d b8 30 a8 3c d0 0a 7c be
       -0.067340255 0.065798424 0.020531043 -0.246135
000300 6d dd 9e 3d 58 f9 ce 3d 83 e8 ea bd d0 b1 89 3d
       0.07757077 0.10106152 -0.11470129 0.06723368
000310 da 3a 95 bc b2 41 0f be 48 d0 26 3e 7d 27 ad 3c
       -0.01821654 -0.13989905 0.1629039 0.021136994
000320 2b dc 70 3d 3a bc e0 3b 4b de 22 bc 0a 12 30 3e
       0.05880372 0.006858376 -0.009940694 0.17194381
000330 34 54 8d 3d af b2 a5 bd fa 6f 8f 3d 74 c1 09 3d
       0.06900826 -0.08090722 0.0700378 0.033631757
000340 f0 c2 1a be 5f e6 7a bd 8a 21 d8 bd af 96 d6 bd
       -0.15113425 -0.061254855 -0.10553272 -0.10477959
000350 aa a7 97 3d e3 a7 28 3e 7d 38 93 be d7 08 3a bb
       0.07405026 0.16470294 -0.28754035 -0.0028386617
000360 a0 fa ed 3a 28 6c dd bd 73 fe 85 3d ca 85 ac bd
       0.0018156357 -0.10811645 0.06542673 -0.08423956
000370 9b dc 0b bb 89 5a e7 bc ea b2 38 3d de 4b 81 be
       -0.0021341208 -0.028241413 0.0450925 -0.25253195
000380 d5 cf 04 3d 34 2e 68 3d b5 af 13 3e ac e7 00 3e
       0.032424767 0.056684688 0.14422496 0.12588376
000390 53 a1 f2 3d 3a 4c b5 3d ca e9 ee bc 9e 5e 18 3e
       0.118471764 0.0885243 -0.029164214 0.14879844
0003a0 d9 f4 04 bc 29 87 1d 3d c5 91 6b 3d cd f1 34 3d
       -0.008115017 0.038458977 0.057512064 0.04417591
0003b0 84 92 db 3d 54 28 db 3d dd 2e 39 3e 4f 50 2a 3e
       0.10721305 0.10701051 0.18084283 0.16632198
0003c0 26 18 02 be 1f a2 0f be 73 b3 c5 3d c2 51 35 3e
       -0.12704524 -0.14026688 0.09653368 0.1770697
0003d0 8a 88 8a 3e ff 52 f0 3d 49 e3 89 3e 54 66 82 3d
       0.27057296 0.1173458 0.26931217 0.06367174
0003e0 41 5f a7 3d e6 33 4e 3d 19 2b 67 3e d4 5c b4 3d
       0.08172465 0.050342463 0.22575034 0.08806768
0003f0 52 8e 8c 3d 2d 76 8f 3e 50 b4 cd 3a b8 7b a5 3e
       0.06863083 0.28019848 0.0015693996 0.32320952

res_blocks.0.conv.0.bias f4 [20]
000000 46 91 29 3d 5a 2d 4f bc ab 4a db 3c b8 71 05 bd
       0.04139831 -0.01264509 0.026769003 -0.032579154
000010 ac a4 39 bd 9f a1 82 3d 31 08 0a 3d e9 e8 44 3d
       -0.04532306 0.06378483 0.03369922 0.048073683
000020 9d 01 4b bd fc 47 61 bc 1b 00 0f 3c f0 e6 80 bd
       -0.049562085 -0.013750073 0.0087280525 -0.06294048
000030 82 f0 5c bc 56 35 8c 3b 2d 7a 45 bc 7b 10 e5 3c
       -0.013485076 0.004278819 -0.012053055 0.02796196
000040 f8 a9 94 bd 44 b0 44 bd 27 c0 6b 3d ef b8 2f bd
       -0.072589815 -0.048019662 0.057556298 -0.042900976

res_blocks.0.conv.1.weight f4 [20]
000000 1f b0 64 3f fa 25 83 3f 96 9a 81 3f 10 77 8d 3f
       0.8933124 1.0245965 1.0125301 1.105196
000010 e9 00 75 3f 12 6f 8b 3f da 71 74 3f b5 dd 63 3f
       0.95704514 1.0893271 0.95486224 0.89010173
000020 af 96 64 3f 2b 93 b3 3f c5 d0 62 3f 59 dc 7f 3f
       0.89292425 1.4029287 0.8859981 0.999456
000030 83 c4 5f 3f 42 f9 76 3f aa 57 82 3f 95 3b 6b 3f
       0.8740923 0.9647409 1.0183003 0.9188779
000040 0e 79 8f 3f 47 58 84 3f 6a 6c 6d 3f 3a 9c 7d 3f
       1.1208818 1.033944 0.9274355 0.9906651

res_blocks.0.conv.1.bias f4 [20]
000000 a1 8c 8a bd 3a 37 be 3b 89 73 4c bd 7e 6e de 3d
       -0.06765104 0.0058049234 -0.04991487 0.108609185
000010 4a 07 86 bd 54 27 2b 3d 11 35 10 be 09 d1 c9 bc
       -0.06544359 0.041785553 -0.14082743 -0.024635809
000020 55 14 1f be 80 ec 13 3e b1 c2 83 bd be 6e e6 bd
       -0.155351 0.14445686 -0.06433619 -0.11251591
000030 28 18 ca bd d7 f0 34 be c4 47 d3 bc 43 e1 a4 3c
       -0.09867889 -0.17669998 -0.025791056 0.020126944
000040 a1 ec d7 3d 0e 51 67 3c 74 11 9d bb 59 d3 df 3c
       0.1054318 0.014118446 -0.0047933403 0.027322458

res_blocks.0.conv.1.running_mean f4 [20]
000000 25 d9 3d 3f 8a d3 5f 3f 53 2e f1 3e a6 1c 16 c0
       0.7415946 0.8743216 0.47105655 -2.3454986
000010 62 48 3f bd c7 6c 53 3f ab 20 c0 3f 43 e2 28 bf
       -0.04669989 0.82587856 1.500997 -0.6597025
000020 5b 9f 62 3f 56 9b e1 bf 2b 71 90 bc 37 3c b7 3f
       0.8852441 -1.762553 -0.017632088 1.4315251
000030 b8 4c 21 3f eb ea cb 3f aa ea 4e 3f e7 0d 82 3e
       0.6300769 1.5931066 0.8082682 0.25401232
000040 dd c6 36 3f 53 41 8f 3f a4 59 cf be 6c 14 95 3f
       0.7139719 1.119181 -0.40498078 1.1646857

res_blocks.0.conv.1.running_var f4 [20]
000000 6a 8d 25 41 0e d0 03 41 12 0f 01 41 b0 36 8a 41
       10.347025 8.238295 8.066179 17.276703
000010 89 68 83 40 cd 9d e0 40 82 6c 9d 3f 8a 18 2f 41
       4.1065106 7.019263 1.2298739 10.943491
000020 b7 4e 7b 41 0f 39 d4 3f 93 66 80 40 34 ce 98 40
       15.7067175 1.6579913 4.0125213 4.7751713
000030 bd 9f b4 40 dc 08 ca 40 4b a6 06 40 1f 39 04 40
       5.6444993 6.3135815 2.1038997 2.0659864
000040 61 75 ca 41 cf 63 52 41 c3 81 02 41 d0 e4 69 41
       25.307314 13.149367 8.15668 14.618362

res_blocks.0.conv.3.weight f4 [20, 20, 3, 3]
000000 5c e3 21 3e 80 50 0e 3e 2d ab 7b 3d 94 19 6b 3e
       0.15809387 0.13897896 0.061442543 0.22958976
000010 2d 55 01 3d 7f 61 80 bd 27 d9 e6 bc 4a 02 7e be
       0.03157537 -0.06268596 -0.028179718 -0.2480556
000020 3c ba 1c 3e b8 2c 2c 3e f4 e6 6e bd 3d b0 b2 bc
       0.15305418 0.16813934 -0.058325723 -0.021812553
000030 f3 96 a2 bd 40 c8 62 3d b3 e3 97 bd de a9 78 be
       -0.079389475 0.055366755 -0.07416477 -0.24283549
000040 1c a9 86 bd 4b 2b 86 3e 54 76 0c be 46 2b cd 3b
       -0.06575224 0.26204905 -0.13717014 0.006261262
000050 a4 4c 5b be 8e bf 1d be 2d 36 19 be 7a 59 3f be
       -0.21415955 -0.15405104 -0.14962073 -0.18686476
000060 43 5c 12 be 64 e5 c2 bc 56 a1 fb 3c 0c 3d 34 bd
       -0.14293008 -0.023791023 0.03071658 -0.04400353
000070 39 5a 87 be be 1e 55 be ae 10 b3 bd ae 58 69 be
       -0.26436022 -0.20812508 -0.08743416 -0.22787735
000080 2d 71 91 be 93 d8 11 be 29 22 49 be a8 ff ec bb
       -0.2840666 -0.14242773 -0.19641937 -0.007232625
000090 5f 57 53 3d b5 95 99 bc 9b 6d 02 be 48 90 30 be
       0.051596995 -0.018748144 -0.12737124 -0.17242539
0000a0 23 e3 cf bd 85 6d 04 3e e0 db ef 3d 6e e5 0c bc
       -0.10150745 0.12932403 0.1171186 -0.008599622
0000b0 23 1d 4f ba 3f 81 39 3d b2 9e 40 3c d4 e5 0e be
       -0.0007900765 0.045289274 0.011756586 -0.1395486
0000c0 99 9f 95 bc 92 77 20 be 13 6b 77 bd b2 9d 30 be
       -0.018264579 -0.15670612 -0.06040485 -0.17247656
0000d0 90 42 0d 3e cb 5d 14 bd cc 4a f5 bd 07 c3 f0 bd
       0.13794923 -0.03622226 -0.11977157 -0.117559485
0000e0 34 d4 b8 bd 92 bd 64 3d cf 89 9d bc 9e a8 b8 3d
       -0.090248495 0.05584485 -0.019230751 0.09016536
0000f0 3e 10 96 3d ba 50 4a bd e0 60 3c be 43 9f e6 3b
       0.07327317 -0.049393393 -0.1839633 0.0070380284
000100 8c 74 93 bd 16 fb 2c bc 2b 5e cb bd 70 31 80 3e
       -0.07199964 -0.01055791 -0.099300705 0.25037718
000110 70 8f 09 bd f2 50 2f 3e 66 95 f1 3d 73 57 26 be
       -0.03358406 0.17120722 0.117960736 -0.16244297
000120 2a 3e 7c bd 0c 04 3e 3c ee a1 47 3d e8 52 74 bd
       -0.06158272 0.011597645 0.048738413 -0.059649378
000130 da 10 70 bc c2 ab 5b be 4f 95 a9 bd 15 b8 20 3e
       -0.014652455 -0.21452239 -0.082804315 0.15695222
000140 91 c6 b7 bd 44 d2 36 bd 6e c0 81 3d 98 fa 5e bd
       -0.089734204 -0.04463412 0.06335531 -0.054438204
000150 bd 37 1e 3c 35 3b f4 bd e5 ef 13 be 14 5c 59 bd
       0.009656844 -0.11925355 -0.14446981 -0.05306633
000160 73 41 55 bd 91 b4 13 be 33 15 8c bc bb f4 2a bd
       -0.05206437 -0.1442435 -0.017099952 -0.0417373
000170 f5 6b b5 bb e1 8d 6d 3d b9 9f 07 3d e4 14 96 be
       -0.005536551 0.057996634 0.033111308 -0.29312813
000180 f2 18 0c bc eb 40 be bd 16 10 19 be 0b 19 87 be
       -0.008550869 -0.09289726 -0.14947543 -0.26386294
000190 f6 46 01 bd e7 25 41 3c a1 e9 bf 3d 4f 2f 8a bc
       -0.031561814 0.011788822 0.09370733 -0.016868262
0001a0 20 36 84 be e7 f8 68 bd 0e e0 02 be 08 f2 10 bc
       -0.25822544 -0.056877997 -0.12780783 -0.008846767
0001b0 a9 78 49 3d e6 8f da bd 40 2b 08 bd 1b 71 ea bd
       0.049187336 -0.10671978 -0.03324437 -0.114473544
0001c0 05 2b 4d be fb f0 3d be 53 70 0a be 3d 1f 90 bd
       -0.20035942 -0.18548958 -0.13519411 -0.07037208
0001d0 6e 80 f5 38 af fb 9e bd e3 d5 2b be dc 8c 6a 3d
       0.00011706432 -0.077628486 -0.1678081 0.05726324
0001e0 fb 4c e4 ba 99 45 bc 3d 09 68 71 bd ff 6a 82 3d
       -0.0017417961 0.09192962 -0.058937106 0.06368064
0001f0 89 dc 14 bd 1f 8f 62 3b 12 9e 13 be 8c a0 61 3c
       -0.03634313 0.003457017 -0.14415768 0.0137711875
000200 78 cb 17 3e 6c 40 0e be aa d5 fd bd cd 4b 11 bd
       0.14823711 -0.13891762 -0.12394269 -0.03547268
000210 e5 53 47 be fb 4b ba bc e2 0a e0 bd 7a 42 31 3d
       -0.19465597 -0.022741308 -0.10939576 0.043276288
000220 88 39 f2 3d f8 ab 03 be 44 65 99 3d da 5b 73 3d
       0.118273795 -0.1285857 0.07490018 0.05941377
000230 3e 48 d3 3d 42 25 d7 bd 8f d7 8b 3c 29 44 56 3d
       0.103165135 -0.10505153 0.01707056 0.052311096
000240 56 9f e8 bd d3 1f 7c 3d ad 02 92 3d 1e b8 7b 3c
       -0.11358516 0.061553787 0.071294166 0.015363721
000250 46 86 ba 3d 3c 0f 98 3d a4 bc 8e 3e 52 c0 c6 3d
       0.09107642 0.07424781 0.27878296 0.09704651
000260 e0 dd 39 3e 28 ac 9d 3d e9 a3 92 3d 44 52 b2 bd
       0.18151045 0.07698852 0.0716017 -0.08707097
000270 3f 3f a9 bd cd 67 08 3d 2d 28 07 bc f7 1f 7b bc
       -0.08264016 0.033302117 -0.008249325 -0.015327445
000280 5f 14 e3 3b b2 e9 ae bd 48 b0 10 3d be db 15 3d
       0.0069299187 -0.085406676 0.035324365 0.036586516
000290 f9 5b 7e bc ba 12 e2 bd e2 62 ab bd 54 fc 13 be
       -0.015524858 -0.11038728 -0.0836847 -0.14451724
0002a0 cb af 67 be 01 4c c2 bc c7 c5 a5 bd e1 fd af bd
       -0.22625653 -0.023717882 -0.08094364 -0.085933454
0002b0 de 36 94 bc 74 ec 3c bd 4a d8 eb bc da 2a aa bd
       -0.018092569 -0.046123937 -0.028789658 -0.083089545
0002c0 a6 db 91 bc 8b 68 80 3d 6d dc 60 3d a1 b9 b6 3d
       -0.017804932 0.0626994 0.054897714 0.08922125
0002d0 90 a2 db bd 12 35 50 be 09 11 aa bd 61 14 56 3d
       -0.10724366 -0.20332745 -0.083040304 0.05226553
0002e0 30 fa c2 3d 6a bd 47 3e 88 d7 4c 3d 59 8c 9b 3c
       0.09520376 0.1950585 0.050010234 0.018987821
0002f0 8e b8 3b bd f1 2f 3f 3e 83 dd 48 3c f8 38 5c bd
       -0.045830302 0.18670632 0.012259844 -0.053765267
000300 ef 57 c8 3c 6c e3 f9 3d c3 fc 86 3c 55 f9 99 3d
       0.024455993 0.122015804 0.016477948 0.075182594
000310 33 cb 36 bd df f8 0a bd fa 0e 20 3e e9 66 b9 bd
       -0.04462738 -0.03392875 0.15630713 -0.09052832
000320 30 fe 0f bd ae 98 6d bd b7 e8 3f bc d4 6c ae bd
       -0.03515452 -0.058006935 -0.011713198 -0.08516851
000330 5a 68 23 be ee 1e 89 3d d8 40 70 be b0 00 ff 3c
       -0.15957776 0.066953525 -0.23462236 0.031128258
000340 8e 2a 1b be 0a b8 87 be be 6d 28 bd b8 8e eb 3b
       -0.15152952 -0.26507598 -0.041120283 0.0071886443
000350 c9 cc 4e bb b8 ce d0 3d a4 c5 23 be ac 71 ee bc
       -0.0031555167 0.101956785 -0.15993363 -0.029106937
000360 1d 03 11 3d 6f c9 2b 3e f0 31 b6 3c d3 c8 be 3d
       0.03540336 0.1677606 0.022240609 0.09315648
000370 a8 52 41 3e ec 2a 5e 3e f8 be dd bc 42 c5 d4 3d
       0.18879187 0.21696061 -0.0270686 0.103891864
000380 f5 9a 4e 3c f2 6a 50 be 20 b7 06 be b3 0c 7c bd
       0.012610187 -0.20353296 -0.13155794 -0.06153555
000390 98 bf 98 be ec ef 21 be 77 c7 cc bd 1b d7 c7 bd
       -0.29833674 -0.15814179 -0.099989824 -0.09757825
0003a0 32 08 4f be 07 12 e1 bd 53 22 0d be 1d 24 85 3d
       -0.2021797 -0.109897666 -0.13782625 0.06501029
0003b0 ef 05 a4 3d 71 54 30 be df 88 70 be e3 4c 36 be
       0.08008944 -0.17219712 -0.23489712 -0.17802767
0003c0 13 fe f4 3c 15 3d 4b be ca 89 eb bd 38 10 96 bd
       0.029906308 -0.1984752 -0.115008906 -0.07327312
0003d0 07 8c 74 3d 3c 76 41 3e 22 34 01 3d f7 59 3c be
       0.059703853 0.18892759 0.03154386 -0.18393694
0003e0 bf ed 1f 3c 17 e5 8c 3c 42 3b 3e bd bb 3e ca bd
       0.009761273 0.017199082 -0.04644323 -0.09875246
0003f0 39 d2 93 bb 61 f9 25 bd b9 c8 2b 3e 6f df e8 3d
       -0.0045111445 -0.04052103 0.16775788 0.113707416

res_blocks.0.conv.3.bias f4 [20]
000000 25 5e 10 bd 4b 9e 3c bc b7 74 87 bc 6d 56 9d bb
       -0.035246033 -0.011512349 -0.016535146 -0.0048015625
000010 c7 41 d9 3c 7a aa b5 3c 5c 10 ec bc 24 29 8b bd
       0.026520623 0.022176016 -0.028816395 -0.06794956
000020 22 3b b6 bc 0a 6f 87 3d 60 23 84 3d 2f e2 0f 3d
       -0.022244994 0.06612976 0.0645206 0.035127815
000030 00 53 40 3c f5 6b 67 3d 45 5b 7d bd 95 0c 5c bc
       0.011738539 0.05649944 -0.06185462 -0.013430734
000040 66 2f 62 bd 0d c6 d3 bc 75 cd 59 3c d4 f1 3a 3d
       -0.055220984 -0.025851274 0.013293614 0.04564078

res_blocks.0.conv.4.weight f4 [20]
000000 f5 eb 5a 3f 81 55 8b 3f 37 64 6a 3f c9 8e 80 3f
       0.8551629 1.0885469 0.91559166 1.0043575
000010 3e a0 79 3f df a9 68 3f 1b 41 69 3f e0 87 86 3f
       0.97510135 0.908842 0.9111497 1.0510216
000020 c2 94 95 3f 5a e6 7a 3f 1d 8a 7b 3f d9 9a 8d 3f
       1.1686022 0.9800774 0.9825762 1.1062881
000030 9e 73 9e 3f 03 bc 84 3f ea 90 7b 3f 93 21 8c 3f
       1.2379034 1.0369877 0.98267996 1.0947746
000040 28 90 77 3f 0a b6 5e 3f af ed 87 3f 6a a2 79 3f
       0.9670434 0.8699652 1.061941 0.9751345

res_blocks.0.conv.4.bias f4 [20]
000000 2a df 1e 3d ab be 53 3d bd c6 b4 bc 1c f2 13 bc
       0.038787045 0.051695507 -0.022067422 -0.009029891
000010 16 df 31 3d bb 30 b1 bd 03 d4 44 bd b2 67 a5 3b
       0.043425642 -0.08651873 -0.048053753 0.005047762
000020 3a e0 10 3e c3 63 8a bd 36 20 13 3e 20 75 37 bd
       0.14148036 -0.06757309 0.14367756 -0.044789433
000030 be 24 6a 3e ee cc cd 3d 86 4c 07 3e d8 e4 0c 3d
       0.22865579 0.10048853 0.13212785 0.03439793
000040 7b 5f 29 bd 4c 03 42 be da 99 55 3d 3e 3b bc bc
       -0.041350823 -0.1894657 0.052148677 -0.022977468

res_blocks.0.conv.4.running_mean f4 [20]
000000 34 d6 9b bf 50 73 ce bf f9 4f 50 be f9 f6 6c bd
       -1.2174745 -1.612894 -0.20343007 -0.05785272
000010 9a 55 07 bf ad d8 63 3f 9a 7e 54 bf 76 86 db be
       -0.5286499 0.89002496 -0.8300568 -0.42876023
000020 56 4e c5 bf d5 1f df be 46 fb 35 bf 46 c5 92 3f
       -1.5414531 -0.43578973 -0.7108654 1.1466453
000030 f5 3b 99 bf 18 ef a4 bf 40 a5 05 bf d4 25 1d bf
       -1.1971422 -1.2885466 -0.52205276 -0.61385846
000040 c3 b7 c2 be 70 ae fa 3f 4f 84 1b bf 61 2b 44 3f
       -0.38030824 1.9584484 -0.6074876 0.7662869

res_blocks.0.conv.4.running_var f4 [20]
000000 94 d8 ea 3f 0d 74 86 40 bb f5 67 40 77 25 a5 40
       1.8347344 4.2016664 3.6243732 5.1608233
000010 8c 2a 00 41 91 a8 4f 40 52 dd c7 40 5f 07 ee 3f
       8.010387 3.2446635 6.2457666 1.8596
000020 ac 72 a9 40 a4 ad 6b 40 2b c8 8e 40 e8 a2 d6 40
       5.295248 3.6824732 4.4619346 6.707386
000030 b3 64 2c 40 f0 61 48 40 59 73 8e 40 42 35 42 41
       2.6936462 3.1309776 4.4515805 12.138002
000040 32 a7 ac 40 81 32 91 40 b9 28 e6 3f 62 4f 8b 40
       5.3954096 4.537415 1.7981178 4.3534403

final.0.weight f4 [20, 20, 1, 1]
000000 10 2e cc be 1e 46 58 bf 99 eb 08 3e 2b 84 9f be
       -0.39878893 -0.8448199 0.13371123 -0.31155524
000010 a8 d8 d7 be d4 64 d1 3d 93 a5 16 3e ba 0d 4a be
       -0.42157483 0.102243096 0.14711599 -0.19731799
000020 b2 c1 bc 3e f0 75 93 be 84 40 37 3e 60 60 a9 3e
       0.36866528 -0.28800917 0.17895705 0.3308134
000030 6a 82 d8 3e 3d 82 8f 3e 3f f1 f2 3d 3b 50 de 3e
       0.42286998 0.2802905 0.1186242 0.43420586
000040 7b c2 5f bf 63 36 30 be 4b eb 4c be b7 d8 5b be
       -0.8740613 -0.17208247 -0.20011632 -0.21469389
000050 d2 61 3e bd 52 fa f4 3e 4d ee 6d 3e 05 e5 9c be
       -0.046480007 0.4784723 0.23235436 -0.30643478
000060 29 ec c9 be 5a ad e6 bd ea ef c9 3e 0f e9 08 3f
       -0.39437988 -0.11263533 0.39440852 0.5348062
000070 d2 b4 9c 3e d3 15 54 3f d4 5e de be 99 94 c2 bd
       0.30606705 0.828458 -0.43431723 -0.09500999
000080 10 76 3b bf e3 f2 fb be b2 54 9e be 49 4a 25 3e
       -0.73227024 -0.49208745 -0.30923992 0.16141619
000090 b4 e6 8b 3e a0 fd 93 be a8 65 c9 be 9e 89 e5 3e
       0.2732445 -0.28904438 -0.3933537 0.44831556
0000a0 c2 55 75 3e 31 e6 fa 3d b3 48 f4 bd 99 94 09 bf
       0.23958495 0.12250937 -0.11927929 -0.5374237
0000b0 f9 35 3b 3e 81 65 03 3f 9c 14 a0 3e 8b 7b b5 3e
       0.18282308 0.5132676 0.31265724 0.35445818
0000c0 75 5e 72 3e 5c d6 0d 3e 4d 18 6c bd 3f 05 6c be
       0.23668845 0.13851303 -0.057640363 -0.23048876
0000d0 c5 39 c5 3d c4 0b b3 3e 55 82 08 bf f7 bf 24 be
       0.09630159 0.34969914 -0.5332387 -0.16088854
0000e0 0c bd 30 3e da 29 1b 3f d7 72 90 3d ad b5 02 3e
       0.17259616 0.60610735 0.07053154 0.12764616
0000f0 23 89 98 3e d9 54 f5 3e 99 3c 98 bd d0 52 62 3d
       0.29792127 0.47916296 -0.07433433 0.055254757
000100 76 ca 33 3e db 63 a1 be 98 38 0e 3e 7e f7 e8 3e
       0.17557701 -0.31521496 0.13888776 0.45501322
000110 ee 9a 35 3d 48 f0 ea 3e 16 27 0b be 97 c7 a5 bd
       0.044337206 0.45886445 -0.13589129 -0.08094709
000120 fe 2a 27 be d9 52 a9 3e 69 6e 5b 3f 51 51 e3 be
       -0.16324994 0.3307102 0.8571535 -0.44397977
000130 33 32 8b be e0 6f 1d be 7d 28 95 3e bf 71 24 be
       -0.27186736 -0.15374708 0.29132453 -0.16059016
000140 95 e7 4e be f1 d1 07 bd 66 8e 87 3e 76 19 0d 3e
       -0.20205529 -0.0331592 0.2647583 0.13779244
000150 70 2b 5e 3d ac 56 31 3e 86 f9 11 bf 90 70 97 be
       0.054240644 0.17318219 -0.5702137 -0.29578066
000160 00 a3 a0 bd a7 5e 9a 3c 6e 94 59 3d 9f e2 3a 3f
       -0.0784359 0.018843962 0.05312007 0.73002046
000170 a8 50 b5 3e 59 d0 8c 3d 63 b4 27 3f a9 33 32 bd
       0.35413098 0.06875677 0.65509623 -0.0435063
000180 27 1c 54 bd d5 cf 0d 3e d6 01 e6 bd 75 5e 8b 3e
       -0.05178466 0.13848813 -0.11230819 0.27220502
000190 6d 40 4a be 33 cc 68 3e 55 54 73 be a0 d1 3b 3d
       -0.19751139 0.22734146 -0.23762639 0.04585421
0001a0 b4 3e c1 be 54 45 83 bc d4 70 f3 bd c5 b3 e7 3e
       -0.3774315 -0.01602427 -0.11886755 0.4525434
0001b0 04 dd ac 3d 41 2b 44 3e 1c 46 d0 bd 91 7e 2e 3e
       0.08440593 0.19157125 -0.10169622 0.17040469
0001c0 fb 2a 6a be 11 30 5b 3e 8d 89 0c be 60 38 ff bc
       -0.22867958 0.21405055 -0.13724346 -0.031154811
0001d0 ba 97 cf 3e 69 69 a8 bc 9a de cd be 3e 6d 4a be
       0.40545446 -0.020558076 -0.40208894 -0.19768235
0001e0 d7 c9 be 3e ba 00 56 3e 17 30 a5 3e cb fc 5c 3e
       0.37263367 0.20898715 0.32263252 0.21580808
0001f0 b3 83 86 be 54 d2 7c 3e e0 c6 9b bd ab 2f e4 bd
       -0.26272354 0.24689609 -0.07606292 -0.111419044
000200 e8 f5 64 3d 4e 71 33 3f 73 0d ea 3e 41 7b 29 3e
       0.055898577 0.70094764 0.45713386 0.16550924
000210 14 01 26 be ba 7b 36 3e d8 2a 62 bd 20 0b 9e be
       -0.16211349 0.17820635 -0.05521664 -0.30867863
000220 d7 9b 82 be cc 1b ca 3e 19 98 88 bd 2a 3c 25 be
       -0.2550952 0.39474332 -0.06669635 -0.16136232
000230 c9 86 a1 be b1 26 d3 be 78 b9 62 3e 00 d5 9f be
       -0.31548145 -0.41240457 0.22141063 -0.31217194
000240 d7 c3 c8 3e 11 ce df 3d 78 bb e9 be ab 86 2f be
       0.39211914 0.10927976 -0.4565084 -0.17141216
000250 c3 2f 09 bf 97 4b 07 3d a6 63 36 bf c4 b9 be be
       -0.53588504 0.033031072 -0.712458 -0.37251103
000260 cb c8 25 be 96 8a 70 be 30 13 ee be 57 76 1a 3f
       -0.16189878 -0.23490366 -0.46499014 0.6033682
000270 72 2b c7 bb 66 6e b9 3e e6 24 b8 3e 4b ad 01 3e
       -0.006078177 0.3621704 0.3596565 0.12663762
000280 56 b3 4b 3e 0a 12 4a 3d 31 81 8f 3e e1 c0 09 3f
       0.1989263 0.04933361 0.28028253 0.53809935
000290 22 ff 6e 3f fb d6 f9 3e 05 7f aa be a8 62 63 3d
       0.9335805 0.4879683 -0.33300033 0.055514008
0002a0 08 10 be 3c 42 85 3e 3e 8f 55 8e bd 00 24 5a 3e
       0.023201004 0.18605521 -0.06949913 0.21302795
0002b0 e0 cd 08 be 6c fb 2b be 72 7b d1 3e 5b 75 cb bc
       -0.13359785 -0.16795129 0.40914494 -0.024836233
0002c0 88 df 15 be 2c de b9 3e 45 f1 5f be c6 11 3e be
       -0.14636052 0.36302316 -0.21869381 -0.18561468
0002d0 ed 53 65 ba f6 85 ca be 78 e1 0b 3f 82 5b d4 3d
       -0.00087481627 -0.3955533 0.54640913 0.10369016
0002e0 94 17 fb be 16 be 4d 3e 5f b9 cc bd 59 82 d3 3c
       -0.49041426 0.20092043 -0.09996294 0.02581899
0002f0 ae 05 bc 3c ad a1 f2 3e 91 21 c9 3d f5 35 92 be
       0.022951927 0.47388974 0.098208554 -0.2855679
000300 9b 6b 2b bf e8 09 97 3e 20 55 c3 bd 2d e4 1f 3e
       -0.6696107 0.29499745 -0.09537721 0.15614386
000310 76 22 97 bd e6 5e ec 3e c9 54 93 3e 59 e9 33 be
       -0.0737962 0.46166152 0.28775623 -0.17569484
000320 06 38 cb 3e 06 24 ea 3c be a2 07 3f 60 cb f7 be
       0.3969118 0.02858163 0.529827 -0.4839735
000330 35 74 58 3e 61 34 51 be 90 29 af be 24 bf 79 3e
       0.2113808 -0.20430137 -0.34211397 0.2438932
000340 0b ad ea be ef f1 e5 3e be 33 e2 3e 0e bf fc bd
       -0.45835146 0.44911143 0.441801 -0.12341128
000350 05 4e 18 3e 2a ad 55 be 14 3e bc 3e b3 ad 97 bb
       0.14873512 -0.20866838 0.36766112 -0.004628861
000360 b0 79 59 3f c9 32 a5 3e 5f 25 65 be b0 44 4e 3f
       0.84951305 0.32265308 -0.22377537 0.8057356
000370 aa ac 99 3d bb 10 bc be cd f2 34 be a5 f3 17 3f
       0.07503636 -0.36731514 -0.17670746 0.5935615
000380 35 62 b8 bd 3e 49 cf be 6b 60 df 3e fc 00 24 bf
       -0.090031065 -0.40485567 0.4362825 -0.64064
000390 31 0e 86 bf 50 d8 51 be 9a c8 de 3d 3e b7 77 bd
       -1.0473081 -0.20492673 0.108781055 -0.060477488
0003a0 fd 77 6c be d3 23 6e 3e 2e 95 e1 be 95 16 fb 3c
       -0.23092647 0.23255853 -0.44059128 0.030650416
0003b0 fa 29 b8 3b 90 be 57 bd 28 00 cc 3d 04 0a 0b be
       0.0056202384 -0.05267197 0.09960967 -0.1357804
0003c0 3c 35 85 3d 1d 0b 89 be 9b 7f df be 02 c2 8f 3d
       0.06504294 -0.2676629 -0.43652043 0.07019426
0003d0 47 65 d3 3e ec 18 a7 3e f4 0f 82 be 31 37 f0 be
       0.41288206 0.326362 -0.25402796 -0.46917108
0003e0 1a e0 29 bd a7 71 a3 3e 4b 45 48 3b a4 e6 b0 be
       -0.041473486 0.31922647 0.003055888 -0.34550965
0003f0 be f7 fc 39 2c d3 59 be 34 6b ee 3e 81 b7 4b be
       0.00048249768 -0.21271962 0.46566164 -0.1989422

final.0.bias f4 [20]
000000 09 0c d3 3d 34 54 51 3e 66 a2 5f 3e 71 c2 b3 3d
       0.1030503 0.20442277 0.21839294 0.08777321
000010 f4 2e 9c 3d b2 f1 4a 3e 53 0f f4 3c 10 3d 8d 3d
       0.07626143 0.19818762 0.029792463 0.068964124
000020 0d 85 91 bd a2 1a 59 3e 7a 4e 5b be ea 1d b0 bd
       -0.071054555 0.21201566 -0.21416655 -0.08599456
000030 24 4c 34 be 5a 4d 52 3e 82 d5 29 3e 6e 65 10 3e
       -0.1760717 0.2053732 0.16585353 0.14101192
000040 a8 8a 60 be 68 83 e7 3d 07 f1 1f be da 72 83 bd
       -0.21927893 0.11304361 -0.15619288 -0.064183906

final.1.weight f4 [20]
000000 14 1e 6f 40 28 50 7b 40 65 8c 16 3f f9 71 12 3f
       3.7362108 3.9267673 0.58807975 0.5720516
000010 e7 81 63 3f f6 4d 3c 3f bf 49 58 3f d1 ea 3a 3f
       0.8887009 0.7355646 0.8448753 0.7301455
000020 ca 5e 03 3f 03 f8 f2 3e 20 c1 48 3f e0 23 f6 3f
       0.5131651 0.47454843 0.78419685 1.9229698
000030 d2 19 2a 3f a2 d1 62 3f a6 10 68 3f b3 c1 04 3f
       0.6644565 0.88601124 0.90650403 0.5185806
000040 ef f5 47 3f f8 02 9e 40 7c 44 ff 3f 12 98 12 3f
       0.7810964 4.9378624 1.9942775 0.5726329

final.1.bias f4 [20]
000000 5c d9 e3 3f 6f fb 10 40 93 c5 c4 be d5 eb b3 be
       1.7800708 2.2653463 -0.38431987 -0.35140863
000010 2e e7 a5 be 23 38 9d be 95 70 b2 be d4 21 ab be
       -0.3240294 -0.3070689 -0.34851518 -0.33424246
000020 53 8d e6 be 2b 00 0d bf 26 bd b1 be a3 af a5 3e
       -0.45029697 -0.5507838 -0.3471462 0.32360563
000030 ed 54 cb be 01 69 c1 be 45 41 b5 be 15 4e eb be
       -0.3971323 -0.37775424 -0.3540136 -0.4595801
000040 d0 a5 9e be 5b 01 3e 40 52 d6 15 3e 77 c9 e2 be
       -0.3098588 2.9688327 0.14632538 -0.4429433

final.1.running_mean f4 [20]
000000 76 fb 1c bf 8f dd 20 bd a8 bc 8b 3f 12 83 94 3f
       -0.613212 -0.039273795 1.0916948 1.16025
000010 7d 26 09 3f e7 71 01 be d3 af 29 3f e3 f8 7e bf
       0.53574353 -0.12641107 0.6628391 -0.9959852
000020 ab 7e 9a 3f bf fa bc 3e 35 d1 96 3f ec 4a 9b bf
       1.2069906 0.36910054 1.1782595 -1.2132239
000030 34 97 07 bf db d3 9c 3d 0b 1d 88 be b8 c4 5c 3f
       -0.5296509 0.07657596 -0.26584658 0.8623767
000040 40 45 50 3e fd fe 07 40 47 ac 3b be e3 34 04 40
       0.20338917 2.1249382 -0.18327437 2.065728

final.1.running_var f4 [20]
000000 a0 ce 4f 40 5d 4d 21 41 8b d1 33 40 42 2a 1b 40
       3.2469864 10.0813875 2.8096645 2.4244542
000010 db d2 3e 3f 32 4c b7 3f f3 39 2c 3f 4a f0 ad 3f
       0.7454049 1.4320128 0.67275923 1.3588955
000020 5e 4a 9f 40 cb 84 a1 3f e3 4c 88 40 b9 b5 a0 3f
       4.977828 1.261865 4.2593856 1.2555457
000030 c5 45 ae 3f 4b 0e 80 40 37 31 88 3f 24 8f 7c 40
       1.3615042 4.0017447 1.0640019 3.9462366
000040 33 ad 47 40 5a 7a 9e 40 f9 a2 df 3f ce 30 47 40
       3.1199462 4.9524355 1.747161 3.1123538
