消融实验/model_weights_12.pth (torch, 43039 bytes, 24 tensors)

initial.0.weight f4 [20, 3, 3, 3]
000000 27 fc 1d 3f 07 d7 f6 3e e3 99 13 3f 53 78 ad 3e
       0.6171288 0.48210928 0.5765669 0.33880863
000010 ca d8 42 3f 4e f7 e1 3e dc e3 cb 3e 3d 0e e5 3e
       0.76112044 0.4413399 0.3982228 0.44737425
000020 c1 e1 1d 3f ed 1e d2 3e da 1c 0c 3f c5 62 d9 3e
       0.616726 0.4103922 0.54731524 0.42458168
000030 5b 84 d7 3e cc 2b 01 3f f4 7e 40 3f 93 f4 13 3f
       0.42093167 0.50457454 0.75193715 0.57795066
000040 06 d3 09 3f d3 96 24 3f 91 03 d1 3e bc 1f ff 3e
       0.5383762 0.6429264 0.40823033 0.498289
000050 1a 00 2f 3f a1 4d f8 3e 36 63 9f 3e 8c 13 09 3f
       0.6835953 0.48496726 0.3113038 0.5354545
000060 a2 1b b2 3e 44 15 dd 3e 27 f8 f2 3e c4 1a 08 bf
       0.34786707 0.43180287 0.4745495 -0.5316584
000070 57 4c dd be 2f b3 c9 be 8b 95 be be d2 e5 d8 be
       -0.43222305 -0.3939452 -0.37223467 -0.4236284
000080 1a 65 bb be 73 f8 f1 be d5 31 b5 be 03 c6 92 be
       -0.36600572 -0.47259864 -0.3538958 -0.28666696
000090 8d 45 f3 be b9 62 9d be 22 b9 0f bf 7b e6 05 bf
       -0.47514 -0.30739382 -0.56141865 -0.5230481
0000a0 a2 20 b5 be d6 17 03 bf 57 0e b0 be 8a f7 91 be
       -0.3537646 -0.51208246 -0.3438594 -0.2850917
0000b0 ba fa de be 21 43 e4 be 68 e1 37 bf 59 6a db be
       -0.43550664 -0.44582465 -0.7182832 -0.42854574
0000c0 cb 16 14 bf 6b 2f 05 bf 0d ec f9 be 1f 04 b9 be
       -0.5784728 -0.5202548 -0.48812905 -0.36135957
0000d0 68 df aa be 30 61 51 be 64 49 d8 3e 84 ad 87 3e
       -0.3337357 -0.2044723 0.42243493 0.2649957
0000e0 de 32 70 3e f9 47 91 3e df f1 40 3e d8 63 52 3e
       0.23456904 0.28375223 0.18842266 0.205459
0000f0 66 c7 77 3e dc 0c 94 3d 66 35 91 3e a5 d0 12 3e
       0.24197158 0.07229015 0.28361052 0.14337404
000100 b3 94 df 3d 84 cf 74 3e fd 49 c1 3e 06 4f de 3d
       0.10917034 0.23907286 0.3775176 0.10854916
000110 03 a6 42 3e 9f cf 0b 3e c1 42 a8 3e 2d 2b 1b 3e
       0.19008641 0.1365342 0.3286343 0.15153189
000120 66 c7 74 3e 54 4d 87 3e 06 e1 96 3e fb 95 b8 3e
       0.2390419 0.26426184 0.29468554 0.36051926
000130 e2 8c 90 3e 29 a3 84 3e dc fd 2f 3e c3 11 d9 3d
       0.28232485 0.2590573 0.17186683 0.10599091
000140 52 01 0a 3e 6d 9e 21 3e 85 b0 61 3e 4d 9d 8e 3e
       0.13477066 0.15783091 0.22039993 0.27854386
000150 89 2b 75 3e 68 95 87 3e f1 ed a7 3e ab a0 71 3e
       0.23942389 0.26481175 0.32798722 0.23596446
000160 48 c8 ac 3e 3b f1 c9 3d 2f 5c 8a 3e e2 d3 69 3e
       0.33746552 0.09860464 0.27023456 0.22834733
000170 a4 c2 5c 3e a7 80 2b 3e 6a 3e 84 3e 31 d9 2b 3e
       0.21558625 0.16748296 0.25828868 0.1678207
000180 07 c9 58 3e c3 f1 8a 3e 04 0d 10 3e 32 68 50 3e
       0.21170436 0.27137575 0.14067465 0.20352247
000190 47 47 a2 3e 75 3b 7a 3e 7e 9d db 3e 93 95 26 3e
       0.31695005 0.24436744 0.42893595 0.16267996
0001a0 b0 c5 9f 3e d0 68 ac 3e 47 52 13 3e f3 15 b2 3e
       0.3120551 0.33673716 0.14386855 0.3478237
0001b0 22 32 14 be b8 1e 94 bc b8 03 42 be 00 80 24 be
       -0.14472249 -0.018081054 -0.18946731 -0.16064453
0001c0 66 fd 97 3d 91 87 97 bd 28 f6 3b be e4 40 89 bd
       0.07421379 -0.07398904 -0.1835562 -0.0670183
0001d0 73 40 28 be 13 f7 3d be 7a 84 41 be b7 a3 5d 3d
       -0.16430835 -0.18551283 -0.18898192 0.05411121
0001e0 b1 54 01 bc 76 c3 21 be 3c a6 2e 3d 73 44 7a 3d
       -0.007893727 -0.15797219 0.042639002 0.061100435
0001f0 37 ed 1d be 5c 7a 94 3d c4 5d 5b be 2a ca 24 be
       -0.15422522 0.07249901 -0.21422487 -0.16092744
000200 86 b0 b2 bd 3d 85 e3 bd f2 ec 5e 3d d7 f7 a5 3c
       -0.087250754 -0.111093976 0.054425187 0.02025978
000210 85 0c a3 be b0 dd cf bd b7 ac 6e 3d cc 33 b3 bd
       -0.3184549 -0.101497054 0.058270182 -0.08750114
000220 aa 70 13 3d 0a f2 cc 3c 9b 3c 9a be 17 70 25 be
       0.035996117 0.025017757 -0.30124363 -0.1615604
000230 60 27 dd bd ca 2d 39 bb 8f b9 2e bd c4 1f da 3a
       -0.10798526 -0.0028256052 -0.04265743 0.0016641547
000240 22 2d 8b be ee c3 db 3c 79 0f 01 be 52 6f 2c be
       -0.2718287 0.026826825 -0.12603559 -0.1683934
000250 00 fa ff 3d c0 0f 07 be 40 a6 02 be 48 12 10 be
       0.124988556 -0.13189602 -0.12758732 -0.14069474
000260 7d 7c ee bd 39 b4 80 be 26 2b 0f be cc b7 3b bd
       -0.11644838 -0.251375 -0.13981304 -0.04582958
000270 17 b3 22 bd e1 92 88 be 81 52 fa bb f8 eb 67 bd
       -0.039721575 -0.2667456 -0.0076392298 -0.05662152
000280 27 11 a4 3d 6e 11 2f 3d 62 a9 73 3e 75 06 43 bd
       0.08011084 0.04274123 0.23795083 -0.04761358
000290 2d 2f 09 be 08 30 15 3e 30 9f ab 3d 68 ef 19 be
       -0.13396902 0.14569104 0.08379972 -0.15032732
0002a0 d8 68 aa 3e f3 d1 01 3e 9f ea f3 3d 58 d0 ca bc
       0.33283114 0.12677746 0.11909985 -0.02475755
0002b0 ab ee 28 3c a1 84 4a bc f2 e3 de 3e ed 8b d4 3d
       0.010310809 -0.012360723 0.43533283 0.10378251
0002c0 e9 81 66 3d f4 c0 47 3e 77 d6 2e 3e 84 d5 06 3e
       0.056276236 0.195072 0.17074 0.13167387
0002d0 20 58 b3 3d 16 bf a5 3d 02 ac c5 3d 81 7d b4 3e
       0.08757043 0.080930874 0.096519485 0.35252002
0002e0 02 72 93 3e fe 45 39 3e 7b c7 91 3e 6d 4a 4b 3e
       0.2879792 0.18093106 0.28472504 0.1985261
0002f0 93 b4 a8 3e ea d0 f4 bd 4a 0b c7 bc 07 2f 05 bd
       0.32950267 -0.1195391 -0.024297375 -0.032515552
000300 5b 12 1e 3e 01 38 01 3e d6 da bc 3d d2 ff 4c 3d
       0.1543669 0.1261902 0.09221427 0.050048657
000310 62 30 71 3d 13 88 ee 3d 5e e5 1f 3d cd fc 82 bd
       0.058884032 0.11647048 0.0390371 -0.06395874
000320 33 60 12 3d 5d af 5c bd 34 a2 6b 3e 8f 56 61 3c
       0.035736274 -0.053878177 0.23011094 0.013753547
000330 a0 05 da 3d 32 60 22 3e c7 3d 29 3e e9 72 cf 3d
       0.10645604 0.15857008 0.16527472 0.10129339
000340 81 e9 d7 3d 61 7a e5 3c 9e a5 59 3d bc 10 c4 3c
       0.10542584 0.028012456 0.05313646 0.02393376
000350 1e 39 cf 3c 76 0a 43 3b 58 8a a0 bd 0b 99 00 3e
       0.02529579 0.0029760874 -0.07838887 0.12558381
000360 11 02 4d 3e 5c 25 09 bc 71 53 d1 bd 1b 3f 42 3e
       0.2002032 -0.008370724 -0.10220993 0.18969385
000370 12 cf 89 3d 4a 25 a4 bb 02 47 3d 3e 4e 9f 08 3d
       0.06728949 -0.005009328 0.18484119 0.03335505
000380 a5 2e 4e be 0e 78 80 3e cf cb a9 3d 93 f9 da bd
       -0.20134981 0.25091594 0.082908265 -0.10692134
000390 83 6b 09 3e f9 74 c2 3c 14 81 75 bd e7 f1 88 3e
       0.13419919 0.023737418 -0.05993755 0.26747057
0003a0 df 46 28 3d 8b 05 8a be 21 05 99 3e 6c 0e 03 3d
       0.041083213 -0.26957354 0.29886726 0.031996176
0003b0 41 a0 6a bd f2 8a bd 3e 7e 05 b4 3b ec 41 6f be
       -0.057281736 0.3702007 0.005493819 -0.23364991
0003c0 dc 1a 25 3e ec f6 4c 3e 00 da fa ba ae b3 8a bd
       0.16123527 0.20016068 -0.0019138455 -0.067725524
0003d0 64 d0 5e be b7 26 e5 be a2 5b d9 bd 6a 9c 03 be
       -0.21759182 -0.447561 -0.10613181 -0.12852636
0003e0 8c c4 cd bd 62 fb b0 bd 41 ad c1 bd 06 5d 58 be
       -0.10047254 -0.086416975 -0.09456874 -0.21129236
0003f0 99 3b 13 be c6 23 0c be dd fa 29 be 71 26 47 be
       -0.14378203 -0.13685521 -0.16599603 -0.19448258

initial.0.bias f4 [20]
000000 88 e4 03 3e e1 3f 1d 3c bc c1 43 3e 40 d1 06 3d
       0.12880147 0.009597749 0.19116873 0.0329144
000010 32 bd 98 3d 65 dd e5 bd db 42 76 3c 99 80 82 3d
       0.07457961 -0.11223868 0.015030588 0.06372184
000020 e5 ad 97 bd 77 df 8f 3d d2 17 bf 3d 75 a8 9d bc
       -0.074062146 0.070250444 0.09330715 -0.019245366
000030 9b 82 22 3e 9a d0 1d 3e 45 52 e1 bc 63 bc d4 bd
       0.15870135 0.15411606 -0.02750505 -0.103874944
000040 2b 66 11 bd a1 3c 97 3d 36 40 98 3d fd 35 20 3e
       -0.035497826 0.07384611 0.07434122 0.15645595

initial.1.weight f4 [20]
000000 61 f2 72 3f f3 ca 6a 3f 55 4f 5c 3f d5 72 68 3f
       0.9490109 0.91715926 0.8605855 0.9080022
000010 5a 7f 7d 3f 53 22 6b 3f 9a 6e 38 3f 66 d4 8c 3f
       0.9902245 0.9184925 0.72043765 1.1002319
000020 9d de 29 3f c4 3d 86 3f 41 76 80 3f c1 82 9b 3f
       0.66355306 1.0487599 1.0036088 1.2149278
000030 a0 79 89 3f 0d 2c 68 3f 9b f6 4d 3f 54 53 7c 3f
       1.0740242 0.90692216 0.80454415 0.9856465
000040 5a 40 62 3f a5 35 9d 3f f9 fa 6e 3f f4 63 8c 3f
       0.8837944 1.2281996 0.93351704 1.0968003

initial.1.bias f4 [20]
000000 24 b7 01 3b a1 7f e2 bd e8 c3 16 bc c2 53 a1 bb
       0.0019792998 -0.110594995 -0.009201981 -0.004923315
000010 d8 0d b5 39 7a 03 93 be 8c e2 11 be b1 86 f0 3d
       0.00034533325 -0.2871359 -0.14246577 0.1174444
000020 5d 1d d2 bd b7 3b 25 3e fc d3 87 3d 17 21 82 3e
       -0.10259507 0.1613606 0.0663223 0.2541587
000030 f4 54 05 3d ad 9f 43 be 54 25 77 bd 86 ec 8f bd
       0.03255172 -0.1910388 -0.060338333 -0.07027535
000040 cd f0 e5 bd 5a d0 66 3e 17 ff 15 3c 36 06 96 bd
       -0.1122757 0.22540417 0.009155056 -0.073254034

initial.1.running_mean f4 [20]
000000 7a 6a 77 40 1a 47 4c c0 a5 66 e9 3f 30 37 ef 3f
       3.8658738 -3.1918397 1.823445 1.8688717
000010 e1 fb 01 bf 9d f5 3d bf a3 ca 79 3f 45 5e c1 3e
       -0.5077496 -0.742029 0.97574824 0.37767234
000020 68 1a 3d 3e 71 0b 94 bf 7d 92 f3 40 8f f3 b5 3f
       0.18467104 -1.1565992 7.611632 1.4214953
000030 bb 31 eb 3f ee 4b e3 be cf 3b ab 3e 21 54 6a c0
       1.8374552 -0.44393867 0.33444068 -3.6613848
000040 f6 54 15 c0 5b 16 7a 3f 03 9e 06 3f 1d 76 c7 be
       -2.3333106 0.9769036 0.52584857 -0.389573

initial.1.running_var f4 [20]
000000 e7 40 54 40 63 33 1d 40 dc e3 69 3f f2 db 82 3f
       3.3164613 2.4562614 0.9136331 1.0223372
000010 2d 1f c2 3e 20 13 cd 3e 32 37 05 3f 82 f3 ac 3e
       0.3791441 0.40053654 0.52037346 0.33779532
000020 71 bb a9 3e 88 e9 20 3f 8f d6 44 41 7f 75 3c 3f
       0.3315082 0.6285634 12.302382 0.73616785
000030 af 19 75 3f ca d3 c0 3e 0f c7 ad 3e 0e 6b 4d 40
       0.95742315 0.37661582 0.33940932 3.209659
000040 41 4b b7 3f 99 b4 f9 3e 26 10 ba 3e 65 29 b8 3e
       1.4319841 0.48770598 0.36340445 0.35969082

res_blocks.0.conv.0.weight f4 [20, 20, 3, 3]
000000 d4 f5 8f 3d e5 d5 3e be 10 93 ed 3d f5 20 af bc
       0.0702931 -0.18636282 0.116003156 -0.02137802
000010 61 b5 8d 3d 2e 5e 82 be 9c 4e a4 bd a3 06 bf bd
       0.06919361 -0.25462478 -0.08022806 -0.09327438
000020 88 f4 93 be 49 3d b4 bd 77 45 af 3d 74 82 81 bd
       -0.288975 -0.08800752 0.08558171 -0.0632371
000030 32 c9 45 3d fc 71 35 3e aa 5d 4a bc 12 d5 3a 3e
       0.048287578 0.17719263 -0.012351433 0.18245342
000040 ca 1d 34 3e 1f 0b 19 bd 75 ee 7d be 49 20 20 be
       0.17589489 -0.03736412 -0.24797995 -0.15637316
000050 b0 02 24 3e ba 9a 22 bd 0c 3c 3d 3d ac b7 b7 bd
       0.1601665 -0.03969834 0.046199843 -0.089705795
000060 33 22 2e be 49 67 bd 3d a1 8d a3 bd 97 9c 6f bd
       -0.17005233 0.09248216 -0.07985998 -0.058498945
000070 90 64 3d bd d2 6a c2 bd 6d 74 07 3d 1b 0a 1a 3d
       -0.046238482 -0.094930306 0.033070017 0.037607294
000080 19 92 50 be 62 16 d7 bd d5 65 8a 3d 50 a5 6d bd
       -0.20368232 -0.10502316 0.06757704 -0.058018982
000090 f1 dd 23 bd 1c 68 4f 3d 1a cb 91 3d ab 7d 40 bd
       -0.04000658 0.050636396 0.07118817 -0.046994846
0000a0 60 93 17 be 06 95 ff 3d f8 9b 30 be 25 42 5f bd
       -0.14802313 0.12479596 -0.17246997 -0.05450644
0000b0 9b 13 68 3c 03 37 38 bd c5 8f 99 bd fa ab 97 bd
       0.014164831 -0.04497434 -0.07498125 -0.07405849
0000c0 d0 8b ea bd 1c d6 bf 3d 70 81 cc 3e 15 c3 9e 3d
       -0.11452448 0.0936701 0.39942503 0.07752053
0000d0 5e 86 aa 3c 12 67 07 bb 84 57 b4 bd 5e 06 fc 3c
       0.020816024 -0.00206608 -0.08805755 0.030764755
0000e0 02 e1 a5 bd 4c 56 17 bd fa de a8 bc 26 6b ba 3b
       -0.080995575 -0.036947533 -0.020614136 0.0056890426
0000f0 25 c2 df 3b df 05 14 bc 0b 98 1a be bd 85 10 be
       0.0068285638 -0.009034603 -0.15097062 -0.14113517
000100 05 c8 90 bd ef 3b 7c bd 92 61 0b be 44 a4 d8 bd
       -0.07069401 -0.061580595 -0.13611439 -0.10578206
000110 0b 31 16 bd 03 03 50 be 48 b4 73 be 5a a0 eb 3d
       -0.036667865 -0.20313649 -0.2379924 0.11505194
000120 5f bd 85 be 97 b6 a9 bd bd 34 97 bc 09 7f 12 be
       -0.2612104 -0.082867794 -0.018457765 -0.14306273
000130 0e ad 0e bd ac 3e 2f bd 82 3c 17 be 65 0b 38 be
       -0.034833007 -0.042784378 -0.14769176 -0.17973097
000140 5d bb 89 3d 90 ce 58 bc 0e 4b 2a be cc df 2f 3d
       0.0672519 -0.013232842 -0.16630194 0.04293804
000150 90 08 04 3d fd 3f d9 bd 33 b5 23 3e e3 8c 33 be
       0.03223473 -0.10607908 0.15987091 -0.17534213
000160 ae 02 69 bd 02 30 60 be 09 0f 0c be 3a 8c 26 bd
       -0.05688732 -0.21893314 -0.1367761 -0.040661074
000170 16 3c 41 be 6e bc 0c be be b3 d3 bd 9e 0a 7b 3d
       -0.18870577 -0.13743755 -0.103370175 0.061289422
000180 d2 63 bc bd c2 d3 34 bc b7 e4 25 bd 82 5f 98 3d
       -0.09198727 -0.011036815 -0.040501323 0.07440092
000190 ca 2e 3b bd d9 b2 21 be 76 9a b9 bd 2b 67 73 bd
       -0.04569892 -0.15790881 -0.09062664 -0.05942456
0001a0 3e 06 8a bc fa b0 cf bc db b1 c5 bd 25 4f 4b 3c
       -0.01684868 -0.025352944 -0.09653064 0.012409006
0001b0 99 fa 5f bd 52 e9 bc be 94 a5 cb bd d3 b0 8b be
       -0.054682348 -0.3689676 -0.09943691 -0.27283344
0001c0 cd ad fa bb 2e 8c 03 be 9b 2f 2d be 74 fc 0e 3d
       -0.007650113 -0.12846443 -0.16912691 0.034908727
0001d0 28 dd 3d bd 69 29 04 3e ae 97 cd 3d d8 4a f3 3c
       -0.04635349 0.12906422 0.10038696 0.029698774
0001e0 c2 33 c8 bc 17 c1 d1 bc d8 db b1 bc 3b c0 36 3d
       -0.024438743 -0.025604768 -0.021711275 0.04461692
0001f0 e2 7d 3a bd b4 db 6b bd a2 b7 5d be fa 76 8a be
       -0.045530207 -0.057582572 -0.21652082 -0.27043897
000200 c0 50 66 be 66 d8 e2 bd d2 61 99 bd f0 9e a4 bb
       -0.22491741 -0.11076431 -0.07489361 -0.0050238296
000210 00 db 9a 3d e8 dd 52 3d cc 6a d5 bd 00 11 8f bd
       0.07561302 0.051481158 -0.104207605 -0.06985664
000220 57 d6 25 3d 0f 13 3b bc 74 b7 93 bc 35 00 08 be
       0.040487614 -0.011418118 -0.018031813 -0.13281329
000230 97 27 6e bd cc d5 70 3e 1a 01 90 bd 82 88 33 bc
       -0.058143225 0.23519057 -0.0703146 -0.010957839
000240 da 21 28 be c7 e2 1a 3e 7b 2b 3c bd 03 84 17 3e
       -0.16419163 0.15125571 -0.045939904 0.14796452
000250 8a 0d 84 bd 92 a8 33 3d 9d 4a 16 3d 32 83 c5 3d
       -0.06447895 0.043861933 0.03669225 0.09644164
000260 84 b6 98 3c c9 4f 00 be 71 28 c0 bd 07 be 96 bd
       0.018641718 -0.12530436 -0.093827136 -0.073604636
000270 52 90 39 be 46 f3 42 bc 17 0b ff bd 75 25 8c be
       -0.1812146 -0.011898821 -0.12453287 -0.27372327
000280 b8 83 ae bd de 18 6d be f4 24 ea bd 4e a6 7d bd
       -0.08521217 -0.23154017 -0.114328295 -0.06192618
000290 d0 fd 34 3d 3a db 0d be 0b f5 d7 bd ec c3 d0 3d
       0.044187367 -0.1385316 -0.10544785 0.10193619
0002a0 20 9d 37 be af 67 de bd ea e4 8c bb 4a 71 bf 3d
       -0.17931032 -0.1085962 -0.0042997496 0.0934778
0002b0 d1 6a 46 3e 14 a2 12 3d 32 bb 6f be 5e e5 8b bc
       0.19376685 0.0357991 -0.23411253 -0.017077144
0002c0 bf 74 06 be 40 c6 7e bd d4 54 46 bb 2c e9 74 be
       -0.13130473 -0.062200785 -0.0030262964 -0.23917073
0002d0 79 09 8d bd 34 a8 6b bc 5e 75 aa bc 38 90 e8 3d
       -0.068865724 -0.0143833645 -0.020807918 0.113556325
0002e0 10 be 2a 3d 55 a5 85 3d 68 1b c0 3d 8b 87 80 3d
       0.041685164 0.06525675 0.09380227 0.06275853
0002f0 84 13 32 bb 2d 66 0f bd cb b5 e9 bd e1 c0 a2 bd
       -0.0027172277 -0.03500955 -0.114116274 -0.07946945
000300 d1 56 90 3d 45 a1 21 be 93 63 e7 bd e8 5e 05 3e
       0.07047809 -0.15784176 -0.11298289 0.13024485
000310 18 77 31 be 6a ba 01 be eb 01 bb 3d 6a cb dd 3d
       -0.17330587 -0.12668768 0.09131225 0.10829814
000320 62 77 2d 3e 0d 20 cc 3c b4 c1 78 3e eb b2 94 3d
       0.16940072 0.024917627 0.24292642 0.072606884
000330 c5 98 9b 3d 43 0a a2 3d a6 29 a7 bc 55 6b 8e 3e
       0.07597498 0.079121135 -0.020405602 0.27816263
000340 65 ac 81 3e 17 eb 6b 3e c6 c9 2d 3e 6b ef 94 3e
       0.2532684 0.23038898 0.16971502 0.2908891
000350 c4 8b 15 3e 0c 7d e6 3d 14 73 fb 3c 70 13 60 3e
       0.14604098 0.112543195 0.030694522 0.21882415
000360 36 9a 14 be 30 bd 86 be f1 3a 4a be a1 21 1f be
       -0.14511952 -0.26316214 -0.19749047 -0.15540172
000370 69 08 27 3d ee 12 84 bd a2 43 e7 bd 30 8f 9c 3d
       0.040779505 -0.06448923 -0.11292197 0.07644498
000380 7f 8e 1c be ed 7d 71 bd bd f9 9c be ee 80 8e 3b
       -0.15288733 -0.058957983 -0.30659285 0.0043488657
000390 6b db da bd 32 11 09 be 93 c1 b7 be 59 c1 05 bd
       -0.10686382 -0.13385466 -0.35889873 -0.032655094
0003a0 d7 ca bd bd c0 02 8b bd fa 60 2a 3d c6 fc 4e 3d
       -0.09267204 -0.06787634 0.04159639 0.050534032
0003b0 1f 58 8e bd 11 5d 38 be ac 0d 86 bd 32 a1 64 3d
       -0.069504015 -0.18004252 -0.065455765 0.05581779
0003c0 32 b6 13 be f1 c2 69 bd 54 82 79 be 1c 3e 28 3e
       -0.14424971 -0.057070676 -0.24366122 0.16429943
0003d0 05 24 96 3e 8a 4b b0 3d 38 5f 31 3d fb 7e 93 3e
       0.29324356 0.08608158 0.0433037 0.28807816
0003e0 22 4c b4 3d dc 4d a8 3e ce 7f 01 3e 2d 9d 6b 3e
       0.08803584 0.32871902 0.1264641 0.23009177
0003f0 da 99 7e be 88 b8 45 be c9 b6 7f be 0d be 23 be
       -0.24863377 -0.19308674 -0.24972071 -0.15990467

res_blocks.0.conv.0.bias f4 [20]
000000 46 28 cb 3c 91 d8 01 3d 41 d8 02 3c 38 22 07 3d
       0.024799477 0.031700674 0.007986129 0.032991618
000010 eb 1d 6d bd 65 a0 5b bd 25 72 9d bc 43 a4 92 bd
       -0.05788986 -0.05361976 -0.019219467 -0.07160237
000020 53 46 77 3d ef fa 1a bd 82 64 4f 3d 95 90 72 3d
       0.0603698 -0.037836965 0.05063296 0.059219915
000030 78 a0 97 3d 20 d5 4d bd 43 d3 64 3d 10 f2 a6 bc
       0.07403654 -0.05025208 0.055865537 -0.020379096
000040 db 82 82 3d 12 a9 e5 bc e1 aa 22 bd 04 53 46 3c
       0.06372615 -0.02803472 -0.039713744 0.012104753

res_blocks.0.conv.1.weight f4 [20]
000000 9a 6e 84 3f 01 ae 6b 3f 17 6e 6a 3f 8a 42 86 3f
       1.0346253 0.92062384 0.91574234 1.0489056
000010 de b3 73 3f 06 0a 87 3f a5 73 83 3f 61 88 85 3f
       0.9519633 1.0549934 1.0269667 1.0432245
000020 95 ce 68 3f b1 bb 47 3f e8 10 6c 3f 40 9c 96 3f
       0.9094022 0.7802077 0.92213297 1.1766434
000030 8c f7 99 3f de 12 6d 3f db 6d 68 3f d1 10 57 3f
       1.202867 0.92606914 0.90792626 0.84010035
000040 a4 53 86 3f fc 5a 83 3f 1a df 9b 3f df cd 81 3f
       1.0494275 1.0262141 1.217746 1.0140952

res_blocks.0.conv.1.bias f4 [20]
000000 24 5a c8 3d 05 74 13 3d fa d1 86 bb 05 0f a6 bd
       0.09782818 0.035999317 -0.0041143866 -0.081083335
000010 64 af b7 bd d6 25 5c 3d a2 f5 a5 3d 3f 16 28 3d
       -0.08969 0.05374702 0.08103491 0.04103684
000020 2b b8 b5 bd ba c0 08 be 78 74 28 bd 1b a1 0c 3e
       -0.08873018 -0.1335477 -0.0411267 0.13733332
000030 f2 fc 74 3e 89 94 47 bd bc 69 2e bb 1e a8 fd bd
       0.23924616 -0.04872564 -0.0026613316 -0.123855814
000040 a5 7b 23 3d 59 56 72 3d 40 aa 84 3e 09 3d 93 3d
       0.03991284 0.05916438 0.2591114 0.07189376

res_blocks.0.conv.1.running_mean f4 [20]
000000 d9 9f bf bf c9 b7 45 3e 01 25 a9 3d 89 83 7c 3e
       -1.4970657 0.1930839 0.08259011 0.24659552
000010 25 41 f4 be 60 2a 5d bf 3d a6 d7 bf 80 3b ea 3e
       -0.4770595 -0.86392784 -1.6847607 0.4574852
000020 41 26 0b 3e b1 ec ab bc c3 b8 f2 bc 68 1c dd 3f
       0.13588811 -0.020986887 -0.029629117 1.7274294
000030 bf ab be bf 2b 7a 72 bf 26 7c 5a 3e 38 e7 25 3f
       -1.4896163 -0.94717664 0.21336421 0.64805937
000040 73 9b 96 bf db 75 78 bd 1a 46 be bf 8b ed 10 3e
       -1.1766189 -0.06065927 -1.4865143 0.14153115

res_blocks.0.conv.1.running_var f4 [20]
000000 f6 f1 a3 40 a6 06 2c 42 b6 c4 04 41 ab 8c a1 41
       5.1232862 43.006493 8.298025 20.193686
000010 1b 5e c6 40 5f 86 86 40 91 bf c6 40 fa 43 fb 3f
       6.1989875 4.2039027 6.2108846 1.963012
000020 e3 a5 7a 40 86 54 b6 40 f2 e4 20 41 7f 99 63 42
       3.916375 5.697818 10.055895 56.8999
000030 5b 5a f3 40 a2 7c 42 40 25 e7 67 40 b7 54 37 3f
       7.6047797 3.038857 3.623483 0.7161364
000040 3c 59 f2 41 da 60 fe 3f 75 a3 85 40 60 d0 dc 40
       30.293571 1.9873307 4.1762033 6.9004364

res_blocks.0.conv.3.weight f4 [20, 20, 3, 3]
000000 fc eb 84 3d 0c 77 b1 bd f9 d6 4f 3d 93 10 92 bd
       0.06490323 -0.086652845 0.050742123 -0.071320675
000010 b1 92 13 3e 50 de d8 bb 9f 3f 92 bc 04 97 03 bd
       0.14411427 -0.0066182986 -0.017852603 -0.03212644
000020 6c ac 4f 3c 42 a1 52 3d 8f a1 15 be 6a 60 bd bc
       0.012675386 0.05142332 -0.14612411 -0.023117263
000030 91 17 ae bd 27 5a 3b 3e 63 bd f2 bb 45 2d 1c be
       -0.08500589 0.18296109 -0.0074078306 -0.15251644
000040 a4 de 1b bd 98 d4 e0 bd 61 71 69 3d e4 62 d5 3d
       -0.038054124 -0.10978049 0.056992892 0.104192525
000050 87 d8 30 3e 01 65 7e 3d 06 4d 2e 3e 9e 72 14 3e
       0.17270099 0.062108044 0.1702157 0.14496848
000060 28 ec 86 be 24 02 d7 bd 7d d3 24 3e ac 3c df 3d
       -0.26352048 -0.10498455 0.16096301 0.10900244
000070 42 ef ab bd b8 2c 0a 3c 7e 60 4c be b7 aa 1c bd
       -0.08395244 0.008433513 -0.19958684 -0.038248744
000080 bd 1c ac 3d 0a 7e 0c be ab e6 94 bd ce b2 3b be
       0.08403919 -0.13719955 -0.07270559 -0.18329927
000090 70 46 3d 3e 14 06 6a 3d 9e bf ba bd fa a4 0a be
       0.18483901 0.057134703 -0.09118579 -0.13539496
0000a0 04 a4 86 bd 2d 5b 67 be 37 03 71 3c 0b 54 1a be
       -0.06574252 -0.22593375 0.014710239 -0.15071122
0000b0 b0 9f 51 bd 6d a0 cb 3a cf 47 de bd ac a9 e5 bc
       -0.05117768 0.0015535482 -0.1085354 -0.028035007
0000c0 0a bd 87 3c 71 1c 0b 3e 10 fb c8 3c ba f1 2a 3d
       0.016569633 0.13585068 0.024533778 0.041734435
0000d0 bd f6 19 bd e6 1c fa bd 2a 67 55 3e 7d f5 d3 3d
       -0.037588824 -0.12212543 0.20840135 0.103495575
0000e0 3e bc b6 bd a8 d6 82 bd ec 73 5c 3e 78 93 c1 bd
       -0.08922623 -0.06388599 0.21528596 -0.094519556
0000f0 f4 53 95 bc b8 68 7e bc fa 1f 94 bd 2f 3a d4 bb
       -0.018228509 -0.015527897 -0.072326615 -0.0064766626
000100 c1 0c 06 be a1 cb c1 bd 9c df c1 bc d9 90 ef bc
       -0.13090803 -0.09462667 -0.023666196 -0.029243873
000110 9b ca 8d 3d f3 c7 8a bd dc a8 29 bd 52 dc 2e 3e
       0.069234096 -0.067764185 -0.041420802 0.17076233
000120 a2 2e 21 3e ac ef 49 bd c2 91 01 bd 2f e5 94 3d
       0.15740445 -0.049300835 -0.031633146 0.07270276
000130 87 d3 40 bd ab 7f 6d bd 6c 87 df 3d 27 f7 1a 3e
       -0.04707673 -0.05798308 0.109145015 0.15133344
000140 22 a6 0f 3c 5c 9a 39 3d 57 49 84 bc 4c b1 50 3d
       0.0087676365 0.045313224 -0.016148252 0.050950333
000150 83 0d 9b 3d 0c 15 28 be 10 88 38 3d 9a 7d 10 3e
       0.075709365 -0.16414279 0.045051634 0.14110413
000160 18 9f 0c 3e 8b 66 01 be 67 f5 53 be b2 fa 6d 3c
       0.13732564 -0.12636773 -0.20699082 0.014525102
000170 95 22 17 bc 16 09 11 3b 9e 21 17 bd 70 2e a7 bc
       -0.009224554 0.002213066 -0.036897294 -0.020407885
000180 33 b0 92 bd 00 f9 82 be 6d 40 54 bd 4f d3 cd 3d
       -0.071625136 -0.25580597 -0.051819254 0.100500695
000190 f2 ba 92 3d e1 2c 3b 3d a4 18 53 bd 45 5b df bd
       0.07164563 0.045697097 -0.05153717 -0.1090608
0001a0 6e 5b be 3d e8 d9 ec bc 31 c4 0e 3d 48 4d 65 bd
       0.092947826 -0.0289125 0.03485507 -0.055981904
0001b0 83 b5 c9 3d 90 83 99 be fb 97 5b be 87 9a 08 3d
       0.09849074 -0.29983187 -0.21444695 0.033350494
0001c0 b9 f1 06 bd 43 10 0a 3e f5 21 21 be b4 4a e9 3c
       -0.03294537 0.13482766 -0.1573561 0.028478004
0001d0 8c 9a a5 bd 85 d4 03 3d 9d 50 56 bd e8 fe f5 3d
       -0.08086118 0.032185096 -0.052322973 0.1201151
0001e0 75 16 27 3e 4d 44 43 3d 21 2e 48 bd e1 65 e3 bb
       0.1631716 0.04767256 -0.048872117 -0.006939635
0001f0 d6 56 ad bd 20 4e c2 bc 08 0f ac 3c 05 df d0 3d
       -0.08463828 -0.023718894 0.021003261 0.101987876
000200 41 48 83 bd a6 53 fd 3a 8e 9e 9d 3d f6 fb 8a bc
       -0.06410266 0.0019327297 0.076962575 -0.016965847
000210 6c 09 5b bd 68 fa 00 3e fd 46 a5 3d 45 8c 1c 3c
       -0.053475782 0.12595522 0.080701806 0.009554927
000220 af 64 a9 3c 63 22 25 be 85 c3 83 bc 2c fd 12 be
       0.020677892 -0.16126399 -0.016084442 -0.1435439
000230 19 6e 3b bd a3 3f e9 bd 40 a4 49 bd 82 ef c0 bd
       -0.045759294 -0.11389091 -0.049228907 -0.094206825
000240 ef 02 d9 bd e7 fa 8a bd 7f f7 4c be f6 57 71 3e
       -0.10596263 -0.06786137 -0.20016287 0.2356871
000250 99 90 06 bd 08 d8 b2 bd f6 d8 82 bd fa 62 cc bc
       -0.032852743 -0.08732611 -0.06389038 -0.02494954
000260 bf 04 cf 3d 0f 1c bd 3d b6 d9 0b 3e f2 1b ff bd
       0.10108327 0.092338674 0.13657269 -0.12456502
000270 78 f2 2b be c7 88 b0 bd 05 eb 07 3e c5 00 f1 bd
       -0.16791713 -0.08619838 0.13273247 -0.11767725
000280 2f 3e 44 3d 4d b7 5e be 50 87 43 bd 49 b3 25 be
       0.047910865 -0.21749611 -0.047736466 -0.16181673
000290 1b e3 b2 bd 69 0f 45 be 44 3c 32 3c da 88 03 be
       -0.08734723 -0.1924416 0.010878626 -0.12845173
0002a0 32 b7 9c 3d 86 e2 23 be 47 9e 12 bd d3 b4 c0 3c
       0.07652129 -0.1600438 -0.035795476 0.023523724
0002b0 ab fd 62 bb c2 e4 e8 bc d0 82 12 bd f6 30 27 3e
       -0.0034636061 -0.028429393 -0.035769284 0.16327271
0002c0 0e 7e 2d be df 1a 18 be 69 96 33 3c 0f 3a 37 3d
       -0.16942617 -0.14854 0.010961154 0.044733103
0002d0 3b c0 8a be 59 79 bc bc 5f de df bd ad 0d 95 bd
       -0.27099785 -0.023007082 -0.10931086 -0.07277999
0002e0 ae 5b f5 3c 4f 5c a1 bd ed 00 8b be 21 b6 23 3d
       0.029950943 -0.078789346 -0.27149144 0.039968614
0002f0 eb 3e de bd 2f 57 ca bd 31 e0 09 be d5 b2 cf bd
       -0.108518444 -0.0987991 -0.13464428 -0.101415314
000300 7a 3e 18 be 65 64 de bd da b7 b4 bd 09 65 00 3e
       -0.14867583 -0.108589925 -0.088241294 0.12538542
000310 19 2f 9f 3d 98 5c 66 bd 44 63 2a 3e 9f a1 2c 3d
       0.07772655 -0.056240648 0.1663943 0.04214632
000320 d0 31 3c 3d ad 33 28 be 92 6c a1 3d 38 4b d7 bd
       0.045945942 -0.16425963 0.07882036 -0.10512394
000330 a2 ac 46 bd 2b 91 31 bd 90 76 24 3e df b8 9e 3c
       -0.04850448 -0.043351334 0.16060853 0.019375263
000340 0f f2 9a 3d 94 12 7a 3d 31 b0 e6 bc 41 9f 4c 3d
       0.075657 0.061052874 -0.028160186 0.049956564
000350 60 6f eb 3c 50 9e f8 3d 80 3a d5 3d 6b b6 54 3e
       0.028739631 0.12139571 0.104115486 0.20772712
000360 f2 2e 1b 3d 83 cb c8 bc 18 4f 88 bd 6b 3c 76 bd
       0.037886567 -0.024511104 -0.06655711 -0.060116213
000370 dc 99 ce 3d 26 32 7d 3d 4a d6 d7 bd 25 3d 16 be
       0.1008794 0.061815403 -0.10538919 -0.14671762
000380 9a bc 0c 3d 86 cf 35 be 0b fe 57 bd e0 16 db bd
       0.034359552 -0.17754945 -0.05273251 -0.106977224
000390 f8 f2 39 bd 14 fd 7b 3d 84 e8 c5 3d c6 30 2c be
       -0.04539773 0.06152065 0.096634895 -0.1681548
0003a0 42 e6 3e be 6e dc 82 3d ef 1c 52 3b 21 32 14 be
       -0.18642524 0.063897 0.0032060703 -0.14472248
0003b0 d0 7d 88 bc e9 d7 71 3d 7c 6a 3b 3c d4 b6 85 3d
       -0.016661555 0.0590438 0.011438962 0.06529012
0003c0 4c e3 e8 3c ef 9c 39 3d cd 44 bd bd ae a3 75 3d
       0.028428696 0.04531568 -0.09241638 0.05997055
0003d0 aa ca b2 3c 23 3c 74 bd 15 46 01 bc c9 56 00 3e
       0.021825153 -0.059627663 -0.007890244 0.12533106
0003e0 58 e0 85 3d 53 09 0d 3e 23 86 d5 bb 79 87 9c bc
       0.06536931 0.13773088 -0.0065162345 -0.019107567
0003f0 d2 1c db 3c e8 03 06 be 66 73 ee 3c c3 d4 7b 3d
       0.026747141 -0.13087428 0.02910776 0.061482202

res_blocks.0.conv.3.bias f4 [20]
000000 5c aa da bc df fc 3f bc 61 4e 8c 3a cd dd 49 3c
       -0.026692562 -0.011718004 0.0010704511 0.012320948
000010 93 99 b5 bc 8d 4c d1 3c fd ae d2 bb aa 94 21 bc
       -0.022167956 0.025549198 -0.0064295516 -0.009862104
000020 20 15 57 bb 67 ca 51 bd 59 ad 8c 3d f1 ac 86 bd
       -0.0032818988 -0.051218417 0.06869001 -0.06575955
000030 b4 aa 40 3d e7 2c 96 3d 38 61 a9 3c 88 d4 18 3d
       0.047037795 0.07332783 0.02067624 0.03731206
000040 0a 27 b1 bc 66 7c 24 3d 3a 3d 8c 3d 53 ed 8c 3d
       -0.02162506 0.040157698 0.068476155 0.068812035

res_blocks.0.conv.4.weight f4 [20]
000000 1f 42 6e 3f 5e 94 82 3f 06 2a 62 3f ce cb 8e 3f
       0.9306964 1.0201528 0.8834537 1.1155946
000010 e2 4e 82 3f fc d0 8e 3f be eb 91 3f d2 fe 91 3f
       1.0180323 1.1157527 1.1400068 1.140589
000020 cf b9 a6 3f 7b 76 81 3f 13 9e 84 3f 17 c5 80 3f
       1.3025454 1.0114282 1.036074 1.0060147
000030 dd d2 76 3f 63 5f 91 3f 61 58 84 3f 5d 05 61 3f
       0.964155 1.1357235 1.0339471 0.8789881
000040 46 f8 6b 3f 52 7a 85 3f 51 e3 6c 3f c1 54 8e 3f
       0.9217571 1.0427954 0.9253436 1.1119615

res_blocks.0.conv.4.bias f4 [20]
000000 f7 5b cc bb 71 f0 bb bd 29 76 57 3d c1 35 e6 bd
       -0.006236549 -0.0917672 0.05260292 -0.112407215
000010 54 d7 50 bb e1 64 77 be 70 49 a1 3d bc b0 b5 bd
       -0.0031866627 -0.24159576 0.07875335 -0.088716
000020 e2 0e 81 3d a8 6e 25 3e 81 aa 9f bc 28 42 1b 3e
       0.06301667 0.16155493 -0.019490482 0.15161955
000030 27 d8 14 bd 81 99 f0 3c de 04 c2 bb ad d3 2d 3d
       -0.03633895 0.029370071 -0.0059209904 0.042438198
000040 65 7a 5b 3c 5b 61 80 3d 5d 99 8e 3c d2 c3 00 bd
       0.01339588 0.06268569 0.017407114 -0.03143675

res_blocks.0.conv.4.running_mean f4 [20]
000000 c3 9f 37 bf 30 2f 82 bf fa e9 8d 3e ed 61 2e be
       -0.7172815 -1.017065 0.27717572 -0.17029543
000010 4e f8 4d bf b4 1c 35 3c 57 10 9b 3e 6b a0 8e 3d
       -0.8045701 0.011054207 0.30285904 0.06964191
000020 96 8d a2 3e 6b 10 27 bf e5 ad 3d 3e 06 75 d1 bb
       0.31748646 -0.65259427 0.18523367 -0.006392124
000030 23 47 a2 3e b2 c9 aa bf d1 f8 f9 be 45 4e 82 be
       0.31694898 -1.3342803 -0.48822644 -0.2545034
000040 3e 9d 17 bd fc b0 0f bf f2 e1 33 bf 1c 0d 61 3f
       -0.037015192 -0.5612943 -0.7026664 0.8791063

res_blocks.0.conv.4.running_var f4 [20]
000000 ad 8d 18 40 93 97 d4 3f a7 ee 6d 40 b5 6e ef 3f
       2.3836472 1.6608757 3.7176912 1.870566
000010 78 74 bb 40 23 2a 56 3f 22 70 b0 40 a2 dc ff 40
       5.8579674 0.83658046 5.513688 7.9956827
000020 ef ac 55 41 99 dc 24 41 11 a4 86 40 ab 69 b0 40
       13.35472 10.303857 4.2075276 5.512899
000030 68 ac c4 3f 22 db aa 40 34 29 13 40 a8 0c af 40
       1.5365114 5.3392496 2.2993898 5.470295
000040 60 08 98 40 93 d2 46 40 cb af 46 40 ce f5 28 40
       4.7510223 3.1066024 3.1044796 2.6400027

final.0.weight f4 [20, 20, 1, 1]
000000 e8 5f cd bd fd 7c a7 bd 28 2a 74 3e fe 54 c2 3e
       -0.10028058 -0.081781365 0.23844206 0.3795547
000010 89 01 c3 3d 7b 60 dc be 35 ff c6 3e 4b 54 5c be
       0.09521777 -0.4304236 0.38866583 -0.2151653
000020 31 dc c5 3e e4 ed b1 be ed ac ce 3e bf 15 03 3f
       0.38644555 -0.3475181 0.40366307 0.51205057
000030 d0 e4 e6 bc 92 73 4d 3f cf a0 f6 bd 2a 5e 14 3e
       -0.028185278 0.8025447 -0.120423906 0.14489046
000040 a5 7a bd be be 86 b6 be a3 c7 49 be 85 3e 0d 3e
       -0.37007633 -0.35649675 -0.19705062 0.1379338
000050 37 6b 71 3e 96 db 18 3f c5 ac b9 bd ab 9d 01 be
       0.23576055 0.5971006 -0.09066156 -0.12657802
000060 77 5b aa bd fc 5c af 3d 73 c0 90 3d c2 8e 89 be
       -0.08318227 0.08562657 0.07067957 -0.26866728
000070 4c f4 1c be f3 00 18 bf 06 9d 33 be 07 1a cd 3e
       -0.15327567 -0.5937645 -0.17540368 0.4005892
000080 87 c4 85 3e 66 1c df be 12 b1 b6 3e 18 45 f4 be
       0.261265 -0.43576354 0.3568197 -0.47708964
000090 70 87 e6 be 93 99 9a be 7f 1f 7d be d9 29 89 3d
       -0.45025206 -0.30195293 -0.24719046 0.06697435
0000a0 f5 bd 01 3f 8d 19 e2 be 14 25 53 be 66 7c ac be
       0.50680476 -0.4416012 -0.20619613 -0.33688658
0000b0 8e b1 4a 3e 85 84 45 be 94 e3 c7 be 1f 79 03 be
       0.19794294 -0.19288833 -0.39040816 -0.12839173
0000c0 44 61 5d 3c 0a 16 8f be 46 6d db 3d 3b 5a 88 bd
       0.013511959 -0.27946502 0.10714202 -0.06657835
0000d0 a9 6b 65 bd 76 4b dd 3d 0f 21 a9 3d 87 07 09 3e
       -0.056010876 0.10805409 0.082582586 0.13381778
0000e0 99 6e 74 bc 5e f1 d8 3e 26 fd 6d bd 7c 16 f6 be
       -0.014918947 0.4237165 -0.05810275 -0.4806403
0000f0 55 81 e3 3e 98 61 5f 3c 76 a7 5b 3e c4 ee e7 3e
       0.4443461 0.013634108 0.214506 0.4529935
000100 c9 1a 24 3e 2d 8b 06 3f a9 8f a1 3d d3 bd 05 be
       0.16025843 0.52556115 0.07888729 -0.13060693
000110 e1 d3 de be 4a ad e7 bd c5 c1 70 be c6 75 5b 3e
       -0.43521026 -0.11312349 -0.23511417 0.21431646
000120 6b 32 84 3e 0f 31 61 3e 49 e6 19 3d b9 13 29 3e
       0.25819716 0.2199137 0.037573133 0.1651143
000130 31 21 bf bd a4 1a 2c 3e 29 cc 01 3e e0 c3 01 3f
       -0.09332503 0.16807038 0.12675537 0.50689507
000140 e9 58 80 bd 60 83 52 be c6 dd 02 3e 86 f8 c6 be
       -0.06266958 -0.20557928 0.12779912 -0.38861483
000150 da c9 45 3f e9 63 05 be ce 5b e4 3d ed ab 0c be
       0.77261126 -0.13026394 0.11150323 -0.1373746
000160 5e dd 02 bf f3 de 0a 3f 9a 83 4e 3e 7b b7 98 3e
       -0.5111903 0.54246444 0.2016739 0.29827484
000170 44 10 77 bd db cf 18 3f c4 7a 94 bc e7 00 a2 3e
       -0.060318246 0.5969216 -0.018124945 0.31641313
000180 c8 e6 ca bd 2c e2 89 3e 02 72 48 be 97 52 ac be
       -0.09907299 0.26930368 -0.1957474 -0.3365676
000190 79 e1 e9 3e 75 94 04 3f e6 e1 07 3f 52 6d 8e 3b
       0.45679834 0.5178903 0.5307907 0.004346528
0001a0 31 60 9b be ca f3 99 bc 8a f6 83 be 95 70 fc bd
       -0.30346826 -0.018793005 -0.25774032 -0.12326161
0001b0 0b ae 3d 3f 20 9f b3 bd da cf 16 3e 24 62 c2 be
       0.74093693 -0.08770585 0.14727727 -0.379655
0001c0 cc ca 6f 3e e2 4c 20 bd 80 22 e7 be 71 d6 9f be
       0.23417205 -0.03913582 -0.4514351 -0.31218293
0001d0 52 f4 a1 be 7a 4f 8d 3d a0 14 83 bd 19 54 96 be
       -0.31631714 0.068999246 -0.06400418 -0.29361036
0001e0 f5 44 bf 3e 82 cf 31 3e b5 1e cb bd e0 cb 4a 3e
       0.37357298 0.17364314 -0.09917966 0.19804335
0001f0 c0 86 fb 3e 28 c7 a7 3d 50 aa 3b 3f 20 f4 47 be
       0.49126244 0.08192283 0.7330675 -0.1952672
000200 89 b5 a6 3e d9 d9 83 be d4 77 81 be 06 1e 74 be
       0.32560375 -0.25752142 -0.25286734 -0.23839578
000210 55 67 6d be fb e4 ad be 01 fc a9 3c 84 8a 24 be
       -0.2318395 -0.3396376 0.020750048 -0.16068465
000220 a5 81 e3 3e 25 50 28 bf 13 5c 82 3e 55 98 08 be
       0.44434848 -0.6574729 0.25460872 -0.1333936
000230 35 72 83 be a3 f7 ad bd d2 22 a3 3e 6f 62 86 be
       -0.2567307 -0.084944986 0.31862503 -0.26246974
000240 67 66 85 3d 90 1f de be ce c8 45 be 89 30 8c 3e
       0.06513672 -0.43383455 -0.19314882 0.2738078
000250 ea e1 b1 be 38 fa 02 bf 17 e8 26 3e 42 9e 9a 3e
       -0.3474267 -0.51163054 0.16299473 0.30198866
000260 56 b8 d3 3e 9e 9c f3 be f5 0f 7d be fa 48 53 3f
       0.41351575 -0.47580427 -0.24713118 0.8253323
000270 8a d8 13 3f 24 9c c3 3e 80 86 1d bd 26 61 b5 be
       0.5775229 0.38205063 -0.038458347 -0.3542568
000280 f0 a4 4a be 5c 46 8f bd d9 3c d8 3e e2 e7 0e bf
       -0.19789481 -0.06995842 0.42233923 -0.55822575
000290 f0 c9 6f be 19 31 43 bf 72 41 c1 be 04 43 88 be
       -0.23416877 -0.7624679 -0.37745243 -0.2661363
0002a0 3a eb ef be cf 89 14 bf 8e 9f de be da 1e e7 3e
       -0.4685915 -0.5802278 -0.43481106 0.45140725
0002b0 61 9f 8c 3e c4 01 8c 3e 87 4f 5b be 5c 80 a6 be
       0.27465346 0.27345097 -0.21417056 -0.32519805
0002c0 82 6b 4c be ed 7a c3 3d df 7b 96 bd 93 34 6d 3e
       -0.19962886 0.095449306 -0.07347845 0.23164587
0002d0 b4 df 20 3f 44 b4 0f be 12 dc 1e 3d 65 45 04 bf
       0.62841344 -0.1403361 0.038784094 -0.5166839
0002e0 68 67 47 bd 2e 8e ca 3e 61 69 f5 be 47 20 11 3e
       -0.0486826 0.395616 -0.4793196 0.14172469
0002f0 74 99 08 bd 39 0e ad be 10 88 c0 be 62 d6 a6 bd
       -0.03334947 -0.33799914 -0.37603807 -0.08146359
000300 d7 a8 45 3e bd 88 09 be e1 a0 04 3f 75 f7 8d be
       0.19302689 -0.13431068 0.5180798 -0.27727857
000310 a3 d4 ec bc 31 84 8f bc bb d6 39 be 15 40 03 bf
       -0.028909987 -0.017519088 -0.1814832 -0.51269656
000320 fe 43 f6 3e 96 5b 84 3e 8e bc 41 3c 45 cd 04 3e
       0.4809875 0.25851125 0.01182474 0.12968929
000330 48 6d 64 bd c4 4a 4c 3f 70 54 ea 3a 10 d6 1d 3e
       -0.05576828 0.79801583 0.0017877948 0.1541369
000340 a3 33 df bd 94 20 b2 bd 7b d4 e2 be bd f7 48 3d
       -0.10898521 -0.0869762 -0.44302735 0.049064387
000350 03 de a9 be 56 76 c7 be 6c c6 2b 3e 68 03 83 3d
       -0.33177194 -0.3895747 0.1677491 0.06397134
000360 06 90 ee 3d 10 5a d2 3e ac 01 07 be 09 ab 1d 3f
       0.11648564 0.41084337 -0.13184232 0.61589104
000370 c0 a7 1f 3f 08 8e ae 3d 56 3c 93 bd 25 bf 13 3e
       0.6236534 0.08523184 -0.071892425 0.14428385
000380 2f 5d 75 bd 4b cc 66 be 82 da 37 be 02 0f fe be
       -0.05990332 -0.22538869 -0.17954448 -0.49620825
000390 f7 5b ba be 14 2a d3 3d 3f f5 b3 3e 6d a7 ef 3e
       -0.3639829 0.1031076 0.35148045 0.46807423
0003a0 4c 0d 14 3e 86 80 a7 3e 82 de 4e bd d6 2a 08 3e
       0.14458197 0.32715243 -0.05050517 0.1329759
0003b0 42 32 47 bd bb 14 b6 bd 4a 30 28 bd 5a ad 80 3e
       -0.048631914 -0.08890673 -0.041061677 0.25132257
0003c0 d7 c2 34 3e 26 ea 88 3e 4a cf e0 3e e0 8a 10 bf
       0.1765245 0.2674114 0.4390815 -0.56461906
0003d0 cd 75 5a be c3 9c 95 be 3b 49 34 bf d9 c5 0d 3f
       -0.21334 -0.29221162 -0.7042424 0.55380017
0003e0 a4 55 5e 3d ba 13 8a bc 6f 7b 58 3f 18 a9 8a 3e
       0.054280892 -0.01685511 0.84563345 0.27082133
0003f0 dc 5a 1d 3e fc 3d 61 3e 9f 69 0a bf 35 7f 4b 3d
       0.15366691 0.21996301 -0.54067415 0.04968186

final.0.bias f4 [20]
000000 7c 5e 09 3d 72 bf 83 3d 56 3c 05 be 76 0b 65 bd
       0.033537373 0.06433 -0.13011298 -0.055919133
000010 48 67 9f 3d 3d 5c 18 3d d4 99 c4 3d e7 65 9c bb
       0.07783371 0.03719734 0.09599653 -0.00477289
000020 0b 4a dc 3d 37 35 b6 bd 8e f4 0b bd 2d b5 12 3d
       0.1075631 -0.08896869 -0.034168772 0.035817314
000030 89 dc 04 3d f7 3c 8a bd e3 c7 9e 3d 43 5d 5f be
       0.03243688 -0.06749909 0.07752969 -0.2181292
000040 f2 91 f0 bd 34 67 60 be 8f f7 40 3e 18 df 59 be
       -0.11746587 -0.21914369 0.18844436 -0.2127651

final.1.weight f4 [20]
000000 b9 db a3 3f 2e 15 5c 3f 83 18 df 3e 53 ef 08 3f
       1.2801429 0.8596982 0.43573388 0.5349018
000010 a4 5d b9 3f 82 f1 0e 3f 97 4e 35 3f 78 6d 26 3f
       1.4481702 0.5583726 0.70823044 0.65010786
000020 9f 11 1b 40 e8 9f 11 3f b0 df 0d 40 4d 3a 24 3f
       2.4229505 0.5688462 2.2167778 0.6415146
000030 ee ad 29 3f 14 3c c7 3f 83 e8 22 3f 2f 0f 20 3f
       0.6628102 1.5565209 0.63636035 0.6252317
000040 c7 d2 a9 40 e6 97 12 3f d6 2a 0b 3f f0 3f 9a 40
       5.3069797 0.5726303 0.5436224 4.820305

final.1.bias f4 [20]
000000 a9 63 fc bd ab 9e ac be 58 5b 28 bf 72 0d 07 bf
       -0.12323696 -0.33714804 -0.6576438 -0.5275489
000010 87 dd 9b 3e 8b b6 f5 be 23 49 f7 be e5 8c 06 bf
       0.3044245 -0.47990832 -0.48297986 -0.5255874
000020 2c f7 7f 3f d5 6d f7 be 31 c3 87 3e 02 e2 ff be
       0.9998653 -0.48325983 0.26516107 -0.49977118
000030 19 4f f6 be 23 a9 12 3e 5e 25 e0 be 2b 26 f6 be
       -0.48107222 0.14322333 -0.4377851 -0.48075995
000040 da 58 5b 40 19 ff 11 bf 47 12 12 bf 30 f1 50 40
       3.427298 -0.57029873 -0.5705914 3.264721

final.1.running_mean f4 [20]
000000 a0 d8 a3 3e b2 37 50 bf a1 2e a1 be f9 ae 95 3f
       0.3200121 -0.81334984 -0.31480888 1.1694022
000010 99 e0 7e 3f 20 9d f9 3b 90 5b 3e 3d c8 1c 97 3e
       0.9956146 0.0076176077 0.04647404 0.29514146
000020 d9 7e 89 bf 3e 9c 07 bf 80 17 0a 3f eb 4b 25 3f
       -1.0741836 -0.5297278 0.5394211 0.64568967
000030 e5 7a b9 3e 93 98 f5 3d ca d0 04 3f bc df 2f bf
       0.36226574 0.11991992 0.51881087 -0.68700767
000040 a7 e9 48 be 04 bb 20 bf 0a bb 3a bf 75 4f a8 bf
       -0.19620381 -0.62785363 -0.7294165 -1.3149248

final.1.running_var f4 [20]
000000 e1 12 9a 3f 4e f0 95 3f 7f 5c 32 3f 54 00 76 40
       1.2037011 1.171396 0.6967239 3.84377
000010 18 5f 8b 3f dd e3 13 40 98 2b 3f 40 74 c4 72 3f
       1.0888395 2.3107827 2.9870358 0.94831014
000020 b2 73 48 40 9a cc ae 3f 66 64 be 3f 94 b8 07 40
       3.1320615 1.365619 1.4874389 2.1206408
000030 4c 64 85 3f 9a 56 99 3f 85 c4 01 40 16 f8 0d 40
       1.0421233 1.1979554 2.0276196 2.218267
000040 aa 64 57 41 c7 34 cd 3f 4a 4f 0e 40 7a 72 fc 40
       13.462076 1.6031731 2.2235894 7.888974
