消融实验/model_weights_3.pth (torch, 60609 bytes, 24 tensors)

initial.0.weight f4 [25, 3, 3, 3]
00000000: 9028 22bf 6c56 23bf e290 01bf 80f8 2abf
00000010: 4fc3 39bf 34f3 0fbf e3f3 22bf e27d 4bbf
00000020: cd35 13bf 34ab 13bf 8c2c 11bf 957f 0ebf
00000030: 49fe 04bf ef0d 39bf d54c 1dbf f532 07bf
00000040: 4484 3abf d8a9 3cbf c864 16bf 8436 33bf
00000050: 97ba e7be 4c6a 3ebf ba28 12bf 6775 c1be
00000060: e97d 19bf bc5d 35bf 2bfa 06bf 8cb8 d8be
00000070: f0f0 edbe 700a d4be 4535 9ebe 76c1 abbe
00000080: 38e8 bdbe 33c7 88be 940b 6cbe ef17 ecbd
00000090: f10b 81be 56ea 63be dc3f a2be 31e3 a2be
000000a0: 807d 2abe 561a 4cbe 5d6c 69be d911 25be
000000b0: 983e 21be 0eb6 96be a8ba 3cbe b64d 81be
000000c0: 7924 89be 03a1 acbe 4622 1cbe 640a 92be
000000d0: c02c a4be 7ca1 a1be 6bf6 a63e a4e3 133e
000000e0: df7e 693e 46ea e63c cc63 623e dcf1 433d
000000f0: 4fe7 113e da53 213e 7335 b23d bffa 3f3e
00000100: 656b 5e3e 4bd5 1f3d 0669 a73e 0487 6d3e
00000110: 3bd8 8b3e 0c09 2b3d da57 0f3e cb47 613e
00000120: 7a81 4a3e 8c7c e03c 2b5a 4a3e e32a 2f3e
00000130: 53a3 1d3d 3760 1a3e 56ce 753e 4a73 6e3e
00000140: 0f33 803e 1d4a 9a3d 5416 0a3e 4039 57ba
00000150: ea8e 2b3e 2e3c 9b3d 61c1 ec3c 1158 94bd
00000160: b2b1 5b3e dc8d 3c3e 5c45 0c3d 54d8 cb3c
00000170: 7888 ed3d ba9a a03d 5a81 bc3c c805 8c3d
00000180: 6fe2 b93d 7d52 9f3d e1c4 373e 5f07 6e3c
00000190: 3429 40bd 90e2 583b 33ba f53d 9ad9 8dbd
000001a0: 2e1b 743e b9ef c63d 1a7f f73d 7d33 97bd
000001b0: 31a4 07be 6eb0 aa3d 7080 bbbd e0c7 d9bd
000001c0: 6a9c 3f3d 585d 33be f9a4 c3bc 4d4c 25bd
000001d0: 8e68 c93d e0ee 8d3d f82f 1abe 64dd c53d
000001e0: d90a 3fbd 2a35 03be 5385 bdbc 72d5 d2bc
000001f0: 2a56 5ebe 7a18 b83d 9a81 453d eb62 36be
00000200: ab61 43be a81c 3dbb 5350 1dbe be57 a73d
00000210: 2b6c 043d 82c2 48be 72e8 58be aab2 93bd
00000220: db66 e13c 1e56 16bd f889 143d 404d 843c
00000230: 4e02 d43d 42a4 87bd 1a78 ebbd 2d45 ffbd
00000240: 2106 eabc 62ff 0bbe ead1 313d d738 8fbd
00000250: 9ab6 813c 40a0 e3bd d2f6 e93d 7bf2 3ebc
00000260: aaa8 cfbd a81d 063d 911f e2bc 9906 0dbe
00000270: 5fc1 4a3c df72 33be 07f6 3abe 66a6 19bd
00000280: 021c 593c 2884 29be ec24 233e eb46 6c3d
00000290: aa8d 153c ebda dc3d d491 473e 1eb9 d63c
000002a0: 97f5 cb3d 5c2f 063d 5ab2 fd3c 47ce 6e3d
000002b0: b247 243d cd2f 183e 9edb 333d a03d 8e3d
000002c0: fa69 b93d a3b2 2d3e d34c 103e 630c 2b3e
000002d0: 5a85 9ebd 64b2 67bd 6ddb 7e3d 7f51 4c3e
000002e0: 2b3d c83d 8fab 2ebe cdf7 7d3d 2a44 733e
000002f0: a205 3e3e fdf9 443e cfb7 553e 9d34 cf3d
00000300: ea4e 5a3e d457 313e 4cf5 203e f2ff 5f3e
00000310: 8bb8 0f3e 18f1 0b3d 9f75 243d 1812 09bc
00000320: aef9 01bb 2a0f 5b3e f5ce 453d 1267 523e
00000330: add5 4d3c e40c 4cbd d155 c63d bc5a ce3d
00000340: 146c 783e a2b5 073e dc15 113e 5d60 103e
00000350: fdd2 fd3d c0b2 153e ca1b 673e fddb 4f3e
00000360: 7b28 d43c 0e55 7b3d ce70 723e 263c d03c
00000370: 33d0 4f3e 8044 01bd d5ab eebc a930 973d
00000380: 5491 ac3e eb6d f83c 1b6b 743d 507b bd3d
00000390: fd81 dcbd 75f6 1c3d 94a8 4a3e e3f0 4bbd
000003a0: a387 0b3e 2a46 2f3e 033e c2bd 087e 9a3d
000003b0: cae3 523e 3fcd c93d b9d3 463d f8f6 273e
000003c0: f647 263e 8890 0a3e ba42 a33e 4ce0 5abe
000003d0: 7321 d1bd 7685 a2be 1bd8 a5be a69a b6be
000003e0: 9dee 84be 6ca9 acbe 8256 bcbe b32a 0fbf
000003f0: c694 c0be 92c8 0fbe e551 75be 1483 cbbe
-0.63343143 -0.63803744 -0.506117 -0.6678543 -0.7256364 -0.56230474 -0.6365339 -0.79488957
-0.5750397 -0.5768311 -0.567086 -0.55663425 -0.5195051 -0.72286886 -0.6144536 -0.5281213
-0.7285807 -0.7369666 -0.5874753 -0.7000506 -0.45259544 -0.74380946 -0.57093394 -0.37784883
-0.5995775 -0.7084615 -0.52725476 -0.42328298 -0.46472883 -0.41414213 -0.30900016 -0.33546036
-0.3709123 -0.26714477 -0.23051292 -0.115280025 -0.25204423 -0.22257361 -0.31689346 -0.31813958
-0.16649437 -0.19931921 -0.22795244 -0.1612009 -0.15746534 -0.29435772 -0.18430579 -0.252546
-0.2678564 -0.33716592 -0.1524745 -0.28523552 -0.32065392 -0.31568515 0.32609877 0.14442307
0.22802304 0.028187882 0.22108382 0.047838077 0.14248393 0.15754643 0.08701601 0.18747996
0.21720655 0.03902177 0.32697314 0.23196036 0.27313408 0.041756675 0.13998356 0.22000043
0.19775954 0.027403139 0.19760959 0.17106204 0.038485836 0.15075766 0.24004492 0.23286167
0.25038955 0.07533667 0.1348508 -0.000821013 0.16753736 0.07579838 0.028900804 -0.0724336
0.21454504 0.1841349 0.034245834 0.024883427 0.11598295 0.07842012 0.023010898 0.0683704
0.09076392 0.07779405 0.17946197 0.014528125 -0.046914294 0.0033094026 0.11998405 -0.0692627
0.23838493 0.09713692 0.120847896 -0.073828675 -0.13246228 0.083344325 -0.09155357 -0.10633826
0.046780027 -0.17516077 -0.023882376 -0.04035597 0.09834395 0.069303274 -0.15057361 0.096613675
-0.046641205 -0.12813249 -0.023134863 -0.025736544 -0.21712556 0.089890435 0.0482193 -0.17811172
-0.19080226 -0.0028856192 -0.15362673 0.08171032 0.03232972 -0.19605449 -0.21182421 -0.07211812
0.027514866 -0.03670322 0.03626439 0.016150117 0.10352002 -0.066231266 -0.11497517 -0.12464366
-0.028567376 -0.1367164 0.04341308 -0.06993263 0.015834142 -0.1111455 0.1142403 -0.011654492
-0.10139592 0.032743126 -0.027602943 -0.13772048 0.012375205 -0.17524289 -0.18257914 -0.037512206
0.0132513065 -0.1655432 0.15932053 0.05768482 0.009128014 0.10783943 0.19489223 0.026211318
0.09958952 0.03276001 0.030968834 0.05830219 0.040107436 0.14861985 0.043910615 0.06945348
0.090534166 0.16962676 0.14091806 0.16703944 -0.077402785 -0.05656661 0.06222098 0.19952963
0.09777292 -0.17057632 0.0620039 0.23756471 0.18556836 0.19235988 0.20870899 0.10117457
0.21319166 0.1731866 0.15718573 0.21874979 0.14035241 0.03416547 0.040151235 -0.00836613
-0.0019832659 0.21392503 0.048293073 0.2054713 0.012563151 -0.04981698 0.09684337 0.100759
0.24259979 0.13252881 0.14168495 0.1409926 0.123937584 0.14618969 0.22569194 0.20298763
0.025898209 0.06136041 0.23675844 0.025419306 0.20294265 -0.031559467 -0.02913467 0.07382328
0.33704627 0.03032585 0.059672456 0.092520356 -0.10766981 0.038320977 0.1979087 -0.049790274
0.1362596 0.17116609 -0.09484484 0.0754357 0.20594707 0.09853601 0.04854176 0.16402805
0.16238388 0.13531697 0.31886846 -0.21374625 -0.10211458 -0.31742448 -0.32391438 -0.35664862
-0.25963297 -0.3372301 -0.3678475 -0.5592453 -0.37613505 -0.14041355 -0.23957022 -0.39748442

initial.0.bias f4 [25]
00000000: e19a 2dbe 51c4 ab3d 9ca0 57bd 2c2e 2fbe
00000010: f876 953d b41b 1c3e 5399 08be ed34 3ebe
00000020: aedb 013e 01bd cd3d ac7c a2bd 90b0 e4bd
00000030: 175e e5bd 1e68 1fbe c70e e33d 89cd 63bd
00000040: 9874 90bd 1416 aa3d c0a2 0a3e ef76 d93d
00000050: 4391 323e 6b4a 9b3d b844 13be 7f9b bdbc
00000060: 0693 32be
-0.16953613 0.08387054 -0.052643403 -0.17107457 0.07298082 0.15244943 -0.13339739 -0.18574877
0.12681457 0.10045815 -0.079339355 -0.11166489 -0.11199587 -0.15567061 0.11086803 -0.055615935
-0.070534885 0.08304992 0.13538647 0.10618388 0.17438225 0.075825535 -0.14381683 -0.023145435
-0.17438897

initial.1.weight f4 [25]
00000000: 6e62 513f ffc7 783f 8a6f 853f 9a7a 783f
00000010: 918c 843f de19 713f f797 8d3f 7cc6 813f
00000020: 2deb 6d3f d6cc 663f cc7d 553f 8e69 893f
00000030: f046 863f 3616 803f 1375 943f 5354 603f
00000040: faf7 913f f47a 523f 33bd 713f 8ca5 903f
00000050: ea0e 943f 509d 873f 3bb8 593f 45c5 503f
00000060: 4c9e 703f
0.81790817 0.9718017 1.0424664 0.97062075 1.0355397 0.94180095 1.1062001 1.0138698
0.92936975 0.90156305 0.83395076 1.0735338 1.0490398 1.0006778 1.1598228 0.8762867
1.1403801 0.8221886 0.9442932 1.1300521 1.1567051 1.0594883 0.8504674 0.8155101
0.9399154

initial.1.bias f4 [25]
00000000: a415 08be 6a49 b2bd 09e6 cb3d 7f1c 5cbc
00000010: 3d16 82be 0348 5fbc 4018 e83d b89a b73d
00000020: 203e e8b9 7c07 0abb bf78 b4bd fc43 aabd
00000030: 334f 80bd 56d4 21be 03a6 ea3c 5db2 8bbd
00000040: aa19 fe3d 4ce8 3e3c e9fa 15bc 1ae9 173e
00000050: 4c86 133e e155 8d3d d83d a3bd 484e 05bd
00000060: 2651 9ebc
-0.13289505 -0.08705409 0.09955985 -0.013434528 -0.2540759 -0.013628009 0.1133275 0.08965057
-0.00044296775 -0.002106159 -0.08812093 -0.08313748 -0.06265106 -0.15803656 0.028643614 -0.068211295
0.12407239 0.011652064 -0.00915406 0.14835015 0.14406699 0.06901146 -0.0797078 -0.032545358
-0.019325804

initial.1.running_mean f4 [25]
00000000: 7247 7ac0 c7e7 d4bf 57ed 863f 1455 b43e
00000010: adb8 cebe e058 f0bd 44a6 f83e f619 373f
00000020: 22b3 263f c179 f4bf 0a54 6abf b690 18bf
00000030: a516 edbe dbd9 01bf b6d7 00bf 2e62 873e
00000040: 798a 803e 78d8 edbe f7c6 9f3f 9d6c ce3e
00000050: f9f2 b9be a7d5 013f fd0f 40bf 1fc4 5640
00000060: b8a5 953e
-3.9106107 -1.6633233 1.054118 0.3522116 -0.4037527 -0.117357016 0.4856435 0.7152399
0.65117085 -1.9099656 -0.91534483 -0.5959581 -0.4630634 -0.50723046 -0.5032915 0.26442093
0.25105646 -0.46454215 1.2482594 0.4031724 -0.36318186 0.5071663 -0.75024396 3.3557203
0.29227996

initial.1.running_var f4 [25]
00000000: ee07 7b40 eb51 8c3f 75a8 2a3f 33fd de3e
00000010: ff70 db3e a5d9 cb3e 16e1 ea3e f38a 0c3f
00000020: 1a28 f13e ea2b aa3f 945f 143f 0f6c e63e
00000030: d35c d63e 26b4 df3e 8710 ee3e 0529 d13e
00000040: 4a8a d03e 7c73 ea3e e437 383f 5a3d d23e
00000050: aed3 dd3e 670b df3e fa36 003f 577c 5a40
00000060: 1fbd d83e
3.922359 1.0962499 0.66663295 0.4355255 0.42859647 0.39814487 0.45874852 0.5489952
0.47100908 1.3294652 0.5795834 0.45004317 0.41867694 0.4369213 0.46496984 0.40851608
0.40730506 0.45791233 0.7196028 0.41062433 0.4332556 0.43563387 0.5008389 3.413839
0.42331788

res_blocks.0.conv.0.weight f4 [25, 25, 3, 3]
00000000: b04b b6bd 9eac 0bbe 70d2 6fbc 2394 c8bc
00000010: 2a5c f63d a5de 883d 1bd8 633d d6a2 223e
00000020: 7a4f 05bc c5a6 97bd bfc7 833d 7f5a 0ebd
00000030: d039 d23d 1756 ad3d 16b2 193e 374a 9c3d
00000040: 2426 bbbd 9f1e 91bd 6e55 65bd 9264 883d
00000050: 4816 223e 6221 55be 5d0d 60be 894d a33d
00000060: f2f1 f63d 174b 16bd e63b 433e 69e2 943c
00000070: dba9 b2bd 07a4 02bd e2aa 233d d4d8 95bd
00000080: 9684 893c 11f2 e6bd 2ed9 1fbd cf35 95bd
00000090: 2b65 213e 6af1 a53d 832f d4bc ae9a f5bd
000000a0: 1fca c63c 44a7 c33d fc82 ebbd 70fd 95bd
000000b0: 00ab 81b8 3091 b2b9 4ea7 d23b 1966 1e3d
000000c0: 2aae bebc 854f 173d 8610 d03d 14d5 313e
000000d0: ac59 673d 6642 243e f248 bcbb 1bf0 e23d
000000e0: 2dc6 753d cb0c 4f3d b28a d8bb b730 51bc
000000f0: 6cfd 62be f3ed ffbd 737d 02bd bf7b b9bd
00000100: 5f7f 24bd bdc4 24be f8ca cbbb 3e1e ea3d
00000110: b7a8 1b3e 9593 25be 2896 983d 1082 cb3d
00000120: 815c 0d3d 5ebb a63d c61a a1bc e8ef 99bc
00000130: e16a c7bd fbbf 71bc 75cb 1fbd b8eb 0ebe
00000140: 62d7 9d3e d1a7 c23d 3752 4abc 2c3c 373d
00000150: 1f16 a7bc f72e a63d 75ab eabc cf85 0ebe
00000160: 294f 473b ad18 a3bd 1ceb c93c 760c 303e
00000170: 6a6b bdbd 18e5 123d 24b8 543c 2152 da3d
00000180: ee43 683d 2fe4 0c3e f445 fc3d 8569 103d
00000190: 7be8 e8bc 2737 75be b88f cd3b ec63 5b3d
000001a0: 65f9 273d 5e3b 9b3d 8b1b c93d e289 1f3e
000001b0: 6833 f63d 47a9 053e 5c73 2ebe 1387 d5bd
000001c0: 02ac e03d 555c bd3d 5e9a a9bc 3a47 203d
000001d0: 5a71 413d 6729 d3bd f20a 183d 0bbf 363e
000001e0: 66a0 f33c 85e9 c13d 5a98 d13d 7f3c f8bd
000001f0: 3e40 123d b756 8d3d 041b 58bc d542 b73d
00000200: 226e 933c a41b 933d 281d 9e3e 664f 23be
00000210: 8d8c 73bd 3f1d a33d b7d0 c33d a32f 62be
00000220: b6ad f0bd e05f 823d 91cc b23c 2a64 a239
00000230: 1331 c4bd 56bd d93c 1d68 8ebd c05c fcbd
00000240: 65f5 60bd afb6 f7bb bd86 543d b04d 31bd
00000250: 8809 28be aa95 0a3d de1a 6cbd 6910 153c
00000260: 9fe3 00bc 9af8 a93c db09 dbbd cf29 71bd
00000270: 9c8e 193d 994d b63d a3cb 743d 2fd4 e4bb
00000280: de45 153c 52f6 223e 55c7 65bd 7f7e 3dbe
00000290: 227e 03bd 1ec0 b83c 5a24 263d 3e06 36bc
000002a0: a2ad 52be 3850 283d 8d8c ea3c 000d 763d
000002b0: 23a7 68bd 80d4 973d 1b79 17be 0a20 36bc
000002c0: 295c 583d 7a18 33be f1ab 2f3e dcf8 cabc
000002d0: b52b 29be 2e1e a93c 881a 35ba 592c 143e
000002e0: 38e1 28bd 3d86 2a3e 075b dd3d d6ae d83c
000002f0: 1cf8 2dbc 5e6c 263c 571f 83bd 0805 fdbd
00000300: f81a d438 01e0 9a3d 5624 6ebd d0f6 09be
00000310: c0af 59bc 6747 25bd 23c7 ccbd 1aec e4bc
00000320: 88b4 a63d 8182 00bd 9226 8aba ac60 d9bd
00000330: 0b7c a73d 7195 053e 5481 c8bc 3595 82bd
00000340: 73c8 8ebb 0fda 5b3d 0731 2ebe f23e 6e3d
00000350: 673a a03d 720d 0abe 460e dd3d 0f77 80be
00000360: 8df0 6a3b 2842 cabd 3ccc 51be caa7 98bd
00000370: d358 5a3c 59b5 f8bc dbc0 913b c6fa a7bd
00000380: c41a 163e b474 d03d 5979 dcbd df16 1a3d
00000390: af9e 7e3e 8036 0bbe 1219 983d d757 eb3d
000003a0: ee49 993d 9a69 7f3d 8e11 f6bd da27 833c
000003b0: cc8a f8bd 0599 63be 337b b5bc 329d 873d
000003c0: d162 38bc 51af b6bc f30b 333e 9942 aa3d
000003d0: 38ef 97bd 35ba 073d 86e7 19bc 9b69 67bd
000003e0: 7f92 89bd 1499 063e d7d3 0fbe fd47 31be
000003f0: e225 d3bd 7162 a13e 9caf 07bd d44a 0f3e
-0.08901155 -0.13640067 -0.014637575 -0.0244847 0.12029298 0.06683091 0.055626016 0.1588243
-0.0081366245 -0.07404856 0.06434583 -0.034754273 0.10264933 0.08463686 0.1500934 0.07631343
-0.09138134 -0.07085919 -0.055989675 0.06659807 0.15828812 -0.20813516 -0.21880098 0.07973773
0.12057866 -0.036692705 0.19065818 0.018174367 -0.087238036 -0.03189471 0.03995789 -0.07316747
0.016786855 -0.11276639 -0.039025478 -0.07285654 0.15761249 0.08102687 -0.025901562 -0.119923934
0.0242663 0.09553388 -0.11499593 -0.0732373 -6.1830506e-05 -0.0003405898 0.0064286357 0.038671587
-0.023276407 0.03694107 0.101594016 0.17366439 0.056482002 0.16040954 -0.0057460004 0.11080953
0.06000345 0.05054931 -0.0066083306 -0.012767962 -0.22166985 -0.12496557 -0.03185792 -0.09056806
-0.040160533 -0.16090675 -0.006219264 0.114315495 0.15201078 -0.1616958 0.07450515 0.09936917
0.034512047 0.08141206 -0.019666087 -0.018791154 -0.097371824 -0.014755244 -0.03901239 -0.13957107
0.30828387 0.09504665 -0.012348703 0.04473512 -0.02039629 0.081144266 -0.02864621 -0.13918231
0.0030412173 -0.07963691 0.024648242 0.17192253 -0.09249003 0.035863012 0.012983356 0.10660196
0.056705408 0.1375892 0.1231803 0.03525688 -0.028431168 -0.2394682 0.006273236 0.05356209
0.041009326 0.07579683 0.098197065 0.15579942 0.12021524 0.13052855 -0.17036194 -0.10426154
0.10970308 0.092461266 -0.02070349 0.039130427 0.04722724 -0.10310631 0.037119813 0.17846315
0.02973957 0.094683684 0.10234137 -0.12120914 0.035705797 0.06901305 -0.013190035 0.08948294
0.017996851 0.071830064 0.3088162 -0.15948257 -0.05946021 0.079645626 0.095612936 -0.22088484
-0.11751883 0.06365943 0.02182606 0.00030973676 -0.09579673 0.02657954 -0.06953452 -0.12322378
-0.054921526 -0.0075596194 0.05188631 -0.04328698 -0.16409886 0.033834137 -0.05764281 0.009098151
-0.007866769 0.020748425 -0.10695239 -0.058877762 0.03748952 0.08901519 0.059764516 -0.006983302
0.009110896 0.15914276 -0.0560983 -0.18505286 -0.03210271 0.022552546 0.04056201 -0.011109887
-0.20574048 0.041092128 0.028631473 0.06007099 -0.05680002 0.07413578 -0.14792292 -0.011116037
0.052822266 -0.17489806 0.17155434 -0.024776869 -0.16520579 0.020644274 -0.00069085555 0.14470042
-0.04123041 0.1665277 0.10808378 0.026450556 -0.010618236 0.010157673 -0.06402462 -0.12354475
0.00010113971 0.075622566 -0.05814012 -0.13473058 -0.013286531 -0.040351298 -0.0999892 -0.027944613
0.08139902 -0.03137446 -0.0010540059 -0.10614142 0.08177956 0.13045289 -0.024475731 -0.06376115
-0.0043573915 0.053674754 -0.1701089 0.058165498 0.07823639 -0.13481691 0.10793738 -0.25090834
0.0035848946 -0.098758996 -0.20488065 -0.07453878 0.013326841 -0.03035991 0.004448039 -0.08202128
0.14658648 0.10178509 -0.10765333 0.037619468 0.2486522 -0.13595009 0.07426657 0.114913635
0.07484804 0.06235657 -0.12015067 0.016010214 -0.121358484 -0.22226341 -0.022153473 0.066217795
-0.011254028 -0.022300394 0.17485027 0.08313484 -0.07418674 0.033136565 -0.009393578 -0.056497198
-0.06717395 0.13144332 -0.14045654 -0.17312618 -0.1030996 0.31520417 -0.03312646 0.13993388

res_blocks.0.conv.0.bias f4 [25]
00000000: c45e 42bd e155 e9bc ef95 173d 52f6 3c3d
00000010: c477 cbbc 8b19 d43c 819f 1e3d b89a 80bd
00000020: 13c6 2cbd af71 5e3d 9944 44bd 27f2 dabc
00000030: 451b cc3b 7285 723d d7cd 113d 9c40 633d
00000040: 30e2 5e3d 2738 dbbc 3711 63bd 8a79 243d
00000050: 9161 013d 2cec c23c 8bf6 84bd dd0d 603d
00000060: fc08 47bc
-0.047453657 -0.028483333 0.037008222 0.046133347 -0.024837382 0.025891086 0.038726334 -0.0627951
-0.042181086 0.054307636 -0.047916982 -0.026726795 0.0062288367 0.059209295 0.035596695 0.05548154
0.054414928 -0.026760174 -0.05543634 0.04015497 0.031587187 0.023794256 -0.06492337 0.05470072
-0.012148138

res_blocks.0.conv.1.weight f4 [25]
00000000: 8404 7f3f 88a1 5d3f c169 693f 2b88 6f3f
00000010: 1d1f 5f3f db97 683f 515d 5e3f 9c4b 833f
00000020: ad97 8d3f 5d04 5f3f 2885 883f 13e8 853f
00000030: 52dc 813f de1e 863f 2314 843f d471 873f
00000040: de48 773f 85ad 813f e439 7d3f 06a1 933f
00000050: 804c 763f c940 803f 3364 843f 5535 923f
00000060: 5315 8d3f
0.99616265 0.865746 0.9117699 0.9356715 0.8715685 0.90856713 0.8686114 1.0257449
1.1061913 0.8711603 1.0665636 1.0461448 1.0145361 1.047817 1.0318645 1.0581613
0.9659556 1.0131079 0.9891646 1.1533515 0.9621048 1.0019771 1.0343078 1.1422526
1.1022133

res_blocks.0.conv.1.bias f4 [25]
00000000: aa86 9b3c 902c b5bc 31ae 38bd 904e c33b
00000010: 86a6 c9bd f8e3 8abb 9fe3 61bd b1fc 823d
00000020: 22cd f83d 0f59 4bba c153 1b3d 5100 853d
00000030: f49d 043d 36e4 443c 4c67 d33d 44d2 c33d
00000040: cd08 a43d 6532 753c 5243 67bd 5c3e 7e3d
00000050: 0dfa 803c e4db b7bb dc6e f93b 9ea7 c33b
00000060: 7e4a ad3d
0.018985111 -0.022115976 -0.045087997 0.005960293 -0.09846215 -0.004238602 -0.055148717 0.06395853
0.12148501 -0.0007757106 0.03792167 0.06494201 0.0323772 0.0120173 0.10322437 0.09561589
0.08009491 0.014965628 -0.056460686 0.06207119 0.015744234 -0.00561093 0.0076120924 0.0059709093
0.08461474

res_blocks.0.conv.1.running_mean f4 [25]
00000000: e5ad a43c 93ce 083e 0e58 4a3f dd37 b5be
00000010: e50d 5f3e eedf 3fbe 3f2b 963e 6fe9 dcbf
00000020: e3b4 c3bf 71dc 263f e2e0 dfbd 9c3d f43d
00000030: d47a db3d f72d 333e 5044 48bf 74a9 cb3e
00000040: 55ad b0bf 9e1a d23e ec11 f73e 0040 f9bf
00000050: 0d80 80bf 1133 323f bad6 a73f 2050 7c3f
00000060: 7f51 b83e
0.02010245 0.13360052 0.7904061 -0.35394183 0.21782644 -0.18737766 0.2932987 -1.7258738
-1.5289577 0.65180117 -0.10931565 0.119258136 0.10716787 0.17498003 -0.78229237 0.3977772
-1.3802897 0.41035932 0.4825586 -1.9472656 -1.0039078 0.6960917 1.3112404 0.9855976
0.35999677

res_blocks.0.conv.1.running_var f4 [25]
00000000: 91f0 7840 8228 3a3f bc9a 0242 95e1 3340
00000010: b08b 8040 5ffd c440 ea43 b541 1073 b641
00000020: 22ff fb3f 223a fb3f cc1f 8841 6641 0541
00000030: f30f 6c41 ee8b 1d41 81b8 e63f e76e fc40
00000040: 30fa c93f 6de7 c941 26d8 5140 e11c 3640
00000050: 60cd aa3f 4e91 e240 626b 1a43 db20 cd3f
00000060: 11b4 0d40
3.889683 0.7271806 32.651108 2.8106434 4.0170517 6.155929 22.658161 22.806183
1.9687235 1.9627116 17.015526 8.328466 14.753894 9.8466625 1.8025056 7.888538
1.5779476 25.238 3.2788177 2.8455126 1.3343925 7.0802374 154.41946 1.6025652
2.2141154

res_blocks.0.conv.3.weight f4 [25, 25, 3, 3]
00000000: 8354 553d 2136 dabd d2f4 37bd 0661 e9bd
00000010: 01f6 06be d651 cd3c 8535 0dbd 40b8 133d
00000020: 5c35 b7bd a423 f93b 3705 373d 4a7d cdbd
00000030: e746 0b3e d639 73bd fcb1 03bd 135d f0bc
00000040: 337d 12bc 0dd9 2e3d 6b47 fe3d 96c5 76bd
00000050: d39e 3b3e 208f 4b3e 9355 6dbd 6a74 c5bb
00000060: 6df7 103e c0f9 9e3b e1bb 893d 68ce 23bb
00000070: 644a 9d3d a63e abbd b65b c13d 2f35 c63d
00000080: 1aaf b7bd 25e7 f6bc 6031 a83d ada5 8dbc
00000090: a2f0 863c ad90 0abe ef32 f5bd 4a44 1fbe
000000a0: 18ef 28bc f4cf c83d 93a3 e63d 2098 e3bd
000000b0: cf78 d93d 9403 4c3b 11fc 10be e7ef 0fbe
000000c0: 7230 2dbe 3651 89bc f803 63bb 4936 93bc
000000d0: 457a 88bd 67ea 42bd 6c02 d63d a06a 723d
000000e0: 0f6a 70be 7be9 5abd 559e 383e 16b6 583d
000000f0: e74b 95bd 9327 3ebd 83b1 57be a4ed bc3d
00000100: f9e7 fc3d 97bc 0f3e 67e9 8d3e c5a0 a3bc
00000110: ecbd ce3d aedf e93b 8b03 003e 009c f537
00000120: 1096 633d eba5 443e 88d1 423d 67ce 383e
00000130: 3197 523e 516c 8e3e e247 7c3b 5675 743e
00000140: 129f 923e 5ecf 0b3d 356c 8d3d 446c 2bbe
00000150: a987 c3bd 3370 88bd e60e f3bd 7baa 74bc
00000160: 18af 3bbe c5f5 35be b7db 88bd 47c3 0d3d
00000170: 1205 10be 6713 033e d665 b53b e851 47be
00000180: c466 8dbd 75a4 09bd 39d0 8a3d 2d31 e43d
00000190: 5845 04be c078 d6bd acce c1bb 057c 3cbe
000001a0: 65ca 03ba 7194 23bd e7c9 893d deb2 b23d
000001b0: 7d07 cb3c aef6 38bd f486 033c 7e2d 6f3d
000001c0: 4fe4 16be f009 94bd 0895 0bbe 8c25 f3bc
000001d0: 7afb 0abe a4fd c2bd 054a e83d b828 ed3c
000001e0: 3e3a 1cbd 36fe e53d 8ada 51be a400 f8ba
000001f0: fc98 c03a 6c4c c4bc 99bb 26bc 7a7a 8d3d
00000200: f9a4 5a3e e9df b2bd bafa ab3c cb81 92bd
00000210: 9d52 59bd 8e41 093d 49bb 5cbd 8e6a 3e3e
00000220: cd0e 3b3e 5b70 37bd 6655 f7bc 4748 a83e
00000230: e095 17bd 7931 aebd c0f7 32be b18f 453d
00000240: 9e63 fb3d 9d86 613d ca9f 083e cd53 0e3e
00000250: 58f1 fa3d 61d7 b6bc c0bb 413e 4ab7 de3d
00000260: dadf 713d 679c 093e 43ac 973d 2854 d93c
00000270: 55fb 95bd f046 153e baf9 47be 0bbd 5c3d
00000280: ed1d 39be c19e 093e 6aa1 a0bc ffdc 253d
00000290: 7dde 123d f868 42be 7c3d ebbc bfc3 c63c
000002a0: b53b 14be 3497 9bbc df4c 34be 42d7 423e
000002b0: 4656 ae3d fc63 053e d801 193e a5d3 1d3d
000002c0: a980 7c3e 4129 c73d 3fab 983d d280 153e
000002d0: f212 1e3d fe29 cc3d 3450 533d fd57 d6bd
000002e0: c28a a13b b20a 09be 5e66 1c3e 661b 673d
000002f0: 70b4 643e 2bb3 7ebd a80b 6cbe 8b75 3dbe
00000300: d2bf f33a e788 d0bd 85bd 1dbd ad51 bd3c
00000310: ce19 12be e232 9bbc 9e77 703d 6151 c03c
00000320: 4b2f 1abe ae8a 513d 1730 16be 3218 ddbd
00000330: 85be 243c 7363 03bd 28b2 a63d b086 f3bd
00000340: 56b4 b4bd 1b29 05be de2c 87bd e178 74be
00000350: 668c 0bbe eebd 46be e62b 903d b3a4 23be
00000360: 9e99 1dbd bee5 6abd 3d37 8cbd 4894 fb3b
00000370: 6a96 4fbd 791c fabd aae1 39bd cb2e fabd
00000380: d568 54be f5f4 d9bd 013d 5f3d 5ad7 5dbd
00000390: aeb5 5d3d e40a c13d 526b babd d1fe 3cbe
000003a0: d10b 5bbd e4d3 3dbe 4e96 81bd 14e4 b83d
000003b0: 9a4d 833d 727a c3bd ccc2 11bc e92b 283d
000003c0: a253 b2bd 5f08 3a3d 97b0 09bd 634a d5bd
000003d0: b540 723d 5a4f 193c c478 2fbb 0955 f7bb
000003e0: d6b3 ebbd 0a0e 133b 5c41 9d3d e6fd 9dbd
000003f0: a84f 3f3d 0537 583d 6a42 9bbd addd 7ebd
0.05208255 -0.106548555 -0.044911213 -0.11395459 -0.1317978 0.025063436 -0.03447487 0.036064386
-0.08945724 0.0076031256 0.044682708 -0.100336626 0.13601266 -0.05938133 -0.03215216 -0.029341256
-0.008940983 0.042687465 0.12415966 -0.060247026 0.18322305 0.19878817 -0.057942938 -0.0060258405
0.14156885 0.00485155 0.06725288 -0.0024994854 0.076802045 -0.083615586 0.094413206 0.09678113
-0.08968945 -0.030139515 0.082125425 -0.017290914 0.016472165 -0.13531752 -0.119726054 -0.15553394
-0.010310911 0.09805289 0.11261668 -0.11113 0.106187455 0.0031130062 -0.14158656 -0.14056359
-0.16913012 -0.016762357 -0.0034639817 -0.017970221 -0.06663946 -0.047586825 0.10449681 0.059183717
-0.23477958 -0.05344532 0.18029149 0.052908026 -0.07289868 -0.04642446 -0.21063809 0.09225014
0.12348933 0.14036785 0.27717134 -0.019974122 0.100948185 0.0071372604 0.12501352 2.927892e-05
0.055563033 0.19203918 0.047563106 0.18047486 0.20565487 0.27817014 0.0038494994 0.23872885
0.28636986 0.034133308 0.069054045 -0.16740519 -0.095473595 -0.06662025 -0.11868076 -0.014933224
-0.18328512 -0.17769535 -0.06682532 0.03461006 -0.14064434 0.1280037 0.0055358214 -0.19464839
-0.069043666 -0.033604104 0.067779966 0.11142192 -0.12917078 -0.1047225 -0.00591453 -0.18406685
-0.00050274126 -0.039936487 0.06727963 0.087255225 0.024783844 -0.045157127 0.008027781 0.058392994
-0.1473553 -0.07228458 -0.1363107 -0.02968099 -0.13572493 -0.09521034 0.11342243 0.02895008
-0.03814148 0.112301275 -0.20493522 -0.0018921089 0.001469403 -0.023962222 -0.010176563 0.06908126
0.21351995 -0.08734114 0.02099358 -0.07153662 -0.0530573 0.033509783 -0.053889547 0.18595335
0.18267365 -0.044784885 -0.030192088 0.32867643 -0.037008166 -0.0850553 -0.17477322 0.048232738
0.1227486 0.055060018 0.13342205 0.13899155 0.12253064 -0.022319498 0.18919277 0.10874803
0.059051372 0.13438569 0.07405903 0.026529387 -0.073233284 0.14577842 -0.19528857 0.053891223
-0.18077822 0.13439466 -0.019608218 0.04049396 0.035856713 -0.18985355 -0.028715841 0.02426326
-0.14475901 -0.018992998 -0.17607449 0.19027427 0.08512549 0.13026422 0.1494211 0.038531918
0.24658455 0.097246654 0.074545376 0.14599922 0.038592286 0.09968947 0.05159016 -0.10466001
0.0049298713 -0.13382986 0.15273425 0.056422614 0.22334456 -0.062182587 -0.23051322 -0.1850187
0.0018596596 -0.10182362 -0.038510818 0.023110235 -0.14267656 -0.018945161 0.058707826 0.023476304
-0.15057103 0.051157646 -0.14666782 -0.107956305 0.010055189 -0.032077264 0.08139449 -0.11890924
-0.08823459 -0.13003962 -0.066003546 -0.23874237 -0.13627777 -0.1940839 0.07039623 -0.15980797
-0.03847658 -0.057348005 -0.06846473 0.0076775886 -0.050680555 -0.12212462 -0.045381226 -0.12215956
-0.20743115 -0.10642425 0.054501537 -0.054160453 0.05412834 0.09425905 -0.09102501 -0.1845658
-0.053478066 -0.18537861 -0.063274965 0.090278774 0.06411286 -0.09544839 -0.008896541 0.0410575
-0.08707358 0.04541814 -0.033615675 -0.10414579 0.05914374 0.009357298 -0.0026774863 -0.007547979
-0.1150891 0.0022438788 0.07678482 -0.07714443 0.046706825 0.052786846 -0.07581027 -0.062223125

res_blocks.0.conv.3.bias f4 [25]
00000000: 57fa 1b3b c3c0 2fbd c5b8 30bd 800f 833d
00000010: 51f8 8c3b 04b3 54bc 66ba a6bc 3279 353d
00000020: 3762 73bd 7ee7 3a3c 34fb 383d 1000 773c
00000030: 5773 7e3d 2075 5d3d a20b c1bc 33b7 4a3d
00000040: 04d4 2c3d 49fd fdbc 0ec3 77bd 2288 46bd
00000050: dd30 1ebd a5dd 04bd 34ed 12ba c824 493d
00000060: fbd6 16bc
0.0023800337 -0.04290844 -0.04314496 0.06399441 0.0043020626 -0.012982134 -0.020352554 0.044305034
-0.059419837 0.011407731 0.04516144 0.0150756985 0.062121715 0.054066777 -0.023565117 0.04949112
0.04219438 -0.031004565 -0.060488753 -0.04846967 -0.03862082 -0.03243794 -0.0005604804 0.049107343
-0.009206529

res_blocks.0.conv.4.weight f4 [25]
00000000: 7f71 8d3f f059 803f 4c6a 803f a98e 8b3f
00000010: f4a3 6e3f 3764 823f 9920 6e3f 300d 8d3f
00000020: b9e2 8c3f 2bbb 793f dc40 873f c377 703f
00000030: d287 8f3f 9f38 863f 7e6e 8e3f 7b9d 803f
00000040: e39e 833f c030 873f 0851 813f b908 833f
00000050: a1ec 8a3f d326 493f 4fd4 8e3f 928d 773f
00000060: 7aac 4a3f
1.1050261 1.0027447 1.0032439 1.0902911 0.9321892 1.0186833 0.9301849 1.101965
1.100669 0.9755122 1.0566669 0.9393274 1.1213324 1.0486029 1.112747 1.0048059
1.0282863 1.0561752 1.0102854 1.0237037 1.0853463 0.78574866 1.1158541 0.96700394
0.7916943

res_blocks.0.conv.4.bias f4 [25]
00000000: 6c52 aa3b ab52 6fbd 99e8 443d 846b a0bc
00000010: 4453 23be a772 6e3b c15a 933b bff2 373d
00000020: d242 fe3c 8b83 0b3d 6859 6f3d dabc 81bc
00000030: 79e1 133d 9c11 cebc 5167 593d 0435 d3bd
00000040: 697a c63c de9a 47bd dca2 fd3c e9d4 1e3c
00000050: a2e0 8e3d 186a 5b3c 1e5f 593c 1006 383d
00000060: c28a c1bd
0.0051978137 -0.058428448 0.048073385 -0.019582517 -0.15949732 0.0036384256 0.0044969027 0.044909235
0.031037722 0.034060996 0.058434874 -0.015837122 0.0361037 -0.025154881 0.053077046 -0.10312846
0.024228292 -0.048731677 0.030961446 0.009694316 0.06976439 0.013391994 0.013267307 0.044927657
-0.09450294

res_blocks.0.conv.4.running_mean f4 [25]
00000000: 17bd 253e 67e3 03bf 436b a93e b9bb e6be
00000010: 3ee0 f13c c82d 49bf 0e3a 51be 243e 363c
00000020: 3fc4 973e bcf1 fe3d f6cf 1dbf 5fdc 38bf
00000030: fb99 4ebf 0835 ff3e 9250 c3be 5d6a 77be
00000040: bebf e03e adca e4bd 2531 1abd eaf9 c8bd
00000050: d955 5cbd e005 023f 70a4 06bf 4fb4 80be
00000060: c14f a33e
0.16185413 -0.51518863 0.33089647 -0.45065096 0.029525872 -0.7858548 -0.20432302 0.011123214
0.2964191 0.12448451 -0.6164545 -0.7221126 -0.80703706 0.49845147 -0.38147408 -0.24161668
0.43896288 -0.1117147 -0.037644524 -0.09813292 -0.05379281 0.50790215 -0.5259466 -0.25137565
0.31896785

res_blocks.0.conv.4.running_var f4 [25]
00000000: 0dfc 8540 772a 5540 aeb6 ae3f 1a8d 8340
00000010: 5baa ba3f c32c ad40 2686 8940 11d7 3840
00000020: 50b6 1540 2b57 3a40 2e18 da40 af26 f93f
00000030: f6b3 bf3f b51a 0a40 6f2f 7140 136e 5a40
00000040: d930 ab40 667b 2b41 f2e8 0740 5e8e 5840
00000050: 814d 7b40 512c e041 026f cb3f 0d5e 0241
00000060: 4797 4841
4.187018 3.3307168 1.36495 4.1109743 1.4583238 5.411714 4.2976255 2.8881266
2.3392525 2.9115703 6.8154516 1.946493 1.4976795 2.15788 3.76852 3.4129684
5.349713 10.717627 2.1235929 3.3836894 3.9266055 28.021639 1.5893252 8.147962
12.536933

final.0.weight f4 [25, 25, 1, 1]
00000000: 9a51 dcbd 9301 533e af06 ddbe 6bc1 043f
00000010: 60db 2c3e 2654 0cbe a22c e33e 74f4 da3c
00000020: e0b9 243f 402d 2d3f 3ed3 b43d 4080 c13c
00000030: c172 c83e f469 253e 7262 dcbe 0c43 ddbd
00000040: f948 333e 6645 1cbe 9671 b4be 7daf c4bd
00000050: c5e5 333e 675e f2bc 9775 54be 0506 90be
00000060: 5b22 44bd 3a48 0cbf 4f81 5e3c 2b6c 333d
00000070: 32de 2d3e 1003 b83e 7989 713e 3d1a 7dbd
00000080: d323 86be 5a3d 963e 3185 9abe f036 9e3e
00000090: a60c ec3e 9bc4 303d 5cef 13bf 7209 443d
000000a0: 9676 80be 3372 9a3e d907 72be d1b6 563e
000000b0: f7c0 ea3d 7b32 d0be 6378 b83e cf31 e33e
000000c0: 7870 0dbf b1e6 fdbd ce27 b8be 8ffe 4ebd
000000d0: d136 843e 44b7 ffbe 6a3b ce3e b833 c9be
000000e0: dfbc 39be b63c 63be efd2 47be 9853 7d3e
000000f0: 49fb db3e 4ea6 a1be 180c 333e e8d6 083f
00000100: b1c3 a33e 8f6b 92be da17 81bd 39fe 943e
00000110: 6906 d43e ac47 a3bd 6473 b3bc c1b1 4ebe
00000120: 839b 2bbe 9bfd 813e 91c2 d93d d9fe 06bf
00000130: 7829 15be eab5 39be b75e 393e a0e3 d13c
00000140: 266d d8bc 8ec3 b4bd 2a46 03be 2a29 ab3d
00000150: 28d2 aebe a2ea 7dbe 0164 b3be 84d1 363f
00000160: dc34 a13d f6c0 92bd da29 053e 589d 703b
00000170: aae5 1c3e 464c a4be 495b bf3e bef8 593e
00000180: 1436 2cbe bcfc 91bd ebd5 c8be 2d77 2cbe
00000190: a810 f13e f14f ec3e 47e0 e5be 5262 ddbe
000001a0: 1cef 84bd 569d e93d fdee f9bd 500e 8b3e
000001b0: 73ad 233e 6915 7abd d411 fabe 2e18 a3be
000001c0: 8b2f 04bf 4bd8 51bb 4f2c d03e 7c36 7a3e
000001d0: f2b1 88be cd80 1bbe 8eb3 af3e 9e04 9ebe
000001e0: 2e59 c3be 89aa d0be a571 043f f627 cc3c
000001f0: 2810 923e 12d3 0fbe 4b5e a23d f303 883e
00000200: a069 cdbd 6d5a 3fbf 49bb 583e f6aa 443e
00000210: b8e7 803e 4868 493e 4435 26bd ad54 ddbe
00000220: 3cda ecbd e05a c0bd 7708 f93e 8cff 9f3d
00000230: cbb8 7dbe 705d 2d3f 0def 6a3e 425b 2cbe
00000240: 44e0 7a3d 5630 c4bd 7102 bebd 865b 3bbf
00000250: 3479 68bc e889 4bbb 7f21 3dbd 8537 01bf
00000260: 4859 303d 2deb 19be 761d c7be 7c36 56bf
00000270: d31b b9bd fdba c33e d01a 283e 2888 233e
00000280: d2be dc3e 2f39 50bc 6d57 20be 628b febd
00000290: d0e9 8cbc 3fba 1cbd c669 063e 0e33 54be
000002a0: 8a85 36be 4ad0 96be 791c 47be 3473 2fbe
000002b0: 7bb2 9cbd ca4c 3d3d d404 823e fa95 49bb
000002c0: c401 d6bd c6a2 003e af1e 6abe ef6c d6be
000002d0: efe0 75be 782e 923e b788 26be d4b4 b1bc
000002e0: 3abd 2f3c 9bf7 413e 650d 9d3d 00bd c7bc
000002f0: d494 a0be 0284 d5be 6601 b83e 7822 293e
00000300: 2e19 cb3e 31b5 ce3c 426d 06bf 0e9b 02be
00000310: d5f8 df3d 6863 293e ff60 4c3e 09e0 743e
00000320: 5fc9 d23e bf0e 713e 306e 9e3e 66d8 6ebe
00000330: 5404 b2be 9e70 a53e 0be5 cb3e 2510 743d
00000340: 0454 ae3e 8c2d 813d bc01 94be f5d9 233e
00000350: 8d8f 083e caef 803e 348f 5d3e 326e f13d
00000360: a659 76be a6dc 853d 88f9 83be 5e78 9cbd
00000370: 0a95 103f abb8 c9bd 16b7 623d 4324 273d
00000380: 09f0 853d 7a95 abbd 2797 573d c99c 5c3e
00000390: b8cf c5be 24fb 6e3e e27d 083f 3bdf 84be
000003a0: 3425 0bbe a9c8 ae3e 2c97 05be 79d3 ae3d
000003b0: 63c2 9fbd ce6b cdbe d877 ad3d 774b 7bbd
000003c0: ac1a 433f e2e7 583e 1c26 b1be d261 ce3d
000003d0: 18ee f8bc 69aa f83d b650 9c3e e94d 97bd
000003e0: ea81 67be 58ed 8d3e 1ee7 043e 00dc 0abe
000003f0: 0c1b 433d bf96 913e 0b4b 71bd 816c bdbe
-0.10757752 0.2060607 -0.43169162 0.5185763 0.1688056 -0.13703975 0.4436999 0.026727892
0.6434612 0.6764717 0.08829354 0.023620725 0.3915005 0.16153699 -0.43043858 -0.10803804
0.17508306 -0.15260848 -0.3524291 -0.09603784 0.17568119 -0.02958603 -0.20747982 -0.28129593
-0.047884326 -0.5479771 0.013580634 0.04380433 0.16979292 0.35939837 0.23587598 -0.0617926
-0.26199207 0.29343683 -0.30179742 0.3090129 0.461034 0.043156248 -0.5778711 0.04786057
-0.25090474 0.30165252 -0.23635806 0.20968176 0.114625864 -0.40663514 0.36029348 0.44373938
-0.5524974 -0.123975165 -0.3596787 -0.050535735 0.25823072 -0.49944508 0.40279704 -0.3929727
-0.18138455 -0.22191128 -0.19514059 0.2473892 0.42965153 -0.31572193 0.17485082 0.5345292
0.31985238 -0.28597686 -0.063033774 0.29100206 0.4141114 -0.07972655 -0.021905608 -0.20184995
-0.16758542 0.25388798 0.10632814 -0.52732617 -0.145666 -0.18135801 0.18102537 0.025621235
-0.026419234 -0.088263616 -0.12819734 0.08357461 -0.34144711 -0.24796537 -0.35037234 0.71413445
0.0787141 -0.07165711 0.13004246 0.0036714878 0.15321985 -0.32089442 0.37374333 0.21286294
-0.16817504 -0.071282834 -0.39225706 -0.16842337 0.4708302 0.4615474 -0.44897673 -0.43239075
-0.06490919 0.114069626 -0.122037865 0.27159357 0.15984134 -0.061055575 -0.48841727 -0.31854385
-0.51635045 -0.003201979 0.40658805 0.24434847 -0.26698261 -0.15185852 0.34316677 -0.30862898
-0.38153976 -0.40755108 0.5173591 0.024921399 0.2852795 -0.1404536 0.07928141 0.26565513
-0.10029912 -0.74747354 0.21165194 0.19205841 0.25176787 0.19668686 -0.04057814 -0.43228665
-0.115650624 -0.09392333 0.4863927 0.078124136 -0.24777524 0.677207 0.22942753 -0.16831687
0.061249033 -0.09579532 -0.092778094 -0.7318653 -0.014189053 -0.003105754 -0.046174522 -0.5047534
0.043053895 -0.15031119 -0.38889664 -0.83676887 -0.0903851 0.38228598 0.16416478 0.15969908
0.43114334 -0.012708946 -0.1565835 -0.12428929 -0.017201334 -0.038263556 0.13126287 -0.20722601
-0.17824379 -0.29455787 -0.19444455 -0.1713379 -0.0765123 0.04621581 0.2539431 -0.003075956
-0.104495555 0.12562093 -0.22863267 -0.41879985 -0.24011587 0.28551078 -0.1626309 -0.02169267
0.0107262675 0.1894211 0.076685704 -0.024382114 -0.31363547 -0.41702276 0.35938567 0.16517055
0.39667648 0.025232883 -0.52510464 -0.12754461 0.10936133 0.16541827 0.19958876 0.23913588
0.4116926 0.23540781 0.3094344 -0.23324737 -0.34768927 0.32312483 0.39823183 0.05958571
0.34048474 0.063075155 -0.28907573 0.16001113 0.1333601 0.25182945 0.21636659 0.11788596
-0.24057636 0.06536226 -0.25776315 -0.07640146 0.56477416 -0.09849676 0.055350386 0.040806066
0.06539924 -0.0837812 0.052634384 0.21544184 -0.3863504 0.2333799 0.5331708 -0.2595156
-0.1358841 0.34137467 -0.13045949 0.08536429 -0.07800748 -0.4012131 0.08470124 -0.061351266
0.76212573 0.21182206 -0.34599388 0.100772515 -0.03038697 0.12141878 0.30530328 -0.07387907
-0.22608152 0.2772014 0.12978789 -0.13560486 0.047633216 0.28435323 -0.058909457 -0.36996844

final.0.bias f4 [25]
00000000: fff6 483e 6ff6 c4bd 947c b8bd c0c3 3fbe
00000010: ad98 493e 7568 ecbd 7c11 8ebc 0392 ddbd
00000020: 4508 d83d 4622 93bd 06c7 a93b f3d0 fd3d
00000030: e8ed 013e 13a8 f33d 981e 72bb e91c 49be
00000040: 0ab6 29be c296 1ebe 4ab0 b5bd 1178 f9bd
00000050: a40d 713b fd0e f1bd 4b25 b2bd 40e2 1e3d
00000060: 6318 b1bd
0.19625472 -0.09617316 -0.090081364 -0.18727016 0.19687147 -0.11543361 -0.017342322 -0.10818865
0.10548452 -0.071842715 0.005181196 0.123933695 0.1268841 0.11897292 -0.0036944505 -0.19639935
-0.16573349 -0.15487197 -0.08871515 -0.12181104 0.0036781812 -0.11770437 -0.08698519 0.038789988
-0.086472295

final.1.weight f4 [25]
00000000: 6fe7 7b3f 27e9 673f f7e1 333f 6be9 4f40
00000010: 5970 6940 01c1 213f 919c 543f e960 ae3f
00000020: c48e 693f 7ac6 663f 6d1d 3c3f f565 203f
00000030: e92a 9840 a669 2d3f fec6 343f 2233 593f
00000040: aa09 573f 3f51 4c3f daef 4e3f 852f 293f
00000050: 48b4 343f b654 593f 9ab1 6a3f b9b2 1a40
00000060: bc3c 803f
0.98400015 0.9059014 0.7026667 3.2486217 3.6474822 0.63185126 0.830514 1.3623325
0.9123347 0.901466 0.734824 0.62655574 4.755238 0.6773933 0.7061614 0.8484365
0.8399912 0.7981147 0.80834734 0.66088134 0.7058759 0.84894884 0.9167725 2.4171584
1.0018535

final.1.bias f4 [25]
00000000: 901b 1abe 3a56 6ebe cbf3 aebe 2272 d23f
00000010: a812 ec3f 2a48 b7be 4cdc 4dbe 6034 173e
00000020: 62ff 90be bceb 80be 001e adbe 9e7e dbbe
00000030: 0311 2d40 2cc8 b9be df4b 9ebe eed1 92be
00000040: b524 a5be 769f 7fbe 911a 90be dfca c5be
00000050: be5e a8be 53d9 9abe 61e6 81be 897d 603f
00000060: fb1f 263d
-0.15049577 -0.2327508 -0.34170374 1.644108 1.8443193 -0.35797244 -0.20103568 0.14766073
-0.28319842 -0.2517985 -0.3381195 -0.4287004 2.7041633 -0.36285532 -0.3091726 -0.2867579
-0.32254568 -0.24963173 -0.2814527 -0.3863134 -0.32884783 -0.3024393 -0.25371078 0.8769155
0.040557843

final.1.running_mean f4 [25]
00000000: cecf e93e 03e3 1abe f5a2 6a3e b84f 01bf
00000010: d8e4 9cbe df5b 873d 73f6 31bf c83e bebe
00000020: 7caa 883f 395b b63e 7a89 4fbe 079e 25bf
00000030: 28dd 0c3f b92e 063f c2b1 563f 760a f83e
00000040: 65af 5fbf 8512 4fbe a4d0 54bd 57d2 cabe
00000050: 7cdf da3e 0d23 0abf 2e2b f23d 530e 5dbf
00000060: 909b 0ebf
0.45666355 -0.1512566 0.22913726 -0.50512266 -0.30643344 0.0660932 -0.69516677 -0.37157273
1.0677028 0.35616472 -0.20267287 -0.64694256 0.5502496 0.52415043 0.83864987 0.4844548
-0.87377006 -0.20221908 -0.051956788 -0.39613602 0.4274863 -0.53959733 0.11824642 -0.8634998
-0.5570612

final.1.running_var f4 [25]
00000000: e085 8440 19e9 b43f ec63 903f 89c1 0a40
00000010: 1728 4d40 13d0 873f 7bdf c83f 63b0 c53f
00000020: 5dac c33f 5b6f 143f 8c20 4c3f 952e 0a40
00000030: fc75 f640 765e 0a40 bfe5 fe3f edd8 2a3f
00000040: 5a11 933f b2d5 233f 853a df3f d751 c73f
00000050: 71fa 953f b060 583f 6e07 223f eda3 843f
00000060: 3d2a 3040
4.141342 1.4133636 1.1280494 2.1680624 3.205572 1.0610374 1.5693201 1.5444454
1.5286976 0.57982415 0.7973716 2.1590931 7.7019024 2.1620154 1.9913863 0.6673725
1.148967 0.6399795 1.7439734 1.557185 1.1717054 0.84522533 0.63292587 1.0362526
2.752578
