消融实验/model_weights_8.pth (torch, 9083 bytes, 12 tensors)

initial.0.weight f4 [20, 3, 3, 3]
000000 28 6a 0f 3f c9 92 51 3f 70 b5 06 3f 2a e1 0f 3f
       0.56021357 0.818646 0.526206 0.5620295
000010 72 15 0e 3f c1 1c 25 3f cb 6f ed 3e 21 33 d8 3e
       0.5550147 0.64497 0.46374354 0.42226508
000020 ec 18 fc 3e 93 d2 d6 3e d4 14 0b 3f ac ef 1c 3f
       0.49237764 0.4195753 0.54328656 0.6130321
000030 30 d3 30 3f 25 25 09 3f 19 cc 41 3f 56 84 a7 3e
       0.69072247 0.53572303 0.75702053 0.32718152
000040 59 25 0a 3f db ca 1a 3f 8f de 0b 3f 12 30 21 3f
       0.5396324 0.6046578 0.5463647 0.62963974
000050 61 c6 45 3f 48 f4 0f 3f 64 d5 05 3f 8e dd 0b 3f
       0.7725583 0.5623212 0.52278733 0.5463494
000060 fb 91 2d 3f c6 93 08 3f 3b 0d df 3e 3f ca 27 bf
       0.67800874 0.53350484 0.43564782 -0.6554298
000070 b0 a8 d6 be e3 cd 0c bf 7f 3f 31 bf a6 eb 0c bf
       -0.41925573 -0.5500166 -0.6923751 -0.5504707
000080 7e 13 f1 be b5 7d 82 bf 1f 69 47 bf ae 8c 5b bf
       -0.47085184 -1.0194613 -0.7789478 -0.85761535
000090 51 f5 1d bf d4 f8 22 bf a1 b4 15 bf 04 54 36 bf
       -0.6170245 -0.6366093 -0.5847874 -0.7122195
0000a0 23 12 03 bf 62 b0 3d bf b6 d3 59 bf 05 24 14 bf
       -0.5119955 -0.74097264 -0.8508867 -0.5786746
0000b0 ab ef 67 bf 72 6d 15 bf 78 f5 c4 be 91 a8 16 bf
       -0.9060008 -0.58370125 -0.38468528 -0.5885096
0000c0 e6 e1 23 bf 8e 8e 27 bf ad d3 ff be a5 4d 58 bf
       -0.6401657 -0.65451896 -0.49966183 -0.84493476
0000d0 0a 8a 7a bf d2 a5 6b bf 70 30 01 be 8f 82 94 be
       -0.9786688 -0.92049897 -0.12616134 -0.29005858
0000e0 8c a6 bd be 85 7a 6e 3d 7d 85 6d be f8 6b f6 bd
       -0.37041128 0.058222312 -0.23195453 -0.12032312
0000f0 45 f6 84 bb 2f 34 a5 3d 98 90 0a 3e 95 eb 84 be
       -0.004057678 0.08066594 0.1353172 -0.25960985
000100 42 ab 73 be 24 93 a8 be eb 6e 2c be 34 27 89 bd
       -0.23795798 -0.3292476 -0.16839187 -0.066969305
000110 ac ea 9a be f1 62 17 3e da a9 1a 3e 42 79 33 3e
       -0.30257165 0.14783837 0.15103856 0.17526725
000120 0e 6b 5d be 89 ad 74 be 29 c5 a6 be 3c 89 0f be
       -0.2162287 -0.23894323 -0.32572296 -0.14017195
000130 73 aa 8d 3d 49 c2 15 be 3c 8b e4 3d c6 e5 b9 3d
       0.06917276 -0.14624895 0.11159369 0.09077029
000140 8d ae e4 3d 49 e9 29 bf e3 07 1f bf 1c fd 30 bf
       0.111661054 -0.6637159 -0.6212141 -0.69136214
000150 77 56 22 bf 1c bb 3d bf 22 a4 21 bf 8d 26 8a be
       -0.63413185 -0.7411363 -0.6314107 -0.26982537
000160 d3 90 0e bf 79 c0 22 bf 16 b7 42 bf b6 f9 42 bf
       -0.55689734 -0.6357494 -0.76060617 -0.7616228
000170 a5 30 4a bf df ca 07 bf a8 f2 2b bf f7 e1 1a bf
       -0.78980476 -0.5304393 -0.6716714 -0.60501045
000180 f7 e6 10 bf ae 42 bd be b5 6e 04 bf 21 68 12 bf
       -0.56602424 -0.36964935 -0.51731426 -0.5719014
000190 f8 91 20 bf 1a 93 1f bf b0 fd 3a bf 05 03 1b bf
       -0.6272273 -0.62333834 -0.73043346 -0.6055148
0001a0 cf b1 27 bf de c1 2f bf 96 a5 21 bf 2c d1 27 bf
       -0.6550569 -0.6865519 -0.6314329 -0.65553546
0001b0 ac 1e cc 3c cd 95 60 3d a1 26 3a 3e e9 4c 63 3e
       0.02491697 0.05483036 0.18178798 0.22197308
0001c0 ab 9f 42 3e 71 7a 0f 3e 44 a3 0b 3e 65 33 fd 3b
       0.19006221 0.14011551 0.136365 0.007727074
0001d0 21 77 89 3e e0 43 f8 ba ea d6 8e 3d 9d fd 3e be
       0.268487 -0.0018941127 0.06974585 -0.18651433
0001e0 21 f9 ac bc 5a 98 07 3d fa e0 1f be 98 83 b7 3d
       -0.021114888 0.03310428 -0.15613165 0.089606464
0001f0 e7 39 c2 3d d3 4d 5c bc 17 c5 92 3d 20 1f 72 3d
       0.094837 -0.013446289 0.07166498 0.059111714
000200 87 41 8f bd f0 dd 61 3d fd fd d7 3d 28 3e c4 bd
       -0.0699492 0.055143297 0.10546491 -0.09582168
000210 ed 8d b5 3e 19 93 b1 3d 2a 36 2d 3d c8 f2 8b 3c
       0.35459843 0.08670635 0.042287983 0.01708354
000220 9b 8e 28 be dd 66 44 bd e1 6c fd bd 18 ee e8 3b
       -0.1646065 -0.04794966 -0.12374283 0.007108461
000230 57 32 96 be e1 8f 49 be a3 47 39 bd d7 11 85 3c
       -0.2933528 -0.19683792 -0.045234334 0.016243858
000240 d0 a9 65 bd 7c 42 8c bd 8d a9 01 be a0 96 06 3e
       -0.05607015 -0.068486184 -0.12662335 0.13143396
000250 28 96 dd bb b9 90 88 bc 9a a7 16 be f4 5f 1d 3d
       -0.006762285 -0.016670572 -0.14712372 0.038421586
000260 e8 ec 85 bd db e3 32 be bc 66 a0 3d 4f a1 1e bc
       -0.06539327 -0.17469732 0.07832095 -0.009682014
000270 c4 f1 20 3d 45 51 93 bd a7 2c 09 bd 06 19 38 bd
       0.039293066 -0.07193235 -0.03348985 -0.04494574
000280 5e be cb bd 82 a5 0c be 9c 39 e0 3e f5 35 86 3e
       -0.09948419 -0.13735011 0.43793952 0.2621304
000290 72 88 29 3e 2e 7d ad 3e 98 57 86 3d 30 4c 42 3e
       0.16555956 0.33884567 0.06559676 0.18974376
0002a0 49 67 14 3e a9 a8 9c 3e ca 4b 8b 3e 5a 69 7b 3e
       0.14492525 0.30597427 0.2720626 0.24551907
0002b0 dc 61 bb 3e 20 cc c8 3e ab b3 bd 3e 0b b9 47 3e
       0.36598098 0.39218235 0.37051138 0.19504182
0002c0 e8 e5 53 3e 0a db 69 3e d0 0f 62 3d 72 1a c4 3e
       0.20693171 0.22837463 0.05519086 0.38301426
0002d0 d0 83 0e 3f 31 6e 81 3e a9 c3 9f 3e 8e 01 35 3e
       0.5566988 0.25279382 0.31203964 0.17676374
0002e0 41 98 f9 3e 02 1c b7 3e 42 e5 d7 3e 91 38 5e 3e
       0.48748973 0.35763556 0.42167097 0.21701266
0002f0 da 9a c7 3d 45 61 5e be 6e 2c 7c 3c 44 6c db 3c
       0.097463325 -0.21716793 0.015391452 0.026785024
000300 e6 40 e6 bb 2c d9 5c 3e 23 6e f9 3d 7a 16 0f 3e
       -0.0070267795 0.2156722 0.1217921 0.13973418
000310 b0 e7 e8 3d b6 a7 17 3e f8 09 b4 3e 0a c9 01 bd
       0.11372316 0.1481007 0.35163856 -0.031685866
000320 17 bd 0d 3e ca 14 ee 3c 18 3f 13 3e 8a 2f 3c bd
       0.13841663 0.029062647 0.14379537 -0.045943774
000330 10 21 ac 3d 57 a6 60 3d c0 79 19 3e ea a7 ba 3d
       0.08404744 0.054846134 0.1498785 0.09114058
000340 77 32 8a 3e aa 19 b0 3d 3d 95 84 3d 9d 99 a4 bd
       0.26991627 0.08598645 0.064737774 -0.08037112
000350 39 52 16 3e b5 1e 74 bc 2c c1 52 3e bb 26 62 3e
       0.14679803 -0.014899899 0.20581502 0.22085087
000360 b6 40 ac bc 0c ca 6d be 86 0b e3 bb b5 55 39 be
       -0.02102695 -0.23221606 -0.006928864 -0.18099101
000370 e1 67 0e be fa bb 23 bb f1 55 5b bc 4a e9 23 3d
       -0.13906814 -0.002498387 -0.013387189 0.040017404
000380 0a 87 85 3d bf 73 21 bd 06 6b 99 3d 69 ac d0 bd
       0.06519897 -0.039417025 0.07491116 -0.10189135
000390 94 b6 0e be 8e 15 cd bd 5c 3f 54 be 7e 1a 44 be
       -0.13936836 -0.10013877 -0.20727295 -0.19150731
0003a0 86 05 c8 be 14 80 14 bd d6 91 1a be 1d 55 47 be
       -0.39066714 -0.036254957 -0.15094694 -0.19466062
0003b0 b7 fa 35 be f9 f1 8a be 04 db e5 bd 3b b9 6f bd
       -0.17771421 -0.27137735 -0.112234145 -0.05852626
0003c0 d4 bc dd bd 8a 5e f4 3c ed 5b b8 bc f8 3b 62 be
       -0.10827032 0.029830236 -0.022504771 -0.22093189
0003d0 1b 38 da bd 05 4c 39 be c1 b5 b6 bd ad 15 5f bd
       -0.106552325 -0.18095405 -0.089213856 -0.05446403
0003e0 40 81 55 be 26 52 74 3d f8 a1 4c 3e 37 82 70 be
       -0.20850086 0.059648655 0.19983661 -0.23487173
0003f0 eb 86 ca bd 4c 9b 94 be a0 4e de bd fe 3a 3a bd
       -0.09889015 -0.29024732 -0.1085484 -0.045466416

initial.0.bias f4 [20]
000000 05 cf f4 bc c5 8e d3 3d 3c 21 b8 3d ef cb 58 3c
       -0.02988387 0.103299655 0.08990714 0.013232215
000010 d4 38 30 3e 8f 61 c6 bd 33 d9 35 be 9e 2f 43 3e
       0.17209178 -0.096865766 -0.17758636 0.19061133
000020 56 22 3a 3e 0e 1b c7 3d e2 23 2d 3e 62 27 20 be
       0.1817716 0.09721957 0.1690822 -0.15640023
000030 a2 c8 13 3d b4 22 af 3d 99 b6 47 bc 7f d5 d3 bb
       0.03608001 0.08551541 -0.012189531 -0.0064646597
000040 b4 34 39 3e ea b3 92 3d 31 b0 78 3c 0c 53 25 be
       0.18086511 0.07163222 0.015178726 -0.16144961

initial.1.weight f4 [20]
000000 d8 68 92 3f 4b 8d 46 3f 24 b3 77 3f 93 7b 2f 3f
       1.1438246 0.77559346 0.9675772 0.68547934
000010 16 fc 6f 3f 88 f2 8b 3f e6 ea 7b 3f 27 92 8b 3f
       0.9374403 1.093339 0.984053 1.0903977
000020 2b d6 71 3f e2 fc 82 3f e7 6c 68 3f cf 53 87 3f
       0.9446742 1.0233424 0.9079117 1.0572451
000030 75 d5 45 3f e1 66 94 3f 5f 36 9a 3f 10 47 78 3f
       0.77278835 1.1593896 1.2047843 0.9698343
000040 e1 4b 87 3f b4 81 84 3f 1b c5 70 3f 35 ed 9a 3f
       1.0570031 1.0352082 0.9405076 1.210364

initial.1.bias f4 [20]
000000 ce 7f 1b 3e aa 8c 89 be d2 e4 0f 3d 23 1a b7 bc
       0.15185472 -0.2686513 0.03513033 -0.02235133
000010 a2 10 91 3d a7 c9 36 bc 84 c3 5a 3c 82 c3 0d 3e
       0.070832506 -0.011156476 0.013352279 0.13844112
000020 36 b5 e1 3c 60 cb f3 3d bd f3 15 be ac eb 9a be
       0.027552228 0.11904025 -0.1464376 -0.30257928
000030 c0 9a ef 3d 7b 85 01 bd 25 06 8d bd 3e 1e 0e 3d
       0.11699438 -0.031621438 -0.068859376 0.03469681
000040 2e 2e 6e 3d d8 df 0b be 2d 90 96 3d b7 65 4a 3e
       0.05814951 -0.13659608 0.07351718 0.19765364

initial.1.running_mean f4 [20]
000000 16 38 60 40 da 6c 4d c0 80 e7 a7 be 7e 6a 5d c0
       3.5034232 -3.2097688 -0.32793808 -3.4596248
000010 39 b2 1b 3f 9e 05 f6 be ff 8a ce 3f 13 41 37 3f
       0.6081882 -0.4805116 1.6136168 0.7158367
000020 9d b8 f8 be 2a 25 27 bf c3 fe 01 bf d0 28 13 bf
       -0.4857835 -0.6529108 -0.5077936 -0.5748415
000030 d5 a4 27 bf 3b 89 0b bf 75 22 f3 be f6 a9 6f 3f
       -0.6548589 -0.5450627 -0.47487226 0.93618715
000040 0b a8 db be a8 8c 52 be 11 6f 14 3f 98 0e 4b 3e
       -0.42901644 -0.20561469 0.57981974 0.19829786

initial.1.running_var f4 [20]
000000 55 26 5a 40 a2 55 65 40 75 17 dc 3e 64 3a 65 40
       3.4085896 3.5833516 0.42986646 3.581689
000010 e3 57 e1 3e 9c e0 d9 3e fe 24 8e 3f 7e 66 f0 3e
       0.44012365 0.42554176 1.1105039 0.46953195
000020 ed 57 f3 3e 1d 97 01 3f 1b ef ef 3e 3d 43 df 3e
       0.4752802 0.50621206 0.4686211 0.43605986
000030 98 65 f8 3e 80 1c fa 3e 0e 34 e0 3e 6e d3 19 3f
       0.4851501 0.4884987 0.43789715 0.6008824
000040 5c 0a e5 3e 79 0c cd 3e fb da eb 3e c1 92 cf 3e
       0.44734466 0.40048578 0.46065506 0.40541652

final.0.weight f4 [20, 20, 1, 1]
000000 de 0e c3 3c ec 6a 57 be 56 c6 b1 be a6 77 0d be
       0.0238108 -0.21036881 -0.3472163 -0.13815174
000010 41 b7 11 bf d2 39 10 bf 69 fd 2c 3f 90 b1 22 3c
       -0.5692025 -0.56338227 0.67574173 0.0099300295
000020 af 5a 17 be 14 e4 98 3e ae 65 bf be 60 e0 ef be
       -0.14780687 0.2986151 -0.37382263 -0.46850872
000030 e9 59 f5 bc cd 16 48 be e1 31 a9 bd 8e 6d 54 be
       -0.029950099 -0.19539948 -0.08261467 -0.20744917
000040 02 e5 22 bf e0 74 31 be ec c5 2a 3e e9 c1 9a 3e
       -0.6363069 -0.1732974 0.16677064 0.30226067
000050 43 ed c6 3e 32 a1 de bd 66 44 a0 bc 34 08 f3 be
       0.3885289 -0.10870589 -0.019563865 -0.47467196
000060 97 41 28 3f c3 29 ad 3e 31 10 38 3e da 2e 76 3e
       0.6572508 0.33820924 0.17974927 0.2404131
000070 21 f4 36 be 66 6f 85 3d 6f a8 83 bd 6c c8 2c 3f
       -0.17866565 0.06515388 -0.064286105 0.6749332
000080 0e e2 07 bf c1 ee b2 3e 7b 68 84 3e ea be 21 3e
       -0.5307931 0.3494778 0.25860962 0.15795484
000090 cc af 56 be fc 16 08 be 11 89 22 3f a2 f8 0c 3f
       -0.20965499 -0.13290018 0.63490397 0.55066884
0000a0 75 47 9d 3e d5 84 49 3e 7a b6 26 be b6 fa 4e bf
       0.3071858 0.19679578 -0.16280547 -0.80851305
0000b0 d6 bc 8a be 7b e3 55 3e b4 c7 32 3d 83 7f 60 3e
       -0.27097195 0.20887558 0.043647483 0.21923642
0000c0 d9 f0 b0 be 4c 04 41 be 17 89 10 3f 32 c8 80 3e
       -0.34558752 -0.18849295 0.5645918 0.25152737
0000d0 aa b2 a4 3d 56 b1 8d be 36 75 52 be b7 a4 84 3e
       0.0804189 -0.2767436 -0.20552525 0.25906917
0000e0 5d b1 e4 be 80 0f de bd 34 77 43 3e 67 30 8c 3e
       -0.44666567 -0.108428 0.19088441 0.27380678
0000f0 3e a3 c8 3e 5e 08 02 3c 61 fd af 3e 76 ec 8c bd
       0.39187044 0.007936565 0.34373 -0.06881039
000100 23 ee d8 be 13 31 15 3e 9b 70 35 3e 55 07 aa 3e
       -0.42369184 0.14569502 0.17718737 0.3320872
000110 b3 26 5c be bd e4 ee 3c e4 b0 8e 3e 27 26 54 bd
       -0.21499138 0.029161805 0.27869332 -0.051794197
000120 26 e1 7b bd 27 e9 cb be 7f ca bc 3c 40 cf d6 bd
       -0.061494015 -0.3982632 0.023045776 -0.104887486
000130 30 8b 00 bd 65 e8 91 be 89 49 d1 3e 57 e6 fb 3d
       -0.03138274 -0.28497615 0.40876415 0.12299793
000140 de af 0d 3d c3 d0 6c be 9a 53 eb be d5 6a 27 be
       0.03459155 -0.23126511 -0.4596222 -0.16349347
000150 97 f6 61 3e 30 0e 8b be f0 a4 47 3e a8 b7 11 bb
       0.22066723 -0.27159262 0.19496512 -0.0022234712
000160 9c 15 0b be 45 44 8b bd b7 a7 b1 be 0f 25 cd be
       -0.13582462 -0.06800131 -0.3469827 -0.40067336
000170 bf e0 27 3d 5c 67 d8 be d8 d8 fb be 75 57 9e 3c
       0.04098582 -0.42266357 -0.49188876 0.019328812
000180 d7 4a 31 bf c2 7f 73 be 0c 3c 58 be ff 1d b5 3e
       -0.6925482 -0.23779204 -0.21116656 0.35374448
000190 27 11 a2 3e 09 b3 3a 3f 1b e7 07 3e b2 d5 21 3e
       0.3165371 0.72929436 0.13271753 0.15804175
0001a0 44 18 3e 3e 18 aa 1e be 27 21 19 bf 4d 02 a6 3e
       0.18563944 -0.15494573 -0.5981621 0.3242363
0001b0 b0 09 e8 3e 81 d8 ce be 9a 77 3b bd b6 8d 0d bf
       0.4531989 -0.40399554 -0.045768358 -0.5529436
0001c0 1e 06 03 3f ee d7 26 3d d3 da 87 be 75 5a e9 3e
       0.5118121 0.04073327 -0.26534137 0.45576826
0001d0 02 b3 66 bd 0c f7 a5 3e fc 00 67 3d 5c a1 b3 3e
       -0.05632306 0.32415044 0.056397423 0.35084045
0001e0 44 50 9f 3e 6f b7 d4 3d 8c 96 53 bf 35 1d c3 3d
       0.31115925 0.1038655 -0.8265159 0.09527055
0001f0 44 c6 ba 3e bc 4d 16 3c d2 8a b2 3d 22 25 52 3e
       0.3647939 0.009173807 0.08717884 0.20521978
000200 c8 7e 06 3d 52 ff b9 be 8c 3f cb 3c 9f 19 cf 3e
       0.03283575 -0.36327606 0.024810575 0.40449235
000210 1f 3f 3e 3e 68 34 ce be 7f 85 b0 be ee b4 9b 3d
       0.18578766 -0.40274358 -0.3447685 0.07602869
000220 d2 c3 e8 3e 40 bb 89 be d5 f9 88 be 33 44 2d 3e
       0.454619 -0.26900673 -0.26753107 0.16920547
000230 15 2e 34 bf 74 8f fb 3d 6e 54 31 be f7 82 b2 3e
       -0.70382816 0.12283221 -0.17317364 0.34865543
000240 61 9d de be b2 45 c6 3c e0 91 ff bc 84 06 f6 3e
       -0.43479446 0.024203155 -0.031197488 0.48051846
000250 f1 8b b9 bd f4 7b 48 3e 8c 17 2e 3d d5 d5 a0 3e
       -0.09059895 0.19578534 0.042502925 0.3141314
000260 7a 6c 2d be 25 5c ae 3d 2a e3 62 be be f2 93 3d
       -0.16935912 0.08513669 -0.22156969 0.07224034
000270 a6 25 e4 bd 3b de 70 3d ef 6e fb be 70 d8 7a be
       -0.11139993 0.058805685 -0.49108073 -0.24496627
000280 94 ef 93 bd b3 ff 67 bd 2c 76 0b bd 23 44 8f be
       -0.0722343 -0.05664034 -0.034048244 -0.27981672
000290 e1 75 06 3f a1 86 9d bc 3f a1 d0 be 8c c7 b2 3e
       0.5252362 -0.019229235 -0.4074802 0.34917867
0002a0 75 c3 d5 3d c6 c7 3e 3d 02 62 bb be 4c 81 0b bf
       0.10437671 0.046577238 -0.36598212 -0.54494166
0002b0 2e 13 cb 3e 2a 7f bf bb 8a 39 e6 be 44 34 91 3b
       0.3966307 -0.0058440166 -0.44965774 0.0044312794
0002c0 ce 7e a6 3e 6c fd fd bc c1 53 8e bd 64 1b 88 3e
       0.3251862 -0.03100463 -0.069495685 0.26583397
0002d0 ab 7f 37 be 3c 43 15 bf 3e d6 26 3e d3 7f f0 bd
       -0.17919795 -0.58305717 0.16292664 -0.117431305
0002e0 2f 7e 9f be 01 96 4e 3e 5a 8f 81 be 5c bb 14 3e
       -0.31150958 0.2017441 -0.2530468 0.14524597
0002f0 6c 86 0f be f4 b7 ef bd cd 2e 62 3e 1b 46 66 3e
       -0.14016122 -0.11705008 0.22088166 0.2248768
000300 35 e2 4f 3e 6e 7d 07 be b9 0a 91 be a9 97 19 be
       0.20301135 -0.13231441 -0.28328493 -0.1499926
000310 d0 e0 8d 3e 13 fd 62 bd ee 44 12 bf c1 92 56 be
       0.2771058 -0.05541713 -0.5713643 -0.2095442
000320 64 79 83 bd f9 9b 50 3e 18 12 2d 3f 18 de ca bd
       -0.06419638 0.20371999 0.67605734 -0.09905642
000330 9b b9 c3 3e c6 10 f7 be 6f e1 87 3c c5 f5 16 3e
       0.38227543 -0.48254985 0.016586987 0.14742191
000340 aa a8 bd be 9c f5 e1 be db 82 dc 3e 9e dc 77 be
       -0.37042743 -0.44132698 0.43068585 -0.24205253
000350 a5 88 ee 3c ee c3 ae bd df 13 d3 bd 69 64 19 3e
       0.029117892 -0.08533464 -0.103065245 0.1497971
000360 15 24 c4 be f2 9b fa be 37 ee 03 bf 8e e5 34 3e
       -0.38308778 -0.48947102 -0.5153536 0.17665693
000370 91 4b 39 3d 41 2d c3 3d ec 77 80 bd 75 df 9e 3e
       0.04523808 0.09530116 -0.06272873 0.3102986
000380 0f ce b1 be 07 c5 6c be 65 ac bc 3e 32 5c 18 3f
       -0.34727523 -0.23122035 0.36850277 0.5951568
000390 a6 99 27 be 8e 47 24 bf ff 1d f6 bd 77 a7 6c bf
       -0.16367206 -0.64171684 -0.1201744 -0.9244303
0003a0 9e c5 1a bd 64 fe 35 be 39 a1 1d bf 14 6a 8c bd
       -0.03778612 -0.17772824 -0.6157413 -0.0685617
0003b0 54 b6 88 3d c6 28 35 be 52 c2 c9 be 80 e6 6b bd
       0.06675401 -0.17691335 -0.39406067 -0.05759287
0003c0 48 2d 5c 3b fc 93 2f be 8f a8 ef be 9e c8 21 3d
       0.0033596326 -0.17146295 -0.46808288 0.039497964
0003d0 9a 20 49 be d4 b2 98 bd a4 bc 08 3d 30 d3 bb 3e
       -0.19641343 -0.07455984 0.033383027 0.3668456
0003e0 37 c4 f5 be a0 a2 f4 bd 38 17 14 be 2b 44 c7 3e
       -0.48001263 -0.11945081 -0.14461982 0.38919196
0003f0 d3 9b a1 be 2b 76 38 bd c6 c4 11 bf 2c e5 b5 be
       -0.31564197 -0.04503457 -0.5694088 -0.35526407

final.0.bias f4 [20]
000000 3c b3 d0 bd af 55 38 3e e8 04 b2 bd 5e 24 42 3e
       -0.10190436 0.18001436 -0.08692342 0.18959185
000010 07 bb f5 3d 53 ac 23 be 32 82 a5 3c ec b1 89 3d
       0.11998563 -0.15983705 0.020203684 0.06723389
000020 06 90 b9 bd 2a 73 5f 3e c6 05 84 3c e7 f5 7c bc
       -0.090606734 0.21821275 0.016116034 -0.015439487
000030 7a 80 ec bd 9c be 5c bd 0f 4b 87 3d 48 b3 16 3e
       -0.115479425 -0.053892717 0.06606113 0.14716828
000040 33 ee 8d bd 78 de e0 bd ab 10 02 3e f3 86 41 bd
       -0.069301985 -0.109799325 0.12701671 -0.04724784

final.1.weight f4 [20]
000000 e8 fa 81 3f c3 fb 99 40 94 5a 54 3f 3d ac 23 3f
       1.0154696 4.8119826 0.8295071 0.6393469
000010 41 8b a0 3f 0c f9 07 3f 33 b4 e5 3f a4 d8 0f 3f
       1.2542497 0.5311439 1.7945617 0.5618994
000020 64 8c 2d 3f 57 3a 50 3f fe 56 1e 3f ee 6f 5a 3f
       0.67792344 0.8133902 0.6185149 0.8532704
000030 87 58 2b 3f 2c 5e 74 40 2d f2 29 40 67 bb 33 3f
       0.66931957 3.8182478 2.6554062 0.7020783
000040 59 94 50 3f 09 0a 1a 3f c4 65 37 3f aa fe 2a 3f
       0.8147636 0.6017156 0.7163966 0.66794837

final.1.bias f4 [20]
000000 cf fa 3f be f5 c0 3a 40 0f 6f 9d be a8 d3 bf be
       -0.1874802 2.9180272 -0.30748793 -0.37466168
000010 dc 0f af 3d 06 3d de be 19 0a dc 3e c8 16 01 bf
       0.08547947 -0.43405932 0.42976454 -0.50425386
000020 e1 3e a9 be 4c 36 7b be 7d d9 d9 be 69 e1 87 be
       -0.33055785 -0.24532431 -0.42548743 -0.26539162
000030 f1 6f e4 be ce 52 39 40 4f c7 64 3f f4 f9 d8 be
       -0.44616655 2.895679 0.8936662 -0.423782
000040 68 31 a5 be 03 77 d0 be 5f cc c9 be 06 50 da be
       -0.32264256 -0.407158 -0.39413735 -0.42639178

final.1.running_mean f4 [20]
000000 67 b0 fb be 22 94 13 3f c6 54 23 be 62 36 96 3e
       -0.49158022 0.5764791 -0.15950307 0.29338366
000010 ed 77 e2 be 0f 1c 88 3e 22 ae 6d 3e e6 53 75 be
       -0.4423212 0.26583907 0.23210958 -0.23957786
000020 db 3a e8 bc 3b 2f 26 be 59 44 6e be d9 d5 fb be
       -0.028348377 -0.16228954 -0.2326826 -0.4918659
000030 8c 1b 1e bf 8a 63 60 bf 60 94 9b 3f 0f fe ab 3c
       -0.61760783 -0.87651885 1.2154655 0.020995168
000040 4c f8 8a bd 5e 5e 25 be 05 2a 07 3e 2e f5 0d bf
       -0.0678564 -0.1614928 0.13199623 -0.5545224

final.1.running_var f4 [20]
000000 de 13 b4 3f 84 a9 da 3f 75 9d 3c 3f e5 72 27 3f
       1.4068563 1.7082982 0.7367776 0.6540969
000010 9f 99 db 3f 45 70 04 3f bb 23 2f 3f b9 04 3f 3f
       1.7156256 0.5173381 0.68413895 0.7461658
000020 0d 48 45 3f 95 e5 8d 3f a2 ee 50 3f 54 53 7b 3f
       0.77063066 1.1085688 0.81614125 0.98174024
000030 60 15 77 3f a7 07 a5 3f 40 6c e2 3f 20 99 26 3f
       0.9651699 1.289296 1.7689285 0.650774
000040 ec b6 24 3f 6a c5 55 3f 0f 19 05 3f 04 01 ae 3f
       0.64341617 0.83504355 0.5199136 1.359406
