消融实验/model_weights_4.pth (torch, 83009 bytes, 24 tensors)

initial.0.weight f4 [30, 3, 3, 3]
000000 f8 d4 a6 3d 62 b3 e6 bc 59 59 9a 3d ea 6f 43 3d
       0.08146089 -0.028161708 0.07536573 0.04771415
000010 ec 22 5f 3e 81 c4 a2 ba 50 4b 0f bd 41 4c c9 bd
       0.21790665 -0.0012418182 -0.034983933 -0.098289974
000020 0e 0b e4 3c 0a 0a c2 3c 3b cc a5 3e 38 aa d5 3d
       0.027837303 0.023686428 0.32382378 0.10432857
000030 2c 9e 48 bd 14 1a 0b be 92 5e d3 bc 42 95 00 3e
       -0.04897897 -0.13584167 -0.02580193 0.12556937
000040 56 42 91 3d 85 bf 0f 3d ad 68 46 3e 16 bc cb 3d
       0.07092731 0.035094757 0.19375868 0.09947984
000050 ff ae 56 bc af d0 6d 3d 02 88 90 3d 12 b9 f6 3d
       -0.013103246 0.058060344 0.070571914 0.12047018
000060 a3 51 15 3e 7d 78 87 3d d4 92 a1 3d 81 88 a3 3e
       0.14581923 0.06614778 0.07889333 0.31940082
000070 a2 5d 69 bc 87 db 72 3d e6 7b 39 3d 12 11 13 3d
       -0.014243515 0.05929139 0.045284174 0.03590495
000080 77 eb f8 bc 67 52 7e 3d c1 88 d3 bc 56 20 dc bc
       -0.030385716 0.062090304 -0.025822045 -0.026870888
000090 cb 99 dc 3d c0 a9 d3 3d a2 f4 13 3e 6b d0 c9 3d
       0.10771521 0.103351116 0.14448789 0.09854206
0000a0 5c ae d6 bc ed 8a fd 3d f7 c3 83 3d 18 d8 ab 3d
       -0.026206188 0.123800136 0.06433862 0.08390826
0000b0 3c 80 ed bc 9a 7e 93 3d a7 18 d3 3d 13 1e 2e 3e
       -0.028991811 0.07201882 0.103074364 0.1700366
0000c0 08 62 49 bd a1 c6 7f 3d 1b 71 9f bc 5a cf 2d 3d
       -0.049165756 0.062445287 -0.019463113 0.042434074
0000d0 5c fe f1 3c 85 49 61 3d 3b 63 cb 3c 22 14 07 3c
       0.029540233 0.055001754 0.02482759 0.008244546
0000e0 56 7b ce 3c 1e 4a 72 bd 8c 97 f8 bc 66 f9 05 be
       0.025205296 -0.059152715 -0.0303457 -0.13083419
0000f0 48 18 d1 bd 33 6b cc bd f3 a8 f9 bd 26 9b 7d 3d
       -0.102097094 -0.09981384 -0.12190428 0.06191554
000100 70 a8 87 bd 04 7a 0e 3e 15 32 16 3d 56 44 a8 3c
       -0.06623924 0.13913733 0.036668856 0.020540398
000110 7e ed 01 be 91 31 23 bd e4 13 48 be ae 16 04 be
       -0.12688252 -0.039842192 -0.19538838 -0.12899277
000120 35 76 d2 3b 6b 1c 3d 3d 2e b4 6d 3d 2c 0d f1 bd
       0.006422783 0.04616968 0.05803316 -0.117700905
000130 89 48 f8 bd be 44 60 bd 1e 8e 23 be 37 3e 14 be
       -0.1212321 -0.054753058 -0.15972182 -0.14476858
000140 71 4f 78 bd 10 13 02 3e 11 0d cc 3c 4a b9 99 bc
       -0.060622636 0.12702584 0.024908574 -0.01876511
000150 f9 36 c4 bd 59 ad 93 bd 18 40 24 bd ab 6d 2c 3d
       -0.09580798 -0.07210798 -0.040100187 0.042096775
000160 38 98 cd bd ca f3 00 be a1 17 25 be 8b c4 a7 bd
       -0.10038799 -0.12592998 -0.16122295 -0.081917845
000170 42 e0 f1 bc f7 78 0b be 63 5a c0 bd d4 6d d5 bd
       -0.02952588 -0.13620363 -0.0939224 -0.10421339
000180 17 68 44 be f8 81 eb bb e8 ae 12 be b5 da 9e bd
       -0.19180332 -0.0071871243 -0.14324534 -0.07756559
000190 41 cc a3 bc 5d ac 29 bd 43 9f 08 3d 64 82 be 3c
       -0.019994857 -0.041424144 0.03335501 0.023255534
0001a0 28 80 7a 3a 73 23 21 be 5e e2 5f be 39 be 20 bd
       0.000955584 -0.15736179 -0.21863696 -0.03924391
0001b0 e5 5c 2c be e3 26 c3 bd 0a b9 7d be 81 83 34 be
       -0.16832311 -0.095289014 -0.24777618 -0.1762829
0001c0 70 b3 7c bd e4 d1 93 bb 56 9e 40 bc f4 4a 0b 3e
       -0.061694562 -0.004511105 -0.0117565 0.13602811
0001d0 08 aa b4 3d 6f 28 c8 bd 93 4d c0 be 6f 1b 4f be
       0.088214934 -0.09773337 -0.37559184 -0.20225309
0001e0 66 ae 8f bc dc b1 b8 bc f2 44 59 be 1c ff 60 3c
       -0.017539214 -0.022545747 -0.21217707 0.013732698
0001f0 b2 97 8d bd 66 76 80 bb db fe 1b be f8 4c 33 be
       -0.06913699 -0.003920364 -0.15233938 -0.1750983
000200 e1 01 5f be f4 38 ae bd f0 fb 4b bd f3 e8 cc bd
       -0.2177806 -0.08506957 -0.049800813 -0.10005369
000210 9a 59 34 3d d6 dc 81 bd b2 8f 8e bd 1b 1a 8e 3e
       0.044030763 -0.06340949 -0.069610015 0.27754292
000220 5d 82 b3 3e ff c6 6e 3e 18 1f 66 3e 25 84 d3 3e
       0.35060397 0.23318098 0.22472799 0.41311756
000230 f6 bc 96 3e 53 66 45 3e 6c ea 83 3e d0 24 89 3e
       0.2944104 0.19277315 0.25764787 0.26785898
000240 d9 d0 22 3e 1e a4 9a 3e fa ad 9b 3e 80 3b 7e 3e
       0.15899982 0.30203336 0.3040617 0.24827385
000250 05 f9 8e 3e a0 1a 81 3e 2b d9 9b 3e b3 b0 a1 3e
       0.27924362 0.25215626 0.30439124 0.31580123
000260 b5 19 90 3e 1f 08 ac 3e 8a 35 a5 3e 49 1d 8f 3e
       0.28144613 0.33599946 0.3226741 0.2795203
000270 ad b1 b1 3e 2e 19 31 3e 35 84 c9 3e bf 27 d2 3e
       0.34705868 0.17294762 0.39358678 0.4104595
000280 c4 61 c3 3e bd 24 ce 3e e1 7c 80 3e 7c a8 61 3e
       0.38160527 0.40262404 0.25095275 0.22036928
000290 7d 10 a2 3e 3a a8 c1 3e 05 bb df 3e db cc ca 3e
       0.31653205 0.3782366 0.43697372 0.39609417
0002a0 66 f2 8a 3e 05 76 c2 3e 2b 9c ac 3e 96 1b ab 3e
       0.2713806 0.37980667 0.33712897 0.33419484
0002b0 11 15 e3 3e 7e 43 de 3e b6 21 5b 3e 5c bb c2 3e
       0.4435201 0.43410867 0.21399578 0.3803357
0002c0 f7 71 b7 3e f0 98 c5 3e c5 09 96 3e df 79 cb 3e
       0.35829136 0.38593245 0.2930433 0.39741418
0002d0 3d 93 af 3e 71 fa bb 3e 71 1f 93 3e a0 e9 af 3e
       0.3429202 0.3671451 0.28734925 0.3435793
0002e0 53 a6 97 3e 9a ff 91 3e 60 59 9b 3e 5b 0a a6 3e
       0.29619083 0.2851532 0.30341625 0.32429776
0002f0 7b e5 c8 3e ab db bd 3d 11 54 0e 3e cd 3b c3 3d
       0.3923758 0.09270414 0.13899256 0.095328905
000300 87 ca df 3d ff 30 26 3d aa 13 60 3e 31 40 f9 3d
       0.10927301 0.04057407 0.21882501 0.12170447
000310 27 ff 1f 3e 0f 0a 3e 3e 94 5b e1 bc a9 6d 28 3d
       0.15624677 0.18558525 -0.027509488 0.041120205
000320 ee 10 6f 3d 96 e5 68 3e 41 19 da 3d 0e a5 de 3c
       0.058365755 0.2274383 0.10649348 0.027178314
000330 d3 53 8f 3e 5f 75 5b 3d d4 00 e8 3d 84 d0 01 3e
       0.2799364 0.05357873 0.11328283 0.12677199
000340 bc 9c 8c bd ba 2b 28 3d 1f c8 0b 3e 10 e0 cd 3d
       -0.06865832 0.041057326 0.13650559 0.10052502
000350 a3 95 36 3e 0c 6c 8b 3e 5a db 91 3e a5 a7 48 3e
       0.1783052 0.2723087 0.28487664 0.19595201
000360 f1 87 8b 3c 39 1f de bd 7a a0 ba bd 86 5e c9 3c
       0.017032595 -0.10845799 -0.0911264 0.024581205
000370 d4 66 f1 3c 8f 13 14 be 92 7e 18 be c3 07 71 bd
       0.029467978 -0.14460586 -0.14892033 -0.058845293
000380 fb f2 04 be b5 d5 a2 bd 63 78 1c be ea 67 d0 bd
       -0.12983315 -0.07950918 -0.15280299 -0.1017607
000390 1f 81 a5 bd 53 f5 10 be 47 89 fd bd 2f 2c ad 3d
       -0.080812685 -0.14156084 -0.12379699 0.08455693
0003a0 a8 aa d5 bd 06 3b d1 bd 28 19 c9 bd 19 94 68 3d
       -0.10432941 -0.10216336 -0.09819251 0.056781862
0003b0 e3 2a ae bd 2e 13 0a 3e 35 00 14 3e 97 c2 8b bd
       -0.08504274 0.13483879 0.14453204 -0.068242244
0003c0 52 af 39 bd 0c 19 83 bd 19 30 17 bd f0 0a 96 3d
       -0.045333214 -0.06401262 -0.036911104 0.07326305
0003d0 43 fc ef 3d 7c dd 37 3e 1a b3 2c 3e 9a 25 36 3c
       0.11718037 0.17955583 0.16865197 0.011117363
0003e0 b9 be f6 3c 93 0a 11 3e 66 e2 6e 3e 52 ed 47 3b
       0.03012024 0.1416419 0.23328552 0.0030506444
0003f0 f7 a4 de 3d ed ce 5c 3d 5a dd 6b 3d 25 b3 19 3e
       0.10871308 0.053908277 0.057584144 0.15009744

initial.0.bias f4 [30]
000000 8d d5 a5 3d b5 6d 2b be ea 38 e4 3d c3 ad e7 bc
       0.08097372 -0.16741069 0.11143668 -0.028281098
000010 00 f4 17 3e 12 fc 17 3c a6 84 ec bd fe 8b 45 bd
       0.14839172 0.009276407 -0.11548738 -0.04822921
000020 f3 0e 3a be 32 5a cd bd 95 7b 7e 3b 65 1a 19 be
       -0.18169765 -0.10026969 0.0038830985 -0.14951475
000030 65 dd 1a 3e 88 b0 00 be f1 b9 c0 3d 6f 38 a3 bd
       0.15123518 -0.12567341 0.094104655 -0.07969748
000040 e9 b5 c8 3b 18 35 44 3e 21 7c 19 3e 80 22 de bd
       0.006125201 0.19160879 0.14988758 -0.10846424
000050 ec 88 5b 3d fc 27 08 be 2f 58 12 3d f3 5d 1c be
       0.053597376 -0.13296503 0.03572863 -0.15270214
000060 e8 93 9c 3d 4c c0 1b be c7 8d 86 3d cd 07 14 be
       0.076453984 -0.15210074 0.06570011 -0.14456101
000070 93 40 22 3e 8e c2 00 be
       0.15844946 -0.12574217

initial.1.weight f4 [30]
000000 9b b6 74 3f 3f c3 89 3f 7e ed 82 3f a4 12 75 3f
       0.95591134 1.0762709 1.0228727 0.9573157
000010 2e 14 7f 3f 40 65 98 3f 1f 56 6a 3f 3d 29 4f 3f
       0.99640167 1.1905899 0.9153766 0.809223
000020 b2 d0 7a 3f db 74 7a 3f 2d 20 83 3f 7a 84 84 3f
       0.97974694 0.9783456 1.0244194 1.0352929
000030 dd 77 72 3f 50 2f 81 3f ce b2 82 3f 49 41 81 3f
       0.94714147 1.0092564 1.0210817 1.0098048
000040 03 01 79 3f df ea 8b 3f 7c 6d 74 3f f2 18 82 3f
       0.9726717 1.0931052 0.9547956 1.0163863
000050 17 55 74 3f 4a 93 8a 3f dc eb 81 3f b1 ba 64 3f
       0.95442337 1.0826199 1.0150104 0.8934737
000060 c7 48 77 3f 74 7d 55 3f cb 71 66 3f 61 10 6c 3f
       0.96595424 0.8339455 0.90017384 0.9221249
000070 52 b2 79 3f 07 75 87 3f
       0.9753772 1.0582589

initial.1.bias f4 [30]
000000 b0 81 10 3d 40 81 63 3d 58 be e0 bd e6 32 9d bd
       0.03527993 0.055543184 -0.10973805 -0.07675724
000010 e2 46 85 bd fd 00 07 3e 6f 7c 19 3d e5 ca 14 bd
       -0.065076604 0.13183971 0.037472185 -0.036326308
000020 98 93 54 be 06 84 de 3d ac 66 f9 bd 08 cd 40 be
       -0.20759428 0.10865025 -0.12177786 -0.18828213
000030 17 70 4d 3d 88 60 9b bb 5f 02 9d 3d 60 10 21 bd
       0.050155725 -0.004741732 0.07666468 -0.039322257
000040 f2 08 6d bd c9 7a 5d 3e 0c 87 18 3c fb 63 31 3d
       -0.05786986 0.2162887 0.009309541 0.04330824
000050 c4 21 a0 bd d0 69 7f 3e 94 55 30 bd 35 3b 4c be
       -0.0781894 0.24942708 -0.043050364 -0.1994446
000060 7c 41 84 bd 9e e9 2b be fa 64 cd bc b0 96 df ba
       -0.06457803 -0.16788337 -0.025072563 -0.0017058458
000070 1b 1d 19 3c a9 ec 2f 3d
       0.009345318 0.042950306

initial.1.running_mean f4 [30]
000000 35 4f 16 3f e0 32 ec 3e 57 c9 b7 be 88 e7 0f bf
       0.5871461 0.46132565 -0.35895798 -0.56212664
000010 2a 19 32 bf ca d1 24 40 90 3b 36 40 22 ec 85 3f
       -0.6956965 2.5753045 2.8473854 1.0462687
000020 3c ee 1d bf b6 89 0b 3f cf 89 19 bf e4 6b 28 bf
       -0.6169164 0.54507005 -0.59975904 -0.6578963
000030 69 73 52 3f 07 cf 62 40 38 a7 65 bf 87 0d a1 c0
       0.8220735 3.543886 -0.8970828 -5.0329013
000040 e0 04 20 40 8c d8 24 3f 63 13 10 3f ba 01 f2 3e
       2.5002975 0.64392924 0.5627958 0.47266942
000050 45 78 02 3f 0e 45 72 bf dd a5 0e bf d5 1f ec 3e
       0.50964767 -0.9463662 -0.5572184 0.46118036
000060 c0 f0 00 3f 50 b3 6c bf 43 74 df 3e 0c 2d 25 bf
       0.50367355 -0.9246111 0.43643388 -0.6452186
000070 88 f8 89 bf 70 72 ba bf
       -1.0778971 -1.4566174

initial.1.running_var f4 [30]
000000 10 a0 9b 3e 8e e3 9f 3e 15 c7 93 3e e1 db 9c 3e
       0.30395555 0.31228298 0.28862825 0.30636504
000010 82 6f bf 3e 86 a3 be 3f 7c 35 ef 3f 19 2d f1 3e
       0.3738976 1.4893653 1.8688197 0.4710472
000020 13 7d 96 3e 9e 83 a7 3e e3 6d a3 3e 92 be 9e 3e
       0.293923 0.32717603 0.31919774 0.3100477
000030 53 f2 b2 3e 2d e9 2f 40 11 f7 de 3e dc 40 9d 40
       0.34950504 2.748607 0.43547872 4.9141674
000040 53 98 b6 3f e9 23 9a 3e a9 b3 93 3e 93 46 a1 3e
       1.4265236 0.30105522 0.28848007 0.31499156
000050 5d 32 95 3e 07 7b c5 3e 47 96 a3 3e 8e 1e a0 3e
       0.29139987 0.38570425 0.3195059 0.3127331
000060 f7 25 93 3e 43 11 c2 3e 41 2e 8f 3e e9 ac 9c 3e
       0.28739902 0.37903795 0.27964976 0.3060067
000070 73 73 08 3f f9 38 19 3f
       0.5330116 0.5985256

res_blocks.0.conv.0.weight f4 [30, 30, 3, 3]
000000 ed 3a 83 3d 1e 13 b0 bd d2 3b a7 3d 46 a0 34 bd
       0.064077236 -0.08597396 0.08165707 -0.04409816
000010 b7 85 9f 3d 61 8e 30 3d 11 f7 b1 bd 54 04 00 3d
       0.07789176 0.043104533 -0.08689702 0.031254128
000020 76 e4 ee 3d 23 1f a0 3c 2d 6d 5f bd 80 00 30 3d
       0.11664669 0.019546097 -0.054547478 0.042969227
000030 c1 3c 80 3c fe 4f 72 bd ac 87 18 be 2d fc 23 3e
       0.01565397 -0.059158318 -0.14895505 0.16014166
000040 ee 9a cd 3d b4 a3 f2 3d e8 15 ff 3d 6f 81 00 3e
       0.10039316 0.1184763 0.1245535 0.12549375
000050 f8 d8 84 3d be 86 82 bc 49 d8 83 bc ef 0f 08 bd
       0.06486696 -0.01593339 -0.016094344 -0.03321832
000060 39 cd 71 3d ee 10 07 3e 13 29 01 3e 08 5e 2e bd
       0.059033606 0.13190052 0.12613325 -0.042570144
000070 15 e6 0b 3e 46 21 42 3e 7a 3c f1 3d a1 e7 2b 3e
       0.13661988 0.18958005 0.11779113 0.16787578
000080 81 0a 95 3d 4f aa 92 3d 5a db 81 bd 63 08 9b bd
       0.07277394 0.0716139 -0.06340666 -0.07569959
000090 25 f3 8a 3d 89 ca 00 3e 40 1c 33 3e 8e a6 45 bd
       0.067846574 0.12577261 0.17491245 -0.048254542
0000a0 78 5c 30 3e c2 6d f0 3d ff d2 d7 3d 46 eb de bd
       0.17222774 0.11739685 0.10538291 -0.108847186
0000b0 03 b0 18 3e af a5 62 bd da 78 f7 3d 7d ec 1b 3e
       0.14910893 -0.05533379 0.120835975 0.15226932
0000c0 d8 5c 98 3d 35 e2 0b bb ce cd 06 be fe df bc 3d
       0.074395835 -0.0021344547 -0.13164446 0.092224106
0000d0 fa 41 db 3d 3d 62 1c 3e 57 7b 15 3d d6 ba ee 3b
       0.107059434 0.1527185 0.03649458 0.007285456
0000e0 79 95 f9 3d e6 ce a5 3a 6c b8 e7 3d d3 25 31 3d
       0.12186713 0.0012650162 0.113144726 0.043248963
0000f0 73 f8 c1 bb 0c 99 39 3d d3 95 9f bd b8 8a b4 bd
       -0.00591951 0.045311972 -0.077922486 -0.08815521
000100 d2 1c ce 3d f6 54 20 3e da bb a8 bd 61 75 83 3c
       0.10064091 0.1565741 -0.08238955 0.016047182
000110 86 29 1e be fa 1a 67 bd 35 3f e4 3b 12 90 e2 3c
       -0.15445527 -0.05642221 0.0069655427 0.027656589
000120 17 d2 f8 3d 7e 24 0f 3e 71 aa 2c 3e 39 f2 89 bd
       0.121494465 0.13978764 0.16861893 -0.067356534
000130 8e 73 e5 3d bc 5b b8 3d 37 4d dc 3d 8b 0f 0b 3e
       0.11203681 0.09001872 0.10756915 0.13580148
000140 53 25 b3 3c c6 43 a9 3c 0a 93 58 3d 8b 06 71 3d
       0.021868384 0.0206622 0.052874602 0.05884413
000150 57 a1 43 3d 13 88 ec 3d 06 ab 31 bd af 0f 7e 3d
       0.047761288 0.115493916 -0.04337599 0.062026676
000160 f9 61 0c bd ed db ad 3d e1 8b 2f 3d f3 bf 8d 3e
       -0.03427312 0.08489213 0.04285801 0.27685508
000170 a5 bd 83 3c 1d 2b 62 3c 30 5c 59 bd 4d 5d bf 3d
       0.01608164 0.013804224 -0.053066432 0.093439676
000180 69 03 e4 3d c0 1e 75 3e 42 90 03 3e e7 25 99 bc
       0.11133463 0.23937511 0.12847999 -0.018694831
000190 90 f0 cc 3c a9 7e 00 3e 8c cb ef 3c c4 da 62 bc
       0.025017053 0.12548317 0.029271863 -0.013846103
0001a0 29 ec 10 3d 74 d1 71 3d 45 28 d9 3c f2 b4 67 3e
       0.03538147 0.05903764 0.02650846 0.22627619
0001b0 5e 66 4b 3d 16 1b 3f 3d 38 1a 5b bd 64 95 d7 bd
       0.04965817 0.04665669 -0.0534918 -0.10526541
0001c0 b0 04 f1 bd f8 79 ff bc 8c 24 b6 bc 83 70 8e 3d
       -0.11768472 -0.031186089 -0.022234224 0.06955054
0001d0 b1 ad d7 3d ac 77 0d 3c 16 44 2d 3e 25 59 8c 3d
       0.10531176 0.008634489 0.16920504 0.068529405
0001e0 2f cd a7 3d 30 fb ee bc 75 1f fe bc 3a 0c cb bc
       0.081934325 -0.02917251 -0.03102086 -0.024786104
0001f0 46 de 09 bd 47 64 56 bd b8 8c 45 3d 5f f5 84 3d
       -0.033659242 -0.052341726 0.048229903 0.06492113
000200 7e 95 01 3e b6 0d 02 be ba 1a 3d be 0d 14 b9 3d
       0.12654683 -0.12700543 -0.18467227 0.090370275
000210 7a 80 ab 3c 66 82 2c 3d c9 81 0a 3d a6 e1 02 3e
       0.020935286 0.042116545 0.03381518 0.1278139
000220 04 63 c4 3d d1 15 a4 3c ba 6f db bd ff 4f 6c 3d
       0.09589198 0.020029934 -0.107146695 0.057693478
000230 6c 11 da 3d 7c e2 ce bd 49 3a 03 3d 4b 4c 11 3e
       0.10647854 -0.10101792 0.032038007 0.1418926
000240 3a b4 40 3d b0 d9 8d bd 24 7f c4 bd 00 d7 00 3e
       0.047046877 -0.06926286 -0.09594563 0.12582016
000250 b0 00 2c bd 3d 86 17 3d 0c 52 81 bb 61 98 31 bd
       -0.041992843 0.036993254 -0.0039465483 -0.04335821
000260 ac 45 e3 bc af c7 56 3e f9 1f 73 3d ab 82 c9 3d
       -0.027743183 0.20974611 0.059356663 0.09839376
000270 f9 16 bc 3c e4 cd b9 3d 90 bc 01 3e 79 8e 7f ba
       0.022960173 0.09072474 0.12669587 -0.0009748708
000280 ca 46 40 3d 9f 9e 15 3e cd d3 5d 3e 0c a8 a1 bc
       0.04694251 0.1461129 0.21662827 -0.019733451
000290 77 b4 55 3d f2 a1 16 3d b1 f2 7e bd e5 ef 7b bd
       0.052174058 0.036775537 -0.062243167 -0.061508078
0002a0 a5 5e 3d 3e f9 eb 0e 3d 71 61 36 3c db 42 ab 3c
       0.18493135 0.03489301 0.01113163 0.020905903
0002b0 1e 57 18 be d1 30 dd ba 8f 53 69 3d a3 f5 ec 3c
       -0.14876983 -0.001687551 0.056964453 0.028925722
0002c0 cb f1 ea 3b 38 bb f0 3d d7 66 da bd ad 4c 85 3d
       0.0071699372 0.11754459 -0.106641464 0.06508765
0002d0 15 2d dc 3d a8 5a 6d 3d e7 c4 4a bd 1e 1f 21 be
       0.10750786 0.057947785 -0.049504187 -0.15734527
0002e0 96 2b 31 3e f1 b7 5a 3d c4 e7 32 bd 95 69 99 bc
       0.17301783 0.053398076 -0.04367806 -0.018727103
0002f0 a6 2f 47 bd 0a 7d 8d 3c fe bb 01 3e f5 f5 cf bd
       -0.048629425 0.017271537 0.1266937 -0.101543345
000300 c7 fe ce 3d 30 47 a9 3d c4 7c 9d 3d b2 9a 7f 3c
       0.10107189 0.08265531 0.07689813 0.015600847
000310 97 8e 58 3d d5 40 e8 3d e5 fe b8 3b 88 3c ba 3d
       0.05287036 0.11340491 0.00564562 0.09093577
000320 57 f1 9d 3d d3 8d c3 3d e9 26 26 3e 50 7a 79 3e
       0.077120475 0.09548535 0.1622578 0.24363065
000330 b3 b2 41 bd b7 bc 8c 3d b0 ab fa b9 d8 7f 04 3e
       -0.04728956 0.06871932 -0.00047811633 0.12939394
000340 0a d7 00 3e 35 71 8e 3d a7 31 cf 3d 8c ca 44 3c
       0.12582031 0.06955186 0.10116892 0.012011182
000350 d1 ff f8 bd c8 a0 06 3d 7b 0a 0e 3e db 7a 26 be
       -0.12158168 0.032868177 0.13871185 -0.16257803
000360 d8 25 05 3e 82 7f 2a 3d af 9a 2c be e8 e2 82 3d
       0.13002717 0.041625507 -0.16855882 0.06390935
000370 fe 90 69 3d 65 f4 a1 bd 24 71 fe 3d c3 6a 50 bd
       0.05702304 -0.07907943 0.124239236 -0.050883066
000380 59 f5 ba 3d 14 e8 e9 3b 32 25 c7 3d 62 bb fe 3d
       0.091288276 0.0071382616 0.09723891 0.12438084
000390 82 6c 0a 3e 16 2a 04 3e fe 5c f2 3d 1d 75 2c 3e
       0.13517955 0.1290668 0.11834143 0.1684155
0003a0 61 7e 3c 3c da 8a b3 3d 4f 29 29 3e 85 6d 47 3d
       0.01150474 0.08766718 0.16519664 0.04868843
0003b0 5e 76 0f 3d 81 ca f2 bd b2 cb 48 3d fb e4 ab bd
       0.035024993 -0.11855031 0.049022384 -0.08393284
0003c0 86 06 01 bd 26 22 cb 3d 92 8a a3 3d 39 45 6b 3e
       -0.03150036 0.09918623 0.079854146 0.22975625
0003d0 41 f7 70 3d 24 4a 5a 3c 7b fe 5f bd 22 a6 62 3c
       0.05882955 0.013323341 -0.05468605 0.013833554
0003e0 12 0a e7 bd b3 ea 9a 3d cf 5a 06 3e ff a8 a7 3d
       -0.11281218 0.075642966 0.13120578 0.0818653
0003f0 b3 69 1f 3c 8d c1 27 3e e2 ab 26 bb d0 f1 9f 3c
       0.0097297905 0.16382428 -0.002543204 0.019524485

res_blocks.0.conv.0.bias f4 [30]
000000 1d d5 91 3c b9 ac 17 bd 49 69 3e bd d3 d0 36 bc
       0.017801816 -0.037029956 -0.046487126 -0.011158186
000010 f9 c9 d0 bc 8d 55 52 bc 89 1c f6 3a b3 ae 0a bd
       -0.025486933 -0.01283778 0.0018776815 -0.033858012
000020 49 a2 19 bd 83 e4 1e bd e3 d6 26 bd bb e9 35 3c
       -0.037508283 -0.038792145 -0.040732276 0.011103089
000030 c2 14 07 bc f3 be 68 bd a4 0d 4c bd 7a e5 73 3d
       -0.008244695 -0.05682273 -0.049817696 0.059545018
000040 1d 5a 6a bd e7 5f ff bb b8 fd 0b bd a4 eb aa 3c
       -0.057214845 -0.007793415 -0.034177512 0.020864315
000050 4d f2 1e 3d 39 12 ad ba 14 03 fb bc 45 37 2f 3a
       0.038805295 -0.0013204283 -0.030641116 0.0006683956
000060 9f 35 a9 bc 25 65 2b 3d ce 76 7a 3c 66 e6 49 3d
       -0.020655451 0.041844506 0.015287114 0.04929199
000070 4e 6b 47 bd 5c 01 d7 3b
       -0.048686318 0.0065614413

res_blocks.0.conv.1.weight f4 [30]
000000 72 cb 85 3f b0 fd 8a 3f 20 b8 9c 3f 61 38 8d 3f
       1.0452712 1.0858669 1.224369 1.103283
000010 95 d8 77 3f e9 e7 7d 3f 5e a8 5a 3f ab 5a 7d 3f
       0.9681485 0.9918199 0.8541316 0.98966473
000020 f2 42 9a 3f f1 2f 5d 3f 83 68 8a 3f 8e 7e 8e 3f
       1.205168 0.8640128 1.0813144 1.1132371
000030 f1 6e 82 3f f1 97 6c 3f f9 c9 77 3f b4 fd 6c 3f
       1.0190107 0.92419344 0.9679256 0.9257462
000040 f7 87 88 3f d5 29 71 3f 1f ed 97 3f 4c f5 6f 3f
       1.0666493 0.94204456 1.1869239 0.9373367
000050 89 99 5d 3f 40 17 52 3f 3f bd 79 3f 22 15 48 3f
       0.865624 0.82066727 0.9755439 0.78157246
000060 84 62 65 3f 32 3e 77 3f 9e 10 7f 3f 69 b2 7b 3f
       0.8960345 0.9657928 0.9963473 0.9831911
000070 8b 80 76 3f 3a 93 9e 3f
       0.9628989 1.238868

res_blocks.0.conv.1.bias f4 [30]
000000 cb 85 7c 3c a6 99 39 bd 5c 89 00 bc c9 4c ee 3d
       0.015412758 -0.045312546 -0.007845249 0.11635739
000010 d5 91 44 3c c3 b9 9b bd 84 44 2a be c2 af 99 bd
       0.01199766 -0.076037906 -0.16627699 -0.07504226
000020 51 7c 1e 3e 67 07 ba bd be 69 bd 3c 35 77 6a 3c
       0.1547711 -0.09083443 0.02312171 0.014310648
000030 59 67 86 3d 67 ca e5 bc 07 e6 bb bd ac ab 2b 3d
       0.06562681 -0.028050615 -0.091747336 0.041911766
000040 9a 18 9a 3e c1 9f 49 3d 73 d9 52 3c ef 21 60 bd
       0.30096895 0.04922462 0.012869227 -0.05471986
000050 75 fc b4 bd 40 2f 1e 3d 07 62 ac 3d 1e f6 f2 bd
       -0.08837215 0.03861928 0.08417135 -0.118633494
000060 a1 7e 90 bd b4 e5 6d 39 da 09 28 bd da bb 20 3c
       -0.070554025 0.00022687652 -0.04102502 0.009810412
000070 94 d0 3e 3d 4c 18 6d 3d
       0.046585634 0.0578845

res_blocks.0.conv.1.running_mean f4 [30]
000000 56 a6 ff 3f 19 87 33 c0 2c ee e0 3f 64 14 61 3f
       1.9972637 -2.8051207 1.7572684 0.8792174
000010 13 78 12 bf 4d 1b 25 40 45 4a 74 3f c6 28 81 3f
       -0.5721447 2.5797913 0.95425826 1.0090568
000020 55 72 4d be df 5d cf bf d4 6f 8d 3f 78 e5 86 3f
       -0.20063145 -1.6200522 1.1049752 1.0538778
000030 11 04 f2 bf 77 3b 48 3f 72 65 6b 3f 15 40 79 bf
       -1.8907491 0.78215736 0.9195167 -0.97363406
000040 ab 6d 18 c0 e7 f9 cc bf 65 b1 ee 3f 4f 80 f8 3d
       -2.3816936 -1.6013764 1.8647887 0.12133848
000050 7f 7a da bd 33 8d 29 bf 03 54 29 c0 dc 93 0f 3f
       -0.106678955 -0.6623108 -2.6457527 0.5608499
000060 a1 ab ca be ac 9b 83 bf b7 e7 31 3e c9 06 ce 3e
       -0.39584067 -1.0281882 0.17373548 0.40239552
000070 21 4b f7 be b5 3b e6 3f
       -0.48299506 1.7986971

res_blocks.0.conv.1.running_var f4 [30]
000000 d0 6e 57 40 fc 71 ac 40 e4 2b 30 41 9f b4 f7 3f
       3.3661385 5.388914 11.0107155 1.9351996
000010 36 23 5a 40 4c 50 84 42 ac b5 44 40 a7 54 cc 3f
       3.408399 66.15683 3.0735884 1.5963334
000020 ad 0f 38 42 62 c7 8d 41 2a 14 98 3f 4c 82 89 40
       46.01531 17.722355 1.1881154 4.2971554
000030 e0 c9 0d 40 1b ad 4c 40 0d 1a 1b 40 d4 75 19 42
       2.2154465 3.1980655 2.423465 38.365067
000040 55 02 99 40 fb f4 b9 41 e6 f4 e6 40 d4 32 89 41
       4.7815347 23.24462 7.217395 17.149818
000050 ca d5 6c 40 00 60 be 40 3a d9 b9 41 94 64 e7 41
       3.7005486 5.9492188 23.231068 28.92411
000060 d3 ca be 3f 0f e9 50 40 a2 78 29 41 53 f9 65 40
       1.4905647 3.2642248 10.591951 3.5933425
000070 19 cf 95 41 a9 4e 15 41
       18.726122 9.331704

res_blocks.0.conv.3.weight f4 [30, 30, 3, 3]
000000 0a 70 98 bd 79 d5 5f bd ca 4f 93 3d c1 50 ea bd
       -0.07443245 -0.054646943 0.07192953 -0.11441184
000010 26 fb 02 3d 08 f6 6e 3d ea 8d 39 be 1a b2 ef 3d
       0.031977795 0.058340102 -0.18120542 0.11703892
000020 9e 18 08 3c 81 ed 82 be 36 7e 3d bd 86 cf 1d bd
       0.00830665 -0.25571826 -0.046262942 -0.038527988
000030 d6 7a 8b bd 90 42 1f be c4 41 b6 bd 05 14 0a bd
       -0.068105385 -0.15552735 -0.088992625 -0.0337105
000040 42 d5 3b bd fc 87 76 bb 97 69 d0 bc 06 de 8f 3e
       -0.045857675 -0.0037617674 -0.025440974 0.28099078
000050 f8 7a c4 3d 85 9f 33 3e 5e d8 cb 3d 04 a9 31 3e
       0.09593767 0.1754132 0.09953378 0.1734963
000060 94 3b 6b 3e 70 ae c6 3b f2 04 27 3e fe 94 61 bd
       0.22971946 0.006063275 0.1631048 -0.05507373
000070 26 93 d9 3c e6 cf a6 bc 5e ac d5 3c f7 cb 10 be
       0.026559424 -0.020362806 0.026083168 -0.14140306
000080 40 0e cd bc 1a 2a 2c 3d 83 ae 18 3e c8 f7 1b 3c
       -0.025031209 0.04203234 0.14910321 0.009519525
000090 54 a3 00 bd 81 bc b7 bb b8 04 6a bc b1 c9 d5 bd
       -0.03140576 -0.005607188 -0.014283352 -0.1043886
0000a0 3b bb 0b be b2 f4 d7 bc ea 89 0e bd bd cd 01 be
       -0.13645642 -0.026361797 -0.034799494 -0.12676139
0000b0 c5 e8 f0 bd 96 49 30 3e 78 2d 1d 3e 99 a2 f1 3d
       -0.11763147 0.17215571 0.15349376 0.11798591
0000c0 e6 a8 6f 3e 16 9b 0a 3e fe c8 d9 3d 17 6d 71 3e
       0.23404273 0.13535723 0.10634039 0.2357677
0000d0 f6 66 09 3e e1 16 3c 3e 45 39 2d 3d cc ae db 3b
       0.13418183 0.18368103 0.042290945 0.006704187
0000e0 77 8a 03 3e 54 f8 60 3d a2 bd 21 3e a9 16 fd bc
       0.12845789 0.054924324 0.15794995 -0.030894594
0000f0 7e 6e a6 3c 31 db fd 3d 70 0f 16 3e dc 82 08 be
       0.020316359 0.12395323 0.14654326 -0.13331169
000100 19 f9 3f be bc 46 17 bd a2 e0 46 bd 49 69 d9 3d
       -0.18747367 -0.036932692 -0.04855407 0.10615785
000110 fc 35 9f 3d 6f 9f 3b be 37 69 ce bc d9 3d 7b bd
       0.077739686 -0.18322538 -0.025196655 -0.06133828
000120 e4 2a 2c be 90 a5 c5 bd 15 21 c3 bc 85 84 01 3d
       -0.16813236 -0.09650719 -0.023819486 0.03162052
000130 52 8a d1 bc 40 e5 14 3d 89 1e 25 be e1 90 8d 3c
       -0.025578652 0.036351442 -0.1612493 0.017280998
000140 9c 93 0e 3d a7 95 1e bd 5b 98 b2 3d 2a 74 be 3d
       0.03480874 -0.03871694 0.08720466 0.092995
000150 2f 6e 76 bc e1 b1 da 3d a9 e0 9d 3d 3b 82 74 bd
       -0.015040918 0.10678459 0.07708866 -0.05969451
000160 04 f3 d2 bc 10 7d 95 bd 1f 9b e7 3d 15 ee d0 bc
       -0.025750645 -0.072992444 0.11308884 -0.025504151
000170 fb 5b 9d bd ca 01 e5 3d 9c 59 2d 3e 23 e1 d6 3d
       -0.076835595 0.11181982 0.16928715 0.1049216
000180 cf 81 4f be 28 cd bf 3d 72 db 2b 3e e7 1c 6a 3e
       -0.20264362 0.09365302 0.1678293 0.22862588
000190 d8 46 be 3d b6 31 52 3d 3c a6 19 3e 0f 3d 3f 3e
       0.09290856 0.05131694 0.1500482 0.18675636
0001a0 98 de 41 3e c2 a7 4f bd e5 c4 2c bd 19 88 84 3d
       0.18932569 -0.050697096 -0.04217996 0.06471271
0001b0 16 aa 96 3d 3e 89 55 bb 56 8b a2 3c 67 47 5e bd
       0.0735666 -0.0032583023 0.019841831 -0.054267313
0001c0 90 86 3b be 5e 1e c9 bd 46 8f 40 be 00 0a 98 be
       -0.1831305 -0.09820245 -0.18804654 -0.2969513
0001d0 64 66 76 bc a6 08 30 3e c6 5b bd bd 42 69 63 3d
       -0.01503906 0.17190799 -0.0924602 0.055520304
0001e0 ea 5b 84 3d 70 33 11 3e 38 36 f2 3d e8 03 4e 3e
       0.06462844 0.14179778 0.11826748 0.20118678
0001f0 2b cf e9 bc b7 13 e7 3d cf 79 c2 bd 41 a0 46 bd
       -0.028541168 0.11283057 -0.094958894 -0.048492674
000200 46 a1 27 be fd 06 04 be a0 17 a7 3d 30 71 5c bc
       -0.16370115 -0.12893291 0.08158803 -0.01345472
000210 3e c2 27 be 9e d6 73 3c c3 03 d1 bd 93 44 58 be
       -0.16382691 0.014882712 -0.102057956 -0.21119909
000220 14 33 ab bb de 02 a5 3c 17 32 9d be 11 81 f8 3d
       -0.005224595 0.020142969 -0.30702278 0.121339925
000230 73 b7 9b bd 76 86 28 be 98 21 9d bd 7c 4b 2d 3c
       -0.076033495 -0.16457543 -0.07672423 0.010577079
000240 d2 97 16 3e 52 1a 5e 3d 73 fb 83 3d e3 3b ab 3c
       0.14706352 0.05422432 0.064444445 0.02090258
000250 72 99 d7 3d d2 e0 82 3d 92 99 de bd a1 e4 d0 3d
       0.10527314 0.06390537 -0.10869135 0.101998575
000260 58 3e 4d 3d 4c 2a 5a 3d 14 99 bf 3c 46 11 26 3e
       0.050108284 0.053262994 0.023388423 0.16217527
000270 19 29 79 3d 71 5e 8d 3d 36 4b 38 3d bc 78 ad 3c
       0.06083021 0.06902779 0.0449936 0.021175735
000280 ce 26 a5 3d 86 d9 e5 3c 1f d5 04 be cd 5b d6 bd
       0.08064042 0.028057825 -0.12971924 -0.10466728
000290 36 bc 0e 3e 99 d8 bc bd 1a 7a 97 bd 8b 99 9f 3d
       0.13938984 -0.09221 -0.07396336 0.07792958
0002a0 50 37 50 3b 13 60 3e bc 2e fe 47 3d 70 aa c3 bc
       0.003177125 -0.011619586 0.04882639 -0.023884982
0002b0 45 80 22 3e 14 6d d3 3d 5d 48 42 3e d4 4f 06 bd
       0.15869243 0.103235394 0.18972917 -0.032790974
0002c0 11 88 9e 3d 2e 19 9c 3e be 58 a9 3c e0 d7 a7 bd
       0.07740796 0.3048796 0.020672198 -0.08195472
0002d0 bf c8 41 bd 9f 92 03 be 40 e6 44 bc 5e 53 a8 3d
       -0.047310587 -0.128489 -0.0120177865 0.08219026
0002e0 82 05 8d be 9b c6 33 bd 8b 3a 04 bd 5f 10 2a be
       -0.27543265 -0.043890577 -0.032282393 -0.16607808
0002f0 48 50 b5 bd 79 59 e9 3c 28 ee 7f 3c f2 a4 86 bc
       -0.08853203 0.028485047 0.015620746 -0.016436074
000300 6f 27 eb bd 25 52 69 3d 62 d2 b3 3d ce e9 b5 3d
       -0.11482131 0.056963105 0.08780362 0.08882485
000310 c0 9b 56 3d fa 27 87 3d d9 85 29 bd cc 45 4f 3c
       0.05239463 0.06599422 -0.041387413 0.012650918
000320 d7 10 3d bc 40 c7 da bd e8 a4 57 3d 5d b2 9d bd
       -0.011539659 -0.10682535 0.0526475 -0.07700036
000330 b3 1e c3 3c 43 d7 61 bc 16 98 52 bc 79 6a 06 be
       0.02381835 -0.013784233 -0.012853643 -0.13126554
000340 46 4f 0c 3d 79 2b 22 be b0 3f 49 3d 1b 43 8a 3d
       0.03425529 -0.15836896 0.049133003 0.067510806
000350 ac ca 03 bc 2a e3 b1 3b b2 7d 27 3d b3 c2 8b 3d
       -0.008043926 0.0054286914 0.040891357 0.06824245
000360 ca ce 42 bd 6f 7b 17 3e be bc 15 3c ea ef c2 3d
       -0.04756049 0.1479318 0.009139238 0.09518416
000370 10 88 82 3d b4 09 64 bd ee d2 4b 3e c6 55 41 3e
       0.06373608 -0.055673316 0.19904682 0.18880376
000380 09 e5 7d 3d a0 17 cd 38 17 24 3e be 12 50 31 3c
       0.061986003 9.779562e-05 -0.18568455 0.010822313
000390 9c 18 da bc 2b d3 cb bd 14 74 d8 bb 12 cc f3 bc
       -0.026623063 -0.099523865 -0.0066056345 -0.029760394
0003a0 66 a9 00 bc fa 31 4a be e1 dc 5a 3e 1e 66 f2 3d
       -0.007852888 -0.19745627 0.21373321 0.118358836
0003b0 7e cd b8 3d 40 72 46 3e 56 38 04 be 74 ba d1 3d
       0.090235695 0.1937952 -0.12912115 0.10240641
0003c0 2b 75 a9 bb a6 7f 91 bd 66 43 b5 3d 2b 92 c2 bc
       -0.005171438 -0.07104425 0.08850746 -0.023751339
0003d0 42 bc 1d 3c 55 30 1b be 73 1e cd bd 22 77 de bc
       0.009627404 -0.15155156 -0.10015573 -0.027156416
0003e0 c7 bf 06 be 62 9e cf bd c2 28 12 3d 62 95 48 3b
       -0.13159095 -0.10137631 0.0356834 0.0030606617
0003f0 e4 d3 0a bb 92 2d 3c be 51 58 c0 bc 3d fe a6 bd
       -0.0021183426 -0.18376759 -0.023479613 -0.08153961

res_blocks.0.conv.3.bias f4 [30]
000000 37 fc 1a bd 38 54 73 3d c3 18 05 bd 92 07 bb bc
       -0.037838187 0.05940649 -0.032494318 -0.022830758
000010 cb cf 8d bc e4 3d 49 bd 4e 05 42 bc 8c 52 e7 3c
       -0.017310997 -0.04913129 -0.011842085 0.028237604
000020 e2 b2 6f 3d 2e 27 83 bc 3a ab 6e bd 1b 05 e6 3c
       0.058520205 -0.016009893 -0.058268763 0.028078606
000030 52 2b 03 bd 67 16 6e bc 0f a1 35 bc 38 72 25 3c
       -0.032023735 -0.014531708 -0.011085763 0.010098033
000040 61 f9 16 3c 29 d8 61 bd 49 d9 07 bd ad 77 7f bb
       0.00921473 -0.055137787 -0.033166204 -0.0038981244
000050 c3 72 3c 3d 77 ce 7c bb 1e 4a 56 bd 1b 77 0b 3d
       0.046007883 -0.003857521 -0.052316777 0.034049135
000060 9b 08 3c bd 55 89 e6 bc 55 dd 08 3d ce e3 5c bb
       -0.045906644 -0.028141657 0.033414204 -0.0033705118
000070 f3 1e 14 bd a9 05 08 bd
       -0.036162328 -0.033208523

res_blocks.0.conv.4.weight f4 [30]
000000 37 7e 6d 3f ad 29 61 3f 0a 6d 89 3f cc 52 60 3f
       0.92770714 0.8795422 1.0736401 0.8762634
000010 10 ae 82 3f b0 1d 4c 3f f4 2a a3 3f d9 3e 94 3f
       1.020937 0.797328 1.2747483 1.158168
000020 3c 9d 77 3f a4 2e 59 3f 6a cd 8f 3f d1 a6 89 3f
       0.96724296 0.8483679 1.1234562 1.0754033
000030 4d fb a0 3f 7b 89 88 3f 4d e6 61 3f 03 00 85 3f
       1.2576691 1.0666956 0.88242036 1.0390629
000040 14 b9 83 3f 1f 0d 88 3f 67 88 5f 3f a3 d6 76 3f
       1.0290856 1.0629004 0.8731751 0.9642126
000050 5b 29 87 3f af 1b ae 3f d0 5d 5f 3f 69 34 7b 3f
       1.0559496 1.3602198 0.8725252 0.98126847
000060 79 c6 7c 3f 10 59 7b 3f cd a1 67 3f 99 a1 96 3f
       0.98740345 0.98182774 0.90481263 1.1768066
000070 66 48 7c 3f e8 aa 77 3f
       0.9854797 0.9674516

res_blocks.0.conv.4.bias f4 [30]
000000 9d dd 71 3b f6 d5 a7 3c 41 49 04 3c a6 bb 4b bd
       0.0036905773 0.020487767 0.008074106 -0.049739502
000010 66 f3 4d 3c b7 0d c7 bd e8 15 21 3e 6c ad 99 bc
       0.012570238 -0.09719413 0.15731013 -0.018759452
000020 76 45 88 bd e8 74 27 bd 8f 20 8b bd 4a aa 12 be
       -0.066538736 -0.040882975 -0.067933194 -0.14322773
000030 c9 e9 ea 3d 71 36 a4 3c ec 9d e6 3d 73 ad 59 bd
       0.11470372 0.020045491 0.1126059 -0.05314393
000040 40 a2 b5 bd a7 ca a8 3d 5f 79 af 3d 84 d4 87 3d
       -0.08868837 0.08241778 0.085680716 0.06632331
000050 13 aa 86 bd 8f a1 04 3e 88 73 9e bc 30 af 5f be
       -0.06575408 0.12952255 -0.019342199 -0.21844172
000060 88 fa d5 bb 7c 6f c0 3c 21 dc 29 be 6d 69 29 bc
       -0.00653011 0.02349066 -0.16587879 -0.010340077
000070 91 9a 00 3d 55 bc 7e 3d
       0.031397406 0.062191326

res_blocks.0.conv.4.running_mean f4 [30]
000000 32 95 8e 3e 44 f9 b2 bf f4 49 ab bf 04 3b 0a 3f
       0.27848202 -1.398232 -1.3381944 0.539963
000010 7f 58 4b bf 7d 1e cd 3f 66 e5 7f bf 17 1f 7d bf
       -0.7943191 1.6024929 -0.9995941 -0.98875564
000020 1a 49 dc 3d 67 99 88 be 5b 03 f3 3e 83 dd 15 3f
       0.107561305 -0.26679537 0.47463498 0.58541125
000030 e0 7b a3 bf c9 e2 e1 be 91 59 2f 3f 54 70 95 3e
       -1.2772179 -0.44118336 0.6849604 0.29187262
000040 b9 63 7b 3f 50 ac df be d2 c9 ec bf 8a c6 29 3f
       0.9819904 -0.43686152 -1.8499091 0.6631857
000050 2d 57 ac be 30 91 44 bf ed ca 65 be 15 54 a2 3f
       -0.3366026 -0.7678404 -0.22440691 1.268191
000060 42 03 3b bf 74 67 a1 bf 21 19 95 3c 3c 21 96 bf
       -0.73051846 -1.2609696 0.018200459 -1.1728892
000070 12 be 09 be 55 0f ae bf
       -0.13451412 -1.3598429

res_blocks.0.conv.4.running_var f4 [30]
000000 22 9a a5 41 90 95 73 40 ee de 03 42 0e 6f 3a 41
       20.70026 3.8060036 32.967705 11.652113
000010 62 ec 1d 41 b9 43 fd 40 0a 4e 23 41 5b e4 d8 40
       9.870211 7.914517 10.2065525 6.7778754
000020 37 de 97 40 b0 39 27 41 68 a1 46 40 8b 6b 9b 40
       4.745876 10.451584 3.1036015 4.856878
000030 2d ff e3 40 a8 76 31 40 63 dc 92 40 6f 64 85 40
       7.1248994 2.7728672 4.5894027 4.16851
000040 f1 a3 39 41 db 54 e9 3f c0 b8 26 43 76 8b 04 41
       11.602525 1.8229021 166.72168 8.284048
000050 27 86 27 41 5e cd 7e 41 56 40 a9 40 70 f5 16 41
       10.470252 15.925138 5.2891035 9.434921
000060 15 6c 18 40 32 a0 86 41 75 b5 d6 40 5c f8 70 41
       2.3815968 16.82822 6.7096505 15.060635
000070 23 f2 2c 40 61 28 cb 40
       2.7022789 6.348679

final.0.weight f4 [30, 30, 1, 1]
000000 c5 1f 2d be 6c 72 23 bd af d9 79 bc 47 21 81 be
       -0.1690665 -0.039904043 -0.015249654 -0.252207
000010 ed fd 29 3e 1a 12 18 3d f3 87 1e 3f d4 f7 1f bf
       0.16600771 0.037126638 0.6192619 -0.6248753
000020 fa 79 0c be 1f e4 77 be 9a 31 23 bf 86 21 2e bf
       -0.13718405 -0.24208115 -0.6374756 -0.680199
000030 cd 2e 9c 3e 2f 83 83 be 18 ad 67 be 61 3f 9b 3c
       0.30504456 -0.25686023 -0.22624624 0.01895112
000040 1e 2b b8 be 1f bd 9d be 54 ba d1 be aa 34 f5 be
       -0.35970396 -0.3080835 -0.4096247 -0.47891742
000050 af 8a c7 3e e3 ef 5d 3f ac 76 5a be c8 cd ab 3c
       0.38972995 0.86694163 -0.21334332 0.020972148
000060 18 52 9e bc ca d6 80 be e3 0b a2 be 8d f7 4b 3f
       -0.019326255 -0.2516387 -0.31649694 0.7967461
000070 a1 e0 0b 3b 8d 1c 8c be 39 8d 98 3d 9e 09 6f bc
       0.0021343606 -0.27365533 0.07448811 -0.014589695
000080 fc aa d2 bc 57 54 7e be 8c af 5a be ea c5 50 3d
       -0.025716297 -0.2483686 -0.21356028 0.050969996
000090 65 9b ce bd 54 2a 3f 3d 2b 47 1b 3f a4 42 22 bc
       -0.10088233 0.046671227 0.6065547 -0.009903584
0000a0 a2 6c 0d be 78 9b cc be 69 b6 e8 3e ef ff 1d be
       -0.13810971 -0.39962363 0.45451668 -0.15429662
0000b0 cc 8e 80 3e c8 9e 14 bd 77 25 31 3f 71 09 40 be
       0.25108945 -0.036284238 0.6919779 -0.18753602
0000c0 96 da 29 bc 04 2c 7d 3e aa 37 1f be b1 93 4c be
       -0.010367056 0.24723822 -0.15548578 -0.19978215
0000d0 0f bb e8 bd d2 20 6f 3e 92 36 03 3f 6a cc 81 3d
       -0.113638036 0.23352364 0.5125514 0.06337817
0000e0 03 cc ad 3c 2e bb 98 be e2 56 0d 3d d4 be 5a bd
       0.021215444 -0.29830307 0.034506686 -0.053404644
0000f0 a4 44 6f 3e 57 b1 4f be be c2 9c be 19 70 9f 3e
       0.23366028 -0.20282494 -0.30617326 0.3114021
000100 a5 2e 45 be 9c a6 b6 3d 1f 01 ff bc 7b 98 7f be
       -0.19256075 0.08918497 -0.031128464 -0.2496051
000110 b7 4c d8 be 77 7a 83 be e9 97 a5 be dc ad a1 3e
       -0.4224603 -0.2567937 -0.3234246 0.31577957
000120 18 0e 04 bd f3 05 43 3e b7 4c 8c be 45 63 a1 3b
       -0.032240003 0.19045238 -0.2740228 0.004925164
000130 f7 cd fd bd ab 50 16 3f ba d0 ef bd f1 ed 8b 3d
       -0.123928 0.5871684 -0.11709733 0.06832493
000140 09 be b5 be 59 2a 10 bf ba c5 0e bf 05 3c 07 3e
       -0.35496548 -0.5631462 -0.55770457 0.1320649
000150 0d 00 ab bd 07 e1 51 be 04 45 b5 bd ae 4f 4f be
       -0.08349619 -0.20495997 -0.08851054 -0.20245239
000160 c3 09 0e be 59 d9 01 be 80 22 42 be 33 50 a2 bc
       -0.13870911 -0.12680568 -0.18958473 -0.019813633
000170 e8 4e 2e be 78 d3 f7 be 48 b4 2d be 75 85 82 bc
       -0.17022288 -0.48403525 -0.16963303 -0.015932778
000180 07 c5 00 be a9 6b 07 be d0 76 1d 3f 2c 8c 3d 3d
       -0.1257516 -0.13224663 0.6150942 0.046276256
000190 fa e9 03 3d 8e db 48 be d6 3c ab 3c 8d b3 bc be
       0.03220556 -0.19615003 0.020903032 -0.36855736
0001a0 df 40 79 be ba 83 40 3e c1 65 ca be cd d0 1e bf
       -0.24341153 0.1880025 -0.39530757 -0.62037355
0001b0 98 d6 44 bc 6c e2 95 be 80 8c 86 3e 45 5f 24 bd
       -0.012014054 -0.2927431 0.26279068 -0.04012992
0001c0 cf 7f a2 3e ba 6f 7c bd 4f 37 4e 3d da 71 bf 3d
       0.31738135 -0.06162999 0.050345715 0.09347887
0001d0 70 f6 f5 bc 8a 15 0d 3e 85 0b 8e 3e d1 e5 41 be
       -0.030024737 0.13777748 0.27743164 -0.18935324
0001e0 06 44 da be 4a 45 09 3e 6d 59 3c 3d cc 8a 9c be
       -0.42630023 0.13405338 0.04598372 -0.30574644
0001f0 ec bc 4a be ef 9b ca 3d 31 0b 0f 3d a1 1a dc bd
       -0.1979863 0.09893023 0.034922782 -0.107472666
000200 5b 6a c5 3d 08 97 75 3e ce 56 4f be 55 9f ad be
       0.09639426 0.23983395 -0.20247957 -0.33910623
000210 04 d1 b4 bb 9e 93 1b bd e6 67 59 be 69 56 f6 3d
       -0.0055180807 -0.037982576 -0.2123104 0.120282
000220 3d 4d 90 3e 1a b7 af bd 26 4d f6 3d e3 71 59 bd
       0.28183928 -0.08579846 0.12026434 -0.053087126
000230 f8 cf 65 be 1e 86 32 be f0 70 52 bd f8 01 cc be
       -0.22442615 -0.17433974 -0.051377237 -0.39845252
000240 b1 91 73 3e 17 c6 8b be 7b 92 4b be 55 6d 33 3e
       0.23786046 -0.27299568 -0.19880097 0.17522176
000250 77 85 97 3c 00 15 2e bf d6 81 cd bd 6b 44 1b be
       0.018496258 -0.68000793 -0.1003453 -0.15162818
000260 7f ac 63 3e 9f c2 05 bd 0b 5d 8d be 08 af 4e be
       0.22233771 -0.03265631 -0.2761005 -0.20183957
000270 e6 11 25 be f4 92 c5 be 14 5a ff bb 5a e3 8c 3d
       -0.16120109 -0.3858868 -0.0077927206 0.06879301
000280 bb c9 f1 be 8d a5 5f be 46 49 9d bd e6 3b 1c 3e
       -0.4722422 -0.21840496 -0.076799914 0.15257224
000290 f0 37 f0 3b 86 69 0b 3f 7c c0 9a bd 92 0e c9 3d
       0.007330887 0.5445789 -0.07556245 0.09817232
0002a0 f9 89 e8 3e 3b 08 9c be aa 8b 8e be 49 60 ce be
       0.45417765 -0.3047503 -0.2784093 -0.40307835
0002b0 c7 d3 25 3e b1 d2 5f be 51 02 38 3e 9d b0 a8 3e
       0.16194068 -0.21857716 0.17969634 0.32947245
0002c0 67 7c f7 3d 97 9f 0b 3f 6f fa 41 3e 1a 3e 93 be
       0.12084275 0.5454039 0.18943189 -0.28758317
0002d0 13 09 3a 3e 0a 5f 30 3f fa 80 cc 3e fd b5 ff 3d
       0.18167524 0.6889502 0.3994215 0.124858834
0002e0 24 3a c0 3c 78 df a0 be c1 3d f7 3e 18 aa c9 3c
       0.023465224 -0.31420493 0.48289302 0.02461724
0002f0 53 90 c2 bd 3c f9 07 3f 5d d0 5e 3e bd bd 0c bf
       -0.09500184 0.53114676 0.21759172 -0.5497702
000300 ea fc 54 3d 35 7a cc 3e 63 17 bd be 1e cc 16 3e
       0.05199901 0.39936987 -0.36931905 0.14726302
000310 8d ff 98 bd 62 19 4f bd 9f ef 1e 3e ad 58 19 bf
       -0.074706174 -0.050561316 0.15521096 -0.59900934
000320 79 ee 0f be 03 49 c8 3e 75 61 43 be 15 80 c1 bd
       -0.14055814 0.39118204 -0.19080146 -0.09448258
000330 cf 5d 4e 3e e5 54 29 be d6 cf 00 3e e5 1b b2 be
       0.20152973 -0.16536291 0.12579283 -0.34786907
000340 e3 0b 86 be 6f 3b 80 3e 5a c2 8a 3e af 45 f5 bc
       -0.26180944 0.25045344 0.27101403 -0.029940454
000350 15 ce 15 bd 0d 4f 05 bd 53 f1 b5 3e 1d a1 c5 be
       -0.03657349 -0.03254609 0.35535678 -0.38599482
000360 7a d8 5f bc a8 bf 00 be 4c a5 72 be 42 19 6c 3e
       -0.013662452 -0.12573111 -0.23695868 0.2305651
000370 5f 68 dd bd b6 3c 0a be ee a5 cf bd 8e f7 3d 3b
       -0.10810923 -0.13499722 -0.101390705 0.0028986665
000380 d9 bc 71 bd 1d 33 94 be 58 71 8f 3c 4e c3 91 3e
       -0.05901799 -0.28945246 0.017510101 0.28469318
000390 9b b9 c2 3d ea 8d a0 be 39 4c 0f 3e 81 e3 bf 3d
       0.09508058 -0.31358272 0.1399392 0.09369565
0003a0 21 e9 c4 bd 1e 1e 1b be ca 32 8a 3e a2 cb 90 bc
       -0.09614778 -0.15148208 0.26991874 -0.017675225
0003b0 28 21 3d be 9e 3d 03 be 6f fe 8c 3e 74 8d 4c 3c
       -0.1846968 -0.12816474 0.27537867 0.012484897
0003c0 01 94 2b 3e 87 60 1d 3f 97 bd 96 be a9 cf 0c be
       0.16755678 0.61475414 -0.2944152 -0.13751091
0003d0 63 db af 3e d0 4a bf 3d e7 d3 9c 3c 39 71 06 3e
       0.34347066 0.09340441 0.019144012 0.13129129
0003e0 57 e7 8c be 30 45 6e 3d 73 30 a7 3e d6 34 03 bf
       -0.27520248 0.05817145 0.3265415 -0.51252496
0003f0 54 8c 45 3e 50 12 93 3e 2e 8b 46 be d4 66 18 bb
       0.19291812 0.2872491 -0.1938903 -0.002325465

final.0.bias f4 [30]
000000 c1 7f 30 be 61 65 94 bc f4 a6 1b be a2 db 0f be
       -0.17236234 -0.018114747 -0.15200406 -0.14048627
000010 1a c2 31 3e 45 c1 08 3e e2 ba cd 3d 91 b9 83 3d
       0.173592 0.13354976 0.10045411 0.06431878
000020 42 85 cd bd 97 b0 4f bc 25 95 f5 bd f5 38 ff bd
       -0.100351825 -0.01267638 -0.11991338 -0.124620356
000030 de 51 f5 bd d8 4f e8 bd 70 99 76 bd 02 04 33 be
       -0.119785056 -0.11343354 -0.060204923 -0.17481998
000040 8a d8 e3 3d 1d 6e eb bd 67 3a a2 bc 6e 8a a1 3c
       0.11125286 -0.11495612 -0.019803239 0.019719329
000050 62 d7 2f be c6 22 02 3e 16 a7 20 bd 8f 23 35 3e
       -0.17172006 0.12708578 -0.039221846 0.17689346
000060 63 30 0a 3e a0 5d 2b be cc b8 2e be 63 c4 29 3e
       0.1349502 -0.16734934 -0.17062682 0.16578822
000070 7f 65 05 be e9 3b c0 3d
       -0.13026999 0.09386427

final.1.weight f4 [30]
000000 eb e3 9f 40 1f 52 3f 3f 32 59 73 3f 08 22 a4 3f
       4.996572 0.7473468 0.95057976 1.2822886
000010 6a 45 22 3f 59 ae 1c 3f 84 ee 12 3f b6 d4 2e 3f
       0.6338717 0.61203533 0.57395196 0.6829332
000020 80 b2 02 40 91 22 2c 3f fe 48 2b 3f 7b 20 94 40
       2.0421448 0.67240244 0.6690825 4.628965
000030 50 19 08 3f 30 ee 31 3f 8d 8c 27 3f ab 07 2c 40
       0.53163624 0.6950407 0.6544884 2.687968
000040 a8 a3 17 3f 94 77 14 3f 8b 23 26 40 94 67 49 3f
       0.59234095 0.5799496 2.5959194 0.7867367
000050 e4 2f 1a 3f 5d 39 ae 40 f1 f5 08 40 ca cb 45 3f
       0.60229325 5.4445024 2.140011 0.7726408
000060 48 f0 17 3f 9c 46 20 3f e7 7e 30 3f b4 bf 2b 3f
       0.59351015 0.6260774 0.6894364 0.6708939
000070 64 4e 6e 3f ed 2d 64 3f
       0.93088365 0.8913258

final.1.bias f4 [30]
000000 0b eb 43 40 e4 56 c3 be 24 6a 89 be 3a f5 09 be
       3.061221 -0.3815223 -0.2683879 -0.13472453
000010 27 75 f5 be 83 a1 ed be 7d bb ec be 16 8b da be
       -0.47940943 -0.46412286 -0.46236792 -0.4268424
000020 00 0c 8a 3e 13 b5 ef be ae f7 d4 be 82 83 4b 40
       0.2696228 -0.46817836 -0.41595215 3.1799016
000030 36 c2 e3 be 24 f4 d4 be a4 05 e6 be 39 9d 57 3f
       -0.4448411 -0.41592515 -0.44926178 0.8422428
000040 d0 eb fa be d2 f3 d4 be f6 3b 9b 3f 96 10 b7 be
       -0.49008036 -0.4159227 1.2127674 -0.35754842
000050 38 10 cf be b0 b6 2a 40 c9 0d d1 3e 29 0a da be
       -0.4044206 2.6674004 0.4083083 -0.42585877
000060 e7 ed d6 be 96 20 f3 be b9 70 ab be b0 3c d2 be
       -0.4197838 -0.474858 -0.33484438 -0.41061926
000070 51 5c 98 be da f4 83 be
       -0.29757932 -0.25772744

final.1.running_mean f4 [30]
000000 72 4f 40 bf 49 ed 25 3e d8 f7 9d bf 60 1f 36 bf
       -0.75121224 0.16203798 -1.2341261 -0.71141624
000010 3b 6c 72 bf be d5 9b be 44 c6 50 3f f2 e1 15 3d
       -0.94696397 -0.3043651 0.8155253 0.03659243
000020 7e 07 04 3f 4e ec d4 3e 1a ac b7 3d d2 9e 53 bf
       0.5157393 0.41586536 0.08968373 -0.82664216
000030 9d 3e 0f 3f 5a 0f a4 3f 8e 1f 83 bf 59 f5 49 be
       0.55954915 1.2817185 -1.0244005 -0.19722499
000040 0d a7 e9 be bf e7 87 be 5e be 38 be 72 9a bc 3e
       -0.45635262 -0.26543996 -0.1804137 0.36836582
000050 c9 88 40 3f 9f 88 5f 3f 00 78 4e 3c 51 2e 1f 3e
       0.7520872 0.8731784 0.012601852 0.15545012
000060 54 1f 23 3f db 74 86 bf ce af 24 bf 9c 0d 7e be
       0.6371968 -1.0504411 -0.64330757 -0.24809879
000070 7b c1 4f 3f 86 99 b4 bf
       0.811546 -1.4109352

final.1.running_var f4 [30]
000000 e8 ab ee 40 a9 d1 62 3f 66 e8 e5 3f a4 2c c9 3f
       7.4584846 0.88601166 1.7961547 1.5716748
000010 e3 79 33 40 bd b0 9a 3f 5a 3d 5d 40 55 71 b4 3f
       2.8043144 1.2085186 3.4568696 1.4097086
000020 64 37 df 3f 60 7e 2f 40 db 32 ba 3f cd f7 b1 40
       1.7438779 2.7420883 1.454677 5.561499
000030 2b 07 aa 3f 14 cc a1 3f 37 e6 09 40 2e d5 8e 3f
       1.3283437 1.2640405 2.1546762 1.1158807
000040 7f c3 1f 40 98 fe 47 40 ab 38 82 40 67 99 7a 3f
       2.4963071 3.1249142 4.0694175 0.97890323
000050 a9 63 3e 40 32 99 b5 40 54 41 84 40 a8 e2 92 3f
       2.9748328 5.6749506 4.1329746 1.147542
000060 96 8e 3d 3f 80 5b 12 40 c3 fb 5b 40 74 e3 ab 3f
       0.74045694 2.2868347 3.4372413 1.3428788
000070 d1 66 06 40 36 c9 75 40
       2.1000254 3.840406
