消融实验/model_weights_2.pth (torch, 43009 bytes, 24 tensors)

initial.0.weight f4 [20, 3, 3, 3]
00000000: c8be b3bc 3732 8b3d 9b28 09be 0f87 1a3e
00000010: 0005 cabb d10c 03bd 2628 b4bd aace 22be
00000020: 4eac babd 4b16 d5bd 0954 80be 0795 abbd
00000030: c001 8d3c 2220 02be bc8e c9bd 2486 40be
00000040: 173a 0fbe f8b0 0fbe 43de cf3d fe18 33bd
00000050: f9bf babd 239a 49be 122b f53c b678 a6be
00000060: da09 28be a0a2 a1bd d984 98bd c4db 173e
00000070: 51cc 063e 7716 2bbd 5242 583c c080 ce3d
00000080: c6ae 0f3d c781 3d3e d502 003d fab5 123e
00000090: c09c 983e caf0 133d 0769 b83d 13ed 7dbd
000000a0: 96a8 a53d ddb7 99bd 89ae 8d3d 6f00 c53d
000000b0: cfaf 153d 17b1 df3d 1252 9f3d 9607 633e
000000c0: 862c e63d 1acf 5abd c4b5 72bd 5cff 1fbd
000000d0: da24 acbc 2738 093c 462a 23bf 37c7 ffbe
000000e0: 2edc 19bf f1c7 1dbf 5e33 0cbf b49a 1dbf
000000f0: 3d7e 51bf c59d 2dbf 09f0 21bf 54de 31bf
00000100: 9972 20bf 7e1b 0ebf ff12 16bf aaf2 21bf
00000110: 2034 c1be abc3 3abf 230b 38bf a607 12bf
00000120: 3ae8 2fbf b2f2 03bf 4457 fdbe a7ea 32bf
00000130: e391 10bf 8cfc 24bf c5d1 26bf 6828 17bf
00000140: 2ed4 31bf 22b9 48bc a26e 50be a5b6 373d
00000150: 5eee 37bd bb87 a6bc 3253 973d 40c5 8dbd
00000160: 8f27 92bc 4181 88bd dc75 923d 774b bebc
00000170: 7aa2 08be 78d5 1ebd 06f3 b4bd 7b22 8dbe
00000180: 5541 b7bc b154 1ebd 3024 2abd ddc7 acbd
00000190: 544a 97bd 1ed8 14bd 2e15 583c c2ce 3b3d
000001a0: f5f0 f5bd cc60 db3d 86b9 3bbe bcc2 57bb
000001b0: 7f44 643e 258a b53e 788f 1f3d fe4c 683e
000001c0: d5dc 543e e678 133e c63b 3c3e b568 0bbe
000001d0: 91b5 a23e ec22 0b3e d4d5 b83c 357f ec3d
000001e0: b330 413d 0232 7b3e 7fd1 903e ee1f 253e
000001f0: 20d1 8b3e 43e4 0c3d b9c4 4e3e 3da7 4d3d
00000200: 8ed3 633d 2fb3 8d3e 8439 913c 689d a1bc
00000210: 7619 963e dca0 8a3e 655a 0bbd 450d 5d3f
00000220: 062b 383f a993 3a3f 5458 3c3f 40e3 343f
00000230: ac57 293f d1ca 1a3f e6e6 363f 4c84 203f
00000240: 8253 1a3f c681 4d3f 4dde 283f efe7 2d3f
00000250: b628 463f b6e5 ec3e b16e 263f 6080 153f
00000260: 062c fb3e 50d5 493f f31a 4f3f 072c 1d3f
00000270: 1ac8 3a3f 485c 4c3f 768c 2f3f 1583 1e3f
00000280: 24a0 2a3f 4838 203f ca7c 013c 2668 efbd
00000290: 6255 b6bd bca1 84bc ebcf 94bd 1f69 44be
000002a0: 164a fdbd 46c7 09be 575d 87be a2ff e63d
000002b0: 2a9c 07bd 0a35 bfbd e692 373d e5c5 f8bd
000002c0: 620d 8dbc 8681 16bd 8a29 4dbd a929 78be
000002d0: 9fa4 14be 381f b33b 3fcf a3bc 64b6 ecbd
000002e0: 1322 cc3d c046 78bd f2c8 83bd 85e7 13be
000002f0: 8e81 ca3d c448 5bbe 2024 da39 c78d a6bd
00000300: 5074 84be ec42 bbbd 8082 5fbc 161c ebbe
00000310: dbc6 1bbe dc13 1fbe 2bfa 72be 8358 41be
00000320: c653 b8bc 3577 d1bd d3a0 76be e6d2 4a3d
00000330: 651c 94be 6270 c33d 62f0 cb3d c070 6fbe
00000340: 7435 3cbe 26c4 213e 2883 83be f647 08be
00000350: 5849 7fbc d7f5 60be f268 10be e830 92bd
00000360: d9d3 cebe d819 d9be a8e5 3bbf eec7 84be
00000370: e14a d1be eb68 d7be 2dc9 32be 598c 21be
00000380: 9e84 81be 4358 b7be 2e31 12bf 2bf5 02bf
00000390: aca1 a4be 18ee cabe c6d9 a8be 46a5 693d
000003a0: b676 383d 89df 0dbe 1c95 79be 62f6 d8be
000003b0: 7573 1ebf 2a5f a73c 1b18 c8be 7473 06bf
000003c0: 497c 383d 0964 8cbe bd52 b1be c6ca c9bd
000003d0: ac62 1bbc 7bca 3ebe 8964 60be baeb e9bd
000003e0: 4b92 94bd 03b6 31be 3ba2 2fbe a9bb 97bd
000003f0: fcc8 5bbc 4f25 84bc b7f6 48be 5a2c 563e
-0.021941558 0.06796687 -0.13394396 0.15090583 -0.006165147 -0.031994645 -0.0879672 -0.15899149
-0.09114896 -0.10404643 -0.25064114 -0.08378034 0.017212749 -0.1270757 -0.098416775 -0.1880117
-0.13987003 -0.14032352 0.10149815 -0.043725006 -0.09118647 -0.19687705 0.029927764 -0.3251397
-0.16410008 -0.078923464 -0.07447214 0.14829928 0.13163878 -0.04176947 0.013199406 0.10083151
0.035078786 0.18506537 0.0312527 0.14327231 0.2980709 0.036118306 0.090044074 -0.06199367
0.08088796 -0.07505772 0.069180556 0.09619223 0.036544617 0.10922449 0.077793255 0.22170863
0.11238961 -0.053420164 -0.059255376 -0.03906189 -0.021013666 0.008375204 -0.6373638 -0.49956676
-0.6010159 -0.6163321 -0.5476588 -0.61564183 -0.8183325 -0.6781886 -0.6325689 -0.6947987
-0.6267486 -0.555107 -0.58622736 -0.632609 -0.3773508 -0.72954816 -0.71891993 -0.5704292
-0.68713725 -0.515422 -0.4948064 -0.698893 -0.56472605 -0.64447856 -0.6516383 -0.5904603
-0.69464386 -0.01225117 -0.20354703 0.044851918 -0.04490506 -0.020328393 0.07388915 -0.06922388
-0.017841129 -0.06665278 0.07151386 -0.023229344 -0.1334323 -0.0387778 -0.088354155 -0.2756537
-0.02237002 -0.038654987 -0.041538417 -0.084365584 -0.07387224 -0.036338918 0.013188643 0.045851476
-0.120088495 0.10711822 -0.1833249 -0.0032922467 0.22291754 0.35456958 0.03895518 0.2268562
0.20787366 0.14401588 0.18382177 -0.13614161 0.3177915 0.1358754 0.022562899 0.115477
0.047165584 0.24530795 0.28284833 0.16125461 0.27307987 0.034397375 0.20192231 0.05020832
0.055621676 0.2767577 0.01772762 -0.019728377 0.293163 0.2707585 -0.034021754 0.8634837
0.7194065 0.7288156 0.7357228 0.70659256 0.661494 0.60465723 0.71446073 0.6270187
0.6028367 0.80276144 0.65964204 0.6793203 0.7740587 0.46269006 0.6501265 0.5839901
0.49057025 0.78841114 0.80900496 0.61395305 0.7296158 0.7982831 0.685737 0.61918765
0.66650605 0.6258588 0.007903287 -0.116897866 -0.08903004 -0.016190402 -0.0726622 -0.19180726
-0.123676464 -0.13454923 -0.264384 0.11279227 -0.033107914 -0.09336288 0.044817828 -0.121471204
-0.017218295 -0.036744617 -0.050088443 -0.24234642 -0.14515923 0.005466368 -0.019996284 -0.11558226
0.09967437 -0.060614347 -0.06434812 -0.14443786 0.09887992 -0.21414477 0.00041607115 -0.08132511
-0.2586999 -0.09143624 -0.0136419535 -0.45919865 -0.15212576 -0.1553492 -0.23728244 -0.18881421
-0.022500884 -0.10227815 -0.24084787 0.049517535 -0.28927913 0.0954292 0.09957959 -0.23382854
-0.18379766 0.15797481 -0.25686002 -0.13308701 -0.015581451 -0.2196878 -0.14102533 -0.071382344
-0.40396002 -0.4240253 -0.733973 -0.25933784 -0.4087744 -0.42072234 -0.17459555 -0.15776195
-0.2529649 -0.35809526 -0.5710629 -0.51155347 -0.32154596 -0.39634776 -0.32978648 0.057042383
0.045035087 -0.13854803 -0.24373287 -0.42375475 -0.61894923 0.02043112 -0.3908089 -0.5251992
0.045040403 -0.2742007 -0.34633437 -0.09853129 -0.009483974 -0.18631928 -0.21913351 -0.114219144
-0.07254466 -0.17354588 -0.1715173 -0.0740884 -0.013414618 -0.016131071 -0.19625364 0.20915356

initial.0.bias f4 [20]
00000000: 5896 b83d 8a49 0abe 2560 a1bd b657 b63a
00000010: e172 b0bc 605d 2b3e 2d8d c13d d89b d1bd
00000020: f7dc 7c3c cb17 053e b5ac c6bc 0e19 593c
00000030: 2820 3abe 512b 483d 3658 3fbe 6e1a a13d
00000040: 7023 2bbe b0b6 8fbb 3bfa 98bd 2f60 653d
0.09013051 -0.13504615 -0.07879666 0.0013911638 -0.021539154 0.16734838 0.09450755 -0.10234803
0.0154335415 0.12997358 -0.024252275 0.013250602 -0.18176329 0.048869435 -0.18685994 0.07866369
-0.16712737 -0.0043857917 -0.07469603 0.05599993

initial.1.weight f4 [20]
00000000: 1e51 5e3f e3cb 4c3f fd72 6a3f a0c9 713f
00000010: fc55 6b3f 5a9f 913f 117e 653f bd40 713f
00000020: 4a12 553f 93e7 8f3f b08f 5e3f bf1a 833f
00000030: 5c84 723f 7493 983f 3c85 623f d0fc 843f
00000040: 354f 813f bc6b 963f ac17 5a3f 68e8 8d3f
0.86842525 0.79998606 0.9158171 0.9444828 0.91928077 1.1376755 0.8964549 0.9423941
0.8323103 1.1242546 0.86938 1.0242537 0.94733214 1.1919999 0.8848455 1.0389652
1.0102297 1.1751628 0.8519237 1.108655

initial.1.bias f4 [20]
00000000: 7292 fbbd de9d 8cbd 3d63 a8bd aaa7 34be
00000010: 798a a6bc 5300 883e bcd8 b6bd a351 8b3d
00000020: 4db0 87bd c613 f53d 0fe1 f6be a6f9 bfbd
00000030: 642b 133e 18b8 123e f988 ef3d 5298 f1bd
00000040: 0580 873d f136 b73e 662d 99be 6181 723e
-0.122837916 -0.06866048 -0.08222053 -0.17642084 -0.0203297 0.26562747 -0.089280576 0.0680268
-0.066254236 0.11966662 -0.4821858 -0.093737885 0.14372021 0.14328039 0.11696047 -0.11796631
0.06616215 0.35784104 -0.2991745 0.23682167

initial.1.running_mean f4 [20]
00000000: b30c 33bf d714 023f a3ab abc0 ba94 fdbe
00000010: 11aa 9a3f 5151 bf40 a4b9 edbe 479d 8ebf
00000020: 530b 22c0 9ccc 13bf 59f8 9cbf f348 1fbf
00000030: 3c79 753f 1051 56bf 0d03 403f 5453 06c0
00000040: 2ffb e43e 889c 393f 0d30 a0bf ab47 4c3f
-0.6994125 0.5081305 -5.3647017 -0.49527532 1.208315 5.9786763 -0.46430695 -1.1141747
-2.5319412 -0.57734084 -1.226329 -0.62220687 0.95888114 -0.8371744 0.75004655 -2.098836
0.44722888 0.7250447 -1.2514664 0.79796857

initial.1.running_var f4 [20]
00000000: 0c35 b73e 615e a23e 1cda b140 d315 973e
00000010: 3425 0b3f f1f8 d640 f1c3 9c3e e63e ea3e
00000020: fbe7 c43f bade a83e 041a 093f 941a a63e
00000030: c1bc f63e 0a57 cb3e 5b42 d03e d5d3 903f
00000040: 89ba a03e 17de b33e 640b 073f f712 b23e
0.3578266 0.3171263 5.5578747 0.29508838 0.5435364 6.7178884 0.3061824 0.45751113
1.5383295 0.32982427 0.5355532 0.32442153 0.48190883 0.39714843 0.40675625 1.1314646
0.31392315 0.3513038 0.52751756 0.34780094

res_blocks.0.conv.0.weight f4 [20, 20, 3, 3]
00000000: 59ba 813d a90f e4bd af66 edbd 1bd5 06be
00000010: ae1e 953d 58ce c9b8 0e2a e03d ccf0 8a3e
00000020: 10d8 3dbe 1f2c b9bb c417 eabd 9e6d 5b3c
00000030: 8357 7ebd 23d1 2a3e c8b1 683e 5062 c73c
00000040: ca6a 2b3e 341b cbbd 66c5 4e3e da47 c83d
00000050: ce5a fd3d d04d e1bc 3864 0cbe 94bf 8e3e
00000060: c8b8 2abd f3ab 71bd d00f 35be c8ce d5bd
00000070: ecb8 d7ba 7d65 063e d8e7 433c abc8 0cbe
00000080: 986c 453e 06a4 d4bb 6bb8 5bbd 7b35 e53d
00000090: 8fcc c73d 8baf b63d c5fa 6ebe 9e3e f33d
000000a0: fa74 b5bc 2264 93bd 9695 9fbc c616 0c3d
000000b0: 313d b5bd c87d c8bd c7e6 06be 3ff9 c03d
000000c0: 2ec7 16be e4e0 b53d bada 3a3e c49b b03d
000000d0: 3c57 38bd 890a db3d b4eb c83d 4bde 2fbd
000000e0: a460 8a3d 34a3 093e d908 2c3e 2b0b 89bc
000000f0: 8bd2 37be 7245 8ebc 08f2 033c 6263 debc
00000100: fbb7 ce3d 03b9 723d ea96 113d 7c06 003e
00000110: 8675 3b3e fdba 64bd 83d9 db3d fd82 1a3e
00000120: 5d76 823e fcdf c2bd 8310 3ebd ceaa f03d
00000130: bf61 893e d3c5 8a3e 4965 8c3c 1745 f5bd
00000140: 387e 263e c8b0 333e 9038 44bd 973e d83d
00000150: be7e fe3c aa97 e3bd dd4d 32be fffa 8a3c
00000160: 718c 053e cc81 4a3d 7e91 003e 3e47 0dbd
00000170: 4643 6ebd 6930 7d3d 14d9 2f3d 0380 6ebd
00000180: 7e31 c23d e98c 6fbd 4992 fbbb 4b0f 4d3d
00000190: 884e 663d 8ba7 923e 3f08 953d d994 babc
000001a0: bf8c 933d cc82 943b fef3 e43c dfaa 143d
000001b0: ce77 0abe 549d aebc adad 653d 970b c03d
000001c0: 1733 073e 1fef 2f3d 46ab 86bd 223c ea3b
000001d0: 3b96 113d 5414 34bc 9df5 333e 09a7 033e
000001e0: 5097 993e 3210 1d3b e90e 4c3e 6843 1f3c
000001f0: b3cf a73c 6f40 843d 64b5 473e b804 08be
00000200: 3d0b aebd 13dd 0cbe 6345 7dbe 05b6 eabc
00000210: e49b 81bc 55bf 4bbe aae1 bf3d a5ce 373e
00000220: 746e 2fbe 4baf 333d dc74 9b3d 0028 c4bd
00000230: b48f d23d 07ae b2bd 6273 68bd 2231 debc
00000240: 86cb d1bc 939f a13d 79b3 5bbe 36c5 293d
00000250: cda2 c53c 6ef4 b1bb 547d 1dbd 2694 013e
00000260: 1a02 893d a8eb 963d 77bc f03d 9d0b 06bd
00000270: 3cf6 2d3d 75b0 45bd 37dd c5bd 4617 3b3e
00000280: de41 ca3a e646 163c f544 48bd 1d96 f6bd
00000290: e373 763e f268 493e 3e1e 323e 0e80 34be
000002a0: 1edf 153e 658e 41bc 739b 313e 9be2 b1bd
000002b0: 44ed 60be abb3 4f3e 081c 7a3e 7f04 69bd
000002c0: 91bd 763d 62eb 4d3d 5bfc 073d ce7e 1dbc
000002d0: ab3d 3fbe 0b27 723d c825 a13d 6964 1abe
000002e0: eb71 e8bd e41d 34be 3867 b53c 278e 863d
000002f0: 1ace 30be 62e6 adbd 37a3 963d e968 b9bd
00000300: f3dc 293d 82d8 063e 4b4e 423e 895e 753d
00000310: d6fa 2bbc 9722 aabd 6dd3 43be 3037 35bd
00000320: a194 bcbd 3094 1cbc aff3 6ebe 2cb9 393c
00000330: 3cf6 ce3d ec71 48be c194 6dbb 73c7 c2bd
00000340: 7efb 24bd f917 a1bc 811d fa3c 150e 7d3d
00000350: a2cd a4bc 6e5a 1e3e 93db 7bbe b80a f23d
00000360: db1d 01bc 660d 5939 48ea 0439 b490 b53d
00000370: 3464 353c a908 1dbd 546a e6bd 6563 f73c
00000380: b68d f6bd 36d4 c63c 8c59 5fbd 2831 1a3c
00000390: 98de 3e3e 4c3d 383d 31e7 653d c09b 443c
000003a0: 5a79 41be 93a8 eebc c15a f3bc 7c4e 4dbe
000003b0: 6367 153e 11df 4fbd ddc3 9bbd b379 793d
000003c0: b72a d6bd b637 b5bb 68ac 51be 34cc 99bd
000003d0: 41c5 ef3d 9790 47bd 41d5 0abc e299 cd3c
000003e0: 5ac2 c93d 6724 673d 5815 d5bd 2e23 283d
000003f0: 88eb 953c 9bc5 d8bb f761 8dbd ef5e 623d
0.06334371 -0.111357994 -0.11591851 -0.13167231 0.07281242 -9.6228614e-05 0.10945521 0.27136838
-0.18539453 -0.0056510116 -0.11430314 0.013392834 -0.062095176 0.16681342 0.22724068 0.024338871
0.16739956 -0.09917298 0.20192489 0.097793296 0.12370835 -0.027502924 -0.13710105 0.27880538
-0.041680127 -0.059001874 -0.17681813 -0.10439831 -0.0016458309 0.13124652 0.011957131 -0.13748424
0.19279706 -0.0064892797 -0.05364267 0.11191841 0.09755813 0.08920201 -0.23337848 0.11877178
-0.022150505 -0.07196833 -0.019480508 0.034201406 -0.08849562 -0.09789616 -0.13173972 0.0942254
-0.14724419 0.08880785 0.182475 0.0862346 -0.04500507 0.10695369 0.09810582 -0.042936604
0.06756714 0.13441163 0.1680025 -0.016728958 -0.1795141 -0.017367098 0.00805331 -0.027146999
0.10093685 0.059258472 0.035544313 0.12502474 0.1830655 -0.05584239 0.107348464 0.1508903
0.2548093 -0.09515378 -0.046402466 0.117513284 0.26832387 0.27104053 0.01713814 -0.119760685
0.16259086 0.17547905 -0.047905505 0.10558813 0.031066295 -0.11112912 -0.17412515 0.016965387
0.13041855 0.04944019 0.12555501 -0.03449177 -0.058169626 0.061813746 0.04293163 -0.05822755
0.09482096 -0.05848399 -0.0076773507 0.050063413 0.056227237 0.2864345 0.072769634 -0.022776054
0.072045796 0.0045321938 0.027948376 0.036295768 -0.13522264 -0.021315254 0.056073833 0.093772106
0.13203083 0.042952653 -0.065756366 0.0071482817 0.03554366 -0.010991175 0.17574163 0.12856688
0.29998255 0.0023965952 0.19927563 0.009720661 0.02048478 0.06457602 0.19502789 -0.1328305
-0.08498237 -0.13756208 -0.247335 -0.028651247 -0.015821405 -0.19897206 0.09369214 0.17949922
-0.17131978 0.043868344 0.075906485 -0.09577942 0.102813154 -0.08724599 -0.056750663 -0.027123038
-0.025609743 0.078917645 -0.21455182 0.04144784 0.024125481 -0.0054307496 -0.0384496 0.1265417
0.06689854 0.073691666 0.11754697 -0.03272592 0.042471156 -0.048263986 -0.09661334 0.18270597
0.0015431007 0.009172177 -0.048893888 -0.120403506 0.24067645 0.1966894 0.17394349 -0.17626974
0.14635894 -0.011813735 0.17344455 -0.086858 -0.2196551 0.20283382 0.24424756 -0.056889053
0.06023938 0.050273307 0.03319965 -0.009612752 -0.18675868 0.059119266 0.07868534 -0.15077366
-0.11349853 -0.17589527 0.022143945 0.06570082 -0.17266122 -0.08491208 0.073553495 -0.09053213
0.04147048 0.13168529 0.18975179 0.05990461 -0.010496816 -0.08307379 -0.19123621 -0.044242084
-0.09208036 -0.009556815 -0.23335145 0.011335652 0.10105559 -0.19574708 -0.0036251994 -0.09510698
-0.040278904 -0.019664751 0.030531647 0.061781008 -0.020117585 0.15464184 -0.2459548 0.11818451
-0.007880653 0.00020699724 0.00012675778 0.088654906 0.011071254 -0.038338337 -0.11250749 0.030198762
-0.12038748 0.024271112 -0.054528758 0.009411134 0.186396 0.044980332 0.056128684 0.012000024
-0.18893948 -0.029133117 -0.02970636 -0.2004947 0.1459022 -0.050749842 -0.07605717 0.060907077
-0.10457366 -0.005530323 -0.20475924 -0.07509652 0.11707545 -0.048721876 -0.008473695 0.025097791
0.09851523 0.0564312 -0.104044616 0.041049175 0.018300787 -0.0066153533 -0.06903451 0.055266317

res_blocks.0.conv.0.bias f4 [20]
00000000: 35c6 7dbd 8a85 dfbc 3b8a 303d adcb 263b
00000010: 191c 893d eb7d 833c 5936 823d 554e d2b9
00000020: 94b8 8e3c d33c 79bd 2c77 513d 81be 953b
00000030: 74be 23bd e8c2 8cbd f928 913d 2dcc 213d
00000040: 4035 e1bc 9603 07bd e78d f43b 3202 d13c
-0.061956603 -0.027285356 0.043100577 0.002545099 0.06694812 0.016051253 0.06358022 -0.00040112683
0.017421998 -0.060849022 0.05113904 0.004569829 -0.039976552 -0.06873113 0.07087893 0.039501358
-0.027491212 -0.032962404 0.007463205 0.025513742

res_blocks.0.conv.1.weight f4 [20]
00000000: 686d 853f ebca 763f 78cb 603f a459 853f
00000010: 7236 793f ea3e 633f dcec 623f 3293 803f
00000020: cff8 5a3f 20ff 8d3f 6c5c 8a3f 0230 853f
00000030: e29a 973f 59b0 693f b3d7 7f3f 33cc 473f
00000040: b5a5 703f 330a 983f 0bc2 733f 90f6 a03f
1.0424013 0.9640338 0.8781047 1.0417981 0.973487 0.88767874 0.8864267 1.004492
0.855359 1.1093483 1.0809455 1.0405276 1.1844141 0.9128471 0.99938506 0.7804596
0.9400285 1.1878113 0.9521796 1.2575245

res_blocks.0.conv.1.bias f4 [20]
00000000: 31f6 3ebd a4b2 cd3b 35a1 b8bc 9402 823d
00000010: 4409 3c3d 967d 02bc 964e 633d f3b3 64bd
00000020: 02cb 57bd 912f 86be 486d f53c 0d11 63bd
00000030: b064 f73c 0f1d 4bbc e802 753d af00 19be
00000040: 660d 6ebd f316 cdbd 0b5e 233e 6110 d23d
-0.046621505 0.006277399 -0.022537807 0.06348148 0.045907274 -0.007964512 0.055494867 -0.055835675
-0.052683838 -0.26208165 0.029959336 -0.055436183 0.030199379 -0.012397065 0.059817225 -0.14941667
-0.058118246 -0.10014143 0.15953843 0.1025703

res_blocks.0.conv.1.running_mean f4 [20]
00000000: fcdb 2e3f 0f2e 42bf d055 0dbf d6bd 0e3f
00000010: 328c 963e 6c45 e4be 5abc b0bf b5a9 a23e
00000020: 84b3 61bf d762 d53f 233f f5bc f8ef c4bf
00000030: 0545 eabf 4fbd 4f3e 3a39 fbbe c97c 21bb
00000040: b018 123f 2fc5 d43f c066 a2bf 1ab3 34c0
0.6830442 -0.7585153 -0.55209064 0.55758417 0.29403836 -0.44584215 -1.380748 0.317701
-0.88164544 1.6670789 -0.029937332 -1.5385733 -1.8302313 0.20287059 -0.49067098 -0.0024641028
0.5706892 1.6622676 -1.2687607 -2.8234315

res_blocks.0.conv.1.running_var f4 [20]
00000000: 6b4c 4240 caa9 1741 bd57 9b40 b9c4 9541
00000010: 0ed9 3440 937a 7940 fbc9 a641 ba5b 9040
00000020: 4903 2c40 5e9b c040 8051 6c41 a29d cf3f
00000030: 99dd d13f de7a 0142 7dbb c640 2d31 d941
00000040: 7d02 8141 6c5c c93f 38e7 d640 4ff5 9040
3.0359142 9.478952 4.8544602 18.721056 2.825748 3.8981063 20.848623 4.511197
2.6877005 6.0189657 14.769897 1.6219981 1.6395751 32.369987 6.2103868 27.149012
16.126215 1.573133 6.715725 4.529945

res_blocks.0.conv.3.weight f4 [20, 20, 3, 3]
00000000: 08e7 e7ba 9ed2 33bd 2763 56bd 8b06 4a3e
00000010: f4b3 fe3c 2677 09bd c8ab 333d 12a8 9b3d
00000020: a714 513d dd9b 273e 1068 1e3e 8118 c23d
00000030: 9d1a 33be b06f 753d a1c5 b23d 570f 443e
00000040: 6091 7bba 22e7 1cbe 88b8 0b3e b94d 0bbe
00000050: c6f8 433d b8e6 0fbc 34bf 02be b68e 733d
00000060: 3047 2bbe 4513 223c dd92 843d d6c8 4bbd
00000070: 695b 44be 06c4 bbbd 4b1c 3c3e d3ca 8e3d
00000080: cfa2 153e aa3c b43d 0be7 043e 948b 46be
00000090: e818 3e3a 8ab0 393e 2024 3b3e 7732 babd
000000a0: 7050 3a3e 7080 acbd 86f3 e4bd ce0d 68bb
000000b0: ace9 893d 4934 b0bd c05b 893d 11de 5d3c
000000c0: af41 86bd ca6b 8bbc faff b13d 8ab9 36be
000000d0: 93ba 29be 71f1 d1bd c8f4 b7bc 137c ccba
000000e0: 7745 43bd e855 8bbd 998c 133e 08b9 783c
000000f0: c57c c93d 429b 3abd 58dc 3dbc 7094 873d
00000100: cacf e53d c367 1cbd 5a41 ef3d 56f5 0abd
00000110: 89a2 3c3d 480c 19be aebc acbb 71ec 46bd
00000120: 11c3 80bd 5aae 66bd a604 95bb 80c3 403d
00000130: 6c53 333d 6433 44bd 810e 1fbe bae0 bc3c
00000140: d27c d5bd c33d c83d e2bc 26bc ec8e 593e
00000150: a758 ab3d 37ab 333e fa4f 8bbd 1189 003c
00000160: 4071 84bd 7604 a93d a856 65bd 168f 403e
00000170: 8479 79bc 8f03 503e 88b1 2d3e 05f7 c43c
00000180: d928 d0bd ff1a 84bb 3644 333e 7db5 eabc
00000190: 7fa2 883d da08 cdbb 9ebe 43bd f757 923c
000001a0: 5ae3 a83d bdc8 793d 04ad a1bc 9d69 b3bd
000001b0: 781e 2b3e b807 33be 26fe 413d 2628 063e
000001c0: 8c68 e63d 38ad 30be 2b73 4e3e 24c1 d53c
000001d0: 1aad cdbd b264 c3bd 6420 703d 7895 05bd
000001e0: d992 0d3e 2c01 66bd d585 833d 597c 433e
000001f0: b460 713e 541c 053d f5f5 d93c ddfd 4ebd
00000200: 7495 29bd 5839 573e 64ef a63d 6e7f ce3a
00000210: e109 74bd 39f1 34be 0619 d93c 6c57 a13c
00000220: fc6c ec3d 9f53 b33d 0cc0 b3bd 232c 15be
00000230: 2dad 033e 46a3 aebd 21fa 173e 3107 95bc
00000240: 7f1b e9bd 99f8 54bd f9c7 2a3e c2fb 6abd
00000250: 4dae 6a3e 5374 253e 84ee 8c3d d437 2e3e
00000260: 0be4 8bbd ae56 cf3e 2849 223e df03 ab3d
00000270: 7849 f53d 2406 673e 258e 203e 0386 bf3e
00000280: f480 073e 90cf e63e b4b1 cd3b 7e5b 4d3c
00000290: e701 65bd 18d6 dbbd 5c29 22be 7a06 febd
000002a0: d9b9 20be 6ac9 35be fd3a c03d 290a 713e
000002b0: 3a8d 3f3e 2f55 d73d 3854 743e bf58 7a3d
000002c0: 204c 323e b6c3 943e 98d3 a23d 694c 153c
000002d0: d08a 2f3e c057 a03d d9b8 133e f5f0 463d
000002e0: 4c59 433d 2a81 e2bd 7e91 ecbc deb0 fe3d
000002f0: e347 983d 6a17 443e 8de3 29bd 7590 b6bc
00000300: 4ec1 02bd 37e7 643e 17c4 c2bd 9a48 99bd
00000310: 391f a1bd ce34 f4bc 563d 5cbd db1c 613d
00000320: f66a 69ba 3840 fabd 7506 98bc b921 24bd
00000330: d5a5 8fbd d000 0b3e 4402 263d 8c33 22be
00000340: ea67 9abc d720 eb3d 34e0 3dbe c3f9 2dbe
00000350: c065 c33b 6663 06bc 974e ce3d 027c b03d
00000360: ffa3 9f3d e5fa 01be b857 143d 4237 93bd
00000370: 22fa 61be ab44 af3d 6246 72bd 41ae 01be
00000380: 7637 04bc 6485 0c3e eaf8 c93d 845d 893d
00000390: 70ac 603e 8fb4 69bd 7edf 7bbc b589 9d3e
000003a0: b606 1ebe 0efc b6bd 9fca e3bd 2123 7e3d
000003b0: 9b51 17bd 693a 1fbe 854f 983d 88a3 203c
000003c0: 0b97 c93d 6115 7b3d 33c4 7abd 740c c6bd
000003d0: 52ee 0c3e 01ff 3f3e a642 01be 6ee2 673c
000003e0: 9d32 bd3c 864a d63d 17ab f53d 4bd0 fbbd
000003f0: 1c4a 92bd f3ce dabd c242 c93b d92c dabd
-0.0017692754 -0.043902032 -0.052340653 0.19729058 0.031091668 -0.033560894 0.043864995 0.07600416
0.051045086 0.16368051 0.15469384 0.0947733 -0.17490621 0.059920967 0.08729101 0.19146477
-0.00095965527 -0.15322545 0.13644612 -0.13603868 0.04784467 -0.008783035 -0.1276825 0.05946227
-0.16726375 0.0098922895 0.064733244 -0.04975208 -0.19175495 -0.09168248 0.18370168 0.069722794
0.14612888 0.08800633 0.12978761 -0.19389182 0.0007251636 0.1813375 0.182755 -0.09091657
0.18194747 -0.08422935 -0.11179261 -0.003540862 0.067340225 -0.086037226 0.06706953 0.013541714
-0.06555497 -0.017019171 0.08691402 -0.17844215 -0.16575079 -0.102511294 -0.022455588 -0.0015600942
-0.04767367 -0.06803495 0.14409102 0.015180834 0.09838251 -0.04555822 -0.011588179 0.06620109
0.11221273 -0.038184892 0.11682387 -0.033925377 0.046053443 -0.14946091 -0.005271516 -0.04856533
-0.06287206 -0.05631862 -0.0045476733 0.047061443 0.04378073 -0.047900572 -0.15532877 0.023056377
-0.10424198 0.09777405 -0.010176869 0.21245927 0.083665185 0.17545782 -0.06802364 0.007845179
-0.06466913 0.08252804 -0.055990845 0.18804583 -0.0152267255 0.20313857 0.16962254 0.02404357
-0.10164041 -0.0040315385 0.17506489 -0.028650993 0.06671619 -0.0062571587 -0.04778921 0.01786421
0.08246489 0.060982455 -0.01973582 -0.087603785 0.16710842 -0.17483413 0.047361515 0.13101253
0.112504095 -0.17253578 0.2016112 0.026093073 -0.10042782 -0.095406905 0.05862464 -0.032613248
0.13825549 -0.05615346 0.06422011 0.19090404 0.23572046 0.03249772 0.02660654 -0.05053507
-0.041402295 0.21017969 0.08151129 0.001575453 -0.059579734 -0.17670144 0.02650119 0.019695006
0.115442246 0.08756184 -0.087768644 -0.14567618 0.1285903 -0.08527236 0.1484151 -0.018191906
-0.113821976 -0.051994894 0.16677846 -0.057369 0.22918053 0.16157655 0.06881431 0.17013484
-0.06830605 0.4049582 0.1584822 0.08350348 0.11976904 0.22560936 0.15679224 0.3740693
0.13232785 0.45080233 0.0062772874 0.0125340205 -0.055910017 -0.107341945 -0.1583609 -0.12403579
-0.15695895 -0.17752615 0.09386251 0.23539032 0.18706217 0.10514294 0.23860252 0.06111979
0.17411852 0.29055566 0.079505146 0.009112456 0.17142797 0.07829237 0.14425983 0.04856964
0.047692582 -0.11059792 -0.02887797 0.124360785 0.07435586 0.19149557 -0.041476775 -0.02228568
-0.03192263 0.22353826 -0.095100574 -0.07484551 -0.078672834 -0.029810335 -0.053769432 0.05495916
-0.0008904183 -0.1221928 -0.018557766 -0.040071223 -0.07014052 0.13574529 0.040529504 -0.15839976
-0.018848378 0.11480873 -0.18542558 -0.16989808 0.0059630573 -0.008202409 0.100735836 0.086174026
0.07794952 -0.12693365 0.036216468 -0.07188274 -0.22068074 0.08558019 -0.059149154 -0.12664129
-0.008069864 0.1372276 0.0986193 0.0670729 0.2194078 -0.05705696 -0.015373109 0.30769125
-0.15432248 -0.08934794 -0.11122631 0.06204522 -0.03694306 -0.15549625 0.07437042 0.009804614
0.09843262 0.061299685 -0.061222266 -0.09670344 0.13762787 0.1874962 -0.1262308 0.014153106
0.023095423 0.10463433 0.119955234 -0.12295588 -0.071430415 -0.10684004 0.0061419914 -0.10653085

res_blocks.0.conv.3.bias f4 [20]
00000000: 53b4 193c d8e2 86bd e734 97bc e5ae 833d
00000010: c1d3 8abb 32e7 afbb b734 0e3d e147 733c
00000020: 0100 80bb 64fe 763d a8e2 2e3d ed2b c03c
00000030: 6904 f83c 3ff0 0a3d bc2e 83bc 6319 993c
00000040: 2e21 13bc b53e 81bd 8b9c 8c3d 6d71 813d
0.009381372 -0.06586236 -0.018457843 0.06429843 -0.004236669 -0.005368137 0.03471824 0.01484868
-0.0039062505 0.0603012 0.042696625 0.023458445 0.03027554 0.033920523 -0.016013496 0.018688863
-0.008980079 -0.063107885 0.06865796 0.063204624

res_blocks.0.conv.4.weight f4 [20]
00000000: 52de 543f 37ea 933f b439 8b3f ec0f 833f
00000010: e660 773f c3a7 9c3f 5959 a93f 52f3 8d3f
00000020: 053e 5c3f 52e7 493f a0a8 863f 00f7 703f
00000030: 5bcd 7c3f a647 8e3f 37ba 673f 687d 6a3f
00000040: 9ae4 723f f10c 6d3f cfdf ac3f cdd4 703f
0.83151734 1.1555852 1.0876985 1.0239234 0.9663223 1.2238697 1.3230392 1.108988
0.86032134 0.7886859 1.052021 0.9412689 0.9875085 1.1115615 0.90518516 0.91597605
0.9488007 0.9259787 1.3505801 0.9407471

res_blocks.0.conv.4.bias f4 [20]
00000000: 45c6 2abe 79e6 a8bd 43b9 763d 7b8e 5cbd
00000010: 56f1 2e3e b2bd 0d3e 4d4f 00bd 5e2f 113d
00000020: 75c0 7bbd a621 f1bc 0313 6cbd 26ae 76bd
00000030: ad39 15bc 2413 843d 8cad a13d 1e72 f93c
00000040: 008c 3e3c 0ef2 fc3c e1df 1d3d 0b29 bd3c
-0.16677196 -0.08247084 0.060235273 -0.053846817 0.1708425 0.13841894 -0.031325627 0.035445563
-0.06146284 -0.02943499 -0.05763532 -0.060224675 -0.009107989 0.06448963 0.078944296 0.030449923
0.011630058 0.03087714 0.038543586 0.02309086

res_blocks.0.conv.4.running_mean f4 [20]
00000000: 5e73 3f3f 41c9 b4bd 663c 3c3f 6f45 9fbf
00000010: 116f 483e c53f 29bf 0c1c 5f3f 5188 c3bf
00000020: e365 023d 425c 09be 3606 0d3f 2396 7d3e
00000030: ac92 e53d ef8e a6bf 05a6 c9bd 1924 013f
00000040: d5c4 543e 8565 a93e b228 34bf cdbc 88be
0.7478541 -0.08827449 0.7352966 -1.2443064 0.19573618 -0.6611293 0.8715217 -1.5275975
0.031835448 -0.134141 0.550876 0.24764304 0.11209616 -1.301237 -0.09846119 0.50445706
0.2077821 0.33085266 -0.70374596 -0.26706544

res_blocks.0.conv.4.running_var f4 [20]
00000000: 462a 853f 7263 1540 3d7b 2140 64ff 0241
00000010: 8af8 0940 72bd fd3f bf6d 9b40 032b 6340
00000020: 2a22 7440 e8fa 6d40 43cb 4240 d6b6 be40
00000030: b33f 1240 7e03 0740 6f4c 2d40 fea0 2941
00000040: 3789 bd40 d18a 8341 a5eb 0541 1f1d 4741
1.0403526 2.3341947 2.5231469 8.187351 2.1557946 1.9823439 4.8571467 3.5495002
3.8145852 3.718439 3.043656 5.959819 2.285138 2.1095881 2.7077901 10.601805
5.923 16.442781 8.37003 12.44461

final.0.weight f4 [20, 20, 1, 1]
00000000: 7cb0 083f 0b8d 753e 5de9 1ebe 18fa 983e
00000010: dfb3 c8be ea66 75be 1113 f4bd 9a3c 503e
00000020: 15a7 d8bc 1878 dc3d 3075 06bf 28e9 e73d
00000030: 7327 833e f09a 5e3f 7e6c abbe 1a6e 253e
00000040: 823d d6be 4870 15be 44a3 733e 1bfa 10bf
00000050: 9027 9bbe 0fb5 f7bd 74cc c0be d4d1 773e
00000060: 18e2 ea3d 75ed e13e 857e 04bf 9900 b1be
00000070: aa47 9dbe 62d1 90bd 462e 26bd 1afe d83e
00000080: f5c4 aa3e 7c76 c9bd 9a72 1e3e bef1 3e3e
00000090: a09d bd3c 3cd2 a1bd 5880 663d 83a4 853d
000000a0: 87fb 7abe 31cc 4bbe 8a17 7d3e 7cac c3bd
000000b0: 0ce6 bc3e 0349 393e 41b7 143e 5b3d d73e
000000c0: 047a dd3e f0b4 0cbe 705f 6b3e 909e cdbb
000000d0: eed8 793e 2766 82be 2803 f73d 3a5b 0bbf
000000e0: cae7 17bd a3c2 f63d 2c32 3a3e 9023 9f3e
000000f0: fa1f a03d 8945 32be 16cd fe3d d378 a03d
00000100: 9e51 83be e245 f9be 44b8 7d3c ecf9 a53d
00000110: 3cbc 76be 682b 24be a450 5b3e 500f 53bf
00000120: de18 cdbc ede7 91bf 6077 833e 32c2 b63d
00000130: 043b de3e 4609 a0be a547 18bd 61aa e03e
00000140: 7c0d 3bbe f4f3 62be e5da 03be 21e5 743f
00000150: bffd 9e3d 5692 bd3e c1b1 be3d c788 323d
00000160: 8437 97bd 728b 27be 9a43 15bf 1e50 8f3e
00000170: a84b 01bc 835d 9bbd 9862 873d b12f 86be
00000180: 2bf8 f13e 521c 0d3e abc8 103e 3306 a2bd
00000190: 01c1 9c3e 5015 09bc 9966 de3d 4e39 4b3e
000001a0: 51c8 95bd 578a c0be fef9 313e 8d27 1fbf
000001b0: 172e fa3e a938 cf3d fbc7 953e 94e0 203e
000001c0: 73c4 dbbe 4b39 9ebe 7921 2bbe f840 b23e
000001d0: 1996 02be fae5 55bd a76e 4a3e e85c ecbd
000001e0: 7515 6b3d 79fd 363e e1e6 3fbf 0cbc 15bf
000001f0: e403 4fbe 3fd8 ee3e 228e 83be bc7a e83d
00000200: b804 c5be 0efc d0be fc9a 02bf aea2 75be
00000210: 7dae 2e3e fad8 943d 9a58 99be 1b70 bcbe
00000220: 7555 863d 0341 443e 3f08 253f 762f 24be
00000230: 3785 50bf 5816 88ba c2fa 103d 8f7c 493e
00000240: 5da2 94be 0806 86be f41d 58bf c8f4 773f
00000250: 64fe 803e c4be 533e 34df 163e 8d6f a9be
00000260: 594f babe ead7 9d3e 52d3 55be 6676 883e
00000270: a126 a43d be10 8ebe cde5 e8be 4f79 433e
00000280: f282 f53e 6774 473f c8f2 9bbe fddb 3a3e
00000290: 45fb 8fbe d309 823e 69ef 0abf 5556 2c3e
000002a0: 6c69 2abf eba7 10be dbec c5be 1c45 903e
000002b0: 2b37 263e c1ab 063e 0acf f83e 6455 483f
000002c0: b224 3e3f da97 5c3e 0f24 74be 73c8 d2bd
000002d0: 56b5 3c3e f14e 87bf 647b d63c 598f a0be
000002e0: b994 553d f8d1 c6bb 9cbf d6be 3f4b cdbe
000002f0: 6d0d b53e 4465 253c 6f86 403e c8d9 7e3e
00000300: ab07 02bf c66a 28bf 3840 833e 64aa 9dbd
00000310: 54b4 363e 8878 85be c49a 1e3f 5525 bd3e
00000320: ec31 243e ffb4 4bbe 6390 1b3e 1d02 073f
00000330: ded3 eebc 4943 da3e 3df7 2e3e 90bc 3dbe
00000340: 2744 7a3e d1bc 8c3d 4c09 43be cc4f 82bc
00000350: 66e8 8c3f 354a 023d 0d02 90bc a97f 073f
00000360: 0e84 b93e 142c 20bb d233 61be b0c5 d6bd
00000370: 8b86 41be 42dc 4c3e ed73 debd c6a7 2dbe
00000380: 9611 1dbe 17f2 1f3e 47ea 19be 2a83 c43d
00000390: 6041 e9be 4418 d4be 198b 5f3e 03d1 3bbe
000003a0: f89a e93d a160 83be 3bfa 1dbe a1c3 54bf
000003b0: 901e bdbe af88 2c3e 60bb 483f 5eae edbd
000003c0: e8c4 04bd 2738 d1be 0577 0abf 6277 efbe
000003d0: f399 45be 4b9e 533f 5d83 47bd baeb da3c
000003e0: 0151 e43e 0a49 a1be 6934 9f3e 8c4d abbe
000003f0: d9ad 16bf e734 ffbd be90 c73e 7a4b 483e
0.53394294 0.23979585 -0.15518709 0.29878306 -0.3919973 -0.2396504 -0.11917699 0.20335618
-0.026446858 0.107650936 -0.52522564 0.11323768 0.25616035 0.86955166 -0.3348121 0.16155282
-0.41843802 -0.14593613 0.2379275 -0.5663163 -0.3030362 -0.12095081 -0.37655985 0.24201137
0.11468905 0.44126478 -0.51755553 -0.34570768 -0.30718738 -0.070711866 -0.040571474 0.42381364
0.3335339 -0.09837052 0.15473405 0.18646905 0.02314645 -0.07901427 0.056274742 0.06525519
-0.24510013 -0.19902112 0.2471601 -0.09554383 0.36894262 0.18094258 0.14523031 0.42038998
0.43257153 -0.13740897 0.22985625 -0.0062750056 0.24399158 -0.2546856 0.12061149 -0.54436076
-0.037086286 0.12048843 0.18183202 0.3108182 0.07818599 -0.17409338 0.12441461 0.078355454
-0.25648206 -0.4868613 0.015485827 0.081043094 -0.24095243 -0.16032183 0.2141748 -0.8244524
-0.025036272 -1.1398903 0.25677013 0.089237586 0.434044 -0.31257075 -0.0371777 0.4387999
-0.18266863 -0.22163373 -0.1287647 0.9566212 0.07763242 0.37025708 0.093112476 0.043587472
-0.07383636 -0.16361788 -0.58306277 0.27990812 -0.007891573 -0.07586195 0.06610602 -0.2620826
0.4725965 0.13780335 0.14139049 -0.07911339 0.30616 -0.008366898 0.10859413 0.19846079
-0.07313598 -0.37605545 0.1738052 -0.62169725 0.4886329 0.10118229 0.29254135 0.1571067
-0.42923316 -0.30903086 -0.16711988 0.34815192 -0.1275257 -0.052221276 0.19768773 -0.11541158
0.05739351 0.1787013 -0.7496167 -0.5849006 -0.20216328 0.46649358 -0.25694376 0.11351535
-0.38480163 -0.40817302 -0.5101774 -0.23987839 0.1705875 0.072679475 -0.2995041 -0.3680428
0.065592684 0.19165425 0.6446571 -0.1603373 -0.8145327 -0.0010382636 0.03539539 0.19676422
-0.29030123 -0.26176476 -0.84420705 0.9685788 0.25194085 0.2067824 0.14733583 -0.3309292
-0.36388662 0.30828792 -0.20881394 0.2665283 0.080151804 -0.27747148 -0.45487824 0.19089244
0.47951466 0.7791199 -0.30458665 0.18247981 -0.2812139 0.2539812 -0.5427156 0.16829808
-0.6656711 -0.14126556 -0.3865727 0.28177726 0.16231982 0.13151456 0.48595458 0.78255296
0.7427474 0.21542302 -0.2384188 -0.10292139 0.18428549 -1.0570966 0.026181884 -0.31359366
0.052143786 -0.0060675107 -0.4194306 -0.4009647 0.35361806 0.010094944 0.18801282 0.24887764
-0.5079295 -0.65787923 0.25634933 -0.07698515 0.17842227 -0.2606852 0.61954904 0.36942545
0.16034669 -0.19893263 0.15191798 0.527376 -0.02915376 0.4262946 0.17086501 -0.18528962
0.2444006 0.06871951 -0.19046515 -0.01590719 1.1008422 0.03180905 -0.017579103 0.5292917
0.36233562 -0.0024440335 -0.21992424 -0.10486925 -0.1889898 0.20005897 -0.10861955 -0.16958532
-0.1533874 0.15619694 -0.15030776 0.0959533 -0.4555769 -0.41424763 0.21830405 -0.1834145
0.11406511 -0.2565966 -0.15427487 -0.83111006 -0.3693738 0.16849016 0.7841091 -0.116055235
-0.032414347 -0.40863153 -0.5408786 -0.4677077 -0.19297008 0.8266341 -0.048709262 0.026723731
0.4459305 -0.31501037 0.31094673 -0.334576 -0.5885902 -0.12461262 0.38977617 0.19560042

final.0.bias f4 [20]
00000000: 41f5 dabd 5ff8 e2bd 4aad 5b3e a0a0 203e
00000010: c5e1 1d3e aafb 943d 9949 5ebd 918a 0f3e
00000020: 5aff 9d3d d38e b23d a1a7 8b3d 3e99 38be
00000030: fe63 543d 1c99 b13d 6085 09be b607 4fbe
00000040: 7988 f63d acf6 f2bd 26b7 f0bd 6033 773d
-0.1069131 -0.11082529 0.21452823 0.15686274 0.15418155 0.072745636 -0.054269407 0.14017703
0.0771472 0.08718648 0.06819082 -0.18027207 0.051853172 0.086717814 -0.13429785 -0.20217785
0.12037749 -0.11863455 -0.11753683 0.06035173

final.1.weight f4 [20]
00000000: f72e 8a3f c2f6 fb3e cb37 b33f b97d 363f
00000010: d48c 0840 5811 cf3e c809 f73f ece1 6c40
00000020: fccf 0e3f d0bd 3340 0f1c f63e 63eb 0f3f
00000030: 31cf 143f 8244 bb3e 9ab0 ec3e 31b8 7b3f
00000040: 2872 113f 95e9 bc40 e40d fd3e e9eb 8940
1.0795583 0.492117 1.4001402 0.7128559 2.1335955 0.4044292 1.929986 3.7012892
0.5578611 2.8084602 0.48068282 0.56218547 0.5812865 0.36575705 0.46228486 0.9832793
0.56814814 5.9035134 0.4942466 4.3100476

final.1.bias f4 [20]
00000000: 7d0d 32bd f674 19bf 7413 17be a83d 03bf
00000010: ef79 c63e a8c6 10bf 2de8 2b3f 3dc0 d93f
00000020: 8fb1 0fbf 5a60 333f 7997 17bf 139d 21bf
00000030: 4c9d f5be d3e1 34bf 5036 1abf 4e12 98bd
00000040: bec3 f8be 1a98 6840 d6c2 1cbf 9c82 0640
-0.043469895 -0.59944093 -0.14753515 -0.51265955 0.38764903 -0.56553125 0.6715115 1.7011791
-0.5613031 0.70068896 -0.59215504 -0.631303 -0.4797157 -0.7065708 -0.60239124 -0.07425366
-0.4858684 3.6342835 -0.61234796 2.1017218

final.1.running_mean f4 [20]
00000000: 7f88 a4be f3c5 6bbc d865 143f 4cc6 9abf
00000010: d74d a03e 3507 98bd 2707 98bf 301c 92be
00000020: 6d3b 9e3f 677c 11bf 76ab ba3f 0f72 a3bf
00000030: 9771 e33e c701 66bf 8d3c a53e eb3b c03e
00000040: 5bbf aa3f 82a0 a23f ef04 983d 17d2 24bf
-0.32135388 -0.0143904565 0.579679 -1.2091765 0.31309387 -0.0742325 -1.1877183 -0.2853713
1.2361885 -0.5683045 1.4583576 -1.2769183 0.444226 -0.8984646 0.3227276 0.37545714
1.3339647 1.2705233 0.07422816 -0.6438307

final.1.running_var f4 [20]
00000000: 894b 8a40 1bcf c93f 6fa5 b63f 2de6 a43f
00000010: 9473 2240 e776 a940 5b1b bd3f 2076 d43f
00000020: 3253 3b40 c994 883f acfc d03f fa07 1e40
00000030: 36ec 1f40 ae0f b040 63c3 e13f b392 1441
00000040: febe f93f 3fb3 5f41 0aff 943f b1d3 8c40
4.3217206 1.5766329 1.4269236 1.2882744 2.5383043 5.2957644 1.4773973 1.6598549
2.9269528 1.0670406 1.6327109 2.4692369 2.4987922 5.501914 1.7637752 9.285815
1.9511411 13.981261 1.1640332 4.400841
