图像处理/model_weights.pth (torch, 81989 bytes, 24 tensors)

initial.0.weight f4 [30, 3, 3, 3]
0.15455982 0.13659774 0.09384203 0.24462143 0.0671555 0.28613284 0.07171965 0.06711618
0.06411147 0.08674842 0.2594891 0.2081981 0.13944457 0.15727936 0.002719732 0.14645022
0.17510076 0.2771285 -0.010047603 -0.017983666 0.001979072 0.047453962 0.16650178 0.081288315
0.16275619 0.029902777 0.042690966 0.41881612 0.17757119 0.072521575 0.37602165 0.059169963
-0.0046284217 0.4602535 0.24215823 0.07090943 0.27601588 0.11108648 -0.112841934 0.2650948
0.22096619 0.13180837 0.44072747 0.20074418 0.19830821 0.21650156 0.0035552545 0.062343355
0.29273063 0.17590818 0.16050485 0.4942764 0.30632457 0.21704625 -0.17992777 -0.07256462
-0.15793996 -0.08542919 -0.08990067 -0.067912124 0.0927164 -0.0153754465 -0.019243449 -0.13341908
-0.24621175 -0.031212028 0.014881218 0.057615526 -0.033194542 -0.07165986 -0.035185445 -0.023185281
-0.13634904 -0.25573462 -0.22200587 -0.06998949 -0.17802373 -0.029243372 -0.12272544 -0.06735074
0.027362471 0.08190692 0.118308194 0.12333558 -0.0873328 0.021514991 0.009329278 -0.06682048
0.054875523 0.1950177 0.008575621 -0.051791698 -0.016471244 0.041898318 -0.025690774 0.04114349
0.025085509 -0.067704104 0.07785055 -0.027254073 0.054709613 0.16296022 0.14694981 0.0693775
0.15134911 0.1718172 0.13681841 -0.03391318 -0.032357898 -0.015527102 -0.030114174 0.10288276
-0.15974624 -0.20939563 -0.128871 -0.22065915 -0.14575519 0.26065043 -0.10509897 -0.05201737
-0.15527527 -0.106137946 -0.22193049 -0.24823567 -0.26552954 -0.2954523 0.14679503 0.013827797
-0.20580466 -0.049630273 -0.23096727 -0.16377285 -0.25751483 -0.28641215 -0.14095719 -0.013125738
0.0633713 0.08643368 0.053625856 0.09577738 0.060311332 0.09345405 0.05221362 -0.09256883
-0.017330922 0.087035075 0.050544642 0.16196644 -0.08594904 -0.02144648 0.18042348 0.09022749
0.04702954 -0.049609825 0.14787616 0.107499816 0.08101866 0.10193028 0.029601771 -0.07370986
0.05078207 0.06609624 0.10009838 0.088390246 0.05067248 0.0145774875 -0.061402496 -0.08177431
0.050659567 -0.14735983 -0.1356068 -0.07098057 -0.1665662 -0.25435558 -0.15571006 0.0655669
-0.1141762 -0.10437488 -0.2046432 -0.2110201 -0.022273945 -0.030924803 -0.14858775 -0.032545585
-0.14253737 -0.19994025 -0.16797 0.03959132 -0.3340993 0.11239435 0.06789739 0.035286505
0.012884346 0.1601389 0.08275558 0.0033188483 0.1482334 0.17704816 0.14665064 0.066209756
0.053636428 0.13050653 0.04688307 0.053133763 0.2377618 0.15677467 0.061623488 0.14166822
0.19676578 0.13738368 0.08677282 0.070473485 0.16139665 0.15324555 -0.005652431 0.091288865
-0.08241577 -0.27271342 -0.32076693 -0.3076913 -0.17715396 -0.40307498 -0.3965269 -0.22739875
-0.4320779 -0.18802567 -0.17954358 -0.23006304 -0.2337686 -0.31599516 -0.34156138 -0.37930316
-0.3263309 -0.40987444 -0.192704 -0.343188 -0.16758926 -0.2689346 -0.29650283 -0.26942432
-0.36781818 -0.47036195 -0.45199522 -0.013393022 -0.010663182 0.1428095 -0.18444526 0.008098075
0.18645892 0.052656174 0.13166972 0.0064660846 0.05184519 0.07588314 0.07355404 0.18342374
00000000: ee44 1e3e 47e0 0b3e 4030 c03d 0a7e 7a3e
00000010: d388 893d 0180 923e c0e1 923d 3574 893d
00000020: e04c 833d 28a9 b13d c1db 843e e231 553e
00000030: 8fca 0e3e d70d 213e 883d 323b 0cf7 153e
00000040: 9d4d 333e c9e3 8d3e b49e 24bc 7b52 93bc
00000050: 52b3 013b 165f 423d 717f 2a3e 7d7a a63d
00000060: 8fa9 263e abf6 f43c b9dc 2e3d 116f d63e
00000070: 39d5 353e 3186 943d e985 c03e 345c 723d
00000080: 04aa 97bb 59a6 eb3e 54f8 773e f738 913d
00000090: f451 8d3e 4f81 e33d ac19 e7bd 81ba 873e
000000a0: f644 623e c6f8 063e 08a7 e13e e28f 4d3e
000000b0: 4f11 4b3e 96b2 5d3e 46ff 683b bf5b 7f3d
000000c0: cae0 953e 4621 343e 625b 243e cc11 fd3e
000000d0: 93d6 9c3e 5f41 5e3e fc3e 38be c29c 94bd
000000e0: 03bb 21be 80f5 aebd d81d b8bd 8315 8bbd
000000f0: 19e2 bd3d 4ce9 7bbc 70a4 9dbc 039f 08be
00000100: ef1e 7cbe 5eb0 ffbc 5ad0 733c 42fe 6b3d
00000110: 00f7 07bd 68c2 92bd 9d1e 10bd 0fef bdbc
00000120: 159f 0bbe a6ef 82be 8255 63be a656 8fbd
00000130: da4b 36be cc8f efbc 7a57 fbbd 2fef 89bd
00000140: 4327 e03c d1be a73d 914b f23d 5d97 fc3d
00000150: 8adb b2bd 3540 b03c d4d9 183c 2dd9 88bd
00000160: 28c5 603d b8b2 473e c380 0c3c 8823 54bd
00000170: b4ee 86bc 929d 2b3d 7575 d2bc 1386 283d
00000180: 2080 cd3c 73a8 8abd 1c70 9f3d ef43 dfbc
00000190: 3017 603d 0bdf 263e 037a 163e ca15 8e3d
000001a0: 43fb 1a3e d9f0 2f3e 201a 0c3e 8ce8 0abd
000001b0: b789 04bd 6365 7ebc 00b2 f6bc 32b4 d23d
000001c0: 8594 23be cf6b 56be c2f6 03be 79f4 61be
000001d0: d940 15be f973 853e 213e d7bd 2a10 55bd
000001e0: 7b00 1fbe da5e d9bd bf41 63be 7e31 7ebe
000001f0: 7df3 87be 8645 97be 7051 163e fc8d 623c
00000200: 75be 52be 1d49 4bbd af82 6cbe 12b4 27be
00000210: fcd8 83be 9da4 92be 1557 10be 560d 57bc
00000220: d0c8 813d 2404 b13d c9a6 5b3d ee26 c43d
00000230: 0409 773d d664 bf3d f3dd 553d ba94 bdbd
00000240: 94f9 8dbc 723f b23d e607 4f3d 88da 253e
00000250: 0d06 b0bd 87b0 afbc efc0 383e 31c9 b83d
00000260: 0ca2 403d ac33 4bbd d96c 173e dd28 dc3d
00000270: 1ced a53d d3c0 d03d 6a7f f23c 32f5 96bd
00000280: dc00 503d 775d 873d 6100 cd3d f205 b53d
00000290: f28d 4f3d 6ad6 6e3c 2f81 7bbd 4a79 a7bd
000002a0: 6880 4f3d 7fe5 16be 82dc 0abe 435e 91bd
000002b0: 5490 2abe e53a 82be 7572 1fbe f047 863d
000002c0: 36d5 e9bd 7fc2 d5bd fd8d 51be a715 58be
000002d0: d977 b6bc 0356 fdbc 6327 18be 854e 05bd
000002e0: 51f5 11be 23bd 4cbe 5400 2cbe 822a 223d
000002f0: 100f abbe 022f e63d c90d 8b3d 9588 103d
00000300: dd18 533c 74fb 233e c27b a93d 0981 593b
00000310: 7fca 173e 1d4c 353e 962b 163e fb98 873d
00000320: dfb1 5b3d 81a3 053e 7608 403d caa2 593d
00000330: d477 733e 8a89 203e e968 7c3d 7911 113e
00000340: f87c 493e 4fae 0c3e f3b5 b13d 6754 903d
00000350: 2a45 253e 67ec 1c3e 0738 b9bb a8f5 ba3d
00000360: 99c9 a8bd 18a1 8bbe 903b a4be b789 9dbe
00000370: d967 35be d85f cebe 9305 cbbe 38db 68be
00000380: 5139 ddbe cd89 40be 46da 37be a595 6bbe
00000390: 0961 6fbe 1eca a1be 22e1 aebe 0634 c2be
000003a0: d814 a7be 10db d1be 3354 45be 56b6 afbe
000003b0: 859c 2bbe ccb1 89be 38cf 97be fcf1 89be
000003c0: aa52 bcbe 48d3 f0be eb6b e7be 686e 5bbc
000003d0: a0b4 2ebc a73c 123e 38df 3cbe caad 043c
000003e0: 16ef 3e3e 00ae 573d 6dd4 063e 73e1 d33b
000003f0: 9f5b 543d 9f68 9b3d 80a3 963d 6fd3 3b3e

initial.0.bias f4 [30]
-0.08867499 0.007483153 -0.16660738 0.026422476 0.117243215 -0.11305542 -0.001788541 0.17574802
0.1583983 -0.11948825 -0.16230759 -0.031314954 0.018575015 0.14010045 0.163182 -0.1718689
0.023717115 0.06400305 -0.18445052 0.0278301 -0.119588695 0.09391289 0.037990496 -0.040428225
0.046553265 -0.025415616 0.15340044 -0.035909172 -0.13753667 0.1077464
00000000: 3c9b b5bd 3d35 f53b 209b 2abe f373 d83c
00000010: 361d f03d 9a89 e7bd 7a6d eaba 4af7 333e
00000020: 2a33 223e 41b6 f4bd f633 26be 1c44 00bd
00000030: a12a 983c 7e76 0f3e 2f19 273e 67fe 2fbe
00000040: 654a c23c 0814 833d 99e0 3cbe f3fb e33c
00000050: ebea f4bd 6755 c03d ec9b 1b3d 1198 25bd
00000060: a3ae 3e3d 6934 d0bc 0115 1d3e 7f15 13bd
00000070: 6ad6 0cbe 25aa dc3d

initial.1.weight f4 [30]
1.0761003 0.67714095 1.1938578 0.97532105 1.1558369 1.0354211 1.1606989 1.1848863
1.3668166 0.70638174 0.85119003 1.0311214 0.9855261 0.9342442 0.8769075 0.75871074
1.0984298 0.86402494 1.1162131 0.86530405 0.99644256 0.63994753 1.0760626 0.93579453
0.93866676 0.8878402 1.2102103 0.9892826 0.900642 1.0458355
00000000: a8bd 893f 1c59 2d3f 55d0 983f a4ae 793f
00000010: 77f2 933f ae88 843f c891 943f 5baa 973f
00000020: d9f3 ae3f 6fd5 343f 97e7 593f c9fb 833f
00000030: 704b 7c3f a12a 6f3f 037d 603f de3a 423f
00000040: 5999 8c3f bd30 5d3f 12e0 8e3f 9184 5d3f
00000050: dc16 7f3f 9ad3 233f 6bbc 893f 3b90 6f3f
00000060: 774c 703f 7f49 633f 2ce8 9a3f a041 7d3f
00000070: 7990 663f f0dd 853f

initial.1.bias f4 [30]
-0.034037966 -0.13236059 -0.06878855 -0.0027817981 -0.09313255 0.079498984 0.032431748 -0.0072352663
0.18806073 -0.12189738 -0.2773698 0.21800046 0.14783691 0.08744086 -0.24040434 -0.2650895
0.15171689 0.012371735 -0.1511275 -0.09642794 0.06624788 0.03951359 0.04532314 -0.2790491
-0.031625126 -0.038952217 0.17023014 0.022150302 -0.05306129 -0.021485653
00000000: 656b 0bbd 8989 07be 03e1 8cbd d44e 36bb
00000010: 47bc bebd 5dd0 a23d 27d7 043d d015 edbb
00000020: fe92 403e 55a5 f9bd 6a03 8ebe 833b 5f3e
00000030: 8f62 173e 3214 b33d 8e2c 76be d0b9 87be
00000040: ac5b 1b3e d1b2 4a3c 2bc1 1abe 037c c5bd
00000050: f8ac 873d 01d9 213d c2a4 393d 86df 8ebe
00000060: 5989 01bd 5c8c 1fbd cf50 2e3e 8d74 b53c
00000070: cc56 59bd ae02 b0bc

initial.1.running_mean f4 [30]
1.1070739 1.9921502 -0.7604887 0.5348588 -1.0587878 0.45384374 -0.88455904 1.2205527
-2.886614 0.70331246 3.0084114 0.7554238 0.54662395 -3.6115637 -0.5794159 -2.1086123
0.790129 0.7731149 -1.1059597 0.87154895 0.6450624 1.4561994 -0.5544985 -0.8462227
-1.04839 2.5718815 0.8926661 0.7472071 -0.7066699 -2.746973
00000000: 99b4 8d3f c7fe fe3f 63af 42bf 82ec 083f
00000010: 5c86 87bf 355e e83e 7672 62bf 123b 9c3f
00000020: 49be 38c0 490c 343f d089 4040 7463 413f
00000030: 8cef 0b3f dc23 67c0 9a54 14bf 81f3 06c0
00000040: e545 4a3f dcea 453f 1690 8dbf d51d 5f3f
00000050: cf22 253f be64 ba3f 9df3 0dbf 0da2 58bf
00000060: a531 86bf b599 2440 c485 643f f748 3f3f
00000070: 52e8 34bf 68ce 2fc0

initial.1.running_var f4 [30]
0.41631642 0.86631066 0.25782466 0.22693892 0.41043395 0.23167922 0.31492746 0.37426314
1.7032592 0.2903509 1.8321406 0.2807542 0.23051517 2.5066433 0.27538744 1.0353415
0.28156924 0.26811647 0.3381185 0.30364946 0.27624902 0.5092169 0.2427133 0.29520512
0.38501245 1.3470706 0.28854883 0.2845413 0.24695472 1.5309442
00000000: 6d27 d53e 89c6 5d3f 9801 843e ad62 683e
00000010: 6624 d23e 513d 6d3e 2c3e a13e 6b9f bf3e
00000020: 6604 da3f e0a8 943e 9583 ea3f 04bf 8f3e
00000030: 2b0c 6c3e d86c 2040 95ff 8c3e 1286 843f
00000040: d829 903e 9046 893e de1d ad3e f177 9b3e
00000050: 8370 8d3e 0a5c 023f d689 783e 2025 973e
00000060: 5a20 c53e cf6c ac3f acbc 933e 66af 913e
00000070: b3e1 7c3e fbf5 c33f

res_blocks.0.conv.0.weight f4 [30, 30, 3, 3]
-0.05214197 0.06311485 0.11063695 0.028408702 0.03452897 -9.675743e-06 -0.101477735 -0.11734407
-0.03157042 -0.05436469 -0.004881024 0.0066688387 -0.068339 -0.10476773 -0.043942783 0.029153133
-0.012768843 -0.050803043 0.044272076 0.095330164 0.045775957 -0.13468605 -0.010600659 0.17236297
0.088917114 0.18136649 0.06520502 -0.067092694 -0.021517312 -0.10869884 -0.019375809 -0.19010873
-0.07007032 -0.09563953 -0.10495905 0.06426003 -0.02078683 0.042565394 0.0077998927 -0.025921088
0.07844568 0.117132306 0.050764482 0.03492622 0.19345927 0.022639135 -0.054947782 -0.057746015
-0.037189428 0.036613367 0.042862907 0.04402576 -0.0543175 0.02430989 -0.029827785 0.09167321
0.18509011 0.07502117 0.063454516 0.0971547 0.16429648 0.16712454 0.23321393 0.18460701
-0.06198296 -0.041657455 -0.01210409 0.11476209 0.079611905 -0.06064306 0.039579768 -0.019319875
-0.034414787 0.12570864 -0.06517948 0.10269427 -0.07551314 0.03954617 0.108401015 0.02954638
0.20209777 -0.0042739813 -0.06604296 -0.017181745 -0.06202177 -0.12835 0.04610894 0.01266872
-0.013294635 -0.05973117 0.12444408 0.0263206 0.0319442 0.0335397 0.13190314 0.18555044
-0.026759895 -0.005573429 0.006229286 0.082781225 0.03481746 0.036193896 -0.13057885 0.03922586
-0.06240621 -0.012675754 0.030567443 -0.055910952 0.031550277 -0.0019732798 0.04007344 0.021461183
-0.033992372 -0.0868501 -0.13445343 -0.1627474 -0.016697746 0.12964587 0.15174985 0.070051774
0.05237541 0.08580964 0.20985334 -0.01075955 0.15604049 0.078950875 -0.0138050085 -0.0007455584
0.10329358 -0.072609685 0.060965043 0.10004231 -0.13697878 0.0045694653 0.032501396 -0.01747821
0.09362872 0.030061563 -0.03872147 -0.17054243 0.12396495 -0.06061946 0.01346426 -0.05765523
-0.050084963 0.11054895 0.10593228 -0.004503894 -0.07259807 0.0014993462 -0.1253653 -0.0924043
0.024363335 0.0029624924 -0.07035333 -0.079717025 -0.012126325 0.19063054 0.028128147 -0.1316794
-0.065114856 0.03443557 -0.09308995 -0.04538861 0.10754257 0.17403266 -0.005326511 -0.085204914
0.009823402 0.06331182 -0.07936546 -0.089568615 0.103090025 0.10018107 -0.038735017 -0.14307559
-0.040198654 -0.036723945 -0.04063238 0.05274249 -0.11759644 0.054810412 0.052583616 -0.02122216
-0.039635208 0.11175634 0.021004356 -0.11733696 -0.055567328 0.032799292 -0.10853319 -0.013327642
-0.021166328 -0.07882593 0.035725728 0.015893579 -0.061384868 -0.1582625 -0.09869799 -0.025525074
0.030386958 -0.083637536 -0.07429026 -0.17221184 -0.02941063 -0.07329311 0.20401843 -0.12964593
0.035076126 0.24404213 -0.011563203 0.031157618 0.111374006 0.107245535 0.10509245 0.3602621
-0.058279585 0.14561057 -0.019724784 0.017958283 0.030391853 -0.06377495 -0.031351395 -0.064337805
-0.04639834 -0.06532815 -0.17047584 0.03431552 -0.1063823 -0.027783982 0.0023850692 -0.032045193
-0.0016711187 -0.2062549 0.0399313 -0.090959065 -0.036353305 0.01298734 -0.084981486 -0.01294779
-0.17196205 -0.008085642 -0.056407623 -0.09144414 -0.056260332 -0.12623996 -0.0006339445 -0.12427114
-0.03056146 -0.061374992 -0.043421194 -0.15616348 -0.03612489 -0.10177381 -0.06389962 -0.08802999
00000000: d192 55bd 5c42 813d a095 e23d 5eb9 e83c
00000010: 406e 0d3d 0055 22b7 8fd3 cfbd 1652 f0bd
00000020: fc4f 01bd 82ad 5ebd fff0 9fbb 4686 da3b
00000030: 51f5 8bbd 7790 d6bd 59fd 33bd 8dd2 ee3c
00000040: 6934 51bc da16 50bd a356 353d 763c c33d
00000050: 927f 3b3d 24eb 09be 63ae 2dbc eb7f 303e
00000060: 2d1a b63d 23b8 393e 368a 853d e567 89bd
00000070: 1345 b0bc 7f9d debd 04ba 9ebc ddab 42be
00000080: 0781 8fbd a8de c3bd c5f4 d6bd c39a 833d
00000090: 2449 aabc 0d59 2e3d 3e96 ff3b 7658 d4bc
000000a0: 21a8 a03d 10e3 ef3d 6bee 4f3d cc0e 0f3d
000000b0: 301a 463e b575 b93c ed10 61bd 1687 6cbd
000000c0: f153 18bd e6f7 153d 0491 2f3d 5b54 343d
000000d0: 077c 5ebd 8925 c73c 6659 f4bc 2abf bb3d
000000e0: 4388 3d3e b3a4 993d 71f4 813d 0bf9 c63d
000000f0: 563d 283e b222 2b3e a2cf 6e3e 9f09 3d3e
00000100: d8e1 7dbd 02a1 2abd 3c50 46bc 6308 eb3d
00000110: 910b a33d db64 78bd 651e 223d b744 9ebc
00000120: 85f6 0cbd c4b9 003e d27c 85bd 6051 d23d
00000130: a2a6 9abd 2afb 213d 5a01 de3d 400b f23c
00000140: b8f2 4e3e c10c 8cbb 8841 87bd bbc0 8cbc
00000150: 8a0a 7ebd 2f6e 03be badc 3c3d 7790 4f3c
00000160: bed1 59bc aca8 74bd 8adc fe3d 4d9e d73c
00000170: ecd7 023d ed60 093d 9e11 073e ef00 3e3e
00000180: 9137 dbbc 50a1 b6bb 0a1f cc3b 3489 a93d
00000190: c19c 0e3d 0d40 143d 76b6 05be 4cab 203d
000001a0: a79d 7fbd f7ad 4fbc 9368 fa3c e202 65bd
000001b0: dd3a 013d 2452 01bb 0c24 243d 5dcf af3c
000001c0: 963b 0bbd 77de b1bd 29ae 09be 41a7 26be
000001d0: b6c9 88bc e3c1 043e 5064 1b3e 4e77 8f3d
000001e0: 9987 563d f7bc af3d cbe3 563e d348 30bc
000001f0: 14c9 1f3e ffb0 a13d 672e 62bc 9471 43ba
00000200: 968b d33d 63b4 94bd 7bb6 793d fce2 cc3d
00000210: 2a44 0cbe 74bb 953b 2f20 053d 772e 8fbc
00000220: 6ac0 bf3d ab43 f63c 679a 1ebd ada2 2ebe
00000230: 56e1 fd3d 1c4c 78bd 3399 5c3c e427 6cbd
00000240: e425 4dbd 7d67 e23d 06f3 d83d 6795 93bb
00000250: 4cae 94bd b685 c43a c35f 00be 773e bdbd
00000260: 9e95 c73c 6026 423b 6815 90bd ae42 a3bd
00000270: 7ead 46bc a734 433e 006d e63c f7d6 06be
00000280: f05a 85bd 500c 0d3d f2a5 bebd 68e9 39bd
00000290: 473f dc3d 9e35 323e 038a aebb ea7f aebd
000002a0: 56f2 203c a1a9 813d 5c8a a2bd c06f b7bd
000002b0: dd20 d33d bc2b cd3d 9ca8 1ebd 6882 12be
000002c0: 58a7 24bd d96b 16bd 236e 26bd 8208 583d
000002d0: 67d6 f0bd e280 603d eb61 573d 18da adbc
000002e0: 8758 22bd 82e0 e43d 5411 ac3c 5c4e f0bd
000002f0: 919a 63bd 8d58 063d a646 debd 2f5c 5abc
00000300: 0265 adbc 7d6f a1bd 2455 123d 4033 823c
00000310: b36e 7bbd 910f 22be 2c22 cabd f619 d1bc
00000320: 12ee f83c 284a abbd 7e25 98bd 4d58 30be
00000330: 90ee f0bc b31a 96bd 35ea 503e e7c1 04be
00000340: fcab 0f3d 2ee6 793e 9773 3dbc 433e ff3c
00000350: 0e18 e43d 8ca3 db3d b63a d73d 4674 b83e
00000360: 93b6 6ebd f01a 153e df95 a1bc 401d 933c
00000370: 56f8 f83c 719c 82bd 526a 00bd 8ac3 83bd
00000380: 300c 3ebd c4ca 85bd 3891 2ebe 6e8e 0c3d
00000390: f7de d9bd 3c9b e3bc d24e 1c3b d241 03bd
000003a0: 7009 dbba 7c34 53be 018f 233d bf48 babd
000003b0: 34e7 14bd dac8 543c c60a aebd f822 54bc
000003c0: d216 30be a479 04bc ae0b 67bd 1147 bbbd
000003d0: 3c71 66bd 0c45 01be 4c2f 26ba de81 febd
000003e0: 075c fabc 5864 7bbd 6cda 31bd 52e9 1fbe
000003f0: b1f7 13bd ca6e d0bd cedd 82bd 1149 b4bd

res_blocks.0.conv.0.bias f4 [30]
0.010589845 -0.020757185 -0.004957123 0.055795085 0.032001372 -0.0048423214 -0.024235396 -0.011824034
-0.0044826996 -0.02073321 -0.041458 -0.0109349135 -0.023717681 0.034328546 0.02576916 -0.020719018
-0.011249328 -0.000672689 -0.05111277 0.03278817 0.03376028 0.022819897 0.03018219 -0.034688484
-0.053322885 -0.04061466 0.026556062 -0.059828512 0.055167377 -0.028955547
00000000: 0781 2d3c f90a aabc 5d6f a2bb 6389 643d
00000010: df13 033d 56ac 9ebb 4f89 c6bc 98b9 41bc
00000020: 9ce3 92bb b1d8 a9bc ddcf 29bd 5a28 33bc
00000030: 954b c2bc 179c 0c3d d819 d33c eeba a9bc
00000040: 1a4f 38bc 6557 30ba a05b 51bd e34c 063d
00000050: 3848 0a3d cbf0 ba3c a440 f73c 8315 0ebd
00000060: 1969 5abd 8f5b 26bd 198c d93c be0e 75bd
00000070: 30f7 613d 2f34 edbc

res_blocks.0.conv.1.weight f4 [30]
0.9584498 0.9964273 0.91561544 0.94632107 1.0007355 0.914315 1.1400363 1.4397353
1.0840983 1.1307397 0.91324383 0.87810695 0.8888682 0.9851277 0.9717439 1.0392175
0.9432995 0.9864108 0.9614818 1.1910232 1.1114705 0.9154003 1.006931 0.95009434
1.0050445 0.95506316 0.9831068 0.95441383 0.95419466 0.8278805
00000000: f75c 753f dc15 7f3f c665 6a3f 1942 723f
00000010: 1a18 803f 8c10 6a3f b6ec 913f 3f49 b83f
00000020: bcc3 8a3f 14bc 903f 59ca 693f 9ecb 603f
00000030: de8c 633f 5431 7c3f 35c4 783f 1405 853f
00000040: 137c 713f 6b85 7c3f ac23 763f 7373 983f
00000050: aa44 8e3f ad57 6a3f 1de3 803f 6239 733f
00000060: 4ca5 803f 057f 743f e3ac 7b3f 7754 743f
00000070: 1a46 743f faef 533f

res_blocks.0.conv.1.bias f4 [30]
0.0152987 0.0054109353 -0.03757332 -0.006534031 0.0029707935 -0.08461985 -0.15970522 0.13834709
0.17129143 0.03647876 -0.13499168 -0.058687937 -0.053154014 -0.08923905 0.13176413 -0.19522698
0.00073938677 0.037562933 -0.011639479 0.30129153 0.06282756 -0.08469887 0.032900203 -0.0063352585
0.050015945 -0.009903977 -0.27787852 0.049275663 -0.02735792 -0.040798344
00000000: 66a7 7a3c 374e b13b 7be6 19bd 6d1b d6bb
00000010: a5b1 423b 2c4d adbd c489 23be dcaa 0d3e
00000020: 0567 2f3e c16a 153d 423b 0abe c362 70bd
00000030: 06b8 59bd f7c2 b6bd 2ded 063e 95e9 47be
00000040: 68d3 413a 97db 193d 83b3 3ebc e242 9a3e
00000050: bcab 803d 9a76 adbd 5dc2 063d 0098 cfbb
00000060: 85dd 4c3d 4a44 22bc 1846 8ebe 47d5 493d
00000070: b71d e0bc 2a1c 27bd

res_blocks.0.conv.1.running_mean f4 [30]
0.1004243 -0.7760289 -0.27184716 1.5302542 0.8129611 -0.25962085 3.1605663 -3.1912937
-1.3211219 2.1163614 1.0910289 -0.6202122 1.7571189 -3.6095183 -1.6488583 2.6499367
0.45931906 0.087457165 -0.38661915 -2.2436662 -1.7152591 2.7953858 0.8573014 0.72473246
1.0603964 0.1273569 3.4050317 -1.0473205 1.2117796 -0.8628369
00000000: 41ab cd3d d4a9 46bf 8d2f 8bbe 5fdf c33f
00000010: 381e 503f 06ed 84be b846 4a40 283e 4cc0
00000020: 861a a9bf 7772 0740 d6a6 8b3f 3ac6 1ebf
00000030: 46e9 e03f 5902 67c0 ca0d d3bf 9098 2940
00000040: de2b eb3e be1c b33d f2f2 c5be 3a98 0fc0
00000050: 9c8d dbbf 9ae7 3240 1b78 5b3f 1188 393f
00000060: 12bb 873f d969 023e 0aec 5940 990e 86bf
00000070: 981b 9b3f e1e2 5cbf

res_blocks.0.conv.1.running_var f4 [30]
4.833655 98.474754 4.3492355 115.323685 5.306052 7.254662 14.2242775 7.507952
7.458913 20.840261 28.089394 3.3745642 23.565174 5.639173 8.221465 12.255641
19.831259 5.335984 4.869566 21.985464 72.358826 196.40688 3.9214664 3.6479285
6.378795 3.7197003 24.254814 2.1409671 7.7805996 36.417427
00000000: 4dad 9a40 13f3 c442 f02c 8b40 baa5 e642
00000010: 2ecb a940 3126 e840 a496 6341 2541 f040
00000020: 6aaf ee40 dbb8 a641 14b7 e041 dcf8 5740
00000030: 7a85 bc41 1b74 b440 1f8b 0341 1b17 4441
00000040: 6ba6 9e41 62c0 aa40 7cd3 9b40 3be2 af41
00000050: b8b7 9042 2968 4443 4ef9 7a40 a977 6940
00000060: 171f cc40 920f 6e40 dc09 c241 9b05 0940
00000070: acfa f840 72ab 1142

res_blocks.0.conv.3.weight f4 [30, 30, 3, 3]
-0.06871634 0.10214759 0.0073054116 0.06530673 0.05256489 0.11757986 0.24836953 -0.016533056
0.055161793 0.07028055 0.115272745 0.16607344 0.07464404 0.017970512 0.07701417 0.047497604
0.11729118 0.10529935 0.05025178 0.05750157 0.04913092 0.010865973 0.05617258 0.06749256
-0.14955316 0.09683892 0.0055150664 0.017219177 0.060983036 -0.017022608 0.11785573 0.07646235
0.03811556 0.081570975 0.11727728 0.03742025 0.028372975 0.03415705 0.1334003 -0.06843865
-0.014217567 0.057504863 0.031632386 0.1382949 0.01865221 0.057697847 0.055866066 -0.07831978
-0.12704334 -0.017604044 -0.076359846 -0.09978451 0.09039526 -0.11120694 0.14606015 -0.17363419
0.065139145 0.15755786 0.042047307 0.19648221 0.117946245 0.07876628 0.058464676 0.0077147377
-0.037294254 -0.048795667 -0.06080466 -0.06993452 -0.006242536 -0.007529846 -0.04977753 -0.047581833
-0.004835359 0.024462767 -0.03537063 -0.04203099 -0.031274594 0.13019775 -0.026822308 0.07968282
0.040573888 0.101795375 0.16914608 0.2511837 0.15206346 0.1773102 0.21760865 0.12409323
0.2325116 0.27788043 0.01288499 -0.016585467 0.15480861 -0.13840798 0.1901049 0.17308037
0.13710904 0.18779805 0.026502982 0.16492021 0.064205594 0.10234206 0.11947957 0.13713771
0.042839453 0.048402365 -0.011790313 0.18426839 0.024826463 0.06194991 0.0978537 0.14280255
-0.11786661 0.044686582 0.07506401 0.12387551 0.26264352 0.005287907 0.06078058 -0.09932773
-0.061240833 -0.057582673 0.05099722 -0.017075561 -0.119974576 -0.090627 0.013190862 -0.07112781
-0.13684495 0.17879264 0.020554349 -0.060719542 0.04046038 -0.067312114 -0.0761373 0.07203846
0.115788504 0.27357513 0.07705636 0.22903413 0.08712286 0.2815571 0.1761147 0.20099771
-0.059110273 -0.15771832 0.032792833 0.054983992 -0.0026407796 0.011817903 0.1254525 0.021070288
0.040485837 -0.01562907 0.06982616 -0.026416142 0.059570864 0.07023283 -0.04289964 0.08889502
0.0345104 0.09437105 0.021652501 -0.05715291 -0.13661785 0.019336259 0.017478412 -0.048116323
0.035896145 0.0666281 -0.008210373 -0.011943741 0.052629583 0.035422597 0.07614499 0.14765987
0.029254217 0.054279942 -0.05781867 -0.0748111 0.33084816 0.15053317 0.18207827 0.15319353
0.07791255 0.17396283 -0.057951838 0.10364475 0.019309616 0.010123261 -0.04536594 0.008800358
0.0399443 -0.06622361 0.019988272 0.071140856 -0.05379055 0.055664696 0.06175045 -0.16255492
0.036138635 0.23608357 -0.054001972 -0.057097737 0.018474123 -0.046337202 0.11223728 0.041267693
0.17368843 0.030608488 0.110642835 0.1511406 0.069024116 -0.04425444 0.000883552 0.11206237
0.030566448 0.036129523 0.054619275 -0.041182928 0.022054091 0.16483068 -0.08210328 0.07381289
0.10300582 -0.051052302 -0.05267113 -0.0032110345 -0.011361254 0.10360549 0.030048305 0.08035221
0.10938195 0.17050442 0.008636918 0.11821643 0.2707129 0.17870845 0.25175184 0.17834485
0.13759275 0.18331628 0.3316388 -0.057102483 -0.06604412 0.12440076 0.06268564 0.07119017
0.02307786 0.05161001 0.06946595 -0.124755114 0.07577707 0.035766926 0.16539754 -0.0037958485
00000000: 27bb 8cbd c132 d13d 3c62 ef3b 89bf 853d
00000010: 484e 573d b6cd f03d 9554 7e3e 5570 87bc
00000020: 55f1 613d 40ef 8f3d 1e14 ec3d 280f 2a3e
00000030: f9de 983d e536 933c 9bb9 9d3d d98c 423d
00000040: 5c36 f03d 30a7 d73d cfd4 4d3d c486 6b3d
00000050: 813d 493d 3207 323c 3815 663d 8a39 8a3d
00000060: 7724 19be 7c53 c63d bbb7 b43b 3b0f 8d3c
00000070: 59c9 793d ff72 8bbc 585e f13d 4b98 9c3d
00000080: 101f 1c3d af0e a73d 122f f03d fa45 193d
00000090: 716e e83c 43e8 0b3d 179a 083e 9029 8cbd
000000a0: ccf0 68bc 388a 6b3d f690 013d 2e9d 0d3e
000000b0: 85cc 983c 9454 6c3d d1d3 643d 1f66 a0bd
000000c0: a617 02be 5b36 90bc 8d62 9cbd d25b ccbd
000000d0: 2621 b93d 77c0 e3bd cb90 153e 29cd 31be
000000e0: ac67 853d d956 213e cc39 2c3d a232 493e
000000f0: cd8d f13d 3750 a13d a878 6f3d e9cb fc3b
00000100: dcc1 18bd f7dd 47bd 4f0e 79bd d439 8fbd
00000110: 308e ccbb edbc f6bb 86e3 4bbd 2be5 42bd
00000120: ee71 9ebb 2466 c83c cbe0 10bd b028 2cbd
00000130: ca19 00bd 8f52 053e 75ba dbbc bf30 a33d
00000140: ce30 263d 187a d03d a134 2d3e 269b 803e
00000150: 86b6 1b3e ce90 353e cdd4 5e3e 9724 fe3d
00000160: 8517 6e3e 5846 8e3e 911b 533c 3fde 87bc
00000170: 2686 1e3e d2ba 0dbe dcaa 423e fb3b 313e
00000180: 5066 0c3e 224e 403e c81c d93c d8e0 283e
00000190: 397e 833d b798 d13d b4b1 f43d d46d 0c3e
000001a0: 6c78 2f3d 8f41 463d 282c 41bc dab0 3c3e
000001b0: de60 cb3c 30bf 7d3d 8567 c83d d53a 123e
000001c0: 0d64 f1bd 4709 373d 29bb 993d 72b2 fd3d
000001d0: 3679 863e 2e46 ad3b 0ff5 783d 566c cbbd
000001e0: abd7 7abd cfdb 6bbd 76e2 503d 0ce2 8bbc
000001f0: 3bb5 f5bd a69a b9bd 7c1e 583c 75ab 91bd
00000200: 1521 0cbe 6b15 373e 9861 a83c 0eb5 78bd
00000210: c9b9 253d efda 89bd dfed 9bbd e688 933d
00000220: 8622 ed3d 0a12 8c3e bacf 9d3d ec87 6a3e
00000230: 786d b23d 4128 903e 6957 343e 58d2 4d3e
00000240: 9d1d 72bd e980 21be c751 063d e536 613d
00000250: ee10 2dbb e19f 413c 9f76 003e 999b ac3c
00000260: 7ad4 253d 8908 80bc 0501 8f3d aa66 d8bc
00000270: 9400 743d 3bd6 8f3d 88b7 2fbd 980e b63d
00000280: c75a 0d3d 9c45 c13d 9660 b13c 2b19 6abd
00000290: 8de5 0bbe 1367 9e3c e32e 8f3c 9f15 45bd
000002a0: d607 133d 5074 883d cd84 06bc aeaf 43bc
000002b0: 1e92 573d 4917 113d e8f1 9b3d 2634 173e
000002c0: 8aa6 ef3c a554 5e3d 45d3 6cbd 9036 99bd
000002d0: ee64 a93e 5e25 1a3e ba72 3a3e c4de 1c3e
000002e0: 9d90 9f3d 5023 323e e85e 6dbd b343 d43d
000002f0: 332f 9e3c 09dc 253c a3d1 39bd 602f 103c
00000300: a29c 233d 3ea0 87bd 72be a33c 4cb2 913d
00000310: 7b53 5cbd aa00 643d 0aee 7c3d cc74 26be
00000320: 1b06 143d e4bf 713e 2c31 5dbd 51df 69bd
00000330: 0b57 973c 14cc 3dbd a9dc e53d 5008 293d
00000340: 61db 313e a7be fa3c b698 e23d 9ac4 1a3e
00000350: 845c 8d3d 2544 35bd 2c9e 673a f580 e53d
00000360: 7d66 fa3c 8dfc 133d 76b8 5f3d 6eaf 28bd
00000370: c8aa b43c 60c9 283e c425 a8bd 362b 973d
00000380: b7f4 d23d 381c 51bd afbd 57bd 3870 52bb
00000390: 8e24 3abc 1d2f d43d dd27 f63c b38f a43d
000003a0: a503 e03d b698 2e3e dc81 0d3c 751b f23d
000003b0: e29a 8a3e 59ff 363e 9ee5 803e 08a0 363e
000003c0: 1de5 0c3e 43b7 3b3e 90cc a93e 4be4 69bd
000003d0: 2442 87bd d3c5 fe3d 5461 803d 27cc 913d
000003e0: c80d bd3c 0565 533d 2a44 8e3d 9c7f ffbd
000003f0: 0231 9b3d 5780 123d f95d 293e c5c3 78bb

res_blocks.0.conv.3.bias f4 [30]
0.0035018746 0.047892682 -0.012061514 0.037179407 0.016924387 0.054792248 0.015797326 0.018816452
0.05627003 0.054092105 -0.021302234 0.011083526 0.0361088 -0.03990515 0.0065846383 0.04284181
0.01609605 -0.058415323 0.027125746 -0.01603592 -0.032576386 -0.0067000785 -0.05877601 0.053832036
-0.0603926 0.013000221 0.0570649 -0.027279703 0.006771425 0.01285078
00000000: b57f 653b 1e2b 443d a89d 45bc 6f49 183d
00000010: 03a5 8a3c d66d 603d 6569 813c f624 9a3c
00000020: 677b 663d af8f 5d3d 0682 aebc ad97 353c
00000030: d2e6 133d 9573 23bd f3c3 d73b e57a 2f3d
00000040: dddb 833c e844 6fbd d036 de3c c35d 83bc
00000050: d16e 05bd 558c dbbb 1dbf 70bd fb7e 5c3d
00000060: 3b5e 77bd e1fe 543c e2bc 693d af79 dfbc
00000070: d4e2 dd3b 148c 523c

res_blocks.0.conv.4.weight f4 [30]
1.0768076 1.2264463 0.71827024 1.1597526 0.8626486 0.80324876 0.89929867 1.046023
1.0276893 1.2679322 0.9921903 1.0758644 0.98486215 1.0038288 0.7716035 1.3086156
0.9008016 1.3138324 0.7066407 0.99446076 0.7819222 0.95454574 0.998395 0.9625184
1.0971465 1.055273 1.082518 0.9857261 1.3592185 0.8680298
00000000: d5d4 893f 31fc 9c3f 8fe0 373f c672 943f
00000010: 8ad6 5c3f b6a1 4d3f 7038 663f 15e4 853f
00000020: 538b 833f 9a4b a23f 2f00 7e3f edb5 893f
00000030: ed1f 7c3f 767d 803f cf87 453f b780 a73f
00000040: ef9a 663f a92b a83f 68e6 343f fb94 7e3f
00000050: 0e2c 483f 1c5d 743f d196 7f3f 9b67 763f
00000060: 4c6f 8c3f 3013 873f f38f 8a3f 8c58 7c3f
00000070: dffa ad3f 3337 5e3f

res_blocks.0.conv.4.bias f4 [30]
-0.032587484 -0.31596053 -0.012946766 0.08191428 -0.030878386 0.028519157 0.072937004 0.07143081
0.08623641 0.041030847 -0.13938195 0.11192242 0.13120067 0.0015453208 -0.1154635 -0.05856544
-0.057829723 0.10919225 -0.09060806 -0.10091895 0.042608727 0.03206393 0.21643502 -0.22596782
0.008637948 0.05754762 0.13706754 0.013014739 0.021030735 -0.08036302
00000000: 747a 05bd 94c5 a1be ac1e 54bc adc2 a73d
00000010: abf4 fcbc 02a1 e93c ff5f 953d 514a 923d
00000020: b79c b03d f60f 283d 24ba 0ebe 9537 e53d
00000030: 7859 063e 5d8c ca3a 2178 ecbd 51e2 6fbd
00000040: dcde 6cbd 30a0 df3d b890 b9bd 98ae cebd
00000050: 7d86 2e3d 7855 033d 24a1 5d3e 1c64 67be
00000060: 2e86 0d3c 0eb7 6b3d 6f5b 0c3e c63b 553c
00000070: a648 ac3c 5e95 a4bd

res_blocks.0.conv.4.running_mean f4 [30]
2.4095707 1.0508026 -1.807084 -0.39387023 0.8032574 0.6503074 0.13840884 -1.1715305
-0.77340025 0.2358035 1.5126489 -0.9665175 -1.6887615 -0.58958286 -1.3250418 0.2089763
1.2827623 -1.2709055 -0.25257993 1.2265391 -0.5752789 -0.42632678 -2.714197 1.1005596
-0.2726024 -1.3765727 -1.6905428 -1.072228 -0.08177089 0.092433885
00000000: 6836 1a40 b380 863f 874e e7bf 5ca9 c9be
00000010: 47a2 4d3f 8c7a 263f 0cbb 0d3e b6f4 95bf
00000020: 8ffd 45bf 7976 713e 7b9e c13f b16d 77bf
00000030: 5629 d8bf e7ee 16bf f89a a9bf e2fd 553e
00000040: 8e31 a43f 08ad a2bf 2852 81be 3cff 9c3f
00000050: 7a45 13bf 8147 dabe 67b5 2dc0 23df 8c3f
00000060: 8b92 8bbe 8933 b0bf b563 d8bf c43e 89bf
00000070: 7f77 a7bd fa4d bd3d

res_blocks.0.conv.4.running_var f4 [30]
12.214761 2.889679 4.4948425 12.123264 2.9883935 7.27464 4.971988 2.9666858
6.2521024 4.6880946 5.411432 12.829095 16.626554 2.1520653 6.33046 16.745605
9.593817 7.7406497 10.252308 8.362497 2.493066 3.9005227 1.6664383 4.8676505
4.098928 4.461021 6.107563 4.5082936 4.564852 3.2128077
00000000: a96f 4341 80f0 3840 c0d5 8f40 e4f8 4141
00000010: d741 3f40 dac9 e840 871a 9f40 2ede 3d40
00000020: 3911 c840 df04 9640 732a ad40 f943 4d41
00000030: 2f03 8541 70bb 0940 2193 ca40 00f7 8541
00000040: 4680 1941 67b3 f740 7409 2441 cacc 0541
00000050: 658e 1f40 2aa2 7940 da4d d53f cbc3 9b40
00000060: 6b2a 8340 afc0 8e40 2871 c340 f143 9040
00000070: 4513 9240 a49e 4d40

final.0.weight f4 [30, 30, 1, 1]
0.59111136 0.0035821525 -0.021430671 0.6797567 -0.009923383 -0.11706706 0.24785124 -0.38739276
-0.39615998 0.5741833 0.038547035 -0.4884993 -0.23867188 -0.4223072 0.18453142 -0.29080233
-0.036536645 -0.20563078 0.06695402 0.08643519 -0.15304507 -0.2655059 -0.6837062 -0.090974644
0.23759785 0.6717599 -0.1359438 0.09438774 0.5932817 -0.035882622 0.7333836 0.12459491
0.3443266 -0.04023368 -0.13004369 -0.06955044 -0.08618048 -0.1580297 -0.29914612 0.13140814
0.1306781 0.28598002 0.0064057354 -0.15953796 -0.2432552 -0.12112775 0.2609622 -0.75794876
-0.29023492 0.23831159 -0.27701658 0.122517064 0.27695352 0.10080999 0.2700905 -0.09263991
0.51054955 -0.21082939 0.23215213 0.38156283 0.28311136 -0.0649385 -0.03522001 0.06359749
-0.33127895 0.047394603 0.18363677 0.47418523 -0.013170309 0.12280247 0.5528066 -0.16229966
0.13416737 0.04753556 -0.08995853 0.08381671 -0.25379196 -0.6448507 -0.14069971 0.61299646
-0.67153996 0.14732601 -0.25150692 0.33016127 -0.13845208 -0.28382862 0.08706231 -0.55275464
0.03511862 -0.034938406 0.5302858 -0.027228097 0.19866683 0.38897637 0.3507822 -0.065474875
0.11177764 -0.4971776 -0.29254216 -0.041768894 0.3497131 0.010641442 -0.23498736 -0.3251032
0.21122868 0.053369526 0.071363695 -0.048419196 0.047415055 0.41262364 0.10238294 -0.053770944
-0.25490093 0.3130804 -0.096247755 -0.47187102 -0.13420041 -0.25817686 0.08280212 0.0054985643
0.2800966 0.10222256 -0.24957556 0.14119528 0.17841657 0.068613194 0.28493604 0.15161541
0.3718005 0.28096884 -0.19584636 -0.16740926 -0.15275513 0.28537366 0.19716066 0.056430068
-0.21358778 0.16254558 -0.27243343 -0.29125577 0.26397505 -0.13333741 -0.26396024 0.590103
0.63160956 0.07168133 -0.21409345 -0.34724537 -0.34150022 0.13925464 0.84920824 -0.25854978
-0.10219083 0.5516986 0.054653008 0.17391476 0.27472356 0.40829694 -0.3047736 0.26877636
-0.12637827 -0.035915665 -0.09986497 0.10485247 -0.2331646 -0.13730814 -0.20591456 -0.09342821
0.11029755 -0.09557643 0.03366941 -0.24096139 0.50821126 -0.44428614 -0.11646467 0.15685369
0.22046544 0.047711 -0.14273547 -0.30308485 -0.019279828 0.06148836 0.21598561 -0.2085369
0.29888803 0.000890085 0.06052678 0.040090363 -0.5061045 0.37340677 0.062454768 0.6837986
0.22400004 -0.16889471 -0.05288454 0.064598635 0.30474222 -0.015678488 0.08751343 -0.13408504
0.36413103 -0.20778564 -0.15632156 0.04587337 0.16543208 -0.12275814 -0.08069859 -0.23593976
-0.2760822 -0.07889494 -0.4894039 -0.64714414 0.10526702 -0.79853386 -0.05681729 -0.20360753
-0.40651864 -0.06549117 0.37148815 -0.41132268 0.32078502 -0.025602285 -0.6241419 0.49221826
-0.32889056 -0.6310499 -0.24446921 0.36049795 -0.025995638 0.336625 -0.075190455 -0.2152059
0.25840336 -0.20677046 -0.22145826 0.148464 -0.053049996 -0.5789738 -0.39222336 0.065569125
-0.39084506 -0.1064519 -0.09230829 0.117137425 -0.22266282 -0.35659498 0.059439674 0.24833755
-0.5222669 0.31165078 -0.14264159 -0.3491176 0.4012193 -0.02349225 -0.1740041 -0.1925323
00000000: 1353 173f 8cc2 6a3b 608f afbc 8904 2e3f
00000010: af95 22bc dbc0 efbd b7cc 7d3e 5858 c6be
00000020: 7bd5 cabe adfd 123f 7fe3 1d3d 951c fabe
00000030: 6766 74be a638 d8be cef5 3c3e 0be4 94be
00000040: 73a7 15bd e090 52be 301f 893d ef04 b13d
00000050: d9b7 1cbe 64f0 87be 5f07 2fbf ea50 babd
00000060: da4c 733e 75f8 2b3f da34 0bbe 5c4e c13d
00000070: 4fe1 173f a8f9 12bd 07bf 3b3f 9e2b ff3d
00000080: 934b b03e 12cc 24bd 2c2a 05be 7670 8ebd
00000090: 647f b0bd 8ad2 21be ae29 99be db8f 063e
000000a0: 7bd0 053e f96b 923e 34e7 d13b eb5d 23be
000000b0: e417 79be d311 f8bd d69c 853e ee08 42bf
000000c0: ac99 94be f407 743e 1ed5 8dbe 3aea fa3d
000000d0: dacc 8d3e 7875 ce3d 4d49 8a3e feb9 bdbd
000000e0: 60b3 023f a9e3 57be 4ab9 6d3e 345c c33e
000000f0: f9f3 903e 7afe 84bd db42 10bd 673f 823d
00000100: 659d a9be d820 423d 470b 3c3e 68c8 f23e
00000110: 48c8 57bc dd7f fb3d bc84 0d3f e231 26be
00000120: 2c63 093e a6b4 423d 2e3c b8bd 18a8 ab3d
00000130: 05f1 81be ef14 25bf 9613 10be 56ed 1c3f
00000140: 0bea 2bbf a1dc 163e 84c5 80be e60a a93e
00000150: 62c6 0dbe fc51 91be b94d b23d 5481 0dbf
00000160: 8bd8 0f3d 931b 0fbd cfc0 073f 750d dfbc
00000170: 516f 4b3e e927 c73e b999 b33e b117 86bd
00000180: adeb e43d 108e febe 16c8 95be dc15 2bbd
00000190: 980d b33e 7159 2e3c 87a0 70be ed73 a6be
000001a0: 554c 583e 019a 5a3d 2127 923d 3553 46bd
000001b0: 4a36 423d 6843 d33e 26ae d13d ec3e 5cbd
000001c0: 6082 82be 134c a03e 8b1d c5bd 1499 f1be
000001d0: d56b 09be c22f 84be 2894 a93d 4d2d b43b
000001e0: d268 8f3e 105a d13d bc90 7fbe 7f95 103e
000001f0: d5b2 363e 1385 8c3d 23e3 913e 1241 1b3e
00000200: a35c be3e 26db 8f3e f38b 48be 556d 2bbe
00000210: d76b 1cbe 7f1c 923e 7ce4 493e 3723 673d
00000220: c1b6 5abe 5972 263e 657c 8bbe 7a1f 95be
00000230: bd27 873e 9a89 08be cc25 87be fd10 173f
00000240: 2ab1 213f a9cd 923d 503b 5bbe 25ca b1be
00000250: 1ed9 aebe c598 0e3e b665 593f a360 84be
00000260: 6d49 d1bd 1f3c 0d3f d5db 5f3d b616 323e
00000270: 91a8 8c3e 4c0c d13e 490b 9cbe 0e9d 893e
00000280: 4e69 01be 4e1c 13bd 0186 ccbd e4bc d63d
00000290: b3c2 6ebe 819a 0cbe 44db 52be 4a57 bfbd
000002a0: afe3 e13d 93bd c3bd efe8 093d 95be 76be
000002b0: 221a 023f 7979 e3be 0785 eebd 419e 203e
000002c0: b1c1 613e 9c6c 433d 3f29 12be f02d 9bbe
000002d0: bbf0 9dbc 38db 7b3d 552b 5d3e b28a 55be
000002e0: da07 993e 9854 693a eeea 773d cb35 243d
000002f0: 1190 01bf 2c2f bf3e 92d0 7f3d 6d0d 2f3f
00000300: 4460 653e bcf2 2cbe 769d 58bd 4a4c 843d
00000310: 2c07 9c3e 2c70 80bc 3e3a b33d 974d 09be
00000320: 626f ba3e c2c5 54be c212 20be b7e5 3b3d
00000330: 0767 293e 9f68 fbbd 4d45 a5bd 319a 71be
00000340: a55a 8dbe ac93 a1bd 2693 fabe 3dab 25bf
00000350: 3c96 d73d b76c 4cbf 3fb9 68bd 7e7e 50be
00000360: 3623 d0be 3c20 86bd b233 be3e e398 d2be
00000370: ef3d a43e e2bb d1bc c3c7 1fbf 0804 fc3e
00000380: 5864 a8be 7c8c 21bf 2356 7abe 3093 b83e
00000390: cef4 d4bc 1d5a ac3e 74fd 99bd ef5e 5cbe
000003a0: 724d 843e a3bb 53be f4c5 62be f206 183e
000003b0: f44a 59bd a137 14bf 80d1 c8be 1b49 863d
000003c0: d81c c8be 7403 dabd 210c bdbd bfe5 ef3d
000003d0: b901 64be 9e93 b6be 0477 733d 334c 7e3e
000003e0: 49b3 05bf b190 9f3e a310 12be 8bbf b2be
000003f0: 9e6c cd3e d272 c0bc 212e 32be 3027 45be

final.0.bias f4 [30]
0.07478463 -0.07718629 0.11211575 0.16190052 0.029676205 -0.10938261 0.13703837 0.093142755
0.086312026 -0.113328926 0.06929411 0.1350661 -0.0030307842 -0.015750716 0.102114566 -0.1769212
0.067812674 -0.035604343 0.0060149627 -0.16369675 0.17251348 0.0658805 -0.16372186 -0.10999114
-0.02928888 0.140867 0.16395684 -0.042740908 -0.06559075 0.049678598
00000000: af28 993d d813 9ebd f19c e53d 40c9 253e
00000010: 831b f33c fd03 e0bd c953 0c3e a1c1 be3d
00000020: 5cc4 b03d ff18 e8bd 12ea 8d3d c54e 0a3e
00000030: 1fa0 46bb a507 81bc 7121 d13d d52a 35be
00000040: 5fe1 8a3d dcd5 11bd 2a19 c53b 1fa0 27be
00000050: 60a7 303e 5bec 863d b4a6 27be 0943 e1bd
00000060: 3cef efbc 703f 103e 4de4 273e 1711 2fbd
00000070: 7154 86bd c97b 4b3d

final.1.weight f4 [30]
4.3963675 1.3225331 1.823699 0.35426348 0.382536 0.4815383 1.008372 5.6178174
1.2108397 0.50837815 0.4198085 0.4432747 1.6818546 0.6868302 1.6169795 6.5194993
1.605997 0.9174394 2.5684683 0.55437946 0.6049226 0.46968496 1.4292926 0.55274326
1.62839 0.46810403 1.0321547 0.5904202 1.6482246 0.62243384
00000000: 0baf 8c40 c448 a93f f86e e93f 0662 b53e
00000010: c2db c33e 308c f63e 5512 813f 29c5 b340
00000020: ccfc 9a3f 1225 023f 24f1 d63e e7f4 e23e
00000030: 0347 d73f 1bd4 2f3f 2ff9 ce3f bd9f d040
00000040: 4f91 cd3f 4fdd 6a3f c961 2440 d0eb 0d3f
00000050: 35dc 1a3f 8c7a f03e 0ff3 b63f 9580 0d3f
00000060: 156f d03f 55ab ef3e a51d 843f c725 173f
00000070: 06f9 d23f d357 1f3f

final.1.bias f4 [30]
1.6366313 -0.15299663 0.12739512 -0.51812035 -0.5568591 -0.55113536 -0.31019104 4.073521
-0.0961403 -0.51590234 -0.65391415 -0.5646265 -0.11194475 -0.45700616 0.3673666 4.1075096
-0.07743432 -0.35047808 0.6114423 -0.53465647 -0.45682624 -0.5631269 -0.15113176 -0.50935286
0.2594749 -0.5083515 -0.26762956 -0.5943274 0.30231744 -0.54518884
00000000: 227d d13f 26ab 1cbe de73 023e 89a3 04bf
00000010: 518e 0ebf 3517 0dbf 5cd1 9ebe 495a 8240
00000020: 35e5 c4bd 2d12 04bf eb66 27bf 5d8b 10bf
00000030: 4a43 e5bd b6fc e9be 7a17 bc3e b870 8340
00000040: e295 9ebd dd71 b3be 7c87 1c3f 3fdf 08bf
00000050: 21e5 e9be 1629 10bf 49c2 1abe f364 02bf
00000060: e5d9 843e 5323 02bf be06 89be d725 18bf
00000070: 5ac9 9a3e 7f91 0bbf

final.1.running_mean f4 [30]
-0.33780697 0.2674429 0.063995555 -0.1312333 0.70124567 0.4849882 0.19582212 -1.2868136
-1.0031096 1.1588905 -0.7444679 -0.06678107 1.0694407 -2.321913 0.08309937 0.45365694
0.43615964 0.09557202 0.30171135 0.5700511 0.48970538 -0.23388046 0.9760404 1.0245585
0.07078269 0.098396115 0.258405 0.6354268 0.6121359 -1.0628431
00000000: 09f5 acbe 47ee 883e 1a10 833d 0662 06be
00000010: d684 333f 6050 f83e 9885 483e 4fb6 a4bf
00000020: e565 80bf 8656 943f 7395 3ebf 83c4 88bd
00000030: 6fe3 883f 399a 14c0 0130 aa3d b945 e83e
00000040: 5150 df3e 43bb c33d e979 9a3e deee 113f
00000050: aaba fa3e 5c7e 6fbe c9dd 793f bc24 833f
00000060: 84f6 903d e783 c93d a94d 843e 55ab 223f
00000070: f0b4 1c3f 3e0b 88bf

final.1.running_var f4 [30]
3.219235 1.5490096 3.4833336 0.8894152 1.9440616 0.92884374 0.89283186 7.618843
1.7228035 2.2282615 2.197283 2.0505867 1.0799913 2.3702135 2.3355749 9.797671
1.341119 2.2772648 3.0487752 0.87953234 2.0882227 2.916669 1.4390345 2.1947165
3.3215218 1.3037483 4.9721055 0.77926934 4.4383755 1.3369871
00000000: f207 4e40 f245 c63f f0ee 5e40 b7b0 633f
00000010: 03d7 f83f b4c8 6d3f a190 643f 90cd f340
00000020: d384 dc3f d69b 0e40 49a0 0c40 d03c 0340
00000030: 283d 8a3f 94b1 1740 0f7a 1540 43c3 1c41
00000040: caa9 ab3f b5be 1140 221f 4340 0829 613f
00000050: 71a5 0540 b4aa 3a40 4832 b83f 3c76 0c40
00000060: d093 5440 39e1 a63f 7d1b 9f40 327e 473f
00000070: 2c07 8e40 6522 ab3f
