图像处理/model_weights_8.pth (torch, 83009 bytes, 24 tensors)

initial.0.weight f4 [30, 3, 3, 3]
00000000: 42fe 34bd 5702 10be fc05 0dbd 79bd c8bc
00000010: cbec 1ebe 8a06 e83d 58ca f2bd 8651 d83d
00000020: b604 9c3d 2c5c ffbd 7a58 4dbd 424f d2bd
00000030: eb55 e6bc 1f52 993c c9d6 11be 53ba 31be
00000040: 5528 aabd a3f9 0d3e 82df a4bd 10a8 5dbd
00000050: d11b e5bd 5119 83bd 510b e63c 7267 963b
00000060: 24aa 613a 9ca1 f4bd 209b 9dbd 5ca1 51be
00000070: ceec 0ebe 4d4c 4dbe 5f1e 1fbe 4f25 d5bd
00000080: 91e2 ddbd 62d1 ecbd 60e3 36be 474f ecbd
00000090: 7b36 5abd 3f71 19be 8f87 d0bc f650 a9bd
000000a0: 82d4 1bbd 618a 28be 7339 adbd f49d 01be
000000b0: 97ae d8bd a562 13be 6213 44be 4650 25be
000000c0: bfd3 06be 36e3 69be 9b0e 47be feaf 00be
000000d0: a7be d6bd d7c6 45be 2ae9 643d 3284 f0bd
000000e0: 1b2b 05be 00dc 92bd a76c a2bd 5294 b7bd
000000f0: 2ea1 58bd 64df 4c3c 1404 26be efd7 6ebe
00000100: 566b fcbd 8482 a63c 8bc1 c3bd 4028 473c
00000110: 963f f1bd 61c7 71be bacd 66be 2e54 f7bd
00000120: fa77 39be dac5 9fbd 2126 35be c47b a7bd
00000130: 16ae 5abc 0ad6 b0bd cff8 6abd efc5 82bb
00000140: e134 01be 758c 4ebd fc0d 953d 132e 473e
00000150: d30b e23d 948b 833e 7949 973c c609 bc3c
00000160: 6acc 003e 3980 113e fcd6 2b3e 2443 093d
00000170: e826 333d 5b31 b43d 896f d93d d510 993d
00000180: f757 bb3d 6282 ef3d 639e ff3d 57cd 423d
00000190: b0d1 f03d 26a1 903d 7dfd ec3c 9986 2fbc
000001a0: 5a4d 22bb f37d 763e 60c8 803d a607 223d
000001b0: df30 4f3d 364e 0a3d 8d51 a6bc 089b 363d
000001c0: 76e8 edbd 3e3a 91bd 2946 413e 603e c73c
000001d0: f1c1 863e d2d4 97ba b4e5 5c3e c95f 4a3d
000001e0: d294 d3bd 744d b53d 9a99 323e 9399 1ebd
000001f0: 2ef1 ba3c 3784 bd3c 9f75 1b3e 69ee 8b3d
00000200: d0c1 7a3d c247 323e b558 be3c e2d6 0abd
00000210: a226 1a3e 1536 bf3d 5da8 073e ee92 debd
00000220: 3740 96bd 4529 46be 9dff cdbd 794e 20be
00000230: 9e64 16be 72fc d03a 43f6 a43c df57 993d
00000240: fdf0 83bd a21b 85bd af38 1abe 36b2 1dbd
00000250: 9e44 7ebd 847d f5bd bde8 18be 0a4e 79bd
00000260: 4fcd 76bd 6556 3ebe 39c2 83bd 8a64 b3bd
00000270: 2c2f 9d3d 9659 9dbd 35fa a1bd 9268 bb3b
00000280: 90bc 3c3d 363d f2bd fee5 abbd de17 073e
00000290: 0130 9cbd 9830 3bbd bc88 393d 54f1 c9bd
000002a0: 158d b9bd 349c 37be cc0c 153e a42c f2bd
000002b0: 4a5b 09be 8fc4 e03c 9772 a8bd 88da a5b9
000002c0: 213f c93d 3a19 acbd dc3d 41be 14c0 6fbc
000002d0: cce2 40bd ba50 46be 9181 df3d d9ac e3bd
000002e0: 7602 56be fde0 acbd 30d1 fbbd 757a 6d3e
000002f0: 326a 38bc d4fb 6cbe 94b5 1cbe fb6d 2bbe
00000300: 0864 073d 8d30 3cbe 8aaa 45be b78e 86bd
00000310: ce47 2fbe 2c0e b4bd a62a 26be 25b6 fabd
00000320: dea7 99bd ca62 31be 5d71 53be 8b84 03be
00000330: 9802 cabd 05b1 6fbd 2acc 3cbd 552d b9bd
00000340: ee81 50be b7a4 47be 5738 6abe 1492 58bd
00000350: 96af 99bd 3ec1 1abe cf84 1abd e8c9 22be
00000360: 12e6 903c baed aabd 5908 d7bd 04e6 c83c
00000370: 2257 0e3d 105c 99bd ccdc be3b 7216 cebd
00000380: a78d 19bd f004 1fbd c08e 9ebd 61f9 25be
00000390: c304 843c cc44 45bd f2ae 883d ae46 9dbd
000003a0: 81f2 73bc 5603 a2be b975 b8bd 14db e2bd
000003b0: 89e4 45be d6d9 53bc fc09 01bd bcdf fabd
000003c0: ce13 d0bd 101a 08bc 5260 823c 7236 abbd
000003d0: e6a9 093d 7855 82bd a833 a73c b366 61bd
000003e0: 5928 cabd 74ee 09bc c8ac d03b fe21 98be
000003f0: ea60 da3d aa31 91bd 62e6 71bc 763f 13be
-0.04418779 -0.14063393 -0.034429535 -0.02450441 -0.15520017 0.11329372 -0.11855 0.10562424
0.07618086 -0.12468752 -0.050133206 -0.102690235 -0.02811714 0.018715916 -0.1424209 -0.17356233
-0.08308474 0.1386476 -0.08050443 -0.054115355 -0.11186946 -0.06401313 0.028081568 0.0045899684
0.0008608422 -0.11944887 -0.07695603 -0.2047171 -0.13957521 -0.20048638 -0.1553893 -0.10407507
-0.1083423 -0.11563374 -0.17860174 -0.115385585 -0.053274613 -0.14984606 -0.025455264 -0.08267395
-0.03804446 -0.16459037 -0.08458223 -0.1265791 -0.10580175 -0.14393099 -0.19148019 -0.16143903
-0.13166712 -0.2284058 -0.19439165 -0.12567136 -0.10485583 -0.19314133 0.055886425 -0.11743964
-0.13004725 -0.07170868 -0.0793088 -0.08963837 -0.052888088 0.012504432 -0.16212493 -0.2332456
-0.1232516 0.020325907 -0.095584 0.012155592 -0.11779706 -0.23611213 -0.22539416 -0.12076603
-0.18112174 -0.07801409 -0.17690326 -0.08177903 -0.013347169 -0.08634575 -0.05736619 -0.0039908807
-0.12617828 -0.05042692 0.07278058 0.1945117 0.110374115 0.25692427 0.018467652 0.02295388
0.12577978 0.1420907 0.16781229 0.033511296 0.043738276 0.08798476 0.10616977 0.074739136
0.09147637 0.116947904 0.12481382 0.04755911 0.11758745 0.070619866 0.028929466 -0.010713243
-0.0024765343 0.24071483 0.062882185 0.039558075 0.050583716 0.033765994 -0.020302558 0.044581443
-0.11616604 -0.07091187 0.1887442 0.024321735 0.2631984 -0.0011583811 0.21572 0.049407754
-0.103311196 0.08852664 0.17441407 -0.03872068 0.022820082 0.023134334 0.15181588 0.068325825
0.06121999 0.17410186 0.023235658 -0.033896334 0.150538 0.09336487 0.13247819 -0.10867868
-0.07336467 -0.1935168 -0.1005852 -0.15654935 -0.1468682 0.0015944375 0.020136958 0.07487463
-0.06442449 -0.06499411 -0.15060686 -0.038500033 -0.062077157 -0.11986831 -0.14932533 -0.06086544
-0.06025439 -0.18587644 -0.064335294 -0.08759411 0.07675013 -0.07683103 -0.07909051 0.005719253
0.046078265 -0.11828081 -0.08393477 0.13192698 -0.076263435 -0.04570064 0.045296416 -0.09860483
-0.090601124 -0.1793068 0.14555663 -0.11824921 -0.1341373 0.027437476 -0.08224981 -0.0003163407
0.09826494 -0.08403249 -0.18871254 -0.014633197 -0.04709129 -0.19366732 0.10913385 -0.111169524
-0.20899376 -0.084413506 -0.12295759 0.23191245 -0.011255788 -0.2314294 -0.15303642 -0.16741173
0.03305438 -0.18377896 -0.19303337 -0.065701894 -0.17117235 -0.087917656 -0.16227207 -0.122417726
-0.07502721 -0.17322841 -0.20648713 -0.1284353 -0.09863776 -0.05851843 -0.046093144 -0.090418495
-0.20362064 -0.19496427 -0.22873054 -0.052873686 -0.075041935 -0.15112779 -0.037724312 -0.15897334
0.017687831 -0.08346124 -0.10499639 0.024523742 0.034751065 -0.07488263 0.005824661 -0.10062875
-0.037488606 -0.03882307 -0.07742071 -0.16208412 0.016115552 -0.048161313 0.06673993 -0.07679497
-0.01488936 -0.3164317 -0.09006829 -0.11076942 -0.1932546 -0.012930354 -0.031503662 -0.12249705
-0.101600274 -0.008306995 0.01591507 -0.08359994 0.033609293 -0.06363958 0.020410374 -0.055029582
-0.09870977 -0.008418668 0.0063682534 -0.29713434 0.10663016 -0.07089551 -0.0147644 -0.14379677

initial.0.bias f4 [30]
00000000: d373 acba 2f5b ccbd cfd9 f53d e0d0 25bd
00000010: c99e 303e f1d6 8bbd 447b d1bd 81e2 363e
00000020: 753d 2dbe 1cc3 16bd 15de 84bd f3b7 22be
00000030: 34b3 1fbe f9a7 3b3e 80aa 293e ccee 2abe
00000040: cb57 3cbe 8c27 193e 182a 763c 80df 5bbd
00000050: 840a 303e f2be 40be 6135 2fbe 861e 053e
00000060: 37ce a63d c747 2fbd 463d 97bb b840 dcbc
00000070: 0fae 24bd ad72 913d
-0.0013157077 -0.099783294 0.12004434 -0.0404824 0.17248072 -0.06828106 -0.10228589 0.17859842
-0.16917975 -0.036807165 -0.06487671 -0.15890484 -0.15595704 0.18325795 0.16568947 -0.16692656
-0.18392865 0.14956492 0.015024684 -0.053679943 0.17191511 -0.1882284 -0.17110206 0.12999925
0.08144801 -0.04279306 -0.0046154587 -0.026886329 -0.040205058 0.07101951

initial.1.weight f4 [30]
00000000: 577c 773f a308 8d3f 1153 823f f6d1 9c3f
00000010: c979 8b3f 5860 6d3f 4177 773f de21 6f3f
00000020: 16d5 653f 18ea 8a3f 86e3 863f b6d3 613f
00000030: 14ed 813f 1a74 8b3f b37e 833f afa9 823f
00000040: f25d 553f fcd2 553f aa34 8a3f ac39 853f
00000050: 5861 813f 05fc 5d3f 70f2 8f3f 5e59 823f
00000060: d9bf 5b3f eb8d 5c3f 5dd6 753f 8e50 7a3f
00000070: f56d 713f 7de3 783f
0.966741 1.1018261 1.01816 1.2251575 1.0896541 0.92725134 0.9666634 0.9341105
0.8977827 1.085269 1.0538185 0.8821367 1.0150476 1.0894806 1.027304 1.0208033
0.83346474 0.8352506 1.0797322 1.0408225 1.0107832 0.86712676 1.1245861 1.0183523
0.8583961 0.8615405 0.9603022 0.97779167 0.94308406 0.9722212

initial.1.bias f4 [30]
00000000: 11f4 27bd db55 13be cdf5 173d c016 5d3e
00000010: 9bd3 033e d2bc d6bd 6815 9abd 93b0 90bd
00000020: dc04 bfbd f262 26bc cd07 95bc b00c 0abe
00000030: fdaf 603d cac4 fa3d 9e60 7b3d 82a7 02bd
00000040: ff64 31bd 934e ebbd b917 a93d 6e1d 513d
00000050: ff8b 933d c4cf 70be 5e36 d73d de30 05bd
00000060: 7ed0 e23c 00e1 dbbd 8635 1bbc 3b28 c9bd
00000070: 0066 7db8 87f9 b3bd
-0.041004244 -0.1438822 0.03709965 0.2159071 0.1287369 -0.10485233 -0.07523614 -0.07064929
-0.09327099 -0.010155426 -0.018192196 -0.13481402 0.054855336 0.12244566 0.06137144 -0.03189803
-0.043309208 -0.11489596 0.08256478 0.051053457 0.072044365 -0.23516756 0.105084166 -0.032517307
0.027687307 -0.10736275 -0.00947321 -0.098221265 -6.0414895e-05 -0.08787828

initial.1.running_mean f4 [30]
00000000: c2cf b7be 7a96 90bf 0e29 2fbf 123d 353f
00000010: 851c 493f d5f8 2cbf 5b8f 09bf 7159 69bf
00000020: 495f 12bf 1378 babe 2c1b cc3e 5c95 34bf
00000030: 0846 a63e 105e 463f 1825 1f3f c6ae 13bf
00000040: c5c1 6abf c9d5 cabf 32d4 273f 43d3 183f
00000050: 2c9f 7f3f 5228 afc0 62d1 ab3e 498e 24bf
00000060: 25c5 893f b550 26bf 0aea 2e40 2acf 1fbf
00000070: 5401 fa3f 4139 14c0
-0.35900694 -1.1295922 -0.6842202 0.7079631 0.7855914 -0.6756719 -0.5373437 -0.911521
-0.57176644 -0.36419734 0.3986448 -0.70540404 0.32475305 0.7748728 0.62165976 -0.5768856
-0.9170192 -1.5846492 0.6555816 0.5969736 0.9985225 -5.473672 0.33558184 -0.6427961
1.0763289 -0.649669 2.7330346 -0.6242548 1.9531655 -2.3159945

initial.1.running_var f4 [30]
00000000: b226 9d3e 37d5 023f 8117 cd3e 5072 c63e
00000010: a63c b83e 026f b73e 299d a43e ac32 003f
00000020: 1d86 a53e fa2c 9c3e 15ab a33e d7dc b53e
00000030: 3302 a23e 7291 bc3e db8e aa3e f27d a83e
00000040: 860e de3e 2fa4 5e3f e684 bc3e 4828 bb3e
00000050: 5fbe df3e 9562 c540 1057 a43e 362f ca3e
00000060: e75a 013f ac7a b73e 9921 ea3f 7fcc bb3e
00000070: dec1 8b3f cae9 bf3f
0.30693585 0.5110659 0.40056995 0.3875909 0.3598377 0.3582688 0.32151154 0.5007732
0.32328883 0.30503064 0.31966463 0.3552005 0.31642303 0.36829716 0.33312115 0.3290859
0.43370456 0.86969274 0.36820143 0.3655417 0.4369993 6.168284 0.32097673 0.39489144
0.5052933 0.3583578 1.8291503 0.36679456 1.0918539 1.4993222

res_blocks.0.conv.0.weight f4 [30, 30, 3, 3]
00000000: 8093 88bd 4099 27bc 68cc f43c c774 c63c
00000010: 2a27 f4bb 1a1b 9dbd 1271 d53b 3d62 613d
00000020: 27bd 18be 065a a1bd 8bc4 413d 32d9 85be
00000030: a90d 20bc 0e83 67be 0bf4 49be 0db8 fcbc
00000040: 32f8 67be f66d c7bd fde4 e53d af11 8ebc
00000050: c0f9 1538 b46a d7bd eb9e d0bd dd43 88bd
00000060: 600b 413d 85a6 09be 4024 e6bc 930d f73c
00000070: e3a8 513e 4d2d 353d 38db 813e 25f9 89bc
00000080: c6cc 943d bd31 ec3d 509b a13d 18ce aa3d
00000090: 5c86 9b3d 0987 6f3d 2809 743d 52f3 1cbd
000000a0: 7a7f 113d a83b 8f3d da48 c53d 8216 86ba
000000b0: 60fc 5ebc fb7f e9bd 1700 85bd 93b4 16be
000000c0: 0c55 f33d 769b 35bd b482 f1bc c64b f53c
000000d0: 95d8 9abd 91b9 433d 2253 0d3d d9d3 e7bc
000000e0: 2083 9b3c 2223 4ebd ccff 6bbe fac7 553d
000000f0: bc7c e13d 8b10 25bd 19d5 e13d 72cc 14be
00000100: 188d 033e ef1d d13b 4f3b 973d a635 14be
00000110: 72f5 b4bb 9c19 8cbd cf2e 9b3d 3b96 613c
00000120: 71d6 093e 8c37 03be ceed 8cbd c8d4 91be
00000130: 1e82 97bd f9ab 7dbc 56a9 073d 840c fdbc
00000140: 6476 e1bd f606 3ebe 593e 11be 81ec e03d
00000150: 32c6 2abe 68d7 2ebe f247 acbd 50dd 99bd
00000160: c368 25bd 09fa ecbd 3dc1 94bc b265 9d3d
00000170: 603c 863d 4d99 c13d 6a8d 8fbc ea01 173e
00000180: a811 acbd d697 d93d ac0e 503d 616f 8dbd
00000190: 0c25 903d 11c2 0cbd 538d d4bd 1cdc 4fbd
000001a0: 4a3c f8bc 07e3 263d cca2 be3c c00e 5c3d
000001b0: 6ce4 b03d 3eee f43c 49ae 833d b5d5 d93b
000001c0: c615 e8bd e261 6b3b 60ae 8d3c 18b9 fe3d
000001d0: 7aeb d63c d562 783b a5f9 263e 5c81 cbbd
000001e0: 2c21 453e c4c7 97bc 0fc9 b3bd 68ed 883d
000001f0: 7211 2fbc 16b1 d23c 346a 8abb b18d 94bd
00000200: e1c7 9bbd 247b cd3c fe6f 4e3d 2bbc 10bb
00000210: a985 d63d 9770 103e 9794 1d3e 1332 3abe
00000220: cfa3 29be 7e01 b2bd 6c18 8dbd 1ccb e5bd
00000230: 4df2 fe3c 4ae1 13be f9e1 f8bd 8db5 15be
00000240: 8144 393d 90d3 c2bd d06f 84bd 4cfe 69bd
00000250: 5f2a 45bd 4706 28be 0abc 95bd 50fc 01be
00000260: e4b3 56bb d0a4 2a3c 8a03 e5bc 7fdf 93bc
00000270: afef 3cbd 5795 b8bd b393 ecbd 5fa7 cebd
00000280: 0d23 5e3d 3478 993d 39cf 5a3e d80c 2f3d
00000290: a157 85bd a581 513d 50b5 6cbc 2123 1fbc
000002a0: c46b 0bbd 7a47 c73d 611a 13bd 9791 5a3e
000002b0: 9635 013d a070 9f3e 7a2f f73d 27b2 e83d
000002c0: bdd8 45bd cf72 333e 6d1f aa3d 57bd f03d
000002d0: 32d5 a83c bdf3 843d 5cfe 42bd 212b 7ebd
000002e0: 8174 933d c3e9 b03d 5ca6 38bb 6926 90bd
000002f0: 2e25 6b3d f715 94bd 27db 07be 5717 9bbd
00000300: 23cc 7f3c 0711 2abc bfc7 003e b774 be3d
00000310: f24b 5f3a c48a 2ebe 6119 323e 447c 553a
00000320: c7df cd3d a0a1 173e f2b7 77bd 42c0 d93d
00000330: 6f10 a7bd 1282 10bb 52dc dd3d 097f 65be
00000340: 436c e5bd e003 123d c527 94bc 4ec3 36be
00000350: de33 c2bd bded 80be 7bad 2c3d 101b a63d
00000360: 341b 26be ac26 adbd 3213 193c 9a22 713a
00000370: e3f1 d43d 733e 8f3d 0b16 cd3d 7e30 f6bd
00000380: e6d7 9c3d 6f97 02be 06b7 32bd 2194 a6bd
00000390: ff8d c2bd 5a73 773c b817 d43c 259e 2dbd
000003a0: 1d0c 54bd d7d8 cbbc 7ab9 1a3e ea79 9ebe
000003b0: e3e7 c63c 927a af3d 1099 a4bd a136 463e
000003c0: f5d1 6b3d 5418 023e e687 5c3d 023b c3bd
000003d0: 0bbb 09bc 9dbc abbd 0518 10bc b4eb b2bd
000003e0: 54fc b73d 9aa7 61bd 2420 59bd 8b4d 0dbe
000003f0: 1f17 c8bd fcdb 153d a241 7bbd ca4e 11bb
-0.066687584 -0.010229409 0.029882625 0.024225606 -0.007450958 -0.07671185 0.006513723 0.055025328
-0.14915906 -0.07878499 0.04730658 -0.2614227 -0.009768882 -0.22608587 -0.19722001 -0.030849481
-0.22653273 -0.0973777 0.11225317 -0.017342417 3.5756966e-05 -0.10518399 -0.10186561 -0.06653569
0.04712999 -0.13442428 -0.028093457 0.03015784 0.20474581 0.044232655 0.25362563 -0.016842434
0.0726562 0.11532924 0.07890952 0.083400905 0.075939864 0.05847839 0.059579045 -0.038317986
0.03552196 0.069938004 0.09633036 -0.0010230097 -0.013609976 -0.114013635 -0.06494158 -0.14717321
0.11881456 -0.044337712 -0.02948127 0.029943358 -0.07560841 0.04778439 0.03450311 -0.028299259
0.018983424 -0.050326474 -0.23046798 0.052192666 0.11010119 -0.04029898 0.11026973 -0.14531115
0.12846792 0.006381742 0.07384359 -0.1447359 -0.0055224234 -0.06840822 0.075772874 0.013768728
0.13460709 -0.12814158 -0.06881295 -0.28482652 -0.07397865 -0.015482896 0.033120476 -0.030889757
-0.11008909 -0.18557343 -0.1418394 0.109826095 -0.16677168 -0.17074358 -0.0841216 -0.07512915
-0.04038311 -0.11571128 -0.01815855 0.076854125 0.06554484 0.09453068 -0.017523486 0.14746824
-0.08401805 0.106246635 0.050795242 -0.069060095 0.07038316 -0.034364764 -0.10378518 -0.050747022
-0.030302186 0.040743854 0.023270987 0.053725004 0.08637318 0.029898759 0.06429727 0.0066477903
-0.11332278 0.0035916497 0.017295063 0.124376476 0.02623533 0.0037900705 0.1630617 -0.09936783
0.19250935 -0.018527873 -0.08778583 0.06685907 -0.010685312 0.025719207 -0.004224086 -0.07253588
-0.07606483 0.025083132 0.050399773 -0.0022084813 0.104747124 0.1410545 0.15388714 -0.18183164
-0.16566394 -0.08691691 -0.06889424 -0.11220381 0.031121397 -0.1444141 -0.12152476 -0.14620037
0.045231346 -0.095130086 -0.06466639 -0.057127282 -0.04813611 -0.16408645 -0.07311256 -0.12693906
-0.0032761032 0.010415271 -0.02795579 -0.018050907 -0.046127018 -0.09012859 -0.11551609 -0.10090517
0.054232646 0.0749363 0.21368112 0.042736858 -0.065108545 0.05114903 -0.014447525 -0.009712965
-0.03403832 0.0973043 -0.03591383 0.213446 0.031545244 0.31140614 0.12069602 0.11362105
-0.0483024 0.17524265 0.08306775 0.11754864 0.020609472 0.06491802 -0.047605857 -0.06205285
0.07199956 0.086383365 -0.002817533 -0.07038576 0.057408504 -0.07230752 -0.13267194 -0.07572811
0.015612635 -0.010380036 0.12576197 0.09299605 0.00085180916 -0.17045122 0.17392494 0.0008143822
0.10052448 0.14807749 -0.06047816 0.106323734 -0.08157431 -0.0022050184 0.108330384 -0.22411741
-0.1120229 0.035648227 -0.01808537 -0.1784794 -0.09482549 -0.2518138 0.04215763 0.081106305
-0.16221315 -0.08454642 0.009342955 0.00091985764 0.10397699 0.06994333 0.1001397 -0.12020968
0.07658367 -0.1275308 -0.043631576 -0.08133722 -0.0949974 0.015103186 0.025890216 -0.042387147
-0.051769365 -0.02488367 0.15109816 -0.30952388 0.024280494 0.085683 -0.08037007 0.19356777
0.057573278 0.12704593 0.05384054 -0.09532739 -0.008406411 -0.083855845 -0.008794789 -0.08736363
0.08983675 -0.055091478 -0.053009167 -0.13799112 -0.09770035 0.036586747 -0.06134189 -0.0022172206

res_blocks.0.conv.0.bias f4 [30]
00000000: 4216 5e3d 9ef7 53bd 417e 943c f7c0 c83c
00000010: 4c65 1e3c 71d9 c13c d8e1 2cbd f2af 153d
00000020: 68c4 3b3d 2b3e e33c e9c1 0dbd 6990 e93b
00000030: 7adb bdbc bd65 ac3c 0855 d5bb 3cb9 703d
00000040: 7751 213b d36c c8bc 6ad9 fdbb a911 213d
00000050: cb01 38bd 3be9 563d 4b5b 49bc 24d6 5e3d
00000060: ef4d 13bd 5378 4d3d d289 17bc 47dc 35bd
00000070: d550 44bd 4ed9 663d
0.054220445 -0.051749818 0.018126609 0.024506075 0.009667706 0.023663254 -0.04220757 0.036544748
0.045841604 0.027739605 -0.034608755 0.0071278107 -0.023175944 0.021044606 -0.0065103807 0.058770403
0.0024615207 -0.024465954 -0.007746865 0.039323483 -0.044923585 0.05246852 -0.012289832 0.05440344
-0.035962995 0.05016358 -0.0092491675 -0.044399526 -0.04792865 0.05635958

res_blocks.0.conv.1.weight f4 [30]
00000000: 8122 7d3f ec25 853f 4afc 8b3f 00a9 813f
00000010: 402b 663f ed2b 883f ac0f 7b3f 6e90 763f
00000020: b2bf 883f b5f9 773f 675b 7b3f 8b15 843f
00000030: 9751 7a3f c2af 763f 7e05 843f 3ace 6e3f
00000040: a650 823f 96fb 8e3f 645c 713f 08ba 753f
00000050: af2c 803f 1642 873f 0267 813f 9ac3 713f
00000060: 2968 703f 38c2 8b3f 3a39 8a3f 9eab 6c3f
00000070: 2079 663f cc1a 803f
0.98880774 1.0402198 1.0936368 1.01297 0.89909744 1.0638405 0.9807079 0.9631413
1.0683501 0.968654 0.98186344 1.0319074 0.97780746 0.96361935 1.0314176 0.93283427
1.0180862 1.1170528 0.942816 0.95986986 1.0013636 1.0567043 1.010956 0.9443909
0.93908936 1.0918646 1.0798714 0.9244937 0.9002857 1.0008178

res_blocks.0.conv.1.bias f4 [30]
00000000: 5c9d 69bc 4a3b fc3b 92d3 6a3d f211 81bd
00000010: 05d1 53be 8a1d 673d e825 17bc 2956 55be
00000020: 283d f03d 8f56 d13b bc95 78bc 49e3 9a3d
00000030: 5a8c bc3d 5f7d 89bd 5b5d c8bd 68c8 0c3c
00000040: af9b 40be 875e f13d 39f6 a4bc 315a 1bbc
00000050: 8a42 7a3c 1e97 cebc b100 e53d 8b96 8fbd
00000060: 9a63 3ebd 5c3c 4ebd 19f0 e23d c2c2 573c
00000070: fc76 9d3c 7208 c13c
-0.014258709 0.0076974975 0.057330675 -0.06302251 -0.20685203 0.056424655 -0.009225346 -0.20833649
0.11730415 0.0063884924 -0.015172418 0.075628825 0.092064574 -0.06713366 -0.09783431 0.008592702
-0.18809389 0.11785608 -0.02013694 -0.0094819525 0.015274653 -0.025218543 0.111817725 -0.07011136
-0.046481706 -0.050350532 0.11080951 0.0131689925 0.019221775 0.023563597

res_blocks.0.conv.1.running_mean f4 [30]
00000000: c61b 7abe e01b 273f 5649 2d3f 58b2 473f
00000010: b350 af3f fbe9 db3f 56f9 ab3e 3ea7 c53f
00000020: 27a2 43bf 8348 81be 176d c7be 5a15 da3e
00000030: 8479 a8bf 5c02 263e 3391 593f 454a 8dbf
00000040: 8242 ce3f b03a 18c0 fd1e 6bbf e2b2 993e
00000050: 600a a53d 66cf 483f ee3a cbbf 07d5 b53e
00000060: 48c3 a9be 7bed f43f 512c b5bf 01a0 15be
00000070: edd9 c5bd bdce 02be
-0.24424657 0.6527691 0.67690027 0.78006506 1.3696502 1.718078 0.33588666 1.5441663
-0.764193 -0.25250635 -0.38950416 0.42594415 -1.3162084 0.16211838 0.8498718 -1.103829
1.6114047 -2.378582 -0.9184416 0.3001929 0.080586195 0.78441465 -1.5877359 0.3551409
-0.331568 1.9134973 -1.4154149 -0.14611818 -0.09660707 -0.12774177

res_blocks.0.conv.1.running_var f4 [30]
00000000: 595b 8d41 db83 d33f 3acf 3541 8e2a 0840
00000010: 2597 2f41 4f88 3541 6747 3a41 e4cc 5340
00000020: aa9f 0d41 5fc4 c73f 82f8 2941 5e5a 9f40
00000030: 53c0 dc40 6b16 0f40 c33a bd3f 31cc 0b40
00000040: 346f 4240 8422 8542 8ffe f640 ca37 ca40
00000050: d1a9 2940 8276 9c3f 07eb 4640 e3e1 0e40
00000060: 9efa f43f c033 b240 e86a 3f40 eb49 d940
00000070: 87c9 8b41 ec48 c440
17.669603 1.6524614 11.363092 2.1275973 10.9744005 11.345778 11.642432 3.3093805
8.8514805 1.5606803 10.623171 4.979781 6.898477 2.2357433 1.4783558 2.1843379
3.0380373 66.56741 7.718574 6.31931 2.6509898 1.2223666 3.108095 2.232537
1.9138982 5.568817 2.9909 6.790273 17.473402 6.1339016

res_blocks.0.conv.3.weight f4 [30, 30, 3, 3]
00000000: 1f07 5bbd 18ec 0e3c ecc8 9c3d c943 e33d
00000010: ef5a 113e c7b7 403e 550e 933d c2be d93d
00000020: a573 b8bd 86f8 453c fc37 a7bd c4d6 92bd
00000030: 14f3 623d 2158 1e3d 7e90 a23d e869 1c3e
00000040: bc8a e33c 84dc 7b3d 7442 123d 6027 cabc
00000050: 9b41 303e 5e07 033d f425 1c3e ee2c 513d
00000060: 94db bebc 2f5a 333d 2a6e 2c3b 99fa 3c3e
00000070: ea19 2b3e 6441 1f3e 9887 1e3d c2de 183d
00000080: 8341 233d 4487 90bd e474 8a3d 60d7 f73d
00000090: 3bcc f6ba 3ed5 923d 93aa 28be cedc d3bd
000000a0: 3209 50be 476b a1bd 69eb cfbc b73b 37bd
000000b0: 0565 b0bd 4657 0d3e 2e98 ed3c e776 0abe
000000c0: 495c 093e ae2b a2bc 0931 de3c 9581 0d3e
000000d0: 5a53 e23c 5d2f 513d 0c41 beb9 1759 1cbd
000000e0: ffe3 08bd 5c82 30bd c614 debd 50e8 483d
000000f0: 2404 a83d 8c83 473e 1c96 3ebe ec69 c33d
00000100: 4798 5fbd e14b 48bb 5c67 1bbd db79 fcbd
00000110: ad20 c03d 4cee bcbd 11b6 113e 13fb 363e
00000120: c6ed aabb 5ad2 6b3c e81f 403d cfe9 52be
00000130: ebe5 29be a0a9 a4bc 094e 0c3d 2a18 153d
00000140: 1eeb 24be 8ca2 3c3a b611 4e3c ce23 9e3c
00000150: 7f2a 0dbe d087 4e3c 485f 893d 7f58 803d
00000160: 661a b93d ef90 313b 5645 0a3e 63ae d5bc
00000170: 2881 ac3d f7e5 4e3c 4889 20bd 38cf d8b9
00000180: bbff 163d d2b4 163d 7b1c 82bd 1886 a33c
00000190: 4bd4 da3c 9a9a 0a3c efdc a93d 6092 86bc
000001a0: aeed f83b f3dd e93d 981e f1bd a768 043e
000001b0: a063 5abe b072 b9b9 9f57 a6bb 6740 2bbe
000001c0: 2cbd 12bd 4dbe 75bc f81d e53c d82b 6cbd
000001d0: 6aa9 d03c 787f 5fbe 6d27 7cbd 9c0a a53c
000001e0: ffdb a5bd 0d69 fcbd 23d6 0abe 27db 813d
000001f0: b388 e03b 6799 313e 43e3 ebbd 8144 febd
00000200: 7a49 dbbd c3d8 c0bd c7d3 1ebe 5490 4abe
00000210: c8c4 d0bc 88bb 9ebc adc9 84be c680 90bc
00000220: 8acc d5bc b71a f5bd ae7d 1cbc 0937 0ebe
00000230: 100f 45be 645f 8ebd 4bb3 c7bc beaa 1fbd
00000240: e434 af3b 9d30 0bbe 1208 2abe 06e1 883c
00000250: 40cd 673c 099e 273c 292a 543d 979a afbd
00000260: 758e 3dbe 671b 923c 728e c4bd 4329 f73d
00000270: 238c 38be ef79 98bb dce4 d7bd e590 5dba
00000280: 8d84 363d 17cd ee3d 7014 02bc b3ae 933c
00000290: d707 6f3d 0244 a1bc a026 12bd c141 463d
000002a0: a711 12be 8329 193e 9219 7fbd cab4 bc3d
000002b0: 5ca8 dc3b 73d1 273d 341e 1e3e c61b dd3c
000002c0: b14e c8bd d6a5 a63d 49dc 723d 40a6 08bd
000002d0: fd66 8fbd 1cf6 24bc 8b7e c33c bd95 fbbc
000002e0: 8014 b63d ecc3 633e 57e9 ecbd 70e6 8bbc
000002f0: b2a5 753e 7cdd cabc 7863 943d 2f26 8f3c
00000300: 8850 54ba 9a1a b83c 950c 9ebd ce4c eabd
00000310: a07e f5bd 5ec0 1c3d 7d76 92ba 9f87 0dbe
00000320: 9088 53bd b321 ebbd fb28 a6be 9cb5 41be
00000330: 8d8a 99bd 142a cd3b acc6 3ebd 615b bb3d
00000340: f87a 703e 1c84 ff3d a234 1f3b ef65 773d
00000350: c952 8a3d 7680 cb3d d56f 0b3e 9c9f 0e3e
00000360: 645c 153e bf40 643e 86ca c83d 3723 323c
00000370: 8fe9 e7bd 3578 8e3c b2db b63d 1b3c d4bd
00000380: 4377 cf3c 1375 083e 0d51 57bd a4bc a9bc
00000390: 6de0 423d 650d ed3d 5f17 b93b ceb9 1d3d
000003a0: a44d 073e b935 53be cd13 d73c ecb5 cbbc
000003b0: 4bf7 8a3c a847 a03c 2d4e e2bd 1c0c c5bd
000003c0: 1b74 9bbd ccac f53d f001 cdbb 057c 783d
000003d0: 0cfb a1bb 549d 30ba 4ddb b83d 5e5b 333e
000003e0: 4d8d 8dbc 3f35 32be 93a1 253e f2b3 573c
000003f0: de85 863d 1d9c 1bbe 4d3e d3bd 13c1 d9bd
-0.053473588 0.008723281 0.0765551 0.11096913 0.14194845 0.18820105 0.07180468 0.10632087
-0.090064324 0.012083178 -0.08164975 -0.071698695 0.0554076 0.038658265 0.07937716 0.15274775
0.027776115 0.061489597 0.035707906 -0.024676979 0.17212527 0.031989448 0.15248853 0.05106824
-0.023298062 0.043787178 0.002631078 0.1845497 0.16709104 0.15552288 0.03870353 0.037321813
0.0398574 -0.0705705 0.06760576 0.121016264 -0.0018829176 0.07169579 -0.16471319 -0.103448495
-0.20316008 -0.0788179 -0.025380807 -0.044734683 -0.08613018 0.13802823 0.029003229 -0.1352192
0.1341411 -0.019796219 0.027122991 0.13818963 0.027627636 0.05107056 -0.00036288088 -0.0381709
-0.03342056 -0.04309307 -0.10843806 0.049049675 0.08203915 0.19483775 -0.1861195 0.09541687
-0.054588582 -0.0030562805 -0.037940368 -0.123279296 0.093812324 -0.09225139 0.14229609 0.17869215
-0.005216333 0.014393413 0.04690543 -0.20597003 -0.16591613 -0.020100415 0.034254108 0.036399998
-0.16105315 0.0007195852 0.012577465 0.019304182 -0.13785742 0.012605622 0.067076266 0.06266879
0.09038238 0.0027094444 0.13503012 -0.02608413 0.08423072 0.01262807 -0.03919342 -0.0004135312
0.036864977 0.036793537 -0.063530885 0.019961402 0.026712557 0.008459711 0.08294093 -0.016427219
0.007596693 0.114192866 -0.117734134 0.12930547 -0.21327066 -0.000353714 -0.005076363 -0.16723786
-0.03582494 -0.0149989845 0.027968392 -0.057659 0.025471408 -0.21825969 -0.061561037 0.02014666
-0.080986015 -0.12324724 -0.13558249 0.06340628 0.0068522333 0.17343675 -0.11517956 -0.1241541
-0.10707374 -0.09416344 -0.15510474 -0.1978162 -0.025484458 -0.019376531 -0.25935116 -0.017639529
-0.026098508 -0.11967986 -0.009551449 -0.13888182 -0.19244027 -0.06951788 -0.024377486 -0.03898119
0.005346881 -0.13592763 -0.16604641 0.016708862 0.0141480565 0.01023055 0.05179802 -0.085744075
-0.18511374 0.017835332 -0.09597482 0.12068417 -0.18022208 -0.0046532075 -0.10541698 -0.0008452072
0.044560004 0.116602115 -0.007939443 0.018027639 0.058357086 -0.019685749 -0.035681367 0.04840255
-0.14264546 0.14957242 -0.062280245 0.0921417 0.006733937 0.04097123 0.15441209 0.026990782
-0.09780634 0.081370994 0.05929211 -0.033361673 -0.07002065 -0.010068443 0.023864051 -0.03071105
0.08890629 0.22242707 -0.115679435 -0.017077655 0.23988989 -0.024763815 0.07245535 0.017474262
-0.00080991583 0.022473622 -0.077172436 -0.114404306 -0.119870424 0.038269393 -0.0011174228 -0.13821267
-0.051643908 -0.11481037 -0.3245314 -0.18916935 -0.074971296 0.0062611196 -0.046576187 0.091482885
0.23484409 0.1247637 0.0024292846 0.060399946 0.06754071 0.09936611 0.1361688 0.13928074
0.14586025 0.22290324 0.09804253 0.010872654 -0.11323845 0.017391304 0.08928622 -0.10363027
0.025325423 0.1332591 -0.05256753 -0.020719834 0.04757731 0.115748204 0.005648538 0.038507275
0.13213211 -0.20625962 0.026254559 -0.02486702 0.016963622 0.019565418 -0.11050067 -0.0962145
-0.07590505 0.11995849 -0.0062563345 0.06066515 -0.004943257 -0.0006737311 0.09026203 0.17515323
-0.017279292 -0.17403124 0.16174917 0.013165461 0.06568502 -0.15196271 -0.10314617 -0.10632529

res_blocks.0.conv.3.bias f4 [30]
00000000: 16e9 1e3d 6b50 273d 4a18 6ebc 1df3 b53c
00000010: 99b9 113c 7d24 60bd 588a 783d 754d 50bd
00000020: 7fe4 19bd 243e 6d3d 650e 77bd 797f bebc
00000030: 6bb7 9239 ed0e ffbb 3b8e b93b 69c2 28bd
00000040: a04c 31bd 00e4 5f3b 7eec 11bd aa6d a93c
00000050: 4912 fa3c 9aaa 673b 6e2a 753d 274c 2ebc
00000060: 0512 233d 0ac7 26bc 327b 403d 062d 16bd
00000070: c645 793c 0278 413d
0.038796507 0.040848177 -0.014532158 0.022210652 0.008894348 -0.054722298 0.06067881 -0.05085512
-0.037571426 0.05792059 -0.060316462 -0.023254143 0.00027983947 -0.0077837617 0.005662707 -0.04120103
-0.043285966 0.0034162998 -0.035625927 0.020682175 0.030526297 0.003534949 0.059854917 -0.010638273
0.039812107 -0.010179291 0.04699249 -0.03666403 0.015214389 0.04723359

res_blocks.0.conv.4.weight f4 [30]
00000000: bcad 843f 0697 a33f c00f 813f c697 473f
00000010: 01dd 843f b02b 703f 4437 823f 60dd 863f
00000020: 1ba7 693f 7e7a 763f a985 933f 1931 703f
00000030: cf2f 8d3f 37bf 543f d068 873f c0c0 773f
00000040: 05cc 7f3f d3e0 8c3f 126b 663f 9fc3 5d3f
00000050: 9366 8e3f 0c1c 863f 54f8 7b3f 7606 7c3f
00000060: be78 a33f 0d3e 623f 0bd6 6e3f d1b5 823f
00000070: 05e0 933f 6fec 6a3f
1.036552 1.2780464 1.0082932 0.7796596 1.0379945 0.9381666 1.0173116 1.0536308
0.9127061 0.9628066 1.1525165 0.9382492 1.1030215 0.8310427 1.0578861 0.9677849
0.99920684 1.1006111 0.90007126 0.8662662 1.1125053 1.0477309 0.98425794 0.9844736
1.2771223 0.8837593 0.93295354 1.0211736 1.155274 0.9176702

res_blocks.0.conv.4.bias f4 [30]
00000000: 761d 55bc 1024 b7bd d281 0c3d a256 333d
00000010: 13f6 9a3d 40e1 e83b b769 9c3d 4a97 313d
00000020: 5172 04bd ea37 243d d8cb 6cbd a4b8 07bd
00000030: 7999 9f3d b81d 74bd 7924 b13d 0050 22bd
00000040: a950 bb3d 70ef 363c 1c6d 7cbd 131f a3bd
00000050: ed42 993d de0c ffbd 3af5 833b 347b 07bd
00000060: 360b 623e 66dd 27bd 5478 babc 77a8 93bb
00000070: e0fd ba3d 3a4d 3e3d
-0.013007512 -0.08942425 0.034303494 0.04378379 0.07566466 0.00710693 0.07637351 0.04335717
-0.032335583 0.040092386 -0.057811588 -0.03313507 0.077929445 -0.059598655 0.08649535 -0.039627075
0.09146244 0.011165485 -0.061627492 -0.07964911 0.07483468 -0.12453626 0.004027036 -0.03307648
0.22074589 -0.040982626 -0.022762455 -0.0045061666 0.09130454 0.046460368

res_blocks.0.conv.4.running_mean f4 [30]
00000000: 3f0d 9cbe a0cf c83e 1224 69bf ded7 a63e
00000010: 3d82 8c3d fe44 32bf 06e2 df3f b795 503e
00000020: c34a 073e 9bdd a9bd acdd 833f 9cc2 c43e
00000030: beb1 0a3d b75d 3dbf 8b74 b53d 6a1d 4e3d
00000040: e380 84bf e2bc 243f 59c8 533e 2a1f 273f
00000050: 3220 163d e17c 61bf b97a 8e3e 2527 973e
00000060: 3cbe 95bf 368c 113f 924d 693d 2e74 f03d
00000070: 3194 d3be 6051 ba3f
-0.30478856 0.39220905 -0.91070664 0.3258657 0.068607785 -0.69636524 1.7490852 0.20369612
0.13212113 -0.08294221 1.0302024 0.38429725 0.033860914 -0.7397112 0.088601194 0.05032102
-1.0351833 0.6435071 0.20681895 0.6528193 0.036651798 -0.88081175 0.27828005 0.29522052
-1.169868 0.5685457 0.056958742 0.117409095 -0.41324 1.4556084

res_blocks.0.conv.4.running_var f4 [30]
00000000: ec91 c640 b6e0 6a40 b647 9b40 a024 c240
00000010: 5ddd a240 a52c b440 77c6 5a41 cbb6 8540
00000020: f9c1 7640 baee 7540 6f15 3540 66cf b63f
00000030: 9a60 963f 3469 5d3f 576a b03f facf 1840
00000040: 75e3 a540 9589 a340 5473 2240 a907 4840
00000050: 7c5b d140 06fc 6f40 7fa9 6d40 8dba 4640
00000060: 55a7 3d41 a913 9740 af45 1d41 c7ac 4940
00000070: 17fc fd40 59e7 e241
6.2053127 3.6699653 4.852504 6.066971 5.089522 5.63045 13.673453 4.1785636
3.8555892 3.8426957 2.8294332 1.4282043 1.174823 0.8648865 1.3782452 2.387694
5.1840158 5.1105447 2.538289 3.1254675 6.5424175 3.7497573 3.7134702 3.1051362
11.853353 4.72115 9.829513 3.1511705 7.9370227 28.362963

final.0.weight f4 [30, 30, 1, 1]
00000000: ef0e 0abe fbae f93c 7591 07be 4303 fd3e
00000010: 5ad3 c73d 5fc1 433e 8bf5 463e 4e56 36be
00000020: 31ed aebd 5bf2 35be 2deb 373f 49b3 a73e
00000030: fec5 9f3e 791f 15bf bdb6 a13d 7785 88be
00000040: 8f69 70be 5d49 a9bd 2fc7 3a3b c6e8 2cbe
00000050: e2e8 123f 1b72 07be 7cc9 c13e 1830 b33d
00000060: 7904 94be 1b8a 52bd c00a f43d 6a4e e33e
00000070: 4164 183d bb41 ac3e 1897 45bd 5ec6 1f3f
00000080: 7823 533e c112 283e 6322 04be 7f3d debd
00000090: 803f 0c3f 01ae 35be e3e6 0e3e 8dd8 69be
000000a0: fefe 3d3d d17c 953d c11e 083e 971e 2fbe
000000b0: 0374 533e 3dbe 8f3e 67ac aa3d 19c6 823d
000000c0: 73fa a3be bf83 e53c 92a9 0e3e 92de a33c
000000d0: 04ac 993e 83d3 38bd 2458 34bf 114d c83e
000000e0: e1a8 c23e 14ec 36bd 00ce ea3c 771c 593e
000000f0: fc76 8e3d 8061 353e 5e9e 12bc a10d 943e
00000100: 8b3a 403f 3ca3 c3be 2499 dfbd 522a 993e
00000110: 80c4 43be 1d6f 7e3e c31d 2bbd 786d 533d
00000120: a63e 563c 3ac2 6abd e787 13be 7b51 493e
00000130: 94f5 e3bc 1988 423e 9bea 883e 6a40 85be
00000140: d8c4 fe3e 1e65 91bd 4842 a4be 6c9a a63d
00000150: e827 1d3e a6d3 64bc c4cb ecbd f64a 143e
00000160: 6352 993e 4bde d93d 821c 233f 54e8 01bf
00000170: 4b50 2abf aeb9 d1be d8dc 833d 7b21 7fbd
00000180: 2e5c 67bc c3f5 f73e 2392 44be fe69 9e3d
00000190: ce43 443e d03c 90be 948e 763e aca8 debd
000001a0: a83b 8e3d 91b7 d0bd 94ba a63e 1cbf 843c
000001b0: 9a18 183f 5f1b d6bd 0c9e 003f bc2f 8a3e
000001c0: 2670 2d3e 9ec8 5d3e 0d65 ac3d 1ac6 1ebf
000001d0: e33c 8ebe e6e0 e73e 2e3f 3ebe e49b 843e
000001e0: 7f43 95bd 90f9 0f3e 9e2d 44be 6e49 843e
000001f0: 21dc 693e ccd8 bfbe e01e 9abe 06d0 d23e
00000200: 49ae de3c 750f 1d3e 04e6 d7be 5163 87be
00000210: aa24 463e 4c5e 883d 25bf 013e e73b 54be
00000220: 8ca7 79bd c3b4 ecbd 5f31 49be 7ec9 a43e
00000230: 11f5 c3be 05a6 e1be 62b5 5b3d 64c9 99bc
00000240: 1ec4 8c3d fc3a 1bbf 8659 d13e 5cbb 983d
00000250: b120 60be c6da 05be 41f9 f5bd 8c53 3ebd
00000260: 9c56 8a3b 77f4 c9be a854 6cbe 6af5 7bbe
00000270: b8ab b8bb b573 1a3d 4616 f2bd 2895 a43e
00000280: c02a 743e d264 55bc 23b0 0abf 4f8a 07be
00000290: 84c5 dabe 4625 3cbd a9be b03e 7613 7bbe
000002a0: 93fc b03d 687d 10be 1bff 0fbf 8c8c 05bf
000002b0: 0aee 58be 9d34 633e 807b 9d3e 35a6 383d
000002c0: 30f3 c6be 85d9 b3be f520 d83e b2ff 433c
000002d0: 23e7 11be 1724 92be 94e9 1ebe fa35 b83e
000002e0: 28a9 61be 6861 2dbd f5f9 6dbd 477e 86be
000002f0: b597 373d 7a58 223e 4c34 363e 71a4 123e
00000300: a243 6e3e 57e2 67bc 23d9 073f 5e8b 99be
00000310: d03a 7abe 298f 9c3d 21f0 c03c 68b5 cdbe
00000320: 286e 53bd 9495 22bd 0434 a5be 0fce 04bf
00000330: bb14 813d 2ce5 ea3d e3f7 923d d603 d43d
00000340: 1f22 30be 7ebb 493d 01e3 ab3e bc8f 0fbe
00000350: 0afe 15bd 097f c43e 0ffa bb3d d822 6dba
00000360: d018 923e 86c8 7b3c d4e7 58be a246 f23e
00000370: 2c5e 36bd b521 10be ded9 b03e 85d5 fe3d
00000380: bdae 1e3e 2937 4f3d 499b 633e 8bb5 f63e
00000390: d511 e3be 1611 4e3e 7a4e 293e cf42 edbe
000003a0: 80bf 10bd 6d54 95be feaa 343d 346a 833d
000003b0: 6c4f b8be 510f 203e 9221 6fbe 0e40 0b3c
000003c0: 5eda ca3d 89f8 9d3d 36c5 993d 2308 21bc
000003d0: 411a a33e b1b8 643e 3d49 0cbe 4d58 983e
000003e0: 4513 543e 52c0 433e 5de3 0a3e 5389 79bc
000003f0: d26c fb3d 9f4e 33bd 4c8d 4fbe d376 f4bd
-0.13482259 0.030478945 -0.13239081 0.4941655 0.09757109 0.19116734 0.19429605 -0.1780636
-0.085413344 -0.17768233 0.71843225 0.3275397 0.31205744 -0.5825115 0.07896183 -0.26664326
-0.23477767 -0.08265946 0.002850007 -0.16885671 0.573866 -0.13227122 0.37849033 0.087494075
-0.28909662 -0.05140124 0.11916113 0.44395763 0.037204985 0.33643898 -0.048239797 0.6241206
0.20618999 0.16413404 -0.12903742 -0.10851573 0.54784393 -0.17742158 0.13955264 -0.22836514
0.046385758 0.072991975 0.13292982 -0.17101513 0.20649724 0.28074828 0.083336644 0.063854404
-0.32027015 0.028016923 0.13931873 0.02000359 0.3001405 -0.04512359 -0.7044699 0.39121297
0.3801947 -0.044658735 0.028662682 0.21202265 0.06956288 0.17712975 -0.0089488905 0.28916648
0.7508933 -0.38210475 -0.10917881 0.299151 -0.19117928 0.24847074 -0.04177643 0.05161807
0.01307646 -0.057314135 -0.14407311 0.19659989 -0.027827062 0.1899723 0.2674149 -0.26025707
0.49759555 -0.07099365 -0.3208182 0.081349224 0.15347254 -0.013966477 -0.11562303 0.1448172
0.2994567 0.10638102 0.63715374 -0.5074513 -0.6652877 -0.40961975 0.06438607 -0.06228779
-0.014121098 0.4842969 -0.19196372 0.0773506 0.1916649 -0.28171396 0.24077827 -0.10872015
0.06944972 -0.101912625 0.32564223 0.01620441 0.5941254 -0.10454439 0.5024116 0.26989543
0.16937312 0.2165856 0.084177114 -0.6202103 -0.27780828 0.4528877 -0.18578789 0.25900185
-0.072882645 0.14060044 -0.19158027 0.25837272 0.22837879 -0.3747009 -0.3010168 0.41174334
0.027182715 0.15337928 -0.42167675 -0.2644296 0.19349924 0.06658611 0.12670572 -0.20725976
-0.0609508 -0.11557915 -0.1964774 0.32184976 -0.38272908 -0.44071975 0.053639777 -0.018772788
0.06873344 -0.6063688 0.40888613 0.07457611 -0.21887471 -0.13071737 -0.12010432 -0.046466395
0.0042217504 -0.39444324 -0.23079169 -0.24605337 -0.005635705 0.037708003 -0.118206546 0.32145047
0.23844433 -0.013024526 -0.54175013 -0.13236354 -0.42728817 -0.045933984 0.34520462 -0.24519143
0.08641925 -0.14110339 -0.56248635 -0.5216758 -0.21184555 0.22188039 0.30758286 0.045080382
-0.38857412 -0.35126892 0.42212644 0.011962818 -0.14248328 -0.2854316 -0.1551879 0.3597868
-0.22037184 -0.042329222 -0.058099706 -0.26268217 0.044822413 0.15854064 0.17793387 0.14320542
0.23267987 -0.014153085 0.530657 -0.2998914 -0.24436498 0.07644493 0.023552002 -0.40177464
-0.051618725 -0.03969343 -0.32266247 -0.5187692 0.06302782 0.11469492 0.07176187 0.10352294
-0.17200516 0.049251072 0.33571628 -0.14019674 -0.036619224 0.3837817 0.09178554 -0.00090460246
0.28534555 0.015367633 -0.21182185 0.47319514 -0.044523403 -0.14075358 0.3454122 0.12443069
0.15496345 0.050589714 0.22227205 0.4818538 -0.44349542 0.20123705 0.16533843 -0.46340033
-0.03533888 -0.29165974 0.044108383 0.06416741 -0.35998094 0.15630843 -0.2335265 0.008499159
0.099049315 0.0771342 0.07508318 -0.0098286 0.31855968 0.22336079 -0.13699813 0.29754868
0.20710476 0.19116333 0.13563295 -0.015230495 0.12276615 -0.04377615 -0.20268744 -0.119367264

final.0.bias f4 [30]
00000000: 2f39 073e 602c 19bd 057e 37be ba66 20bc
00000010: f680 b4bd 99e6 b1bd 5575 ac3d 71f4 d2bd
00000020: eabe 55bd 6d7f 8dbc 8c1a f0bd de69 2a3d
00000030: abf1 e33d b3eb 163e 2fa6 cfbd b664 f4bd
00000040: d719 183e 5cbe 823d 8285 d4bd f6b4 2fbd
00000050: 4dd4 c0bd ef5d 36bc 89c0 39be 944d 12bd
00000060: 0f40 7c3d 9df9 1d3e e1ec 1dbe 8696 9c3d
00000070: 0033 13be 5e01 2d3e
0.13205408 -0.037395835 -0.17919166 -0.009790117 -0.0881366 -0.08686561 0.08420817 -0.1030053
-0.052184023 -0.017272675 -0.117238134 0.04160487 0.11130079 0.1473835 -0.10139119 -0.119332716
0.14853607 0.063839644 -0.10377027 -0.042897187 -0.09415493 -0.011130794 -0.18139853 -0.035718516
0.06158453 0.15427251 -0.15422393 0.076458976 -0.14374924 0.16895053

final.1.weight f4 [30]
00000000: d41d e33f e01d 253f 7765 4a3f 5e05 aa3f
00000010: 92ce 443f d039 a140 5e27 243f 6932 1b3f
00000020: cd6a 1d3f b624 e53f d647 2d3f cf06 133f
00000030: 7541 9d3f 2159 203f ac1e 583f bed6 233f
00000040: 9989 3e3f 8515 b03f 9cb3 4e3f ab45 cd3f
00000050: a300 c13f ac1a 1b3f 4481 a63f 0826 2d40
00000060: 0548 b340 97dd 343f a23e b13f 6c31 4f3f
00000070: 3107 2b3f c8f6 733f
1.7743478 0.6449871 0.79061073 1.3282888 0.768777 5.038307 0.6412257 0.60623795
0.6149109 1.7901828 0.6768774 0.57432264 1.2285601 0.62636 0.844218 0.63999546
0.7442871 1.3756567 0.8074281 1.6036886 1.5078319 0.60587573 1.3008199 2.7054462
5.6025414 0.7065062 1.3847239 0.80934787 0.6680785 0.95298433

final.1.bias f4 [30]
00000000: 0b46 7e3e cce6 d2be 2b26 aabe dee0 b53c
00000010: 427c 9cbe eaf6 6540 6198 d0be d462 d6be
00000020: f4db c7be 3fb2 073e b45a c7be 9499 d4be
00000030: 1add 33be 7688 c2be 823f 83be aaaa efbe
00000040: 6083 bcbe 081a 6bbd e787 99be 0dc0 373d
00000050: 7e05 d53c a894 cbbe fafa fabd 2665 8f3f
00000060: 6368 6040 39f0 c8be 7618 20bb 637d 9abe
00000070: 3d15 ecbe 7a46 26bd
0.24831407 -0.4119171 -0.33232245 0.022201952 -0.3056355 3.5931954 -0.40741256 -0.41872275
-0.39034998 0.13251589 -0.38936388 -0.4152342 -0.17564812 -0.37994736 -0.2563439 -0.46809894
-0.3681898 -0.057397872 -0.29986498 0.04486089 0.026003595 -0.39761853 -0.12254901 1.1202743
3.5063713 -0.39245775 -0.0024428642 -0.30173787 -0.46109954 -0.040594555

final.1.running_mean f4 [30]
00000000: 6e0c 833f dd42 613f cf5c 293f 6a36 f03c
00000010: c30c 3dbf 5aaf bbbf 1038 8bbe 6eae d13e
00000020: 5c2c 9b3f 47bd 3bbe 16f7 bc3e 6098 d43f
00000030: 4c4e 9c3e cd60 883f dbff a83f d970 34be
00000040: eb59 4e3f c806 e23e b0f6 5f3f 7b19 3dbf
00000050: ad59 30bf 8435 55bf 431c 0abf 3065 70bf
00000060: 24a7 5d3e 9332 6f3f 6b78 e0bd 8a52 f4be
00000070: 8f16 09bf 8594 1e3e
1.0238168 0.8799265 0.6615724 0.029322822 -0.738476 -1.4662888 -0.2719121 0.40953392
1.2122912 -0.18333922 0.36907262 1.6609001 0.30528486 1.0654541 1.3203081 -0.17621173
0.80605954 0.441458 0.8748579 -0.73867005 -0.68886834 -0.83284783 -0.53949374 -0.939044
0.2164579 0.93436545 -0.10960468 -0.47719222 -0.53550047 0.15486343

final.1.running_var f4 [30]
00000000: cdf3 0a41 dc6c 0540 809a c13f 08b6 1f40
00000010: 0c0d 4840 eb61 d540 812e 0f40 478c 853f
00000020: b824 a23f dc10 8c3f 5c56 883f 1fcb 1f40
00000030: c08a 433f f5b4 ee3f f95d 2540 7127 ea3f
00000040: 2986 913f 4284 a83f 828f 1b40 24a8 1840
00000050: dcb4 4d3f 21ea b33f 5c6b ae3f 2f4f 773f
00000060: bf0f 0641 f534 cf3f 079e a63f cb05 2240
00000070: c8bb 7e3f fd46 4c40
8.684522 2.0847692 1.5125275 2.4954853 3.1257963 6.668203 2.2372134 1.0433434
1.2667456 1.0942645 1.0651355 2.4967725 0.7638359 1.8648974 2.5838606 1.8293287
1.1369067 1.3165362 2.430634 2.3852625 0.80354095 1.4055825 1.3626513 0.966052
8.378844 1.6188036 1.3016976 2.5316036 0.9950528 3.1918328
