图像处理/model_weights_3.pth (torch, 83009 bytes, 24 tensors)

initial.0.weight f4 [30, 3, 3, 3]
0	0xbf066aaf	-0.52506536
1	0xbeb43d05	-0.35202804
2	0xbeb82838	-0.35968184
3	0xbe8b8688	-0.27251077
4	0xbed595a7	-0.41715738
5	0xbe86aa7a	-0.26301938
6	0xbeae5a87	-0.34053442
7	0xbedcfe92	-0.43162972
8	0xbeb3057b	-0.3496512
9	0x3dffb5f9	0.124858804
10	0x3c94223c	0.01808273
11	0x3df7a9c9	0.12092931
12	0xbbbf6dec	-0.005841961
13	0x3e269dff	0.16271208
14	0xbdf1ea4a	-0.11812265
15	0x3d82937f	0.06375789
16	0x3dd19ab8	0.102345884
17	0x3d678950	0.056527436
18	0x3ee7fa98	0.45308375
19	0x3eb99633	0.36247405
20	0x3ea60a9b	0.32429966
21	0x3eacfceb	0.3378671
22	0x3e9856ad	0.29753628
23	0x3ed4c461	0.41556075
24	0x3eaeae12	0.3411718
25	0x3eb3abd3	0.3509203
26	0x3ecff9a2	0.40620142
27	0x3cf646b7	0.030063016
28	0x3d5f5d96	0.05453261
29	0x3db113b1	0.08646334
30	0xbd48d66d	-0.049032617
31	0x3b9dace5	0.0048118704
32	0xbdc3f56b	-0.09568294
33	0xbdb7a7af	-0.0896753
34	0xbdf6ffe0	-0.12060523
35	0xbd680df0	-0.056653917
36	0x3ebe1f7f	0.37133405
37	0x3ecd8cbf	0.40146443
38	0x3ee7f194	0.45301497
39	0x3eebe543	0.4607335
40	0x3ed2b3ad	0.41152707
41	0x3f055cac	0.5209453
42	0x3f02fc74	0.5116646
43	0x3edd6568	0.4324143
44	0x3eac8ac2	0.33699614
45	0x3d054347	0.032534864
46	0x3c8666ed	0.0164065
47	0x3c989d03	0.018629557
48	0x3c212832	0.009836243
49	0x3d5ebd19	0.054379556
50	0x3e0d4fd2	0.1379998
51	0x3cb051a8	0.021523312
52	0x3da919f7	0.082569055
53	0x3e2c497f	0.16824912
54	0xbdac79b3	-0.0842165
55	0xbd4240fa	-0.047425248
56	0xbe1609ab	-0.14652126
57	0xbe1aa989	-0.15103735
58	0xbdb040ed	-0.086061336
59	0xbda094d8	-0.0784089
60	0x3d8e80ae	0.069581375
61	0xbe8489b6	-0.25886315
62	0xbdb740f3	-0.08947935
63	0xbe5fd35a	-0.21857968
64	0xbe0860ea	-0.1331822
65	0xbe098227	-0.13428555
66	0xbe34289f	-0.1759362
67	0xbe42d643	-0.19027047
68	0xbe3ce494	-0.1844657
69	0xbe775582	-0.24153712
70	0xbdb0328c	-0.08603391
71	0xbe1f829f	-0.15577172
72	0x3e910ded	0.28330937
73	0x3e0d230d	0.13782902
74	0x3e8a7ce4	0.2704841
75	0x3eaf1ca8	0.3420155
76	0x3e9b02f2	0.30275685
77	0x3e7bd4e9	0.24592938
78	0x3e2bce44	0.16777903
79	0x3eb31602	0.34977728
80	0x3e3ec408	0.18629467
81	0x3e2e82ae	0.17042038
82	0x3e1e28fb	0.1544532
83	0x3e141e98	0.14464796
84	0x3e8a9460	0.27066326
85	0x3e25ad7f	0.16179465
86	0x3e069a35	0.13144763
87	0x3e13eb24	0.14445168
88	0x3e442206	0.19153604
89	0x3e8cf17f	0.27527997
90	0xbd589e69	-0.052885447
91	0xbd17dc49	-0.037075315
92	0x3d10c087	0.03533986
93	0xbc97bd8b	-0.018522998
94	0xbd90cbfd	-0.07070158
95	0xbccda100	-0.025101185
96	0x3cbc2c1a	0.022970248
97	0x3cb574ee	0.022150483
98	0x3c0b46c9	0.008500763
99	0x3b2729f9	0.0025507195
100	0x3c6a18f2	0.014288174
101	0xbd9d1910	-0.07670796
102	0xbe175840	-0.14779758
103	0xbcbfbcb2	-0.023405407
104	0xbc965d78	-0.018355116
105	0xbd044f84	-0.032302395
106	0xbd941fa5	-0.07232598
107	0xbe16537d	-0.14680286
108	0x3eb0f078	0.34558463
109	0x3ef05aec	0.46944368
110	0x3ee49d27	0.44651148
111	0x3eaa6f0a	0.3328784
112	0x3f05fb9d	0.52337056
113	0x3ee5ab2c	0.44857156
114	0x3eb5a4f8	0.35477424
115	0x3ebeb830	0.372499
116	0x3eb4b8a3	0.35297117
117	0xbd1dfbe0	-0.038570285
118	0xbe02c379	-0.1276988
119	0xbdb97f32	-0.09057464
120	0xbdc45e48	-0.09588295
121	0x3b86d639	0.004114893
122	0xbb819ce3	-0.00395547
123	0x3c5efa5e	0.013609497
124	0xbd037236	-0.032091342
125	0x3d049637	0.03236982
126	0x3e1bd9e3	0.15219836
127	0x3e4968dd	0.19668908
128	0x3e850ce4	0.25986397
129	0x3d9b6875	0.07588283
130	0x3e93bdda	0.28855783
131	0x3e864538	0.26224685
132	0x3e8186e9	0.2529824
133	0x3ea6ebe5	0.32601848
134	0x3e5db29c	0.21650165
135	0x3ec4fb69	0.3847306
136	0x3e7781e9	0.2417065
137	0x3e93d97b	0.28876862
138	0x3e77b3d4	0.24189693
139	0x3ed7e03a	0.4216326
140	0x3e75cf07	0.24004756
141	0x3ecc0dd1	0.3985429
142	0x3e9072e0	0.28212643
143	0x3e3c0640	0.18361759
144	0x3d5f8212	0.054567404
145	0x3d0aef9e	0.033919923
146	0x3de4a8ed	0.111650325
147	0x3dbcc6d4	0.09217611
148	0xbc6c8306	-0.014435535
149	0x3e0a8787	0.13528262
150	0x3e4fc548	0.202901
151	0x3e1d5621	0.15364887
152	0x3e9d57de	0.307311
153	0xbd63cd3d	-0.055615652
154	0x3d481cc3	0.048855554
155	0xbd8aa258	-0.06769246
156	0x3d07e4f9	0.03317735
157	0xbe2465a8	-0.16054404
158	0xbdd7d8b3	-0.10539379
159	0xbe0951ce	-0.13410112
160	0xbe1cc815	-0.153107
161	0xbdb4a105	-0.088197745
162	0xbe832150	-0.25611353
163	0xbe972955	-0.2952372
164	0xbe68ac9a	-0.22722092
165	0xbea32104	-0.31861126
166	0xbe9d7564	-0.30753624
167	0xbe7f46a6	-0.24929294
168	0xbe9837b5	-0.2973
169	0xbeb35c81	-0.35031512
170	0xbe8d9e88	-0.27660012
171	0xbd31de13	-0.043424677
172	0x3b4a12d8	0.0030833986
173	0xbe1765bc	-0.14784902
174	0xbc85fde5	-0.016356418
175	0xbc7469fe	-0.014917849
176	0x3d37480a	0.044746436
177	0xbc04385d	-0.008070079
178	0x3c7b5420	0.015339881
179	0x3c55e52d	0.013055128
180	0x3e906262	0.2820006
181	0x3e9a1bc6	0.30099314
182	0x3ec15813	0.37762508
183	0x3eb8908d	0.36047783
184	0x3e9d01cc	0.30665433
185	0x3e43eb4a	0.19132724
186	0x3e9f0c31	0.3106399
187	0x3e9fd060	0.31213665
188	0x3e93e3d0	0.28884745
189	0x3ebee079	0.37280634
190	0x3eb5260a	0.35380584
191	0x3ed2e887	0.4119303
192	0x3e9fa91a	0.31183702
193	0x3e4d1734	0.20028383
194	0x3e7292ab	0.23688762
195	0x3ed9a2f9	0.4250715
196	0x3ec4bc70	0.38425016
197	0x3e675172	0.22589663
198	0x3e310457	0.17286812
199	0x3e63f759	0.22262324
200	0x3e74fd9a	0.23924866
201	0x3e083b1b	0.13303797
202	0x3e558213	0.208504
203	0x3e867bec	0.2626642
204	0x3e657a79	0.22410001
205	0x3e821f4b	0.254145
206	0x3ec0968c	0.37614858
207	0x3ccd97a6	0.025096726
208	0xbda436f2	-0.080182925
209	0xbd73902c	-0.059463665
210	0xbd3f79b8	-0.04674694
211	0x3cbcfe16	0.023070376
212	0x3c67188b	0.014104973
213	0xbe33ed77	-0.17571054
214	0xbe539851	-0.20663573
215	0xbe20fffe	-0.15722653
216	0x3e2c2c09	0.16813673
217	0x3eb9de1b	0.36302266
218	0x3e5387b9	0.20657243
219	0x3df142f5	0.11780349
220	0x3dcb5b10	0.09929478
221	0x3e5d2600	0.21596527
222	0x3e812c3e	0.25229067
223	0x3e089821	0.13339283
224	0x3eabb152	0.33533722
225	0x3e4e1af3	0.20127468
226	0x3e5bc9d1	0.21463706
227	0x3dec18a9	0.11528141
228	0x3e3a1f99	0.18176116
229	0x3d834109	0.06408889
230	0x3df68576	0.120371744
231	0x3e40d024	0.188294
232	0x3df8e320	0.12152696
233	0x3da80847	0.08204704
234	0xbd97a9c7	-0.07405429
235	0xbde64435	-0.11243478
236	0xbce21818	-0.02759938
237	0xbe61c846	-0.22049055
238	0xbe626786	-0.22109804
239	0xbd06e3f1	-0.032932226
240	0xbe64abd3	-0.2233117
241	0x3acd3f11	0.0015659054
242	0xbe0c48f0	-0.13699698
243	0x3e22ab1b	0.15885584
244	0x3e5be523	0.21474127
245	0x3e6812d6	0.22663435
246	0x3e4fc306	0.2028924
247	0x3de0b601	0.109722145
248	0x3e2748a9	0.16336311
249	0x3e6ba1b8	0.2301091
250	0x3e280e63	0.16411738
251	0x3ddaa3ae	0.10675751
252	0xbeb70b33	-0.35750732
253	0xbeb3ec9b	-0.35141453
254	0xbe8c0ec4	-0.27355015
255	0xbe91136f	-0.2833514

initial.0.bias f4 [30]
0	0xbdf099d7	-0.117480926
1	0x3db987c4	0.09059098
2	0xbe1280e2	-0.14306977
3	0x3d65b248	0.056078225
4	0x3e4378bd	0.19089027
5	0xbd46099a	-0.048349
6	0x3c4e811b	0.012604023
7	0x3db131ff	0.08652114
8	0xbe0c2d4b	-0.13689153
9	0xbd8625a1	-0.06550146
10	0x3d8bb4e8	0.068216145
11	0xbe247dd6	-0.16063628
12	0x3ccae23f	0.024766086
13	0xbddb5a15	-0.10710541
14	0x3e1082eb	0.14112441
15	0xbe055be3	-0.13023333
16	0xbe0afb23	-0.13572364
17	0x3df2b0bb	0.11850115
18	0xbd178938	-0.036996096
19	0x3dc1fa17	0.09471529
20	0xbca5cbd4	-0.020238794
21	0xbd791cf8	-0.060818642
22	0x3c390171	0.011291848
23	0xbadf108d	-0.0017018482
24	0x3e0e825c	0.13916916
25	0x3d916fe0	0.071014166
26	0x3d9e3e5f	0.0772674
27	0xbca257d0	-0.019817263
28	0xbe042d3a	-0.12907878
29	0xbdb32b85	-0.08748535

initial.1.weight f4 [30]
0	0x3f9527e7	1.1652802
1	0x3f3fc9e3	0.7491743
2	0x3ee1c913	0.4409872
3	0x3f52b27a	0.82303584
4	0x3ea19113	0.31555995
5	0x3f4045e3	0.7510664
6	0x3f7aa4cf	0.9790773
7	0x3f211855	0.6292775
8	0x3f57444d	0.84088594
9	0x3f8b43c3	1.0880054
10	0x3f8905bf	1.0704879
11	0x3faa48cb	1.3303465
12	0x3f2b3b5b	0.66887444
13	0x3fae704c	1.362802
14	0x3efc1cde	0.49240774
15	0x3f37901c	0.7170427
16	0x3f893eff	1.072235
17	0x3f48e5b2	0.7847549
18	0x3f60d03b	0.87817734
19	0x3f062926	0.5240654
20	0x3eb6bdf5	0.356918
21	0x3f686dcd	0.9079254
22	0x3f80eb93	1.0071892
23	0x3f601d5b	0.8754479
24	0x3f6c2f56	0.9225973
25	0x3f85b6a8	1.0446367
26	0x3f2c3679	0.6727062
27	0x3f3ea0fb	0.74464387
28	0x3e23a5f8	0.15981281
29	0x3e93c95c	0.28864563

initial.1.bias f4 [30]
0	0xbdb3069c	-0.08741495
1	0xbe7507b5	-0.23928721
2	0xbe54cd99	-0.20781554
3	0x3d45e87d	0.04831742
4	0xbd4dbef1	-0.050230924
5	0x3dbe1447	0.09281211
6	0xbebce5c6	-0.36894053
7	0xbd6f43c6	-0.058414243
8	0xbd981d91	-0.07427514
9	0xbd870e1a	-0.065944865
10	0xbe6dcc7a	-0.23222533
11	0x3f051ae7	0.51994175
12	0x3c71afa0	0.014751345
13	0x3e491b8d	0.19639416
14	0xbdcbffcc	-0.09960899
15	0xbd2bcc8e	-0.041943125
16	0x3d2d0250	0.042238533
17	0xbe986255	-0.2976252
18	0xbdb58945	-0.08864073
19	0xbd2a4465	-0.041569132
20	0xbe17495b	-0.14774077
21	0x3e1cf324	0.15327126
22	0x3dcb4e85	0.09927086
23	0xbeb50ed8	-0.35362887
24	0xbe5dbf9d	-0.21655126
25	0xbd27ba2a	-0.040949024
26	0xbeacee31	-0.33775476
27	0xbd802ca7	-0.06258517
28	0xbec5b67d	-0.3861579
29	0xbf1cb0f9	-0.6120754

initial.1.running_mean f4 [30]
0	0x3fd9791f	1.6990088
1	0x402b5de6	2.677606
2	0x3f25c117	0.64747757
3	0x3e8c263b	0.27372918
4	0x404f0a60	3.2350082
5	0x3f854352	1.041117
6	0x3fa4a34b	1.2862333
7	0x3feeae01	1.8646852
8	0x3ede2076	0.4338414
9	0x3dcba121	0.09942842
10	0x3f951cfc	1.164947
11	0x3f9de6ef	1.23361
12	0x40a1c1ea	5.054921
13	0x3f72e334	0.94877934
14	0x401251b9	2.286238
15	0x4039fce9	2.9060614
16	0x3ca4ecfc	0.020132534
17	0x3eed2bd0	0.4632249
18	0x3eb41771	0.35174134
19	0xc03a7f99	-2.914038
20	0x402e79b3	2.726178
21	0xbeb44267	-0.3520691
22	0xbeb81dcc	-0.35960233
23	0x3f7dbc7f	0.9911575
24	0xbd263825	-0.040580887
25	0xbfb3261c	-1.3996005
26	0x40d000be	6.5000906
27	0x3fdc0e0f	1.719179
28	0xc076b0b0	-3.8545341
29	0xbfb68fc5	-1.4262625

initial.1.running_var f4 [30]
0	0x3c5e995e	0.01358637
1	0x3ccea09b	0.025223067
2	0x3bb4492a	0.005501886
3	0x3b8ed2ec	0.00435864
4	0x3d056e37	0.032575812
5	0x3cac3669	0.021022039
6	0x3c232081	0.00995648
7	0x3d16393d	0.03667568
8	0x3c552003	0.0130081205
9	0x3b90741e	0.0044083735
10	0x3c5f25a7	0.013619817
11	0x3cd187fd	0.02557754
12	0x3e3020e7	0.17200051
13	0x3c34bc09	0.011031159
14	0x3caef597	0.02135734
15	0x3d0507d4	0.03247817
16	0x3c3c9233	0.011509466
17	0x3c6641dd	0.014053789
18	0x3cb76512	0.022387061
19	0x3d60b142	0.054856546
20	0x3c914465	0.017732808
21	0x3ae31a36	0.0017326537
22	0x3c05ee29	0.008174458
23	0x3b99593e	0.004679828
24	0x3ba2c177	0.0049669105
25	0x3ba8f26f	0.0051558535
26	0x3e0e1c20	0.13877916
27	0x3d0d6e0f	0.03452879
28	0x3d65c820	0.056099057
29	0x3b829e28	0.003986139

res_blocks.0.conv.0.weight f4 [30, 30, 3, 3]
0	0xbe0af5dc	-0.1357035
1	0xbdcc838b	-0.09986027
2	0xbe344a41	-0.1760645
3	0xbcf8e6f2	-0.03038356
4	0xbd96c6ae	-0.07362114
5	0xbde30977	-0.1108579
6	0xbd5c23e3	-0.05374516
7	0xbe588c1b	-0.21147196
8	0xbd21537e	-0.039386265
9	0xbd3ae752	-0.04563076
10	0x3e092a1d	0.13394971
11	0x3cb39ba1	0.021924796
12	0xbd662653	-0.056188893
13	0xbe114384	-0.14185911
14	0xbd1a04dd	-0.037602294
15	0x3c272a85	0.010203009
16	0xbe45c6b3	-0.19314079
17	0x3dbb2eb1	0.09139765
18	0x3e3afc59	0.18260325
19	0xbd84a791	-0.06477273
20	0xbdfcf558	-0.12351483
21	0xbcbc58a7	-0.022991491
22	0xbdd4d13c	-0.10391471
23	0xbe0d0735	-0.1377228
24	0xbdcb6cf2	-0.09932889
25	0xbd9f52f4	-0.07779494
26	0xbc9adf9a	-0.01890545
27	0xbe0f5306	-0.13996515
28	0xbd23d0df	-0.039994117
29	0x3e0d3910	0.13791299
30	0x3a7fe433	0.00097614824
31	0x3d686bfe	0.056743614
32	0xbd4d6fdf	-0.050155517
33	0xbb619679	-0.0034421964
34	0x3c48f119	0.012264513
35	0x3daf68a0	0.085648775
36	0x3dc581f2	0.09643926
37	0xbe363222	-0.17792562
38	0xbcd421d2	-0.025895033
39	0xbe026be9	-0.12736477
40	0xbcd0a0f8	-0.02546738
41	0x3e3e6127	0.18591748
42	0x3d952811	0.07283033
43	0xbe37d785	-0.17953308
44	0xbdde028f	-0.10840332
45	0x3e03069c	0.1279549
46	0x3dc02916	0.093828365
47	0x3df78e58	0.12087697
48	0x3ad0f7d1	0.0015942996
49	0x3d6cfa86	0.057856105
50	0x3dbaf063	0.091278814
51	0x3e3ca918	0.18423879
52	0x3bfa63f7	0.0076413113
53	0x3e4f1e2c	0.20226353
54	0xbddd6913	-0.10811057
55	0x3daf179e	0.085494265
56	0xbd8381b0	-0.0642122
57	0xbe237e0c	-0.15966052
58	0xbc33b8e3	-0.010969373
59	0xbe4c5d8e	-0.19957563
60	0xbd63ac44	-0.055584207
61	0xbdb5099c	-0.088397235
62	0x3e0bfb45	0.1367007
63	0x3db9f088	0.09079081
64	0x3e3f8dc7	0.18706428
65	0x3dddcfe3	0.10830667
66	0x3ba766ac	0.005108675
67	0x3d4ca8bd	0.04996561
68	0x3e23b797	0.15988003
69	0xbd0f0b26	-0.03492274
70	0x3d6f54a7	0.05843034
71	0x3cb348ad	0.02188524
72	0x3d8810d3	0.06643834
73	0x3cb89332	0.022531126
74	0x3d48d83e	0.04903435
75	0x3d7ace2f	0.06123179
76	0x3d512d67	0.05106869
77	0xbdb39987	-0.087695174
78	0x3e20c412	0.15699795
79	0x3d0c2799	0.03421745
80	0x3d24bceb	0.04021923
81	0xbd9ce52a	-0.07660897
82	0xbe2e286d	-0.17007609
83	0x3ba7939f	0.0051140334
84	0x3da4b197	0.08041685
85	0xbdeca080	-0.115540504
86	0x3c87e500	0.016588688
87	0xbd7f8b48	-0.06238869
88	0xbd6a5015	-0.05720528
89	0xbde3ed34	-0.11129227
90	0xbddb1b65	-0.106985845
91	0xbda48882	-0.08033849
92	0xbdf5c9e3	-0.120013975
93	0xbc78e340	-0.015190899
94	0xbd715211	-0.058916155
95	0xbd82020f	-0.06348049
96	0xbe5389e5	-0.20658071
97	0xbcea8516	-0.028627913
98	0xbd37063b	-0.044683676
99	0xbe24f7a4	-0.16110092
100	0xbe65267d	-0.22377963
101	0xbca110d1	-0.019661339
102	0xbd0c9a85	-0.03432705
103	0xbd5d6422	-0.054050572
104	0xbd5a4c5a	-0.05329547
105	0xbd89522c	-0.06705126
106	0xbd7ee071	-0.062225763
107	0xbe228794	-0.15872031
108	0x3d299937	0.041405883
109	0x3cdf10a4	0.027229615
110	0xbd655afe	-0.05599498
111	0xbd942946	-0.07234435
112	0x3e149d74	0.14513189
113	0x3e439f35	0.19103701
114	0x3d58d5a2	0.05293811
115	0x3d98a787	0.07453828
116	0xbcc862e4	-0.024461217
117	0xbdc2ab29	-0.095053025
118	0x3d3a8884	0.045540348
119	0xbdb2e6ba	-0.08735414
120	0xbdb83bca	-0.08995779
121	0x3c15ffb8	0.009155206
122	0xbd97ae8f	-0.07406341
123	0xbdbafc1c	-0.09130117
124	0xbd9af127	-0.075655274
125	0xbdf0ee36	-0.11764185
126	0xbdb7bbf1	-0.08971394
127	0xbd043db7	-0.03228542
128	0xbd64deff	-0.05587673
129	0x3e0e1837	0.13876425
130	0xbcfe7228	-0.031060293
131	0xbc07981b	-0.008276011
132	0xbd5d271d	-0.05399238
133	0xbd89e627	-0.06733351
134	0xbd6a6293	-0.057222914
135	0xbd8d3287	-0.06894403
136	0x3e34ee0c	0.17668933
137	0xbcd48dbb	-0.025946489
138	0xbd263b49	-0.040583882
139	0xbd2e6da2	-0.042585023
140	0xbd0cff1b	-0.034422975
141	0xb98ff6a2	-0.0002745884
142	0x3d6e878f	0.058234747
143	0xbdee0448	-0.1162191
144	0xbd012b96	-0.031535707
145	0x3dc301f2	0.095218554
146	0x3c56917f	0.013096212
147	0xbd45b4a2	-0.048267968
148	0xbd422978	-0.04740283
149	0xbde1576b	-0.11003002
150	0xbdaced76	-0.084437296
151	0xbe0b9b6b	-0.13633506
152	0xbe35d0f8	-0.17755497
153	0xbd264463	-0.040592562
154	0xbdc020bf	-0.09381246
155	0x3d8960bb	0.06707903
156	0xbe05922a	-0.13044038
157	0xbdd68985	-0.104754485
158	0x3d7dccbd	0.06196283
159	0xbde37f6d	-0.11108289
160	0x3ccb042b	0.02478226
161	0xbc6e24b6	-0.01453512
162	0xbb8a7b6c	-0.004226139
163	0x3d6f2647	0.058386113
164	0x3d0c96b6	0.034323417
165	0x3e0040f6	0.1252478
166	0xbd6934b8	-0.056935042
167	0xbb54693c	-0.0032411357
168	0x3cc7a666	0.024371337
169	0x3d9128ea	0.07087882
170	0xbc92ca2f	-0.017918674
171	0xbe19d378	-0.15022075
172	0xbe576774	-0.21035558
173	0xbe51bb48	-0.20481598
174	0xbe3099f7	-0.17246233
175	0xbd55d685	-0.052206535
176	0x3d5875e7	0.052846815
177	0xbca729aa	-0.02040561
178	0xbd2fd314	-0.04292591
179	0xbc179331	-0.009251402
180	0xbc2330b6	-0.009960344
181	0xbdee54f5	-0.11637298
182	0xbdeb76e2	-0.114972845
183	0xbe140732	-0.1445587
184	0xbdd4810e	-0.10376178
185	0xbdb8b72c	-0.09019312
186	0xbdb26078	-0.08709806
187	0xbd900409	-0.0703202
188	0xbca1dfde	-0.019760069
189	0x3cf8c0be	0.030365344
190	0x3c8b1dde	0.016982015
191	0x3e0c9789	0.13729681
192	0x3e323480	0.1740284
193	0x3e355b49	0.17710604
194	0x3dfe1f23	0.124082826
195	0xba1418b7	-0.0005649435
196	0xbd87098c	-0.06593618
197	0xbb652809	-0.003496649
198	0x3acacd3b	0.001547254
199	0x3cc27654	0.023738064
200	0x3c97d854	0.01853577
201	0xbd114656	-0.03546747
202	0x3d15483e	0.03644585
203	0x3dc6b148	0.097017825
204	0xbd4180b4	-0.04724188
205	0x3e16a918	0.14712942
206	0x3de1c4bf	0.110238545
207	0xbd3e693c	-0.046487078
208	0xbd285079	-0.04109237
209	0xbd5cadf6	-0.05387684
210	0xbd79de63	-0.0610031
211	0xbc19194d	-0.009344411
212	0x3d41d8fa	0.047326066
213	0xbdcf84f1	-0.101327784
214	0x3da4e88f	0.080521695
215	0xbdd7b4ec	-0.10532555
216	0xbba1e7cd	-0.004940963
217	0x3e44e902	0.1922951
218	0x3dde249e	0.10846828
219	0xbd66505a	-0.056228973
220	0x3e3d14b7	0.18464933
221	0x3d7f5830	0.06233996
222	0x3d833cfb	0.064081155
223	0x3e591549	0.21199526
224	0x3dd11bdd	0.102103926
225	0xbc3984bc	-0.01132315
226	0x3d91d22d	0.07120166
227	0x3e483874	0.19552785
228	0x3cd6015a	0.026123691
229	0xbd9500ff	-0.072755806
230	0x3d67c1fc	0.056581482
231	0x3e8a993a	0.27070028
232	0xbd26af69	-0.040694628
233	0x3dd93df3	0.10607519
234	0x3d5a06a5	0.053228993
235	0xbd542dc1	-0.051801447
236	0x3cc34ee5	0.02384133
237	0xbe450fb8	-0.19244277
238	0xbd28ee1b	-0.0412427
239	0x3d66610b	0.05624489
240	0xbdc3dfc7	-0.095641665
241	0xbd6140c8	-0.05499342
242	0x3d12c2cf	0.035830315
243	0xbce8e9ed	-0.028431857
244	0xbd3258a2	-0.043541558
245	0xbc6416dd	-0.013921467
246	0xbe4ff3e1	-0.20307876
247	0xbe0ff7b5	-0.14059336
248	0xba39b706	-0.00070844626
249	0xbe0aae25	-0.13542993
250	0xbd95b2db	-0.073095046
251	0xbd8b1474	-0.067910105
252	0xbd8c9730	-0.06864774
253	0xbd11a4f1	-0.03555769
254	0x3d76249d	0.06009351
255	0x3d42271d	0.047400583

res_blocks.0.conv.0.bias f4 [30]
0	0x3cb564a9	0.022142725
1	0xbc1193f3	-0.0088853715
2	0xbd302c02	-0.04301072
3	0xbd30242d	-0.04300325
4	0x3d1dd7e4	0.038535967
5	0xbd122e62	-0.035688765
6	0xbd0ca3f9	-0.034336064
7	0xbd0b60f2	-0.034028
8	0xbd1bf932	-0.038079448
9	0x3d300717	0.04297551
10	0xbd407c39	-0.046993468
11	0x3d158733	0.03650589
12	0x3d1d4b34	0.038401797
13	0x3d143e44	0.036192194
14	0x3cf5011a	0.029907752
15	0xbc504607	-0.012712008
16	0x3d0c2ec9	0.034224305
17	0xbd515c41	-0.05111337
18	0x3c8ce839	0.017200576
19	0x3d31af90	0.04338032
20	0x3c9a070c	0.018802188
21	0x3c1410e9	0.009037235
22	0xbc8c0cb8	-0.017095909
23	0x3c2bc847	0.010484762
24	0xbcc7d0ac	-0.024391495
25	0xbd4c362e	-0.049856357
26	0x3c449fb9	0.0120009715
27	0xbc411a60	-0.011786073
28	0xbcf06e8e	-0.029349592
29	0x3b1eb838	0.002421869

res_blocks.0.conv.1.weight f4 [30]
0	0x3f64d70c	0.89390635
1	0x3fa58bf9	1.2933341
2	0x3f8edccf	1.1161135
3	0x3f70e506	0.9409946
4	0x3f8e5f2d	1.1122795
5	0x3f40e309	0.7534643
6	0x3f517afa	0.8182827
7	0x3f8b7aba	1.0896828
8	0x3f6949ab	0.91128033
9	0x3f6f0b18	0.933763
10	0x3f328693	0.69736594
11	0x3f57d54f	0.8430986
12	0x3faea48e	1.3643968
13	0x3f87cac3	1.0608753
14	0x3f47efd7	0.7810034
15	0x3f848891	1.0354177
16	0x3f80fa89	1.0076457
17	0x3fd0f28d	1.6324021
18	0x3fa1ef74	1.26512
19	0x3fa94f5c	1.3227344
20	0x3f6c63a7	0.9233956
21	0x3f723ce1	0.94624144
22	0x3f77c0d0	0.96778584
23	0x3f3957c8	0.7239957
24	0x3f490212	0.78518784
25	0x3f90dadb	1.1316789
26	0x3f62bfde	0.88574016
27	0x3f5e36fa	0.8680264
28	0x3f582d3d	0.8444403
29	0x3f5fc8fb	0.87416047

res_blocks.0.conv.1.bias f4 [30]
0	0x3db17ef6	0.08666794
1	0x3d54ce3b	0.05195449
2	0xbe2f0fc7	-0.17095862
3	0xbb38f2d8	-0.0028220918
4	0xbe199958	-0.14999902
5	0xbdcdcf96	-0.100493595
6	0x3d9e8a31	0.07741202
7	0xbe89387d	-0.2680091
8	0x3c088cb0	0.008334324
9	0x3e9c73e6	0.30557173
10	0xbdbbde4a	-0.09173258
11	0x3de11326	0.109899804
12	0x3e4065d7	0.18788849
13	0xbe097589	-0.13423742
14	0xbd4f58e8	-0.050621897
15	0x3d4f9a96	0.050684534
16	0xbde76c44	-0.11299947
17	0x3e348481	0.17628671
18	0xbe340186	-0.17578706
19	0x3e413693	0.18868475
20	0xbca6c815	-0.020359078
21	0x3da59126	0.080843255
22	0x3d90cfd9	0.07070894
23	0xbd3d3af0	-0.046198785
24	0xbd41c0dd	-0.04730307
25	0xbe4dcefe	-0.20098493
26	0x3d804e4d	0.06264935
27	0xbacaa914	-0.0015461766
28	0x3d39dd12	0.045376845
29	0xbe88eaa6	-0.26741523

res_blocks.0.conv.1.running_mean f4 [30]
0	0xbf4dfd08	-0.8046422
1	0x40807ac3	4.0149856
2	0x403e11d7	2.9698389
3	0x4048f7ae	3.1401172
4	0x3fb17d31	1.386633
5	0x3fb3a56f	1.4034861
6	0xbdcbded2	-0.09954609
7	0x3df1eaf5	0.118123926
8	0xc00e79e0	-2.2261887
9	0xc0879863	-4.237352
10	0xc02c04c9	-2.687792
11	0x3f186534	0.59529424
12	0xc0a2be08	-5.085697
13	0x402e9cb9	2.7283156
14	0x3feb1918	1.8367033
15	0xbf5222f1	-0.82084566
16	0xbfbe749f	-1.487934
17	0x3f90f4c0	1.1324692
18	0xbf858edb	-1.0434221
19	0x3f24e544	0.6441233
20	0xbf90aa86	-1.130204
21	0x3d24c4ee	0.04022687
22	0x3fe0f685	1.7575232
23	0xbf39e890	-0.7262049
24	0xbf8f463a	-1.1193306
25	0x3f5f9746	0.873402
26	0xbfad6709	-1.3547069
27	0x3f8963b3	1.0733551
28	0x3dc905c0	0.0981555
29	0x3f98e95e	1.1946218

res_blocks.0.conv.1.running_var f4 [30]
0	0x418583df	16.68939
1	0x4293a87c	73.82907
2	0x41cd8918	25.69194
3	0x40bf300e	5.974616
4	0x4172e50f	15.1809225
5	0x419f3e7c	19.90551
6	0x41df4fb0	27.91391
7	0x419b8f0b	19.444845
8	0x42131893	36.774
9	0x4293cdc6	73.9019
10	0x422ade7b	42.717266
11	0x41a65075	20.789286
12	0x41dea4e4	27.830513
13	0x414a7559	12.653649
14	0x420b16c3	34.77223
15	0x3f7e2f77	0.99291176
16	0x41fad992	31.356236
17	0x40d024e9	6.5045056
18	0x419beb05	19.489756
19	0x41e56f8c	28.679466
20	0x4136f482	11.434694
21	0x40e4f1fc	7.154539
22	0x4223dd80	40.96631
23	0x41eafd21	29.373598
24	0x42d44f2b	106.154625
25	0x40920536	4.563136
26	0x3fe4c2e4	1.7871976
27	0x40f195b7	7.5495257
28	0x41ed05b1	29.627779
29	0x3fd4afbc	1.661613

res_blocks.0.conv.3.weight f4 [30, 30, 3, 3]
0	0xbd831848	-0.06401116
1	0xbdb655ad	-0.0890306
2	0xbc72804d	-0.014801097
3	0x3e08d1cf	0.13361286
4	0x3e21cb82	0.15800288
5	0xbdc722f3	-0.09723463
6	0xbd4ad723	-0.049521577
7	0xbb8bd7b2	-0.0042676562
8	0xbe831932	-0.2560516
9	0xbbf2cec7	-0.0074099037
10	0x3dc7debb	0.09759279
11	0x3e3e6b61	0.1859565
12	0x3a9cab5d	0.0011952926
13	0xbd15e6f2	-0.0365972
14	0x3df87a67	0.121327214
15	0x3e2248b8	0.15848053
16	0x3e0b7b41	0.13621236
17	0xbd85b22f	-0.065281264
18	0x3d3d9647	0.046285894
19	0x3dce264b	0.100658976
20	0x3d990a7d	0.074727036
21	0x3dd2cc88	0.102929175
22	0xbd991a14	-0.07475677
23	0x3e0c6e24	0.1371389
24	0x3def3f31	0.11681975
25	0x3d405e81	0.046965126
26	0xbd533245	-0.051561613
27	0xbd725fe2	-0.059173472
28	0x3c224be1	0.009905786
29	0xbd0fe609	-0.035131488
30	0x3d709243	0.058733236
31	0xbc965810	-0.018352538
32	0x3e3fa24d	0.18714257
33	0x3c70a67b	0.01468813
34	0xbe33e0d0	-0.17566228
35	0x3dbb79e8	0.09154111
36	0xbd00a82e	-0.03141039
37	0xbd796e6d	-0.060896326
38	0xbdc4593b	-0.09587332
39	0x3e146ef0	0.14495444
40	0xbcbc37ab	-0.022975763
41	0xbda89a5c	-0.08232567
42	0xbe229877	-0.15878473
43	0x3baad9e5	0.0052139633
44	0xbd54a0e0	-0.051911235
45	0x3e099249	0.1343471
46	0xbcf179b9	-0.029476987
47	0xbd186a03	-0.037210476
48	0xbe30e396	-0.17274317
49	0x3de42af2	0.11141004
50	0x3e0c06ab	0.13674419
51	0x3d014387	0.03155854
52	0xbd69907b	-0.057022553
53	0x3d948d6c	0.072535366
54	0xbc376a62	-0.011194797
55	0xbda9ae42	-0.0828519
56	0xbd972e3f	-0.073818676
57	0x3e83573b	0.2565249
58	0xbe4926a6	-0.1964365
59	0x3bfad5fc	0.0076549035
60	0xbbcb7749	-0.0062092883
61	0xbdece98b	-0.11567982
62	0xbd9f607e	-0.07782076
63	0x3ba74d18	0.005105626
64	0x3e24f0db	0.16107504
65	0x3dea35b9	0.11436028
66	0xbd64984f	-0.055809315
67	0xbdb226c0	-0.08698797
68	0x3d76919b	0.060197454
69	0x3e11104d	0.14166375
70	0xbd042a6f	-0.03226703
71	0x3d0a7043	0.033798467
72	0xbd75748c	-0.0599256
73	0x3d591c76	0.053005658
74	0x3d916179	0.070986696
75	0xbd5a0ea6	-0.053236626
76	0xbd1a7fbe	-0.03771948
77	0x3db07f05	0.08617977
78	0x3de09319	0.10965557
79	0x3d289599	0.041158292
80	0x3cb0a970	0.02156517
81	0x3c9c1fd8	0.019058153
82	0x3de1b7ff	0.110214226
83	0xbc985464	-0.018594928
84	0xbd8af5b6	-0.06785147
85	0xbdc05217	-0.093906574
86	0x3c45125f	0.012028306
87	0xbd7b0d6c	-0.061292097
88	0x3d9354be	0.07193898
89	0xbdbaa32f	-0.09113156
90	0xbdf006ad	-0.11720023
91	0x3da36644	0.0797849
92	0xbcb21b64	-0.021741576
93	0xbce31004	-0.027717598
94	0xbde91ee3	-0.11382844
95	0xbe351b8f	-0.17686294
96	0x3d3d5bb8	0.046230048
97	0x3c00de0f	0.007865443
98	0xbd812517	-0.063059025
99	0x3da3887d	0.079850174
100	0xbd69e225	-0.057100434
101	0x3dfaccb4	0.12246075
102	0xbcff3a75	-0.031155804
103	0xbc6047e7	-0.013689018
104	0xbd690780	-0.05689192
105	0x3db9b88c	0.09068403
106	0xbe2a820b	-0.1665117
107	0xbdbe30e4	-0.09286669
108	0x3e297e97	0.16552196
109	0x3be5e35d	0.007015629
110	0x3e584b1c	0.21122402
111	0xbe45266d	-0.1925294
112	0xbd4345e6	-0.047674082
113	0x3de94525	0.113901414
114	0xbe27b5e4	-0.1637798
115	0x3d37a501	0.044835094
116	0x3dc919fd	0.0981941
117	0x3d62cc72	0.055370755
118	0x3e760377	0.24024759
119	0x3e63485d	0.22195573
120	0x3dde0804	0.108413726
121	0x3e77de5d	0.24205919
122	0x3d2782d6	0.04089626
123	0x3d09d540	0.033650637
124	0x3cd0a5b9	0.025469648
125	0x3df9441a	0.121711925
126	0xbdd8d65d	-0.105877616
127	0xbdbc0c2d	-0.0918201
128	0xbdf6f85d	-0.1205909
129	0x3d18c33b	0.03729556
130	0x3b7f1dff	0.0038927791
131	0xbd128ae7	-0.035777
132	0xbe0cfe0a	-0.13768783
133	0x3d9c8661	0.07642818
134	0xbd9bea5c	-0.0761306
135	0xbe4b418a	-0.1984922
136	0xbdcdbb48	-0.10045487
137	0xbe953b30	-0.2914672
138	0xbd507113	-0.050889086
139	0xbe0bfdb5	-0.13671
140	0xbd08f25d	-0.03343426
141	0xbea7beb0	-0.3276267
142	0xbdde4e29	-0.108547516
143	0xbe55737e	-0.20844838
144	0x3d878dd2	0.06618847
145	0x3e518585	0.2046109
146	0xbd300ff7	-0.042983975
147	0xbd0b8928	-0.03406635
148	0x3e5c212b	0.21497028
149	0x3e398eda	0.181209
150	0x3d8dd6ac	0.06925711
151	0x3dbb1b91	0.09136117
152	0xbd6e335b	-0.058154445
153	0xbe1129be	-0.1417608
154	0x3d074dfb	0.033033352
155	0xbeacfdaf	-0.33787295
156	0xbcf003f8	-0.029298767
157	0xbd8d9da6	-0.06914835
158	0x3d4c8b73	0.049937677
159	0xbe08402a	-0.13305727
160	0xbd94876d	-0.07252393
161	0xbcc1b129	-0.023644047
162	0xbdc2ef6e	-0.09518324
163	0xbe73e390	-0.23817277
164	0xbe13c6fe	-0.14431378
165	0xbe48b5d2	-0.19600609
166	0xbdc08027	-0.09399443
167	0xbd6998d3	-0.05703051
168	0xba16dbe0	-0.000575481
169	0xbd9df1c4	-0.07712129
170	0xbe3f9bf6	-0.18711838
171	0xbdbf46bb	-0.09339663
172	0xbd1b0731	-0.037848655
173	0xbdccd3a9	-0.100013085
174	0xbd3b18b8	-0.04567787
175	0xbe105c66	-0.14097747
176	0xbdd5038c	-0.10401067
177	0xbde63634	-0.11240807
178	0x3e42332b	0.18964832
179	0xbcba8275	-0.022767285
180	0xbdb6ce0b	-0.08926018
181	0xbe6eacaa	-0.23308054
182	0xbd9ccee0	-0.07656646
183	0xbd8cd4ad	-0.06876502
184	0x3bb257a9	0.005442579
185	0xbde44198	-0.111453235
186	0xbe7ae2e8	-0.2450062
187	0xbd63875c	-0.05554901
188	0xbd89d8e9	-0.067308255
189	0xbdb7e7fa	-0.08979793
190	0xbd44e124	-0.048066273
191	0xbdde146e	-0.108437404
192	0xbc33dfcd	-0.010978651
193	0xbd8d209e	-0.06890987
194	0xbd59746c	-0.053089544
195	0x3d4c07e7	0.049812224
196	0xbdcfe584	-0.101511985
197	0xbdb0cf95	-0.08633343
198	0xbd9573ba	-0.07297464
199	0x3e180339	0.1484498
200	0x3d9d3ea5	0.07677964
201	0x3d9c9aec	0.076467365
202	0x3e06f588	0.131796
203	0xbc223c8c	-0.009902131
204	0x3de28134	0.110598
205	0x3dac830d	0.084234335
206	0x3e05fdec	0.13085145
207	0x3d199b16	0.037501417
208	0xbd237a3d	-0.039911497
209	0x3dac2686	0.08405785
210	0x3b647213	0.0034858033
211	0x3c0fc891	0.008775846
212	0xbd9da1dc	-0.07696888
213	0xbbf70b6f	-0.007539205
214	0xbd2f1e77	-0.042753663
215	0xbd145a59	-0.036218975
216	0xbdbb63f9	-0.09149928
217	0x3d9b3817	0.07579058
218	0xbd37f545	-0.04491164
219	0xbe3600cc	-0.17773741
220	0x3bfd08e0	0.0077220052
221	0x3d9901e3	0.07471063
222	0x3e90b7aa	0.28265125
223	0x3d876a27	0.06612044
224	0x3dbb5587	0.091471724
225	0x3bcd5009	0.0062656444
226	0x3cb6b0ba	0.022301067
227	0x3e291d37	0.16515051
228	0xbbd49369	-0.006487299
229	0x3ddd9baf	0.1082071
230	0x3d718bfe	0.058971398
231	0x3c23adf7	0.009990207
232	0x3e20bd9d	0.15697332
233	0x3c93de5b	0.018050363
234	0xbd9beac3	-0.076131366
235	0xbe1ccc45	-0.15312298
236	0xbdaa8164	-0.083254606
237	0xbbf74aea	-0.0075467722
238	0xbe9656af	-0.2936301
239	0xbe826e08	-0.25474572
240	0xbcdb9f4c	-0.026809357
241	0x3dad0fd3	0.08450284
242	0xbbadd535	-0.0053049573
243	0xbd32bfef	-0.043640073
244	0xbdd481be	-0.10376309
245	0x3d2ace6a	0.041700758
246	0xbe6af52b	-0.22945087
247	0xbd8a461f	-0.06751656
248	0xbda4ceb6	-0.080472395
249	0x3e48224c	0.19544333
250	0xbcffee42	-0.03124154
251	0x3dcfc119	0.10144252
252	0xbdf994f4	-0.12186614
253	0xbda10ad4	-0.078633934
254	0xbdb51c69	-0.088433094
255	0xbe664933	-0.22488861

res_blocks.0.conv.3.bias f4 [30]
0	0xbd4ce8d2	-0.050026722
1	0x3cb7303d	0.022361869
2	0xbd5e73fe	-0.054309838
3	0xbd398db0	-0.04530114
4	0xbc24d88d	-0.010061395
5	0xbd3bba05	-0.0458317
6	0xbd3b88aa	-0.04578463
7	0x3d69421b	0.05694781
8	0x3d56e493	0.05246408
9	0xbd749011	-0.059707705
10	0xbd2b367e	-0.041800015
11	0x3c8fe149	0.017563479
12	0xbbf4f687	-0.0074756774
13	0x3cec6b49	0.028859751
14	0xbd0f7c63	-0.035030734
15	0xbd1e24a6	-0.03860917
16	0x3cce86b5	0.025210718
17	0x3c925f3b	0.017867675
18	0x3d5d461a	0.054021932
19	0x3cffd336	0.031228643
20	0x3d38d0eb	0.045121115
21	0xbce48ead	-0.027900064
22	0xbd5a93c0	-0.05336356
23	0xbd76eaf1	-0.06028265
24	0x3c6f5ecf	0.0146100065
25	0xbcef748b	-0.029230377
26	0x3d5d5800	0.054039
27	0x3b74cf1f	0.00373549
28	0xbcd7380d	-0.026271844
29	0xbcd3e29d	-0.025864894

res_blocks.0.conv.4.weight f4 [30]
0	0x3f63c03b	0.88965195
1	0x3f9c8097	1.2226743
2	0x3f896881	1.0735017
3	0x3f939d85	1.1532446
4	0x3faf3653	1.3688453
5	0x3fba0ac8	1.453454
6	0x3fa6c5c7	1.3029107
7	0x3f874e95	1.0570856
8	0x3f8b670c	1.0890822
9	0x3fb34ab5	1.4007174
10	0x3f8c1087	1.0942544
11	0x3f4217df	0.75817674
12	0x3f98e6c3	1.1945423
13	0x3f5848fd	0.8448637
14	0x3f95f251	1.1714574
15	0x3fb17126	1.3862655
16	0x3fbc7021	1.4721719
17	0x3f875217	1.0571927
18	0x3f80e4c2	1.0069811
19	0x3f79d7ac	0.97594714
20	0x3f98daa6	1.1941726
21	0x3f879495	1.0592219
22	0x3f8b86a2	1.0900462
23	0x3faf7d87	1.3710183
24	0x3f60f05c	0.8786676
25	0x3f8bf9d7	1.093562
26	0x3f3229e3	0.69595164
27	0x3fc2aca6	1.5208938
28	0x3fda1560	1.7037773
29	0x3f8e66e8	1.1125154

res_blocks.0.conv.4.bias f4 [30]
0	0xbde5fa6e	-0.11229406
1	0xbdd6f102	-0.10495187
2	0xbda7b3b8	-0.081885755
3	0x3d1a3f51	0.03765804
4	0xbe903114	-0.28162444
5	0x3ea0c10a	0.31397277
6	0x3e069544	0.13142878
7	0xbe7f5595	-0.2493499
8	0x3e26ffbe	0.16308495
9	0x3ac64b10	0.0015128572
10	0xbd62bd64	-0.0553564
11	0x3e1b9dfe	0.15196988
12	0x3d70e240	0.05880952
13	0xbe8507df	-0.25982568
14	0x3e289c53	0.16465883
15	0xbd025eb5	-0.0318286
16	0xbf17d258	-0.59305334
17	0x3da85389	0.08219058
18	0x3e3c3b4e	0.18381998
19	0xbd95e546	-0.07319121
20	0xbee8c75c	-0.454646
21	0x3c994736	0.018710714
22	0xbecb5adb	-0.39717755
23	0x3e2fe709	0.17177977
24	0xbba88bae	-0.0051436042
25	0xbd869608	-0.06571585
26	0xbdd355b7	-0.10319083
27	0x3d968a8c	0.073506445
28	0x3d7e4413	0.06207664
29	0xbcbf2425	-0.023332665

res_blocks.0.conv.4.running_mean f4 [30]
0	0xbf938cfd	-1.1527401
1	0xbf01363e	-0.5047339
2	0xc031a9bd	-2.775985
3	0xbfc63642	-1.5485308
4	0xbf84dbe0	-1.03796
5	0x3ea3530d	0.318993
6	0xc0a69a7a	-5.206357
7	0xc0dc05e9	-6.8757215
8	0xbe568a13	-0.20951109
9	0x3fe04605	1.7521368
10	0xbecd1019	-0.40051344
11	0x4002647b	2.0373828
12	0x3fa5d422	1.2955363
13	0xbf639e7d	-0.8891371
14	0xc0960cb3	-4.68905
15	0xc0038c3e	-2.0554347
16	0xc014e6b0	-2.32658
17	0x403f32b0	2.9874687
18	0xbf2e87a8	-0.68175745
19	0xbfb76daa	-1.4330342
20	0xc0a6f6d1	-5.217629
21	0x3dff1e97	0.124570064
22	0x40854f1d	4.1659074
23	0xbdacb009	-0.084320135
24	0xc09139b9	-4.538296
25	0x405345f7	3.3011453
26	0xc05b5370	-3.4269676
27	0xc01dd0b7	-2.465864
28	0xc058a4ee	-3.3850665
29	0x3f3314ee	0.6995381

res_blocks.0.conv.4.running_var f4 [30]
0	0x417a3ef7	15.640372
1	0x41f5eab9	30.73961
2	0x41372d76	11.448599
3	0x41626636	14.149954
4	0x41c5b9fe	24.715816
5	0x41af7eca	21.936909
6	0x4210cb8f	36.198788
7	0x419e63ab	19.798666
8	0x4201220d	32.283253
9	0x408a44dc	4.3209057
10	0x41c7ca89	24.973894
11	0x425428e2	53.039925
12	0x41b7785e	22.933773
13	0x428c390c	70.11142
14	0x4226761c	41.61534
15	0x40ba786c	5.8272
16	0x416a090f	14.627212
17	0x42426e8b	48.607952
18	0x416f141a	14.942408
19	0x41aa8aca	21.317768
20	0x4184fa13	16.622107
21	0x410bc3d9	8.735314
22	0x42050bc1	33.26148
23	0x41197b67	9.592628
24	0x42a24f15	81.15446
25	0x419f2bd0	19.896393
26	0x4204e129	33.219883
27	0x41150c1c	9.315456
28	0x41fdb52d	31.713465
29	0x42590b07	54.26077

final.0.weight f4 [30, 30, 1, 1]
0	0x3e61821b	0.22022288
1	0x3df47881	0.11937047
2	0xbe2804d1	-0.16408087
3	0x3f34a3bf	0.70562357
4	0xbe6c329c	-0.23066181
5	0xbdc6b430	-0.09702337
6	0xbceb8c05	-0.02875329
7	0x3dbd3c78	0.09240049
8	0xbe628289	-0.22120108
9	0xbe224022	-0.15844777
10	0xbe6c0764	-0.23049694
11	0xbe529f78	-0.20568645
12	0x3eead27b	0.4586371
13	0x3deacfe2	0.11465432
14	0x3d93dbb7	0.07219642
15	0xbd11daf0	-0.035609186
16	0xbe41ed85	-0.18938263
17	0x3ea0aea1	0.3138323
18	0xbe56bfc8	-0.20971596
19	0x3be18eb1	0.006883465
20	0x3eaf6fa9	0.34264877
21	0xbd70cd59	-0.058789585
22	0x3df22773	0.118239306
23	0x3e332857	0.17495857
24	0xbe006d1a	-0.12541619
25	0x3f0bfd92	0.5468379
26	0xbe586235	-0.21131213
27	0x3e2876c8	0.16451561
28	0x3e62d20c	0.22150439
29	0x3e63d7c4	0.22250277
30	0xbc17cc20	-0.009264976
31	0xbe1d51f4	-0.15363294
32	0xbeb48034	-0.3525406
33	0xbe3d22cd	-0.18470307
34	0x3e2c9dd6	0.16857085
35	0x3dcff809	0.10154731
36	0xbf046112	-0.5171062
37	0x3f2af95e	0.66786754
38	0xbe806e84	-0.25084317
39	0x3ee1f81c	0.44134605
40	0x3dc66abf	0.09688329
41	0x3e819474	0.25308573
42	0xbca0b605	-0.019618044
43	0x3a407004	0.00073409104
44	0xbd847d07	-0.064691596
45	0xbeda4154	-0.42627966
46	0x3d2dfbce	0.042476468
47	0x3dc0cf48	0.09414536
48	0xbda60012	-0.08105482
49	0x3ec7ee40	0.39048958
50	0x3f57cfdf	0.8430156
51	0x3e493215	0.19648011
52	0xbf63c4f0	-0.8897238
53	0x3de7d18b	0.11319264
54	0xbdbcbd97	-0.09215849
55	0xbca52f13	-0.020164048
56	0x3dbaaf07	0.09115415
57	0x3f62f620	0.88656807
58	0x3e17043e	0.14747712
59	0x3ec27d56	0.3798625
60	0x3e870b0a	0.2637561
61	0x3eeb7615	0.45988527
62	0x3e0dd817	0.13851963
63	0xbe41023f	-0.18848513
64	0x3ea172be	0.31532854
65	0xbd3a8835	-0.045540053
66	0xbd58a0fe	-0.05288791
67	0x3d12b0bb	0.035813075
68	0xbe967196	-0.29383534
69	0x3eab6703	0.3347703
70	0xbe23d581	-0.15999414
71	0x3e09aab4	0.13444024
72	0xbe306728	-0.17226851
73	0x3e5c6bd6	0.21525511
74	0xbdc32b75	-0.09529773
75	0x3db8e405	0.09027866
76	0x3eff3830	0.49847555
77	0xbbe2de3e	-0.006923466
78	0x3d0ff2ea	0.03514377
79	0x3db75821	0.08952356
80	0xbd486ccf	-0.048931893
81	0xbf71cf47	-0.94456905
82	0x3d8fe7b6	0.07026617
83	0x3de15b1a	0.11003704
84	0x3e0fbbc8	0.14036477
85	0xbe896d6b	-0.26841292
86	0x3d477e3b	0.048704367
87	0xbeb80ccf	-0.35947272
88	0x3e8647e0	0.2622671
89	0xbe04e93c	-0.12979597
90	0xbf038da6	-0.51388013
91	0xbef0f834	-0.47064364
92	0xbe8ac9e2	-0.2710715
93	0xbdd58fd5	-0.104278244
94	0xbf4beac5	-0.79655105
95	0x3f945e5f	1.15913
96	0xbe71af2c	-0.23601979
97	0x3e1b0801	0.15139772
98	0x3e6b725a	0.2299284
99	0xbf2981a6	-0.6621345
100	0xbe83b2ba	-0.25722295
101	0xbdb15298	-0.08658332
102	0xbc125dc9	-0.008933493
103	0x3f4b16a0	0.793314
104	0xbf63e14d	-0.89015657
105	0x3ecd09c2	0.40046507
106	0xbf361e31	-0.7113982
107	0xbe85cc9a	-0.2613266
108	0xbecdc88b	-0.40192065
109	0x3e0c631c	0.13709682
110	0xbea50e3d	-0.32237425
111	0x3d15579d	0.036460508
112	0xbebf4d9f	-0.37363908
113	0x3e16cab1	0.14725758
114	0xbf0b9dd6	-0.54537714
115	0x3e4b0425	0.198258
116	0xbd35bf9b	-0.044372182
117	0xbe9b2a25	-0.3030559
118	0xbeab784b	-0.33490214
119	0xbdc6841a	-0.09693165
120	0xbe998f2d	-0.29992047
121	0x3f8f6a94	1.12044
122	0xbcd57caa	-0.026060421
123	0x3d045eaa	0.03231684
124	0xbe2c9a01	-0.16855623
125	0xbeea9b2d	-0.45821515
126	0x3dd2e64a	0.102978304
127	0x3de5758b	0.1120406
128	0xbe2ebef2	-0.17065027
129	0xbd2137e7	-0.039359953
130	0x3f13785f	0.57605547
131	0x3e2c1034	0.16803056
132	0x3de40c2a	0.111351326
133	0x3edc8443	0.43069658
134	0xbdc420f5	-0.095765986
135	0xbe905695	-0.28191057
136	0x3ded9768	0.11601144
137	0x3f8347d5	1.0256296
138	0x3eb478a9	0.35248306
139	0x3e2cc55f	0.16872166
140	0x3e1ebe68	0.15502322
141	0xbe2a4d13	-0.16630964
142	0x3e2ce426	0.16883907
143	0xbe2d5799	-0.16927947
144	0xbe7198b5	-0.2359341
145	0x3b0fd09c	0.002194441
146	0xbe0205d1	-0.12697531
147	0x3ec1edd2	0.37876755
148	0x3ea28247	0.3174002
149	0x3f0f65b5	0.5601457
150	0xbe2aaf2c	-0.16668385
151	0xbf13fbe2	-0.5780622
152	0xbe6c23a3	-0.2306047
153	0x3f61092d	0.87904626
154	0xbe03f668	-0.12886965
155	0x3e02be54	0.12767917
156	0x3ad1c192	0.0016003123
157	0x3d1839be	0.037164442
158	0xbc1346a9	-0.008989015
159	0xbef86a56	-0.48518628
160	0x3e3aefbc	0.18255514
161	0xbe7b1b5b	-0.24522154
162	0xb8ca4196	-9.644327e-05
163	0xbea1ee97	-0.31627342
164	0x3e804077	0.25049183
165	0xbea1d9d0	-0.3161149
166	0xbe840a1d	-0.25788966
167	0x3bcfc453	0.0063405423
168	0xbe5f8b9b	-0.21830599
169	0x3f09420f	0.5361642
170	0xbe2575ea	-0.16158262
171	0x3e1d60f3	0.15369014
172	0x3ed7f3c2	0.4217816
173	0xbed616c1	-0.41814235
174	0xbdb6ae03	-0.08919909
175	0xbe9a5997	-0.30146477
176	0x3e8db2b0	0.2767539
177	0xbd9d09fb	-0.07667919
178	0x3e866337	0.2624757
179	0xbebfd39f	-0.37466142
180	0xbdb6caf5	-0.0892543
181	0x3e06ea86	0.13175401
182	0xbc957cc2	-0.018247966
183	0xbe1a6082	-0.15075877
184	0xbe3dd38f	-0.18537734
185	0x3c93963c	0.018015973
186	0xbcd93543	-0.026514655
187	0xbe1ea643	-0.15493111
188	0xbed1db1c	-0.4098748
189	0xbe9248ec	-0.2857126
190	0x3e065939	0.13119973
191	0x3dcec735	0.100965895
192	0x3d89bbbd	0.06725261
193	0xbe011eb0	-0.12609363
194	0x3e197eb4	0.1498974
195	0xbeb421c0	-0.35182
196	0xbda2eb3c	-0.07955024
197	0x3e24d463	0.16096644
198	0x3eeec091	0.46631292
199	0xbe18a3c8	-0.14906228
200	0x3ed4411c	0.41455925
201	0x3e12ef94	0.14349204
202	0x3dc82a47	0.09773689
203	0x3ddd649a	0.10810204
204	0xbda27707	-0.07932859
205	0xbe81f6bd	-0.2538356
206	0x3cc17609	0.023615854
207	0x3da65ff2	0.08123769
208	0xbb8dee5e	-0.004331394
209	0xbe87aa92	-0.26497322
210	0x3ebd4351	0.3696542
211	0x3cdcba33	0.026944255
212	0x3db1cc93	0.086815976
213	0xbe2acf39	-0.16680612
214	0xbe2a6904	-0.16641623
215	0xbed2057d	-0.41019812
216	0x3e78a5be	0.24281976
217	0xbed8c65d	-0.4233884
218	0x3ee46c39	0.44613817
219	0xbd8c416b	-0.06848415
220	0xbe98ef5f	-0.29870126
221	0xbc8e3df6	-0.01736353
222	0xbf2e678c	-0.6812675
223	0x3e3843f9	0.1799468
224	0xbe481983	-0.19540982
225	0x3f091ced	0.5355976
226	0xbe30f926	-0.17282543
227	0x3dea5d3b	0.114435636
228	0x3e50cb41	0.20390035
229	0xbdb9b81e	-0.09068321
230	0xbc362326	-0.0111167785
231	0xbe5bb25a	-0.21454754
232	0xbec29993	-0.38007793
233	0x3d35a1f6	0.04434391
234	0xbe0b5199	-0.13605346
235	0xbecd3b06	-0.40084094
236	0xbcad6ed9	-0.02117102
237	0xbe619b20	-0.22031832
238	0x3f04905b	0.5178277
239	0xbdb61499	-0.088906474
240	0x3dc7740f	0.09738933
241	0xbda0b695	-0.07847325
242	0xbdfcd564	-0.123453885
243	0xbeb70437	-0.35745403
244	0x3bd4de62	0.0064962367
245	0xbeb8e145	-0.36109367
246	0xbe0066d5	-0.12539227
247	0xbf107804	-0.5643313
248	0xbdf71bb8	-0.12065834
249	0xbe78038a	-0.242201
250	0x3e9176b2	0.2841087
251	0xbefbea41	-0.4920216
252	0x3f071f2a	0.5278193
253	0x3e6b218e	0.22962019
254	0x3e457c18	0.1928562
255	0xbe0ca681	-0.13735391

final.0.bias f4 [30]
0	0xbe22755c	-0.15865082
1	0xbcf9eec9	-0.03050937
2	0x3e076aae	0.13224289
3	0xbdb1fee0	-0.08691192
4	0x3e31ff04	0.17382437
5	0x3d9d2c02	0.076744094
6	0xbd352278	-0.044222325
7	0x3e0754ea	0.13215986
8	0x3e0cb285	0.13739975
9	0x3e39b2c7	0.18134604
10	0x3e0b9200	0.13629913
11	0x3dc914db	0.09818431
12	0xbcd67928	-0.026180819
13	0xbced3d5c	-0.028959922
14	0x3e0bddfb	0.13658898
15	0xbe09135d	-0.13386293
16	0xbc862376	-0.016374331
17	0x3e3a7fb5	0.18212779
18	0xbe1948bf	-0.14969157
19	0xbe11eef7	-0.14251314
20	0xbd3b3af8	-0.045710534
21	0xbd40990c	-0.047020957
22	0xbd8a0fee	-0.067413196
23	0x3bca518d	0.0061742724
24	0x3d031a80	0.032007694
25	0x3cf29be7	0.029615356
26	0x3dc3d048	0.09561211
27	0x3e3acacb	0.18241422
28	0xbae6a4d2	-0.0017596728
29	0xbcc5d257	-0.02414815

final.1.weight f4 [30]
0	0x3eb2a408	0.3489077
1	0x40b48733	5.641504
2	0x3e375887	0.17904864
3	0x40bc4d09	5.8844037
4	0x3ffbeabb	1.9681009
5	0x3d4c4f75	0.049880464
6	0x3df8c58f	0.12147056
7	0x3ef6e5ed	0.48222294
8	0x40e16ab8	7.044277
9	0x3db976a3	0.09055831
10	0x3f2fab6d	0.6862095
11	0x3f15d021	0.58520705
12	0x401089bb	2.2584064
13	0x3dfbfb70	0.12303817
14	0x3e636cfa	0.2220954
15	0x3dd3d37a	0.1034307
16	0x3b4c64fa	0.0031188116
17	0x3f714aa5	0.94254524
18	0x3fae0de5	1.359799
19	0x3ddf43c6	0.10901599
20	0x40adc30d	5.43006
21	0x3e1b3ed5	0.15160687
22	0x3e86dad0	0.26338816
23	0xbb24d6ca	-0.0025152438
24	0x3e69d77c	0.22836107
25	0x40b88e20	5.7673492
26	0x40591ccd	3.3923829
27	0x3ae588ba	0.0017512061
28	0x3dd03128	0.10165626
29	0xbc67d85c	-0.014150705

final.1.bias f4 [30]
0	0xbf2eb9e1	-0.6825238
1	0x3fee2b97	1.8607053
2	0xbf4b0b48	-0.7931409
3	0x404d1c3c	3.2048483
4	0xbd96f4cf	-0.07370912
5	0xbf54bc51	-0.8309985
6	0xbf411182	-0.7541734
7	0xbf463987	-0.7743153
8	0x40636448	3.5529957
9	0xbf59bb43	-0.85051364
10	0xbef72170	-0.48267698
11	0xbf478dce	-0.7795075
12	0x3dcbf76c	0.09959301
13	0xbf215c2d	-0.63031274
14	0xbef96039	-0.48706225
15	0xbf3a9a46	-0.7289165
16	0xbf3f5b37	-0.7474856
17	0xbe3e8064	-0.18603665
18	0xbe0ad7df	-0.13558911
19	0xbf3f0e24	-0.7463095
20	0x3fff3cf3	1.9940475
21	0xbf404b10	-0.75114536
22	0xbf3e024e	-0.74222267
23	0xbf644ea8	-0.8918252
24	0xbf45ea8a	-0.77311003
25	0x40298ebb	2.6493366
26	0x3f75305e	0.9577693
27	0xbf5750e2	-0.8410779
28	0xbf20ea20	-0.62857246
29	0xbf33d90f	-0.7025308

final.1.running_mean f4 [30]
0	0x3f61ab8a	0.8815237
1	0x3f2b2415	0.6685193
2	0x3cae4b57	0.02127616
3	0xbfab886e	-1.340101
4	0x3fd450fe	1.6587217
5	0xbf282921	-0.6568776
6	0xbea3fa5e	-0.32026953
7	0xbf109480	-0.56476593
8	0x3f557214	0.83377194
9	0x3ee50290	0.44728518
10	0x3fc3d735	1.5300051
11	0xbf00818e	-0.50197685
12	0x40085d01	2.1306765
13	0xbe8cb890	-0.2748456
14	0xbe4fbb9d	-0.20286413
15	0x3fba7e8f	1.4569873
16	0x3fab2680	1.3371124
17	0xbd6e4624	-0.05817236
18	0x3f481333	0.78154296
19	0x3f9979a3	1.1990246
20	0xbfbfed2c	-1.4994254
21	0x3f6d6c80	0.9274368
22	0x3f56ac00	0.838562
23	0xbfe10dd1	-1.7582341
24	0xbf9a50a2	-1.2055857
25	0x3f0e40c6	0.55567586
26	0x3eae6896	0.34064168
27	0xbf46c7ec	-0.77648807
28	0xbe74c60d	-0.23903675
29	0x3f7afffb	0.98046845

final.1.running_var f4 [30]
0	0x40be68b9	5.9502835
1	0x40596630	3.396862
2	0x40fe0b7d	7.9389024
3	0x418011fb	16.00878
4	0x412fc09f	10.984527
5	0x40878918	4.235485
6	0x3fd6d2a7	1.6783036
7	0x40de0b41	6.938874
8	0x417b1a32	15.693895
9	0x3ffdb9a4	1.9822278
10	0x41582cf5	13.510976
11	0x40f6cf3c	7.712797
12	0x41f0cfaa	30.101398
13	0x40351705	2.82953
14	0x40c362dc	6.105818
15	0x40c67240	6.2014465
16	0x400814d8	2.1262722
17	0x413a6b50	11.651199
18	0x4192f31e	18.36871
19	0x40afb685	5.49103
20	0x40d31142	6.5958567
21	0x4070c256	3.7618613
22	0x4093bff0	4.61718
23	0x40211a41	2.5172274
24	0x3fba4875	1.4553362
25	0x40dc5862	6.885789
26	0x40cf5ee4	6.4803333
27	0x3fb99cd0	1.450098
28	0x4099a824	4.801775
29	0x405bd9c4	3.4351664
