图像处理/model_weights_4.pth (torch, 83009 bytes, 24 tensors)

initial.0.weight f4 [30, 3, 3, 3]
0	0xbe7db676	-0.24776635
1	0xbe20e463	-0.15712123
2	0xbe47ad43	-0.19499688
3	0xbe0de98c	-0.13858622
4	0x3d11063d	0.03540634
5	0xbcd33a56	-0.025784653
6	0x3b8277f5	0.003981585
7	0xbd66977e	-0.056296818
8	0xbe0d5c60	-0.1380477
9	0xbe5ef729	-0.21773972
10	0xbda17c81	-0.07885075
11	0xbe5f1657	-0.21785866
12	0xbda5e142	-0.08099605
13	0xbc8fe853	-0.017566836
14	0xbde1d02d	-0.110260345
15	0xbe2b83ec	-0.16749543
16	0xbd63604a	-0.05551175
17	0xbe1e090d	-0.1543314
18	0xbe423f01	-0.18969347
19	0xbe96a982	-0.294262
20	0xbe6c6c69	-0.2308823
21	0xbde29910	-0.110643506
22	0xbe158480	-0.14601326
23	0xbe56a7ed	-0.20962496
24	0xbd6f476a	-0.058417715
25	0xbe05586e	-0.13022014
26	0xbdb9c73e	-0.090712056
27	0x3e896460	0.26834393
28	0x3dbe5753	0.092939995
29	0x3e0369fa	0.12833396
30	0x3da48d9b	0.080348216
31	0x3ba85d4f	0.0051380764
32	0x3df90a48	0.12160164
33	0x3d90d671	0.070721515
34	0x3e26b0fa	0.16278449
35	0xbd238121	-0.03991807
36	0x3e19fb2b	0.15037219
37	0x3e3c6791	0.18398882
38	0x3e53bd13	0.20677595
39	0x3e1157d4	0.1419366
40	0x3c3e0d37	0.01159983
41	0x3df077cf	0.11741602
42	0x3dab3e1c	0.08361456
43	0x3e47f723	0.19527869
44	0x3ec40bc3	0.38290223
45	0x3d46d678	0.048544377
46	0x3dc6153e	0.096720204
47	0x3e18750b	0.14888398
48	0x3ddf09b8	0.108905256
49	0x3e8fdc9d	0.28098002
50	0x3e595bba	0.21226397
51	0x3e8ce91d	0.275216
52	0x3c240dd2	0.010013061
53	0x3e44ad12	0.19206646
54	0x3e99134b	0.29897532
55	0x3e2ba706	0.16762933
56	0x3e02996c	0.12753838
57	0x3ebcfbe5	0.3691093
58	0x3e3f76a2	0.18697599
59	0x3ea7e174	0.32789195
60	0x3e3f8b74	0.18705541
61	0x3e694d74	0.22783452
62	0x3e90544a	0.28189307
63	0x3ed111f2	0.40834004
64	0x3e6a0b20	0.22855806
65	0x3ed51072	0.4161411
66	0x3e3cee13	0.18450193
67	0x3e855b46	0.260462
68	0x3ea80c5f	0.32821938
69	0x3ea41322	0.32045847
70	0x3e288ad2	0.16459206
71	0x3e7c7ba0	0.24656534
72	0x3e167c72	0.1469591
73	0x3e76dbaa	0.24107233
74	0x3e2f2795	0.17104943
75	0x3e916230	0.28395224
76	0x3e26c21e	0.16284987
77	0x3e4ff944	0.20309931
78	0x3ea04086	0.31299227
79	0x3e7405da	0.23830357
80	0x3df0fc9d	0.11766932
81	0x3ea36629	0.3191388
82	0x3e36bf85	0.17846496
83	0xbdc46e11	-0.09591306
84	0x3ef18d34	0.47178042
85	0x3df03ff5	0.11730949
86	0xbdb8a3cb	-0.09015616
87	0x3eb647ec	0.35601747
88	0xbc3b5ad5	-0.01143523
89	0xbd187241	-0.037218336
90	0x3ecd7b14	0.40132964
91	0x3e18e02b	0.14929263
92	0x3d52965e	0.051412933
93	0x3eaf53a1	0.3424349
94	0x3d51c74a	0.051215447
95	0x3d3a3ba3	0.04546703
96	0x3e82364d	0.25432053
97	0x3e3d14a8	0.18464911
98	0xbc306dac	-0.010768335
99	0x3e986eaa	0.2977193
100	0x3e529d02	0.20567706
101	0x3e1fc445	0.15602215
102	0x3edd2642	0.4319325
103	0x3ed38703	0.41313943
104	0x3c8d99d8	0.017285272
105	0x3e29fe58	0.1660093
106	0x3e834ad2	0.2564302
107	0xbc16e488	-0.0092097595
108	0x3e1477a4	0.14498764
109	0x3d219469	0.039448176
110	0x3c8dca8f	0.017308502
111	0x3c6fa176	0.014625898
112	0x3dc7d221	0.09756876
113	0xbad073fd	-0.0015903708
114	0xbc6736ac	-0.014112156
115	0x3dd028ae	0.10164009
116	0x3d9d96f3	0.07694807
117	0x3ded1f83	0.11578276
118	0x3df1b2f9	0.118017145
119	0x3e339e5e	0.17540881
120	0xbd1405ee	-0.036138467
121	0xbd23c925	-0.03998675
122	0x3d74126d	0.059587885
123	0x3df6660f	0.12031185
124	0x3da2401b	0.079223834
125	0x3d819939	0.06328053
126	0x3cf4b8f1	0.029873343
127	0xbd13a8b6	-0.036049567
128	0x3d83832d	0.06421504
129	0x3e44d850	0.19223142
130	0xbd8ca32e	-0.068670616
131	0x3e1ae7cc	0.15127486
132	0x3d391b2d	0.045191932
133	0x3e2b3995	0.16721185
134	0x3dac97cc	0.084273905
135	0x3f00bd48	0.5028882
136	0x3ee3fd40	0.44529152
137	0x3ea96745	0.330866
138	0x3ebfd496	0.37466878
139	0x3e8d62e4	0.2761451
140	0x3ecf1741	0.4044743
141	0x3ed70a4e	0.4200005
142	0x3e9e3b7d	0.3090476
143	0x3f0397b5	0.5140336
144	0x3ede4050	0.43408442
145	0x3ee6c18a	0.45069534
146	0x3ed3eecb	0.41393122
147	0x3ee6c289	0.45070294
148	0x3ed9ab11	0.42513326
149	0x3efe60aa	0.49683124
150	0x3ecfddaf	0.4059882
151	0x3eb33e7d	0.35008612
152	0x3eefa593	0.4680601
153	0x3eb1e412	0.34744316
154	0x3eda00a7	0.42578623
155	0x3f05f4bd	0.52326566
156	0x3ef6853e	0.4814853
157	0x3ee6c4eb	0.4507211
158	0x3ed582d5	0.4170138
159	0x3f1136fa	0.5672451
160	0x3eef9efe	0.4680099
161	0x3e9b534f	0.30336997
162	0x3f5a6003	0.8530275
163	0x3f396ec8	0.72434664
164	0x3f1c7ce2	0.61128056
165	0x3f78a261	0.9712277
166	0x3f2c57a6	0.6732124
167	0x3f45bb7b	0.772392
168	0x3f6acee5	0.91721946
169	0x3f3598ef	0.70936483
170	0x3f60956e	0.8772801
171	0x3f47efcf	0.78100294
172	0x3f2f51fa	0.6848446
173	0x3f368a76	0.71305025
174	0x3f67c2e9	0.90531784
175	0x3f2918ac	0.6605327
176	0x3f39a1ad	0.7251232
177	0x3f544ce5	0.8292983
178	0x3f4e54b4	0.80597997
179	0x3f469942	0.775776
180	0x3f31c46b	0.69440335
181	0x3f32cf18	0.6984725
182	0x3f242c2a	0.6412989
183	0x3f60bc7e	0.87787616
184	0x3f505eea	0.8139483
185	0x3f3dcd55	0.74141437
186	0x3f47b5e5	0.78011924
187	0x3f192d5a	0.59834826
188	0x3f47bed5	0.7802556
189	0x3f731b22	0.94963276
190	0x3f7742e2	0.9658643
191	0x3f580454	0.84381604
192	0x3f897531	1.0738889
193	0x3f849533	1.0358032
194	0x3f6a99fb	0.91641206
195	0x3f7da735	0.9908326
196	0x3f76a0c7	0.96339077
197	0x3f87374e	1.0563753
198	0x3f8af353	1.0855507
199	0x3f845c9a	1.034076
200	0x3f751b19	0.9574447
201	0x3f650aba	0.8946949
202	0x3f848fee	1.0356424
203	0x3f686246	0.90774953
204	0x3f76ca98	0.96402884
205	0x3f5be277	0.8589243
206	0x3f72800c	0.94726634
207	0x3f857524	1.0426373
208	0x3f600083	0.8750078
209	0x3f7938ae	0.9735211
210	0x3f966d41	1.1752092
211	0x3f6af9d8	0.9178748
212	0x3f7253e0	0.94659233
213	0x3f919412	1.1373312
214	0x3f883202	1.0640261
215	0x3f8c3cfc	1.0956111
216	0x3f297809	0.66198784
217	0x3f111775	0.5667642
218	0x3f11ee43	0.57004184
219	0x3f31c4a4	0.69440675
220	0x3f193f13	0.5986187
221	0x3f013ca4	0.50483155
222	0x3f06d9c2	0.5267602
223	0x3f040362	0.5156766
224	0x3edf95f0	0.4366908
225	0x3f0df61c	0.5545366
226	0x3f207540	0.6267891
227	0x3f115f48	0.5678601
228	0x3f048862	0.51770604
229	0x3f0f7907	0.5604405
230	0x3eb6bce0	0.35690975
231	0x3f25603a	0.64599955
232	0x3f0bc16a	0.54592
233	0x3efe4ab0	0.49666357
234	0x3f1c3695	0.61020786
235	0x3f0e07b7	0.5548052
236	0x3eec301d	0.46130458
237	0x3f1f6937	0.6226992
238	0x3f036ded	0.5133961
239	0x3f14c2b8	0.5810962
240	0x3f1f1530	0.62141705
241	0x3f0c3b04	0.5477755
242	0x3ede9c78	0.4347875
243	0xbe02b058	-0.12762582
244	0xbe16bc4b	-0.14720266
245	0xbe3e54c8	-0.18587029
246	0xbe587028	-0.21136534
247	0xbe0dc5c4	-0.13844973
248	0xbdb85ef2	-0.090024844
249	0xbdd29a61	-0.10283352
250	0xbdb940f2	-0.090455905
251	0xbe2a5a41	-0.16635992
252	0xbe622c75	-0.22087272
253	0xbd5505dc	-0.05200754
254	0xbc9d1c83	-0.019178635
255	0x3d846a2c	0.06465563

initial.0.bias f4 [30]
0	0x3e0aca03	0.13553624
1	0x3cad8631	0.021182152
2	0xbd955976	-0.07292454
3	0xbdc47aed	-0.09593759
4	0xbd8bf040	-0.068329334
5	0xbd1c14fc	-0.03810595
6	0xbe3384ff	-0.17531203
7	0xbdb0c5a5	-0.08631448
8	0xbca457cb	-0.020061394
9	0x3e3a07d1	0.18167044
10	0xbd4d48ec	-0.05011837
11	0x3d304005	0.043029804
12	0xbd16ce08	-0.03681758
13	0xbe0272aa	-0.12739053
14	0xbd37bc09	-0.04485706
15	0xbccb2979	-0.02480005
16	0x3d2ce14d	0.04220705
17	0x3e0dc92d	0.13846274
18	0x3d92a432	0.07160224
19	0x3e3b7820	0.18307543
20	0x3bdd403f	0.0067520435
21	0x3e035a6f	0.12827466
22	0x3d463302	0.04838849
23	0x3c72383f	0.014783918
24	0xbe3d7a8e	-0.18503782
25	0xbdd389d0	-0.1032902
26	0x3c664b63	0.0140560595
27	0x3d87976b	0.066206776
28	0x3e36cd96	0.17851862
29	0xbdc69438	-0.09696239

initial.1.weight f4 [30]
0	0x3f71c5ae	0.9444226
1	0x3f8aaa75	1.0833269
2	0x3f797267	0.9744019
3	0x3f23662b	0.6382777
4	0x3f08267b	0.53183717
5	0x3f59490c	0.84877086
6	0x3f6fdf0a	0.93699706
7	0x3f52557e	0.821617
8	0x3f54b482	0.83087933
9	0x3f86ffb9	1.054679
10	0x3f78403d	0.9697302
11	0x3f8ae842	1.085213
12	0x3fa4abb1	1.2864896
13	0x3f78c23e	0.9717139
14	0x3f7e42ae	0.99320495
15	0x3f7f4a69	0.99722916
16	0x3f6e6d2f	0.9313535
17	0x3f881074	1.0630021
18	0x3f7b1cb8	0.98090696
19	0x3f7691bb	0.9631612
20	0x3f70093c	0.9376409
21	0x3f8a6e1a	1.081485
22	0x3f8417f8	1.0319815
23	0x3f258c3c	0.64667106
24	0x3f868dae	1.0511987
25	0x3eb07494	0.34463942
26	0x3f8abf88	1.0839701
27	0x3f7cb670	0.9871588
28	0x3f52b1ba	0.8230244
29	0x3f570e35	0.84006053

initial.1.bias f4 [30]
0	0x3db936e5	0.090436734
1	0x3d736d3a	0.05943034
2	0x3ded06fe	0.11573599
3	0xbe503c7f	-0.20335577
4	0xbe3e6f96	-0.18597254
5	0xbd2a03dc	-0.041507587
6	0xbe233967	-0.15939866
7	0x3c9d2a95	0.019185344
8	0x3b94278d	0.0045213164
9	0x3d89fc4d	0.06737576
10	0xbdb2fffa	-0.0874023
11	0x3d56717a	0.052354313
12	0x3ea7295c	0.32648742
13	0x3ead6d85	0.3387262
14	0x3c492a2a	0.012278119
15	0x3e9e6be8	0.309417
16	0x3d9d54f6	0.07682221
17	0x3db7e15d	0.089785315
18	0x3d27b8cf	0.04094773
19	0x3d8412b4	0.0644888
20	0x3a8d2ff0	0.0010771733
21	0x3e36fac9	0.17869104
22	0x3d864f3c	0.065580815
23	0xbeb85cc4	-0.36008275
24	0x3e1806db	0.14846365
25	0xbf53432c	-0.8252437
26	0x3ccac5ac	0.02475246
27	0x3e3baa6e	0.18326733
28	0x3e05ac84	0.1305409
29	0x3e628f8e	0.22125074

initial.1.running_mean f4 [30]
0	0xbf898026	-1.0742233
1	0x3faaf704	1.3356633
2	0x401003be	2.2502284
3	0x3fbf28b0	1.4934292
4	0x3f0c8141	0.54884726
5	0x407e4f73	3.9735992
6	0x40e131f1	7.0373464
7	0x41141cb0	9.257004
8	0x40a636e8	5.1942024
9	0xbf2f50ba	-0.68482554
10	0xbf58d5c2	-0.8470117
11	0xbf7222bd	-0.94584256
12	0x3fd5e886	1.6711586
13	0xbfa3d296	-1.2798641
14	0xbf88f6c0	-1.0700302
15	0xbf94827b	-1.160232
16	0x3f4f0707	0.808701
17	0xc09dd69d	-4.932448
18	0xbf305f3c	-0.68895316
19	0xbf0961f7	-0.5366511
20	0x3fb6609c	1.4248233
21	0xc027a829	-2.6196387
22	0xbf4fdaab	-0.81193036
23	0x40685f53	3.6308181
24	0xc05e54c1	-3.473923
25	0xc08bb76b	-4.36614
26	0xbf7dd171	-0.9914771
27	0xc0569afd	-3.3532097
28	0xc01d2b2a	-2.4557595
29	0xbfa76ebc	-1.3080668

initial.1.running_var f4 [30]
0	0x3d575167	0.052567866
1	0x3d64e55e	0.055882804
2	0x3dd0425a	0.101689056
3	0x3d89bbcd	0.06725273
4	0x3d1fd6ff	0.039023396
5	0x3e718796	0.23586878
6	0x3f2fa6e1	0.6861401
7	0x3f90851e	1.1290624
8	0x3ec02ecb	0.375357
9	0x3d32d8b0	0.04366368
10	0x3d2f0b9c	0.04273568
11	0x3d3e6af1	0.046488706
12	0x3d909967	0.07060509
13	0x3d52ca3c	0.051462397
14	0x3d428f3f	0.04749989
15	0x3d50434b	0.050845426
16	0x3d2a7c57	0.041622486
17	0x3eb698c7	0.35663435
18	0x3d2a1527	0.04152408
19	0x3d269cf7	0.040677037
20	0x3d737b25	0.05944361
21	0x3e03e146	0.12878904
22	0x3d32af70	0.04362434
23	0x3e4c14aa	0.19929758
24	0x3e2ed485	0.17073257
25	0x3e87ca49	0.2652152
26	0x3d3ffd42	0.046872385
27	0x3e3946a2	0.1809335
28	0x3df7749f	0.120827906
29	0x3d5a4374	0.053286985

res_blocks.0.conv.0.weight f4 [30, 30, 3, 3]
0	0x3e56ad8d	0.20964642
1	0x3e0f4285	0.13990219
2	0x3c991b25	0.018689701
3	0x3dc2f7f4	0.095199496
4	0x3e026597	0.12734066
5	0x3d26c74f	0.04071742
6	0x3d686c0b	0.056743663
7	0x3e42e0de	0.19031093
8	0x3da3221a	0.07965489
9	0xbcdbdf71	-0.026839944
10	0xbe180458	-0.14845407
11	0xbe421344	-0.18952662
12	0xbd8b057e	-0.06788157
13	0x3db32d4c	0.08748874
14	0xbcd8974b	-0.02643933
15	0xbcccab80	-0.024984121
16	0x3d67e4b8	0.056614608
17	0x3b685edf	0.0035456938
18	0xbdd04612	-0.10169615
19	0x3daa3d02	0.083124176
20	0x3c3c0122	0.011474879
21	0xbd6253d1	-0.055255715
22	0xbde76944	-0.11299375
23	0x3d342a25	0.043985505
24	0xbd9f9747	-0.07792526
25	0x3d7515cc	0.05983524
26	0xbc470970	-0.012148246
27	0xbd076ad4	-0.033060864
28	0x3dc40c30	0.09572637
29	0x3d2cd0d1	0.04219133
30	0x3e8fb361	0.28066543
31	0x3d8fadb1	0.07015551
32	0xbdb061d7	-0.086124115
33	0xbd93e054	-0.072205216
34	0x3de97c73	0.1140069
35	0x3d6f957b	0.058492165
36	0x3d4395ec	0.0477504
37	0x3cf9d178	0.03049539
38	0x3d2ef776	0.042716466
39	0x3b531a97	0.0032211894
40	0xbbd3d36c	-0.0064644124
41	0x3d956b9a	0.07295914
42	0xbcf4bda7	-0.02987559
43	0xbd2fd460	-0.042927146
44	0xbd115a8d	-0.035486747
45	0xbcd89f1a	-0.026443053
46	0xbd999f11	-0.07501043
47	0xbd1b5112	-0.03791911
48	0xbcb5e10c	-0.022202037
49	0xbdb06c5e	-0.086144194
50	0x3e386c88	0.18010151
51	0x3d19a460	0.037510276
52	0x3cbd78d2	0.0231289
53	0xbdccf44d	-0.10007534
54	0xbdfa4608	-0.12220389
55	0x3d64c568	0.055852324
56	0x3e0da16c	0.13831109
57	0xbd2a3727	-0.041556504
58	0x3e575086	0.21026811
59	0xbdaa5006	-0.083160445
60	0xbe280905	-0.1640969
61	0xbd5e6b1f	-0.054301377
62	0x3bfeb9e4	0.0077736247
63	0xbc9b08ef	-0.018925158
64	0x3c97e542	0.018541936
65	0x3d5aed47	0.05344894
66	0xbd8b0eec	-0.067899555
67	0xb8e3d838	-0.000108644774
68	0x3cad945c	0.021188907
69	0x3e3f2744	0.18667322
70	0xbd4262df	-0.047457572
71	0x3bdb6079	0.00669485
72	0x3dcaa8bd	0.098954655
73	0xbd3d4cb1	-0.046215717
74	0xbcf6fd50	-0.030150086
75	0x3e02da79	0.12778653
76	0xbcec4eda	-0.028846193
77	0x3da4d5e9	0.080486126
78	0xbe126b75	-0.14298804
79	0x3e1a2307	0.15052424
80	0xbc94897c	-0.018131964
81	0x3d3431dc	0.043992862
82	0x3e2c8e06	0.16851053
83	0xbdac89bd	-0.08424709
84	0x3e3fcbd6	0.18730101
85	0x3e619218	0.22028387
86	0x3e20e57d	0.15712543
87	0x3de49edb	0.11163112
88	0x3d2b997b	0.041894417
89	0xbda8b76f	-0.08238112
90	0x3daf8f62	0.0857227
91	0x3df16bcf	0.11788141
92	0x3e135cdf	0.14390896
93	0x3c92418d	0.017853523
94	0x3e2da8c4	0.1695891
95	0x3e040342	0.12891868
96	0xbe0798d4	-0.13241893
97	0xbd4a2107	-0.049347904
98	0x3dee3ef8	0.11633104
99	0x3da9ccdd	0.08291028
100	0xbc6e2ae2	-0.014536591
101	0x3e40bd0a	0.18822113
102	0x3e2c7fe8	0.16845667
103	0x3e2475b6	0.16060528
104	0x3dd0b837	0.10191386
105	0x3da5e6e0	0.081006765
106	0x3e1d6bdb	0.15373175
107	0x3e440bc3	0.19145112
108	0xbdc733fc	-0.09726712
109	0xbded3897	-0.11583059
110	0x3c6330cc	0.013866615
111	0xbe0c37e9	-0.13693203
112	0x3bb7c8c0	0.005608648
113	0xbdb5cb3b	-0.08876654
114	0xbd296c33	-0.041362952
115	0x3d9529a0	0.0728333
116	0xbdb2d8c4	-0.08732751
117	0x3d119ab1	0.035547916
118	0x3e32539a	0.17414704
119	0x3da11950	0.07866156
120	0xbd80208e	-0.06256209
121	0x3dc1d4d3	0.09464421
122	0xbd51ba43	-0.051203024
123	0x3e5e6f3e	0.21722123
124	0xbd07d04f	-0.033157643
125	0x3ce59aac	0.028027855
126	0x3dc07847	0.09397941
127	0x3c93b1d3	0.01802913
128	0x3dd034d3	0.101663254
129	0xbce2c5b7	-0.027682168
130	0x3de6ff05	0.1127911
131	0xbdd59338	-0.104284704
132	0x3dfed12c	0.1244224
133	0x3ddcc70c	0.10780153
134	0xbe07cfe5	-0.13262899
135	0x3d29d846	0.04146602
136	0x3c80e044	0.015731938
137	0xbc0f264d	-0.008737159
138	0x3e0a1dcd	0.1348793
139	0x3e0b9440	0.13630772
140	0x3cc5b425	0.024133751
141	0xbd3a558b	-0.045491736
142	0x3dc9498f	0.09828483
143	0x3d50d122	0.050980695
144	0xbe211857	-0.15731941
145	0xbcf01c02	-0.02931023
146	0x3d6dab6e	0.058024816
147	0x3cd227be	0.025653716
148	0xbdb9d068	-0.090729535
149	0x3d0c813f	0.034302946
150	0x3c4c1e15	0.012458344
151	0xbdd29d87	-0.10283952
152	0x3da25cbc	0.07927844
153	0xbdfadf9c	-0.12249681
154	0x3c0655e9	0.0081991935
155	0x3e364c82	0.17802623
156	0xbbf4eeaa	-0.00747474
157	0xbc0995f5	-0.008397569
158	0x3da9f497	0.08298605
159	0x3d7235d1	0.059133355
160	0x3d0d3b5d	0.03448044
161	0x3cb7e8e4	0.022449918
162	0x3d86b535	0.06577531
163	0x3c368574	0.011140216
164	0x3acff629	0.0015866208
165	0x3e4be9f9	0.19913472
166	0x3d3b9aa3	0.04580177
167	0xbc89adf5	-0.016806582
168	0x3c61364c	0.013745856
169	0x3d21ed99	0.03953323
170	0x3db5b957	0.088732414
171	0x3d9ac37a	0.075568154
172	0x3e76720e	0.24066946
173	0xbd5054e6	-0.050862215
174	0x3df06652	0.11738266
175	0xbe2389d2	-0.15970543
176	0xbd991df1	-0.07476414
177	0x3d145052	0.036209412
178	0x3c9c997d	0.019116158
179	0x3d94afde	0.072601065
180	0x3d682a34	0.056680873
181	0x3de3e379	0.11127371
182	0xbdc09dca	-0.09405096
183	0xbd57d027	-0.052688744
184	0x3d6636be	0.05620455
185	0x3a55dbf0	0.00081580784
186	0xbd81ea7c	-0.063435525
187	0x3e44a1d5	0.19202359
188	0x3d3878ef	0.045037206
189	0x3da2b4b5	0.079446234
190	0x3d874a68	0.06605989
191	0x3dc7d32d	0.097570755
192	0x3e55db3b	0.20884411
193	0x3e15eaed	0.14640398
194	0x3e043e9f	0.12914513
195	0x3e3ac219	0.18238105
196	0xbdbd40bc	-0.09240863
197	0xbd8762d2	-0.06610645
198	0x3d84373e	0.06455849
199	0x3e7f3802	0.24923709
200	0x3ca99935	0.020702938
201	0xbe1b693a	-0.1517686
202	0x3d93fc01	0.072258
203	0x3dc97078	0.09835905
204	0x3d2f36fa	0.04277704
205	0x3d79bf3b	0.060973387
206	0x3da70974	0.081561
207	0x3bdf9db8	0.0068242215
208	0x3d878c8f	0.06618606
209	0xbd6619d3	-0.05617697
210	0x3d61a9c6	0.05509355
211	0xbd4dee68	-0.05027619
212	0x3e8ad75d	0.27117434
213	0x3dbb61ef	0.09149539
214	0x3e0caa96	0.13736948
215	0x3dccf211	0.10007108
216	0x3e329691	0.17440249
217	0x3defb0e6	0.117036626
218	0xbcfb11ae	-0.030648079
219	0x3dc0e4db	0.09418651
220	0x3d6cba32	0.057794757
221	0xbc008638	-0.0078445
222	0x3df3a656	0.118969604
223	0xbd957452	-0.07297577
224	0x3cbc07cf	0.022952942
225	0xbd6be294	-0.05758913
226	0xbdfe8750	-0.124281526
227	0x3de21e8b	0.11040982
228	0x3d111600	0.03542137
229	0x3cccf54c	0.02501931
230	0xbc5f26c7	-0.013620085
231	0x3dcad8bb	0.09904619
232	0x3b867a1f	0.0041039134
233	0xbd3707bb	-0.044685107
234	0xbcf263ef	-0.029588668
235	0xbd05600d	-0.032562304
236	0xbdfe028b	-0.12402829
237	0x3e52df1b	0.2059292
238	0x3da7670f	0.08173954
239	0x3ce02491	0.027361186
240	0x3cf2fc65	0.029661367
241	0xbcf413cf	-0.029794602
242	0xba3a43be	-0.0007105431
243	0xbd969af6	-0.07353775
244	0x3d79dbff	0.06100082
245	0x3d902688	0.07038599
246	0xbd8e5865	-0.06950454
247	0x3df57a4a	0.119862154
248	0xbd882f88	-0.06649691
249	0x3e401412	0.18757656
250	0x3d3b4496	0.045719706
251	0x3cbea9ec	0.023274384
252	0x3e18b861	0.14914085
253	0x3c6a1cf7	0.014289132
254	0xbc8fe839	-0.017566787
255	0x3e2b87d7	0.16751038

res_blocks.0.conv.0.bias f4 [30]
0	0x3c1caea6	0.009563124
1	0xbd48f166	-0.04905834
2	0x3c6e5d60	0.0145486295
3	0x3d0160a6	0.03158631
4	0xbd54e283	-0.05197383
5	0x3d6d0f04	0.05787565
6	0x3d0ad4e6	0.033894442
7	0xbb818b3f	-0.003953367
8	0xbd51b0f0	-0.05119413
9	0xbcc62967	-0.024189664
10	0xbcbf5b7f	-0.023359058
11	0x3d42eed7	0.047591057
12	0xbc889485	-0.016672382
13	0x3d06aef4	0.032881692
14	0x3d7411f3	0.05958743
15	0x3cea45ec	0.028597794
16	0x3c9c61ce	0.019089606
17	0x3ce8849d	0.028383547
18	0x3c850fee	0.016242947
19	0x3c463505	0.012097602
20	0x3caca35a	0.021073986
21	0xbcf86f89	-0.030326622
22	0xbcd817ab	-0.026378473
23	0xbd106a13	-0.03525741
24	0xbc1aa7ad	-0.009439391
25	0x3c410fd0	0.011783555
26	0xbc5eeb91	-0.013605968
27	0xbac5fc41	-0.0015105085
28	0x3c5743e2	0.013138743
29	0x3d04e8e7	0.032448675

res_blocks.0.conv.1.weight f4 [30]
0	0x3f804eac	1.0024009
1	0x3f79fc65	0.9765075
2	0x3f7a4bb2	0.9777175
3	0x3f703511	0.9383097
4	0x3f6ec2e0	0.93266106
5	0x3f5e038d	0.8672417
6	0x3f314d92	0.6925899
7	0x3f854d25	1.0414168
8	0x3f8b9d7b	1.0907434
9	0x3f84a5d2	1.0363104
10	0x3fcd8727	1.605687
11	0x3f4ce2fa	0.8003384
12	0x3f70478e	0.93859184
13	0x3f79694a	0.97426283
14	0x3f6beee7	0.9216141
15	0x3f812d99	1.009204
16	0x3f8923f1	1.0714093
17	0x3f9bba7b	1.2166284
18	0x3f642eb0	0.8913374
19	0x3f908c29	1.1292773
20	0x3f47c496	0.7803434
21	0x3f8c2467	1.0948609
22	0x3f7a6ac0	0.9781914
23	0x3f6e2855	0.9303029
24	0x3f8bacf1	1.0912153
25	0x3f7c37b7	0.98522514
26	0x3f86d13b	1.0532602
27	0x3f9a9e9d	1.2079655
28	0x3f6c779f	0.9237003
29	0x3f613c96	0.8798307

res_blocks.0.conv.1.bias f4 [30]
0	0x3d9ac6c7	0.07557445
1	0xbdf4f7ac	-0.11961302
2	0x3e1b0153	0.15137224
3	0xbc9c713f	-0.019096969
4	0xbe0e37c9	-0.13888468
5	0xbdd5f152	-0.10446419
6	0xbe2ba9e3	-0.16764025
7	0x3d92932c	0.07156977
8	0x3e93efd9	0.28893927
9	0x3df4beba	0.11950441
10	0xbe7150d0	-0.23565984
11	0xbdf955cf	-0.1217457
12	0x3df20443	0.11817219
13	0x3a24a370	0.00062804576
14	0x3d629afc	0.055323586
15	0x3df04246	0.11731391
16	0x3e4606d9	0.1933855
17	0x3e876fac	0.26452386
18	0x3d00b86e	0.031425886
19	0x3d354b85	0.044261474
20	0xbe22abf8	-0.15885913
21	0x3e0d97e5	0.13827474
22	0x3b0ccbaa	0.0021483698
23	0xbd01f637	-0.03172895
24	0xbcd6c7f4	-0.026218392
25	0x3ddffc3a	0.1093678
26	0x3e6b8312	0.22999218
27	0x3e01a701	0.12661363
28	0x3c302830	0.010751769
29	0x3db2bd36	0.08727495

res_blocks.0.conv.1.running_mean f4 [30]
0	0x402cbc99	2.699011
1	0xc0778529	-3.8675025
2	0xc05ea905	-3.4790661
3	0xbff12794	-1.8840203
4	0xbf017501	-0.5056916
5	0x409f07dc	4.9697094
6	0xc04121df	-3.0176923
7	0xc01537c8	-2.3315296
8	0xc0889397	-4.2680163
9	0xc032b797	-2.7924554
10	0xc0e8c234	-7.2737064
11	0x3ed781f6	0.4209134
12	0x3f45162c	0.76986957
13	0x40450801	3.0786135
14	0x3e3ae09d	0.18249746
15	0xc070199b	-3.7515628
16	0xc0517fc1	-3.2734225
17	0xc10f3d07	-8.952399
18	0xbcfb8ac6	-0.03070582
19	0x406f7666	3.7416015
20	0xbffe48ab	-1.9865927
21	0x3fcb3acf	1.5877322
22	0xbf7dc528	-0.9912896
23	0xc0293322	-2.643746
24	0xc0bcb964	-5.8976307
25	0xbf3d2beb	-0.7389514
26	0xc083c81d	-4.118178
27	0xc0ca7295	-6.326487
28	0xbf77cbe9	-0.9679552
29	0x3e83ac00	0.25717163

res_blocks.0.conv.1.running_var f4 [30]
0	0x418caca4	17.584297
1	0x41a9da62	21.231632
2	0x42650f0d	57.264698
3	0x41c5dad9	24.73186
4	0x41f76e96	30.928997
5	0x41126958	9.150719
6	0x40a69ad9	5.2064023
7	0x42be575a	95.17061
8	0x41652a15	14.322774
9	0x4200b71e	32.178825
10	0x428b42d0	69.63049
11	0x43894d35	274.60318
12	0x414af67a	12.685175
13	0x422fcef7	43.952114
14	0x40f1b9ce	7.553931
15	0x41cabb71	25.341524
16	0x40b7e3f2	5.7465754
17	0x42a34986	81.6436
18	0x40a84728	5.258686
19	0x4194189e	18.51202
20	0x410250be	8.144712
21	0x4149dcdb	12.61642
22	0x4184e003	16.60938
23	0x41c08399	24.064257
24	0x425b2cba	54.79368
25	0x4101de22	8.116732
26	0x42e8253e	116.07274
27	0x42a9490b	84.64266
28	0x42220240	40.502197
29	0x422bf03e	42.98461

res_blocks.0.conv.3.weight f4 [30, 30, 3, 3]
0	0xbdc44161	-0.095827825
1	0xbdb18326	-0.08667593
2	0xbded38c0	-0.1158309
3	0xbe52b866	-0.20578155
4	0xbe529909	-0.20566191
5	0xbe429105	-0.19000633
6	0x3d3dcd5e	0.04633843
7	0xbe952cd5	-0.29135767
8	0x3defb71a	0.11704846
9	0x3c13a113	0.009010571
10	0xbd7eda4f	-0.062219914
11	0xbd8e2232	-0.06940116
12	0xbdb2b31c	-0.08725569
13	0xbdfcb871	-0.12339867
14	0xbdfadbb1	-0.12248934
15	0x3d6b66c4	0.05747105
16	0xbd4ad50c	-0.049519584
17	0xbe3c5b55	-0.18394215
18	0x3d5be64a	0.053686418
19	0xbe44a4ee	-0.1920354
20	0x3dd11f9b	0.102111064
21	0xbd6be12c	-0.057587788
22	0x3d473b00	0.04864025
23	0x3dd6d79e	0.104903445
24	0x3d36114a	0.044450082
25	0xbd3a7803	-0.04552461
26	0xbdf09812	-0.11747755
27	0x3e3199ec	0.17343873
28	0xbe3526ba	-0.17690554
29	0xbe852b8f	-0.26009795
30	0xbe022f73	-0.12713413
31	0x3d08ac58	0.033367485
32	0xbcac95bd	-0.021067495
33	0xbd8b6a5f	-0.06807398
34	0x3c75fb50	0.015013531
35	0x3d866caf	0.065636985
36	0x3d41371f	0.04717171
37	0xbc40f801	-0.011777879
38	0xbd87c69a	-0.06629677
39	0xbd4f8c14	-0.0506707
40	0xbdf47f0d	-0.119382955
41	0xbe0b4b19	-0.13602866
42	0x3d01fbe5	0.031734366
43	0xbe45e798	-0.19326627
44	0xbe33b0d8	-0.1754793
45	0x3dbfb5ae	0.093608245
46	0xbd917a49	-0.07103402
47	0x3d4cf958	0.05004248
48	0xbe22a4c7	-0.1588317
49	0xbd5b5fcd	-0.05355816
50	0x3cd1da25	0.025616715
51	0xbdb7e56e	-0.08979307
52	0x3c0a2b3a	0.008433158
53	0xbe1cf7e1	-0.15328933
54	0x3cb7c179	0.022431122
55	0x3ca31a6a	0.019910056
56	0xbd593aa1	-0.05303443
57	0x3d178918	0.036995977
58	0x3e333be5	0.17503317
59	0xbcaaec20	-0.020864546
60	0xbdc932fa	-0.09824176
61	0xbd9a87e1	-0.07545448
62	0xbc93eb04	-0.0180564
63	0xbe6eb6f0	-0.23311973
64	0xbdf294a1	-0.11844755
65	0xbe4d001d	-0.20019574
66	0xbeba3b62	-0.3637343
67	0xbe3ffef2	-0.18749598
68	0xbe73e385	-0.2381726
69	0xbe6a6616	-0.22890505
70	0xbb94d612	-0.0045421207
71	0xbdd580c2	-0.10424949
72	0x3de1b653	0.11021104
73	0xbc181c4c	-0.00928409
74	0x3d1a2c89	0.03764013
75	0x3d09b847	0.033623006
76	0x3d3c3532	0.04594917
77	0xbc37af20	-0.011211187
78	0x3db1626f	0.08661353
79	0x3e4db7ae	0.200896
80	0x3d16e808	0.036842376
81	0xbe33bc91	-0.17552401
82	0x3cc6d6b5	0.024272302
83	0xbcd7b5fa	-0.02633189
84	0x3b0c4e2c	0.0021408899
85	0xbe1bd020	-0.15216112
86	0x3ce26e19	0.02764039
87	0xbdaffac7	-0.08592754
88	0x3db24426	0.087044045
89	0x3e1acc28	0.15116942
90	0xbe35133d	-0.1768312
91	0xbe4c1e38	-0.19933403
92	0xbe5c0f86	-0.21490297
93	0xbe6ee49e	-0.23329398
94	0xbdcbcce5	-0.0995119
95	0xbdc567b0	-0.096389174
96	0xbe319fc5	-0.17346103
97	0xbe14c949	-0.14529909
98	0xbe15240b	-0.1456453
99	0xbdd4a55a	-0.10383101
100	0xbd8f9c91	-0.070122845
101	0x3dfa2d83	0.12215712
102	0xbd4ce381	-0.050021652
103	0xbc35a261	-0.011086077
104	0xbe1452fe	-0.14484784
105	0xbb87c5a7	-0.004143435
106	0xbdd05dba	-0.10174127
107	0xbd9a98a9	-0.07548649
108	0xbdec3aa7	-0.115346245
109	0xbe3d2f23	-0.18475012
110	0xbe6d876f	-0.23196195
111	0xbc67a4bb	-0.014138396
112	0x3d716fa5	0.058944363
113	0xbe52a10d	-0.20569248
114	0xbddbf402	-0.107399
115	0x3ce8a5c8	0.028399363
116	0xbe03f203	-0.12885289
117	0xbc6f422b	-0.014603178
118	0xbe07704a	-0.13226429
119	0xbe4dba98	-0.20090711
120	0x3db81866	0.08989029
121	0xbea87718	-0.3290336
122	0xbde706cd	-0.11280594
123	0x3d34268c	0.043982074
124	0xbc363b42	-0.011122527
125	0xbd01f93e	-0.031731836
126	0xbcaa18df	-0.020763813
127	0x3dac2be6	0.084068105
128	0xbdfe3233	-0.124119185
129	0x3df002be	0.11719273
130	0xbe350789	-0.17678656
131	0xbd762efa	-0.060103394
132	0xbd99b4cb	-0.07505187
133	0x3ca83fd3	0.020538246
134	0xbddc9482	-0.10770513
135	0xbd1e2f3a	-0.038619258
136	0xbc94d511	-0.018168004
137	0xbe152da9	-0.14568199
138	0xba175c8a	-0.0005773982
139	0xbdded874	-0.10881129
140	0x3c9e6dd1	0.019339474
141	0x3d036a82	0.032083996
142	0xbde4f935	-0.11180345
143	0xbe1c8849	-0.15286364
144	0x3db0c690	0.08631623
145	0x3c90363e	0.01760399
146	0xbc6f9732	-0.01462345
147	0xbe493d42	-0.19652274
148	0x3d8d9796	0.06913678
149	0xbd9727ea	-0.0738066
150	0xbe0aab04	-0.135418
151	0x3e0437a4	0.1291185
152	0xbdd88419	-0.10572071
153	0xbdfbbd33	-0.12291946
154	0xbd333b54	-0.04375775
155	0xbe03f86c	-0.12887734
156	0xbdae0d55	-0.08498637
157	0xbca248de	-0.019810136
158	0xbdecd491	-0.11563981
159	0xbe238926	-0.15970287
160	0xbbf745ce	-0.007546163
161	0x3ce3e80a	0.027820606
162	0xbd4c3e33	-0.049864005
163	0xbdce09c5	-0.10060457
164	0x3dd3b68a	0.10337551
165	0x3c6d8e00	0.0144991875
166	0xbc7c799b	-0.015409852
167	0x3cb7bf1d	0.022429997
168	0xbc060f7e	-0.008182405
169	0x3dbe33e7	0.09287243
170	0x3d0ee3c2	0.034885176
171	0xbe1efcc3	-0.15526108
172	0xbe834d81	-0.25645068
173	0x3d94f265	0.072727956
174	0xbe88e268	-0.26735234
175	0xbe1feb25	-0.15617044
176	0xbdfbc81f	-0.122940294
177	0xbddba79d	-0.10725329
178	0xbe27679a	-0.16348115
179	0xbae4eac2	-0.0017464983
180	0xbd2682b5	-0.040651996
181	0xbda8f80e	-0.08250438
182	0xbde24d10	-0.11049855
183	0xbbe8e040	-0.007106811
184	0x3db481f3	0.08813848
185	0xbe629a0a	-0.22129074
186	0xbbd69b2c	-0.0065492596
187	0xbd284506	-0.04108145
188	0xbe2b5ae8	-0.16733897
189	0x3de4e015	0.11175553
190	0xbdb29e29	-0.08721573
191	0x3dd549cd	0.10414467
192	0x3c484ae1	0.012224884
193	0xbd0bae5b	-0.034101825
194	0xbe172846	-0.14761457
195	0xbdaeedb0	-0.08541429
196	0xbda8a2b7	-0.082341604
197	0xbde12601	-0.10993577
198	0xbca133b5	-0.019677976
199	0x3dc6306a	0.09677203
200	0xbc9c40b7	-0.019073827
201	0x3cfbb818	0.030727431
202	0xbb828f9b	-0.0039844043
203	0xbcaaa89a	-0.020832349
204	0xbdc4e0b8	-0.09613174
205	0x3dfba89a	0.122880176
206	0xbc3b8fac	-0.011447828
207	0x3e1ec9c5	0.15506656
208	0xbe45e358	-0.19325006
209	0x3de703a2	0.1127999
210	0xbc06b530	-0.008221909
211	0x3c8a0cd4	0.01685182
212	0x3d25f278	0.04051444
213	0x3d2ffb49	0.042964254
214	0x3d989dcb	0.074519716
215	0xbdb7c8f1	-0.089738734
216	0xbea3568a	-0.31901962
217	0xbe0e3aa3	-0.13889556
218	0xbd5bdb66	-0.05367603
219	0xbda0fa43	-0.07860234
220	0xbde26cd7	-0.11055916
221	0xbea78516	-0.32718724
222	0xbe941de9	-0.2892907
223	0xbe611e7f	-0.2198429
224	0xbe602afe	-0.218914
225	0xbe2f4647	-0.17116652
226	0x3d5d269a	0.05399189
227	0x3d8567f4	0.06513968
228	0x3d753977	0.059869256
229	0x3c67ea8f	0.014155044
230	0xbb216f3e	-0.0024632956
231	0xbd2c6383	-0.04208709
232	0xbc3c2336	-0.011483004
233	0x3d5a6383	0.053317558
234	0xbe4294ea	-0.19002119
235	0xbe20c56d	-0.15700312
236	0xbd3d6ef0	-0.046248376
237	0xbe7c26a4	-0.24624115
238	0xbe33a547	-0.17543517
239	0xbe1afe05	-0.15135963
240	0xbe3587f0	-0.17727637
241	0xbcde437a	-0.027131785
242	0xbe2db418	-0.16963232
243	0x3c365c04	0.011130337
244	0x3cddddc2	0.027083281
245	0xbdd7f973	-0.105456255
246	0xbe9bac7c	-0.30405033
247	0x3db38ae3	0.08766725
248	0x3d300277	0.0429711
249	0xbe5b4f00	-0.21416855
250	0xbde4b30a	-0.111669615
251	0xbe0d0212	-0.13770321
252	0x3b9c53ef	0.004770748
253	0x3de5ef4a	0.112272814
254	0xbd3a6c2f	-0.04551333
255	0x3e17ff70	0.14843535

res_blocks.0.conv.3.bias f4 [30]
0	0x3d650134	0.05590935
1	0x3cc890e3	0.02448315
2	0x3d0c2175	0.034211595
3	0x3d050871	0.032478753
4	0xbb79eb88	-0.0038134772
5	0x3c6e75b5	0.014554431
6	0x3d64d12a	0.055863537
7	0x3cd50e25	0.026007721
8	0xbc4dc7bf	-0.01255983
9	0x3c34f572	0.011044847
10	0x3c8302a1	0.015992464
11	0xbd40a9b6	-0.04703685
12	0x3c85e9a7	0.016346766
13	0x3cf48eb4	0.029853202
14	0x3ccc1ce8	0.024916127
15	0xbd4827ea	-0.04886619
16	0xbcb276e1	-0.021785202
17	0xbc92e379	-0.017930733
18	0xbd76d497	-0.060261335
19	0x3cb5f6a0	0.022212327
20	0x3ce2ffb8	0.027709827
21	0x3c3009f2	0.010744559
22	0x3cea60c1	0.028610589
23	0x3c421791	0.011846439
24	0xbd32a8b9	-0.043617938
25	0xbcfde88a	-0.030994672
26	0x3d775c89	0.060390983
27	0xbd1570d6	-0.03648456
28	0x3d390214	0.045167997
29	0xbc2b3851	-0.010450439

res_blocks.0.conv.4.weight f4 [30]
0	0x3f9208bc	1.1408916
1	0x3f5e720c	0.8689277
2	0x3f6c6ab1	0.923503
3	0x3f92a9a4	1.145802
4	0x3fa55dd8	1.2919264
5	0x3f8a640e	1.0811784
6	0x3f9382e3	1.1524318
7	0x3f843ad0	1.0330448
8	0x3faa4bc6	1.3304374
9	0x3f8ebb5c	1.1150928
10	0x3f82dc59	1.0223495
11	0x3f798aee	0.97477615
12	0x3faad9a8	1.3347673
13	0x3f8b3edd	1.0878559
14	0x3f905c09	1.1278087
15	0x3fa0be62	1.25581
16	0x3f7a3023	0.977297
17	0x3f862fac	1.0483298
18	0x3f91f23d	1.140205
19	0x3f7fe5df	0.9996013
20	0x3f7121f2	0.9419242
21	0x3f7f3702	0.9969331
22	0x3f8bd719	1.0925018
23	0x3f83b1a9	1.0288593
24	0x3f7cb766	0.98717344
25	0x3fa9c636	1.3263614
26	0x3f60758f	0.8767938
27	0x3f61b650	0.8816881
28	0x3f8624eb	1.0480016
29	0x3f4d4434	0.80182195

res_blocks.0.conv.4.bias f4 [30]
0	0x3d5ff114	0.05467327
1	0x3cdf7aaf	0.02728018
2	0x3e561cc2	0.20909408
3	0x3dc99044	0.098419696
4	0x3e599520	0.21248293
5	0x3c5f9ad7	0.013647757
6	0x3dae8c2c	0.085228294
7	0x3e85494f	0.26032493
8	0x3e9e43fd	0.30911246
9	0xbd8ab706	-0.0677319
10	0xbe022e98	-0.12713087
11	0xbd5b4364	-0.053531066
12	0x3e714a0b	0.23563401
13	0x3e592dbb	0.21208851
14	0x3e3528ea	0.17691389
15	0x3e7f48e1	0.24930145
16	0x3e0a6903	0.13516621
17	0x3d4a4147	0.04937866
18	0xbbf8ff3e	-0.0075987866
19	0x3e08aaf2	0.1334646
20	0x3b995e3a	0.004680422
21	0x3cabb6c4	0.020961173
22	0x3c22e91d	0.009943274
23	0xbd90c73d	-0.07069252
24	0x3e1915e7	0.14949761
25	0xbf267f79	-0.6503826
26	0x3c5c0904	0.013429884
27	0x3d9333bd	0.07187603
28	0xbdd358ac	-0.10319647
29	0x3be540b4	0.0069962386

res_blocks.0.conv.4.running_mean f4 [30]
0	0xc0996480	-4.793518
1	0xbff5e76a	-1.9211247
2	0xbf8b0271	-1.086012
3	0xc0471ca1	-3.1111224
4	0xbfa256f0	-1.2682781
5	0xbfde73e4	-1.7379117
6	0x3f958189	1.1680156
7	0xc0a67bcd	-5.2026124
8	0xc0570521	-3.359688
9	0xbfc78ea3	-1.5590404
10	0x3fbb8d0d	1.465242
11	0x3f8aa820	1.0832558
12	0xc03785f0	-2.86755
13	0xc0982728	-4.75478
14	0xc00eaa20	-2.2291336
15	0xc06b8ce6	-3.6804748
16	0xc0386bcb	-2.8815792
17	0xbeb0e11a	-0.3454674
18	0x4053b9c7	3.308214
19	0xc00d2b37	-2.2057626
20	0xc087cb6a	-4.243581
21	0xbea31a24	-0.3185588
22	0xc0679a3a	-3.6187882
23	0x401af1b1	2.4210017
24	0x3f715162	0.94264805
25	0x405dd9b6	3.466413
26	0xc0246e2b	-2.569224
27	0xc002415d	-2.0352395
28	0x3d321d3a	0.043484904
29	0xc07e8fb5	-3.9775212

res_blocks.0.conv.4.running_var f4 [30]
0	0x4071bef4	3.7772799
1	0x40a6795e	5.2023153
2	0x41a4cbbc	20.59948
3	0x416dd0f6	14.863516
4	0x423484af	45.129574
5	0x41b08ad3	22.067785
6	0x406bfac7	3.6871812
7	0x4113800a	9.21876
8	0x419d0cee	19.631313
9	0x41b3e6cf	22.4877
10	0x41058870	8.34581
11	0x414a85b4	12.657642
12	0x414fe984	12.994511
13	0x4189b5d1	17.213778
14	0x40db2409	6.848149
15	0x419661fa	18.79784
16	0x41edefc5	29.742075
17	0x4101eeb9	8.120782
18	0x412992e8	10.598366
19	0x41c2c491	24.34598
20	0x4199a624	19.206123
21	0x40ae8d14	5.4547215
22	0x41bbab29	23.458574
23	0x413f3763	11.951022
24	0x4292d7eb	73.421715
25	0x417e2139	15.883111
26	0x41984f46	19.038708
27	0x42d55f0c	106.68564
28	0x4122b282	10.168581
29	0x4287ce95	67.90348

final.0.weight f4 [30, 30, 1, 1]
0	0xbefdd05c	-0.49573028
1	0x3df6eed9	0.12057275
2	0xbdd0cf1e	-0.101957545
3	0xbdbde208	-0.09271628
4	0x3ebc8dac	0.36826837
5	0xbd33b9b8	-0.043878287
6	0x3e74a030	0.23889232
7	0x3f2f25b4	0.68416905
8	0xbdc2c4f4	-0.09510222
9	0x3ee27403	0.44229135
10	0x3d642999	0.055703733
11	0xbebaf749	-0.3651679
12	0xbcd23219	-0.025658654
13	0xbf0727ab	-0.52794904
14	0xbeb48ef6	-0.3526532
15	0xbeaef01e	-0.3416757
16	0xbd2016f0	-0.039084375
17	0x3df06a24	0.11738995
18	0xbda210c1	-0.07913352
19	0xbd5665cf	-0.052343186
20	0x3e0df001	0.13861085
21	0xbe502cc2	-0.20329574
22	0xbe6a102b	-0.2285773
23	0xbe960f10	-0.29308367
24	0xbedfb254	-0.4369074
25	0x3b545c64	0.0032403702
26	0x3e4fa81d	0.20278974
27	0xbde481a2	-0.11157538
28	0xbe4dcdc0	-0.20098019
29	0x3f035d66	0.5131439
30	0xbcb3b5ff	-0.021937368
31	0xbe2b4a6e	-0.16727611
32	0xbcc33b69	-0.02383204
33	0x3e83f766	0.25774688
34	0x3e2673f5	0.16255172
35	0xbe80341a	-0.2503975
36	0xbef4b0f4	-0.47791255
37	0xbef89a01	-0.48554996
38	0xbd3c4afb	-0.045969944
39	0xbe4fb304	-0.20283133
40	0xbe089a75	-0.1334017
41	0x3f58d5e2	0.8470136
42	0xbf1feff1	-0.62475497
43	0x3e970c61	0.29501632
44	0x3e54c626	0.20778713
45	0xbddd2906	-0.1079884
46	0x3dcbdeea	0.09954627
47	0xbe4253d0	-0.18977284
48	0x3e5bd534	0.2146805
49	0xbdf68910	-0.12037861
50	0x3d01a86a	0.031654753
51	0x3f11b810	0.5692148
52	0x3dc6d8b8	0.097093046
53	0x3d875c46	0.06609397
54	0xbebeb6ac	-0.37248743
55	0xbe0dc897	-0.1384605
56	0x3f1f8f60	0.6232815
57	0x3ca6bfae	0.020355072
58	0x3f0cccdd	0.55000097
59	0x3f0bc05f	0.5459041
60	0x3d22789a	0.039665796
61	0x3dba1242	0.09085514
62	0xbe1fcd66	-0.15605697
63	0x3ca6a226	0.02034099
64	0xbe91b3c1	-0.28457454
65	0xbddc2199	-0.10748596
66	0x3d9959fb	0.074878655
67	0x3e533a2f	0.20627664
68	0xbef4923f	-0.47767827
69	0x3e9ec445	0.31009117
70	0xbe176da2	-0.14787915
71	0x3e4cdba3	0.2000566
72	0x3f37a603	0.7173769
73	0xbee921be	-0.45533556
74	0x3dc3d496	0.09562032
75	0xbe81b2ff	-0.25331876
76	0x3ea31a06	0.31855792
77	0xbe8d2385	-0.27566162
78	0xbde1845c	-0.11011574
79	0xbe8fce52	-0.28087097
80	0xbe9897a8	-0.29803205
81	0x3da83dd1	0.082149155
82	0x3d2d4320	0.042300344
83	0x3ec88807	0.3916628
84	0xbebec65b	-0.37260708
85	0xbea865bf	-0.32890126
86	0xbedfc30b	-0.43703493
87	0xbe571c64	-0.21006924
88	0x3d911d50	0.07085669
89	0x3f1c5734	0.6107056
90	0x3db991f1	0.09061039
91	0xbdacf214	-0.0844461
92	0xbd58819f	-0.05285799
93	0x3e4bc697	0.19899975
94	0xbe3326f1	-0.17495324
95	0x3df013fd	0.117225625
96	0xbcba0f7c	-0.022712462
97	0x3f1d8c3e	0.6154212
98	0xbd9d774a	-0.07688768
99	0x3f0f8fcd	0.560788
100	0xbda8ae52	-0.08236374
101	0xbe55d916	-0.20883593
102	0x3e90f417	0.28311226
103	0xbd88883a	-0.06666608
104	0x3f0487f2	0.51769936
105	0x3e182fbe	0.14861962
106	0xbdd5f4cc	-0.10447082
107	0xbea1a030	-0.31567526
108	0xbed41273	-0.41420326
109	0x3efe16b6	0.49626702
110	0x3f128274	0.57230306
111	0x3eab43af	0.33450076
112	0x3ea07657	0.31340286
113	0xbe386396	-0.18006739
114	0x3e4dd2c3	0.2009993
115	0x3edd7b2d	0.43258038
116	0x3ec964a1	0.39334586
117	0xbe93e7ef	-0.2888789
118	0x3da57edd	0.08080838
119	0xbe3cf2fb	-0.18452065
120	0x3e27d690	0.16390443
121	0x3dce3e03	0.100704215
122	0x3dd75043	0.105133556
123	0x3ef50365	0.47854152
124	0xbf21913c	-0.63112235
125	0xbeb9b496	-0.3627059
126	0xbe01dedd	-0.12682672
127	0x3f16ded2	0.58933747
128	0xbe75da2c	-0.24009007
129	0xbde6d7b8	-0.11271614
130	0xbdb0ecf5	-0.08638946
131	0x3dd08e03	0.101833366
132	0x3f7d0491	0.9883509
133	0xbeca0a8d	-0.39461175
134	0x3edb73c7	0.4286177
135	0x3eb4389e	0.35199445
136	0x3ede2f7c	0.43395603
137	0xbe0f932d	-0.14020987
138	0xbed15415	-0.40884462
139	0x3dd9db89	0.10637576
140	0x3e177add	0.14792962
141	0xbebf47b1	-0.37359384
142	0xbc1eee30	-0.009700343
143	0xbd45eaf6	-0.04831978
144	0x3def1363	0.116736196
145	0xbdee794a	-0.11644228
146	0x3d0e79a8	0.03478399
147	0xbe318adb	-0.17338125
148	0xbec2e3f5	-0.38064542
149	0x3ca92c55	0.020651022
150	0x3c11ca0d	0.00889827
151	0x3f0c601d	0.5483416
152	0xbd7778d5	-0.06041797
153	0x3eac9729	0.33709076
154	0x3e625a8a	0.2210485
155	0xbe24f2b5	-0.1610821
156	0x3e404fc9	0.18780436
157	0xbe1e8eed	-0.1548421
158	0xbe02703c	-0.12738127
159	0xbdb3d6bf	-0.08781194
160	0xbdde0d03	-0.108423255
161	0x3e430925	0.19046457
162	0x3e9f7790	0.31145906
163	0x3d1652b7	0.036699977
164	0x3e223b03	0.15842824
165	0x3d4a23f9	0.049350712
166	0xbd1a25d4	-0.037633732
167	0x3d52b33c	0.051440462
168	0x3db97a81	0.09056569
169	0x3e3feaa9	0.1874186
170	0x3e854741	0.26030925
171	0xbef6a476	-0.4817235
172	0xbec2ace1	-0.3802252
173	0x3d222c67	0.039593127
174	0xbe667c8d	-0.2250845
175	0xbe57dfe2	-0.21081498
176	0xbdaf80e1	-0.085695036
177	0xbe58d97e	-0.21176717
178	0x3e5c70e5	0.21527441
179	0x3b91d263	0.004450129
180	0x3c4d4320	0.012528211
181	0x3f398239	0.7246433
182	0x3e8acf17	0.27111122
183	0x3e8a09ad	0.26960507
184	0x3efc9d7b	0.49338898
185	0x3e37a886	0.1793538
186	0xbdd9fca8	-0.106438935
187	0x3f315ad6	0.6927923
188	0x3bbf1045	0.005830797
189	0x3e1c08cb	0.15237729
190	0x3dbba45b	0.09162208
191	0xbe985c49	-0.29757908
192	0xbdc111a6	-0.09427194
193	0xbf03ba85	-0.5145648
194	0x3e1ed387	0.15510379
195	0x3db735ea	0.0894583
196	0xbecb89f2	-0.3975368
197	0x3e8d2ab0	0.2757163
198	0xbd294b47	-0.041331556
199	0x3ea768aa	0.3269704
200	0xbcf7d9bb	-0.03025519
201	0x3d3f8d86	0.046765827
202	0xbec3edf5	-0.38267484
203	0x3e039a1d	0.12851758
204	0xbe4304ba	-0.19044772
205	0x3ec302ea	0.3808816
206	0x3f003719	0.5008407
207	0xbe3141e0	-0.17310286
208	0xbde3a4cf	-0.11115419
209	0x3cf5f178	0.030022368
210	0x3e806ee8	0.25084615
211	0x3f3a8d4e	0.72871864
212	0xbe35f26f	-0.17768262
213	0xbe17b386	-0.14814577
214	0xbe1ea902	-0.15494159
215	0x3ddff23a	0.10934873
216	0x3e97391c	0.29535758
217	0xbe85fabb	-0.26167855
218	0xbd89683e	-0.06709336
219	0xbe4724ed	-0.1944768
220	0xbd2c4920	-0.042061925
221	0xbc9516bb	-0.018199315
222	0x3e0fac89	0.1403066
223	0x3db2fa8d	0.08739195
224	0x3e956e28	0.29185605
225	0xbeaf72ae	-0.3426718
226	0x3e7e67f8	0.24844348
227	0xbe79d637	-0.24398123
228	0xbe94390d	-0.28949776
229	0x3e61210b	0.21985261
230	0xbbd28e6a	-0.0064256685
231	0xbe8aea0a	-0.27131683
232	0x3d2c324e	0.04204016
233	0x3d2f3ee0	0.04278457
234	0xbf087653	-0.5330555
235	0x3e8c0d7c	0.27354038
236	0xbe95c68d	-0.29253045
237	0xbd5ae77b	-0.053443413
238	0x3e517501	0.2045479
239	0x3e489eeb	0.19591872
240	0xbc897778	-0.0167806
241	0x3e70ac07	0.23503123
242	0x3efd1147	0.49427244
243	0x3edb5d3c	0.4284457
244	0xbf2a69b2	-0.6656753
245	0xbe8fd4ed	-0.28092137
246	0x3ebd6566	0.36991423
247	0x3de3356e	0.11094175
248	0xbe209b0d	-0.15684147
249	0x3e12d5fc	0.14339441
250	0x3f210fb6	0.629146
251	0xbd921adf	-0.071340315
252	0x3e971829	0.2951062
253	0xbee59007	-0.44836447
254	0x3ed41115	0.41419283
255	0xbd29f39f	-0.0414921

final.0.bias f4 [30]
0	0x3c9f2a35	0.019429306
1	0x3c6a308f	0.014293804
2	0x3e1fd0c9	0.15606989
3	0x3dfb04b8	0.122567594
4	0x3da5992a	0.08085854
5	0x3dfc3f72	0.12316789
6	0xbd39fa1d	-0.045404542
7	0x3bc0b684	0.0058811326
8	0xbe3ae753	-0.18252306
9	0x3e1de0a6	0.15417728
10	0xbcffa5a3	-0.031206911
11	0xbe10c340	-0.14136982
12	0x3c8f5405	0.017496118
13	0x3d2bb412	0.041919775
14	0x3e2e14e4	0.17000157
15	0x3e2d0163	0.1689506
16	0x3ceef44b	0.029169222
17	0x3e1093d4	0.14118892
18	0x3cf1f9b4	0.029538013
19	0x3e33806d	0.1752946
20	0x3dfe21be	0.124087796
21	0x3e0c6da9	0.13713707
22	0x3e242ab4	0.16031915
23	0xbbdcff31	-0.0067442884
24	0x3deeaf84	0.11654571
25	0x3db11b12	0.086477414
26	0xbe156a0a	-0.14591232
27	0x3d83d5c1	0.06437255
28	0xbd42177a	-0.04738567
29	0xbd6f74f5	-0.05846115

final.1.weight f4 [30]
0	0x3f30c2f1	0.69047457
1	0x3eb0c587	0.345257
2	0x3ed893eb	0.42300352
3	0x3ec35208	0.38148522
4	0x41067ae6	8.4050045
5	0x3eef7c57	0.4677455
6	0x3f267d30	0.6503477
7	0x3ee693c4	0.4503461
8	0x3ff318da	1.8991959
9	0x3ef18e82	0.47179037
10	0x3f24cb19	0.643724
11	0x3f43d03b	0.7648961
12	0x3ebe334c	0.3714851
13	0x3ee1e8e3	0.4412299
14	0x3f1484d7	0.580152
15	0x3e857ffa	0.260742
16	0x40de581c	6.9482555
17	0x4096d5c5	4.713595
18	0x3ed50c06	0.41610736
19	0x3edeeba4	0.43539155
20	0x409de418	4.9340935
21	0x3f0f3239	0.5593601
22	0x3f5a004c	0.85156703
23	0x3f0a0207	0.53909343
24	0x3ef5a5dc	0.47978103
25	0x4080c368	4.0238533
26	0x3e1f60da	0.1556429
27	0x3d0aca10	0.033884108
28	0x3f40b94a	0.7528273
29	0x3ec6f71c	0.38860404

final.1.bias f4 [30]
0	0xbf04e595	-0.51912814
1	0xbf2d6ce3	-0.6774427
2	0xbf18dfa8	-0.5971627
3	0xbf256e19	-0.6462112
4	0x40b4b222	5.6467447
5	0xbf107766	-0.5643219
6	0xbefce7f0	-0.49395704
7	0xbf1c05f5	-0.6094659
8	0x3d7b00fc	0.061280236
9	0xbf1c6aec	-0.6110065
10	0xbec46f5e	-0.38366216
11	0xbf03bc95	-0.5145963
12	0xbf20f9c4	-0.6288111
13	0xbf33ee46	-0.7028545
14	0xbf1c081f	-0.6094989
15	0xbf324c39	-0.69647557
16	0x40986787	4.7626376
17	0x40276c45	2.6159832
18	0xbf45285b	-0.770147
19	0xbf0ed4a2	-0.557932
20	0x3fe6fe76	1.8046405
21	0xbf1a6ca7	-0.6032204
22	0xbf00790d	-0.5018471
23	0xbf2227d2	-0.6334201
24	0xbf254e07	-0.64572185
25	0x400da81e	2.213386
26	0xbf311181	-0.69167334
27	0xbf3b6cdb	-0.73212975
28	0xbf01e0d3	-0.5073368
29	0xbf0bc7fa	-0.54602015

final.1.running_mean f4 [30]
0	0xbf931b43	-1.1492695
1	0x3eb50ae7	0.3535988
2	0xbe0b96aa	-0.13631693
3	0x3fe4eaf1	1.7884198
4	0x3fcb736f	1.5894603
5	0x3f27acba	0.65497935
6	0x3f53443c	0.8252599
7	0xbe2a95c0	-0.16658688
8	0x3f35074a	0.7071425
9	0x3ec01c73	0.37521705
10	0x3fbe8dbc	1.4887004
11	0x3e67090e	0.22562048
12	0xbf9a24b1	-1.2042447
13	0xbf10ba51	-0.56534296
14	0xbfcd4746	-1.6037376
15	0x3f649e94	0.8930447
16	0x3f9be0b4	1.2177949
17	0xbf595626	-0.8489708
18	0xbf0d1596	-0.5511106
19	0x40077748	2.1166553
20	0xc016afb4	-2.354474
21	0x3fe97c8b	1.8241132
22	0xbce74a31	-0.02823362
23	0xbd502766	-0.050818823
24	0xbf750aae	-0.9571942
25	0x3febca2b	1.8421072
26	0x3f048ad8	0.5177436
27	0x3f03bc52	0.5145923
28	0xbf50693e	-0.81410587
29	0x3fe28801	1.7697755

final.1.running_var f4 [30]
0	0x40e0e466	7.0278807
1	0x4125553b	10.333308
2	0x40dfb630	6.9909897
3	0x40d9fbe6	6.8119993
4	0x41878a79	16.942614
5	0x40a37100	5.107544
6	0x40af8850	5.4853897
7	0x407d92f5	3.9620945
8	0x41840e49	16.506975
9	0x40788106	3.882875
10	0x416ba25c	14.7271385
11	0x40f07a26	7.5149107
12	0x400a1074	2.1572542
13	0x411cd336	9.801565
14	0x41267de8	10.405739
15	0x40815008	4.0410194
16	0x41b09daf	22.076994
17	0x3f5f1a53	0.8714954
18	0x40deb051	6.959023
19	0x408bce71	4.3689504
20	0x41920114	18.250526
21	0x413e3c8c	11.889782
22	0x411623d3	9.383746
23	0x40dc7493	6.8892303
24	0x40a8c42f	5.273948
25	0x421db4a1	39.426395
26	0x3f4fe1c1	0.8120385
27	0x3fb3a197	1.4033688
28	0x4122699f	10.150786
29	0x40759ee0	3.837822
