图像处理/model_weights_6.pth (torch, 83009 bytes, 24 tensors)

initial.0.weight f4 [30, 3, 3, 3]
0.07478899 0.14800641 -0.041888848 0.16725819 0.15821664 0.095300734 0.023739865 0.07851307
0.09309059 0.08499663 0.032824066 0.11003812 0.23480245 0.042487364 0.05907968 0.14333947
0.1021395 0.1499231 -0.015587898 0.085255496 -0.069588214 0.14456926 0.11356672 -0.07601542
0.1593266 0.07403182 0.18643795 -0.31553432 -0.38862848 -0.16431111 -0.29499623 -0.3373639
-0.34957427 -0.24272805 -0.3412199 -0.2785282 -0.34019062 -0.23272407 -0.42949685 -0.28464696
-0.34672636 -0.35825253 -0.32480383 -0.3304884 -0.5055464 -0.1583133 -0.29004577 -0.3805585
-0.3964844 -0.3460677 -0.25247154 -0.34980145 -0.29321602 -0.28202668 -0.17529686 -0.13286078
-0.31236827 0.07730038 -0.023474794 -0.08616884 0.13136277 0.08628056 -0.2027961 0.07574469
-0.07357052 -0.27709758 0.040150564 -0.07560177 -0.27395177 0.012610337 0.015172154 -0.105683126
0.028334536 -0.29053134 -0.1789351 0.0049764765 -0.048028562 -0.21270147 0.20252365 -0.090275995
-0.047464952 -0.019604275 0.035683777 0.09964809 -0.15117355 -0.07839869 -0.075790614 -0.22245342
-0.33997935 0.0051077725 0.053077146 0.0042067254 0.14716263 0.009252939 -0.0077686417 0.043228086
-0.15052484 -0.0685953 -0.047076643 -0.043418385 -0.01932288 0.06579588 -0.11640169 -0.083300725
0.07366512 -0.29688781 -0.04275183 -0.16792087 -0.3909104 -0.22671881 -0.2490472 -0.29381877
-0.29687354 -0.3263345 -0.24725357 -0.17742226 -0.11789786 -0.15452152 -0.06698257 -0.120092444
-0.3111398 -0.18638045 -0.21344945 -0.05218496 -0.20684643 -0.18839455 -0.10287207 -0.34474945
-0.22940718 -0.1525994 -0.2685584 -0.19298588 -0.15844952 -0.18202256 -0.2130658 -0.12802823
-0.014777833 -0.0467797 -0.21391106 -0.20076495 -0.08675344 -0.2477547 -0.23808758 -0.13313255
-0.20759138 -0.1518134 -0.09898756 -0.13741651 0.002328069 -0.08062816 -0.24031277 -0.14165914
-0.2638005 -0.09504855 -0.017386524 -0.03356069 -0.20175925 -0.15882158 -0.034700695 -0.12554112
-0.14340536 -0.0106633315 0.09673765 -0.026436593 0.1326863 0.0010242737 0.12576787 -0.0030750567
0.14725062 0.037787493 0.08786571 0.08056241 0.28866732 0.1355103 0.29434633 0.19217338
0.08817488 0.12889993 0.119915344 0.08000584 0.17348768 0.14037654 0.039648887 0.18834183
0.0039199693 0.15703991 0.1248085 0.146474 0.19363667 0.049938083 0.0010217023 0.01936764
-0.017404811 0.06785294 0.115723826 0.10350997 -0.059790332 0.07019159 -0.05821555 0.097013116
0.022711772 0.08641929 0.034321308 0.02721847 -0.018712288 0.12718546 0.084109604 0.044930857
0.099863574 0.12858343 0.03788162 0.093962625 -0.024127226 -0.100168176 -0.008270813 -0.0001539276
0.070479885 0.10272942 0.05283709 0.04099655 0.16720371 0.20967135 0.23036249 0.19345124
0.019783268 0.01145012 0.06932116 0.17152527 0.10082521 -0.0015306948 -0.007718803 0.05951816
0.30840752 0.139774 0.08671454 0.22318707 -0.0128817875 0.1681462 0.09543057 0.03627262
0.05241673 0.067538194 0.19172609 0.20191859 0.24045922 0.056947187 0.11584361 0.06760692
0.037454486 0.11168926 0.19665496 -0.07789775 0.11790075 0.1774129 0.16302016 0.2506117
00000000: f82a 993d fe8e 173e a493 2bbd bb45 2b3e
00000010: 8b03 223e 082d c33d 1b7a c23c 76cb a03d
00000020: 47a6 be3d b712 ae3d 8772 063d aa5b e13d
00000030: 0e70 703e 3b07 2e3d 89fd 713d 95c7 123e
00000040: 842e d13d 7185 193e 6264 7fbc 6f9a ae3d
00000050: 4484 8ebd f709 143e ab95 e83d f9ad 9bbd
00000060: 8326 233e ff9d 973d 97e9 3e3e b78d a1be
00000070: 50fa c6be 2c41 28be bf09 97be f6ba acbe
00000080: 66fb b2be b48d 78be 60b4 aebe 409b 8ebe
00000090: 772d aebe 384f 6ebe 03e7 dbbe 3fbd 91be
000000a0: 1e86 b1be e06c b7be b04c a6be c735 a9be
000000b0: 7d6b 01bf e21c 22be e180 94be 90d8 c2be
000000c0: 0100 cbbe c92f b1be f343 81be 2d19 b3be
000000d0: 6920 96be cd65 90be 0581 33be a80c 08be
000000e0: bcee 9fbe a94f 9e3d 364e c0bc 4a79 b0bd
000000f0: f683 063e ddb3 b03d c8a9 4fbe 0820 9b3d
00000100: 24ac 96bd bcdf 8dbe eb74 243d 1ad5 9abd
00000110: 6843 8cbe 969b 4e3c a094 783c 6570 d8bd
00000120: d41d e83c 86c0 94be c33a 37be b611 a33b
00000130: 99b9 44bd 6ace 59be 5c62 4f3e 9fe2 b8bd
00000140: 9c6a 42bd 2599 a0bc 2729 123d 4c14 cc3d
00000150: 3dcd 1abe 7e8f a0bd 1c38 9bbd d4ca 63be
00000160: c611 aebe 1a5f a73b 6c67 593d 92d8 893b
00000170: cdb1 163e a499 173c 1790 febb ef0f 313d
00000180: 2f23 1abe b17b 8cbd 70d3 40bd 7ad7 31bd
00000190: 044b 9ebc febf 863d 0264 eebd 9299 aabd
000001a0: bddd 963d ae01 98be 8b1c 2fbd 73f3 2bbe
000001b0: 6825 c8be fa28 68be 3b06 7fbe 6a6f 96be
000001c0: cfff 97be 5115 a7be 0a30 7dbe 2eae 35be
000001d0: 6f74 f1bd e43a 1ebe 282e 89bd 07f3 f5bd
000001e0: b74d 9fbe 84da 3ebe 7e92 5abe e6bf 55bd
000001f0: 8dcf 53be 80ea 40be 98ae d2bd 0083 b0be
00000200: b7e9 6abe 0443 1cbe 7d80 89be 179e 45be
00000210: 9740 22be 1f64 3abe ec2d 5abe d519 03be
00000220: b91e 72bc 129c 3fbd 800b 5bbe 5495 4dbe
00000230: caab b1bd 68b3 7dbe 3bcd 73be e653 08be
00000240: d692 54be f974 1bbe fdb9 cabd eab6 0cbe
00000250: 8492 183b 6020 a5bd 8d14 76be 180f 11be
00000260: dc10 87be d0a8 c2bd 2f6e 8ebc ef76 09bd
00000270: fa99 4ebe 20a2 22be 5122 0ebd da8d 00be
00000280: dbd8 12be 41b5 2ebc 641e c63d 8e91 d8bc
00000290: ebde 073e ec40 863a 4bc9 003e e486 49bb
000002a0: dec8 163e 0fc7 1a3d f0f2 b33d e8fd a43d
000002b0: 34cc 933e 36c3 0a3e 90b4 963e 19c9 443e
000002c0: 0895 b43d 58fe 033e 2d96 f53d 1ada a33d
000002d0: c1a6 313e debe 0f3e df66 223d aedc 403e
000002e0: 1673 803b 12cf 203e 999b ff3d 48fd 153e
000002f0: b148 463e e08b 4c3d a4ea 853a e3a8 9e3c
00000300: 8994 8ebc 7bf6 8a3d 9d00 ed3d 09fd d33d
00000310: b5e6 74bd 9cc0 8f3d 6e73 6ebd d0ae c63d
00000320: 0a0e ba3c 99fc b03d 8094 0c3d 45f9 de3c
00000330: 834a 99bc e83c 023e a841 ac3d 6b09 383d
00000340: 4685 cc3d 60ab 033e c229 1b3d 7a6f c03d
00000350: 76a6 c5bc f924 cdbd 4e82 07bc a067 21b9
00000360: c257 903d cd63 d23d b46b 583d 00ec 273d
00000370: 7337 2b3e 16b4 563e 25e4 6b3e 1518 463e
00000380: 8510 a23c 4999 3b3c 41f8 8d3d 52a4 2f3e
00000390: 737d ce3d 98a1 c8ba 03ee fcbb 50c9 733d
000003a0: 97e7 9d3e ea20 0f3e 6597 b13d 278b 643e
000003b0: 220e 53bc 842e 2c3e 1a71 c33d 9992 143d
000003c0: edb2 563d 7751 8a3d d853 443e bfc3 4e3e
000003d0: f13a 763e 7441 693d 6a3f ed3d 7f75 8a3d
000003e0: e069 193d 57bd e43d eb5f 493e db88 9fbd
000003f0: f375 f13d baab 353e c2ee 263e 2d50 803e

initial.0.bias f4 [30]
-0.11749206 -0.13141216 -0.16090493 -0.076423444 -0.11118102 -0.057546493 -0.016028082 -0.09684294
0.08821271 0.16796646 0.03429168 -0.087721035 -0.073916055 -0.079212084 0.052554674 0.11493786
0.072991684 0.17867854 0.080741726 0.034932718 0.18951957 0.08568656 0.16321819 0.11884009
-0.13923265 0.1241635 0.030048735 -0.06191552 -0.08070864 0.18861437
00000000: ad9f f0bd e990 06be 43c4 24be e583 9cbd
00000010: e0b2 e3bd dfb5 6bbd 534d 83bc 9755 c6bd
00000020: dea8 b43d 66ff 2b3e 6f75 0c3d 16a7 b3bd
00000030: 4d61 97bd f239 a2bd 9243 573d 8a64 eb3d
00000040: aa7c 953d 82f7 363e eb5b a53d 9c15 0f3d
00000050: 6b11 423e 6f7c af3d ab22 273e 6f62 f33d
00000060: 0193 0ebe 6f49 fe3d c428 f63c 219b 7dbd
00000070: 924a a5bd 2024 413e

initial.1.weight f4 [30]
1.0216203 1.0304127 1.0079482 0.9160603 0.9767235 1.0603954 0.9711878 1.0653414
1.0944322 0.98899233 1.0446393 0.9120655 1.0368663 1.0318297 0.8782563 0.99173814
0.9480655 1.0444467 0.9361071 1.0855737 1.1050252 1.0764629 1.0270138 0.89810175
0.8728632 0.97857094 1.0600028 1.0942644 0.9652341 0.92231005
00000000: 74c4 823f 90e4 833f 7204 813f ee82 6a3f
00000010: 8d0a 7a3f 09bb 873f c39f 783f 1b5d 883f
00000020: 5b16 8c3f 9a2e 7d3f beb6 853f 207d 693f
00000030: 09b8 843f ff12 843f 68d5 603f 8de2 7d3f
00000040: 6cb4 723f 6eb0 853f b7a4 6f3f 14f4 8a3f
00000050: 7771 8d3f 89c9 893f 3075 833f ffe9 653f
00000060: f673 5f3f a083 7a3f 2cae 873f db10 8c3f
00000070: 9519 773f 831c 6c3f

initial.1.bias f4 [30]
0.0150520075 -0.0855619 0.049692944 -0.1830041 0.104765885 -0.045936666 -0.07554333 0.07000425
0.028214952 0.050271947 0.17055045 -0.13242254 0.095793396 0.0094743315 0.077950045 -0.068062484
-0.08005829 0.013980534 0.044213407 0.07921489 0.14334777 0.0635082 -0.037913077 -0.09477252
0.028118825 -0.06567711 0.008773653 0.038996734 0.024124216 -0.020926194
00000000: b29c 763c 143b afbd d48a 4b3d 6d65 3bbe
00000010: 7f8f d63d 1628 3cbd 76b6 9abd 635e 8f3d
00000020: 0b23 e73c f5e9 4d3d c7a4 2e3e c699 07be
00000030: 542f c43d 3a3a 1b3c 46a4 9f3d 5864 8bbd
00000040: 9af5 a3bd 9c0e 653c 1e19 353d 6b3b a23d
00000050: c2c9 123e 9610 823d be4a 1bbd 1818 c2bd
00000060: 7359 e63c b881 86bd 5ebf 0f3c 0abb 1f3d
00000070: 26a0 c53c 696d abbc

initial.1.running_mean f4 [30]
0.5193327 -2.2821045 -0.54562986 -0.33473468 -1.5245192 -0.93301433 0.8188166 0.21899411
0.81490654 0.8811534 9.396003 1.0137844 0.49808064 -0.36348602 4.948155 -2.901141
-0.5813861 2.6251564 0.35057378 0.41482022 0.5950972 2.41736 -0.26261142 1.344103
0.17164332 -0.047254127 -0.3581575 0.46954435 0.3124453 1.3601745
00000000: fdf2 043f 000e 12c0 66ae 0bbf 5862 abbe
00000010: 7223 c3bf 07da 6ebf f79d 513f fe3f 603e
00000020: b79d 503f 4593 613f 0756 1641 b0c3 813f
00000030: 6d04 ff3e d71a babe 4957 9e40 4bac 39c0
00000040: b8d5 14bf 9002 2840 687e b33e 5163 d43e
00000050: 4a58 183f 07b6 1a40 0175 86be 910b ac3f
00000060: 44c3 2f3e 8b8d 41bd 6b60 b7be 1e68 f03e
00000070: d5f8 9f3e 331a ae3f

initial.1.running_var f4 [30]
0.42829 1.4303112 0.3957991 0.3673617 0.8201113 0.526693 0.49943215 0.36433557
0.47301894 0.47868213 20.146086 0.61086464 0.41111428 0.36789438 6.2127705 2.3563247
0.45492435 1.7622434 0.36557442 0.37884134 0.39383218 1.597236 0.37595126 0.73582715
0.36702138 0.35369354 0.37641287 0.39793417 0.37829465 0.6889985
00000000: d448 db3e 7014 b73f 2ea6 ca3e d516 bc3e
00000010: d0f2 513f 5ad5 063f 92b5 ff3e 318a ba3e
00000020: 8a2f f23e d315 f53e 2f2b a141 a061 1c3f
00000030: 927d d23e a75c bc3e 04cf c640 06ce 1640
00000040: d8eb e83e 3191 e13f 922c bb3e 7ef7 c13e
00000050: 5fa4 c93e 3b72 cc3f af7c c03e 2b5f 3c3f
00000060: 3aea bb3e 5217 b53e 30b9 c03e 07be cb3e
00000070: d6af c13e 3562 303f

res_blocks.0.conv.0.weight f4 [30, 30, 3, 3]
0.05159414 -0.10889704 0.06891906 0.12149211 -0.00014357455 -0.079838194 0.06641032 0.037642263
0.08074545 0.053799964 0.033711094 -0.018447632 0.09212382 -0.032408472 -0.021796018 0.026205013
-0.058049463 -0.01732447 -0.010742748 0.0046388227 -0.032236487 -0.14577663 0.057375822 -0.08705099
-0.14896624 0.132568 0.043152783 -0.032524437 -0.17645463 0.05497422 0.055876117 0.05511814
-0.022017816 0.049578503 -0.05811236 -0.06294539 0.07895561 0.013775377 0.098253846 0.13170291
0.050684057 -0.17389432 -0.06721123 -0.17195195 -0.007117427 -0.107708365 0.04286731 -0.045117453
0.14571923 -0.09717575 -0.045139864 -0.11777821 -0.045401607 -0.068694025 -0.023323443 0.054233823
0.15739769 -0.10238199 0.080990985 -0.14210753 -0.08676257 -0.19648716 -0.041699294 0.06605988
-0.13981596 -0.004993752 0.094169825 0.15352935 0.026357532 -0.0025547352 0.0092498455 -0.028741565
0.08816419 0.13058402 -0.15487097 -0.013570291 -0.019722326 0.03570065 0.022771131 -0.020241309
-0.044481806 0.17846136 -0.030560797 -0.06946471 0.1126597 0.03955484 -0.02724321 -0.112855785
0.08946493 0.09431961 0.04783104 0.07152539 0.16447194 0.106876135 0.0012373349 0.02777588
-0.01909792 0.06775036 -0.11311557 0.0070965206 -0.04149439 0.041309066 -0.011763758 -0.14042309
0.11275312 0.060824424 -0.14020824 -0.16532668 0.01505628 0.124762505 -0.073511615 0.041481163
0.1097698 0.1259603 0.00958327 0.067369305 -0.068367004 -0.06239673 0.07452733 0.071248494
0.059866052 0.024500327 0.0624728 -0.09534029 -0.14072841 -0.0029179119 0.100329354 0.021238293
0.031179719 -0.113855965 0.009121925 0.053592376 -0.07270418 0.07529393 -0.051506236 0.08927251
0.013268082 0.014144783 -0.05885768 -0.023250801 0.004204867 -0.06012015 0.14293036 -0.006759111
-0.12684718 0.0375939 0.058550783 0.030451488 0.02752076 -0.047199234 0.04416796 -0.22516719
0.057319846 0.1389595 0.0075116316 0.0853722 -0.039589934 0.055082496 0.07255503 -0.001387143
0.09263832 -0.044542 -0.0629877 -0.053615086 -0.09477632 -0.009400535 0.12328006 0.0141164875
0.019055558 -0.10630764 -0.0026599204 -0.006962846 -0.05709823 -0.020772193 0.08870651 0.08280205
0.101264015 -0.15395975 0.07001033 0.099374846 -0.033647966 0.09678793 -0.11796223 -0.1346663
-0.005420479 -0.034643766 -0.0052818237 -0.19784607 0.05712154 -0.079340875 0.004766859 0.08419663
0.015632352 -0.0006833228 0.08552388 0.0033559275 -0.25041524 0.13116868 -0.067918524 0.009131528
0.038242403 -0.092064135 -0.18980913 -0.069186434 0.018546548 0.06746828 -0.12277124 -0.011853826
0.018909132 -0.08055038 -0.069764115 -0.14185508 0.0059695197 -0.2171866 -0.015874118 0.05228487
-0.034280755 0.0510474 -0.056810193 -0.17815672 0.023705265 0.03568828 -0.15569215 0.123030245
0.055508737 0.06906881 -0.15767476 -0.023160968 -0.13163148 -0.15251058 -0.150861 0.040380586
-0.030015666 -0.034369458 -0.17120548 -0.17904891 -0.04286213 -0.10641412 0.019927219 -0.13026506
-0.19500041 -0.024498107 -0.14731768 -0.1372389 0.044397544 -0.10848342 0.03720491 0.02869662
-0.02241083 0.11678518 -0.018714419 -0.15348756 0.030910568 0.061274417 -0.043099657 -0.04551841
00000000: 6054 533d 6905 dfbd 7025 8d3d dbd0 f83d
00000010: 808c 16b9 3582 a3bd 2202 883d c62e 1a3d
00000020: df5d a53d 5a5d 5c3d a514 0a3d 7d1f 97bc
00000030: 6aab bc3d bfbe 04bd 908d b2bc e5ab d63c
00000040: 46c5 6dbd 0cec 8dbc 5a02 30bc 4401 983b
00000050: 680a 04bd 7846 15be e902 6b3d ca47 b2bd
00000060: 9b8a 18be e8bf 073e f9c0 303d 5838 05bd
00000070: 86b0 34be a62c 613d 5bde 643d 8fc3 613d
00000080: b55e b4bc d412 4b3d 3a07 6ebd 83e9 80bd
00000090: 7bb3 a13d 1eb2 613c 5039 c93d 21dd 063e
000000a0: 169a 4f3d 5a11 32be 0ba6 89bd 2c14 30be
000000b0: 4e39 e9bb 3496 dcbd a295 2f3d 14cd 38bd
000000c0: 6c37 153e 1404 c7bd 94e4 38bd b435 f1bd
000000d0: 09f7 39bd 74af 8cbd ce10 bfbc 4924 5e3d
000000e0: dc2c 213e a6ad d1bd 9ade a53d a384 11be
000000f0: 93b0 b1bd ee33 49be e1cc 2abd 674a 873d
00000100: ea2b 0fbe a1a2 a3bb 1cdc c03d cc36 1d3e
00000110: c0eb d73c 586d 27bb aa8c 173c 6e73 ebbc
00000120: 6d8f b43d d1b7 053e 7f96 1ebe ed55 5ebc
00000130: b790 a1bc d83a 123d 868a ba3c 1ad1 a5bc
00000140: 8e32 36bd 93be 363e a35a fabc 8443 8ebd
00000150: 21ba e63d 4204 223d 272d dfbc ef20 e7bd
00000160: 6439 b73d a42a c13d 7bea 433d e77b 923d
00000170: 556b 283e e0e1 da3d 122e a23a 3e8a e33c
00000180: 3e73 9cbc b3c0 8a3d 23a9 e7bd ee89 e83b
00000190: 06f6 29bd b233 293d c7bc 40bc 12cb 0fbe
000001a0: 1ceb e63d 0823 793d c092 0fbe 664b 29be
000001b0: 9eae 763c 7c83 ff3d 428d 96bd 27e8 293d
000001c0: fdce e03d bdfb 003e 2603 1d3c ebf8 893d
000001d0: 0004 8cbd b793 7fbd c9a1 983d bbea 913d
000001e0: 1b36 753d e9b4 c83c 7be3 7f3d c541 c3bd
000001f0: 1c1b 10be 703a 3fbb 7a79 cd3d eefb ad3c
00000200: 9c6c ff3c 512d e9bd 2074 153c ae83 5b3d
00000210: eee5 94bd b433 9a3d 34f8 52bd 81d4 b63d
00000220: 5f62 593c 85bf 673c c014 71bd 7778 bebc
00000230: fbc8 893b 8c40 76bd 565c 123e 887b ddbb
00000240: 3ae4 01be 10fc 193d f2d2 6f3d 6675 f93c
00000250: 3873 e13c fc53 41bd 76e9 343d 3a92 66be
00000260: 37c8 6a3d 664b 0e3e 2224 f63b 9fd7 ae3d
00000270: 0e29 22bd 2f9e 613d bb97 943d ccd0 b5ba
00000280: 29b9 bd3d ac71 36bd b2ff 80bd 7e9b 5bbd
00000290: 161a c2bd b404 1abc 427a fc3d d748 673c
000002a0: 671a 9c3c d2b7 d9bd 0f52 2ebb 9628 e4bb
000002b0: d5df 69bd 722a aabc c2ab b53d 1f94 a93d
000002c0: 8263 cf3d a0a7 1dbe 9361 8f3d 0a85 cb3d
000002d0: 73d2 09bd c038 c63d 2f96 f1bd f6e5 09be
000002e0: 469e b1bb 9fe6 0dbd 2613 adbb 2998 4abe
000002f0: 47f8 693d 787d a2bd 5033 9c3b 486f ac3d
00000300: 6b0f 803c 0421 33ba 2527 af3d 1fef 5b3b
00000310: 6d36 80be 1551 063e de18 8bbd 689c 153c
00000320: 11a4 1c3d 1f8c bcbd 535d 42be 9eb1 8dbd
00000330: eeee 973c cf2c 8a3d 7d6f fbbd 8d36 42bc
00000340: 53e7 9a3c 99f7 a4bd 7de0 8ebd 7542 11be
00000350: f69b c33b 2a66 5ebe 700a 82bc a928 563d
00000360: fa69 0cbd 1417 513d ceb1 68bd b76e 36be
00000370: 8b31 c23c e02d 123d c36d 1fbe 48f7 fb3d
00000380: 215d 633d f373 8d3d 7e75 21be 12bc bdbc
00000390: 67ca 06be bc2b 1cbe 4e7b 1abe 1d66 253d
000003a0: 6ae3 f5bc fdc6 0cbd 7d50 2fbe 9958 37be
000003b0: 3390 2fbd a5ef d9bd 683e a33c 3464 05be
000003c0: 30ae 47be 41b0 c8bc 72da 16be 5b88 0cbe
000003d0: 33da 353d 8e2c debd 2d64 183d 2d15 eb3c
000003e0: eb96 b7bc 122d ef3d fb4e 99bc d82b 1dbe
000003f0: 2938 fd3c e2fa 7a3d 4489 30bd 8371 3abd

res_blocks.0.conv.0.bias f4 [30]
0.054659247 -0.060820337 0.0454946 0.0044405824 0.04515352 0.05927901 -0.046876255 -0.037638847
0.0022400285 0.03981673 -0.027358348 0.037813522 -0.028862918 0.057665095 0.05635599 -0.057420883
-0.042401247 -0.05453352 0.018478142 0.00095557957 -0.038170576 0.008340195 0.034629893 -0.023229988
0.012372378 0.05368775 0.034123145 -0.014282841 0.0055523864 -0.041082297
00000000: 60e2 5f3d bf1e 79bd 8c58 3a3d 4e82 913b
00000010: e6f2 383d 8cce 723d 5101 40bd 312b 1abd
00000020: 71cd 123b de16 233d 9d1e e0bc 5ae2 1a3d
00000030: ed71 ecbc 3c32 6c3d 8ad5 663d 2932 6bbd
00000040: eeac 2dbd 8a5e 5fbd 795f 973c dc7f 7a3a
00000050: c058 1cbd 50a5 083c 13d8 0d3d d14c bebc
00000060: 84b5 4a3c b0e7 5b3d b6c4 0b3d 9402 6abc
00000070: cbf0 b53b e945 28bd

res_blocks.0.conv.1.weight f4 [30]
0.95929956 0.96814126 0.9446096 1.0665853 0.99185497 0.99646056 1.0905503 1.119614
0.92950016 0.95989907 1.0536766 1.0087321 0.9128281 0.9752406 1.0220292 0.9638324
1.0842667 0.9718583 0.9470795 0.9915105 1.0432769 1.1080184 0.96837324 1.0257132
1.0407567 0.9403693 0.95847416 1.087941 0.8876114 0.98227954
00000000: a894 753f 1bd8 773f efd1 713f de85 883f
00000010: 35ea 7d3f 0a18 7f3f 2797 8b3f 834f 8f3f
00000020: b9f3 6d3f f2bb 753f e0de 863f 221e 813f
00000030: 1aaf 693f 5ea9 793f dad1 823f b8bd 763f
00000040: 40c9 8a3f b5cb 783f cd73 723f a2d3 7d3f
00000050: 198a 853f 8cd3 8d3f 4fe7 773f 924a 833f
00000060: 8437 853f 0bbc 703f 905e 753f a741 8b3f
00000070: 803a 633f ac76 7b3f

res_blocks.0.conv.1.bias f4 [30]
-0.019900136 0.008413905 0.049702477 0.085281864 -0.0025750352 -0.002911744 0.071751505 0.060947623
0.00952068 0.010750875 0.008517712 -0.022879824 -0.023743516 0.029013198 0.009754813 0.0042446884
0.100438036 0.0009733668 -0.017136902 -0.041318815 0.0016217444 0.03780374 -0.043563638 -0.021289289
-0.06103932 -0.033415556 -0.04352394 0.010839385 -0.038473316 0.074951924
00000000: 9c05 a3bc 7ada 093c d394 4b3d 42a8 ae3d
00000010: ecc1 28bb f5d2 3ebb 74f2 923d 37a4 793d
00000020: a0fc 1b3c 7024 303c e08d 0b3c 786e bbbc
00000030: c381 c2bc 16ad ed3c a7d2 1f3c 0717 8b3b
00000040: 75b2 cd3d 8a29 7f3a b062 8cbc eb3d 29bd
00000050: b690 d43a 18d8 1a3d c96f 32bd e066 aebc
00000060: 5e04 7abd c0de 08bd 2946 32bd ad97 313c
00000070: 3296 1dbd 6580 993d

res_blocks.0.conv.1.running_mean f4 [30]
-0.287365 -1.7956693 -0.6863408 -1.8340901 -1.6979266 1.4677111 -2.9305725 -1.9565828
0.28820527 -0.82246995 0.31218952 0.3953675 -0.31531668 0.4792076 0.5779016 0.24033745
-1.3432873 0.7002956 -0.53790706 0.5655121 0.6156524 1.6984464 1.3827468 0.53764033
1.1439046 -0.10657616 0.42311838 -0.3002217 0.93506855 1.8560463
00000000: 8121 93be 7ed8 e5bf 08b4 2fbf 77c3 eabf
00000010: a955 d9bf f5dd bb3f 808e 3bc0 4e71 fabf
00000020: a48f 933e 648d 52bf 4ed7 9f3e 9c6d ca3e
00000030: 3071 a1be b35a f53e 5cf1 133f 051b 763e
00000040: d7f0 abbf 9346 333f 47b4 09bf 67c5 103f
00000050: 659b 1d3f b166 d93f d9fd b03f cca2 093f
00000060: 776b 923f 9a44 dabd f9a2 d83e a9b6 99be
00000070: a760 6f3f ed92 ed3f

res_blocks.0.conv.1.running_var f4 [30]
1.4486296 91.07369 1.6497462 3.7794244 37.371956 10.253225 97.941124 15.200053
3.8184462 1.7134725 4.5154467 1.6390704 0.80802214 3.6821306 2.065558 3.6522226
2.6939633 1.137995 3.3674204 11.154739 9.44028 7.062224 31.409502 3.0702245
2.7046497 1.2859193 3.5868034 6.271098 4.37868 36.23678
00000000: b26c b93f bb25 b642 e22a d33f 17e2 7140
00000010: e27c 1542 360d 2441 dbe1 c342 6b33 7341
00000020: 6c61 7440 1153 db3f 8a7e 9040 0fcd d13f
00000030: 8ada 4e3f 07a8 6b40 1a32 0440 04be 6940
00000040: e569 2c40 d2a9 913f d183 5740 d079 3241
00000050: 630b 1741 bdfd e140 a946 fb41 8f7e 4440
00000060: fb18 2d40 0199 a43f 308e 6540 d6ac c840
00000070: 261e 8c40 76f2 1042

res_blocks.0.conv.3.weight f4 [30, 30, 3, 3]
-0.010655055 -0.059154794 0.1460041 -0.0767562 -0.040543776 -0.22084615 0.05026356 -0.026224922
0.0054247933 -0.01955572 0.14618914 0.037339874 -0.23387027 0.030981494 0.062340833 0.037309792
-0.08762173 0.08619263 -0.107242785 -0.03961635 -0.016065348 0.028403718 0.0015416037 -0.080949314
0.053051896 -0.010082125 0.025686916 -0.08660869 0.06887543 -0.118062995 0.1293131 -0.0060560755
0.06535889 -0.023631344 -0.11784623 -0.049892426 -0.038581856 0.1167213 -0.17703685 -0.14954048
-0.12981519 -0.08381797 -0.05913953 0.07883605 -0.089253664 -0.028055621 -0.22748886 -0.07862424
-0.022662258 0.124459356 -0.11743677 -0.09324938 -0.0533729 0.023367932 -0.0011412787 0.03801534
0.072784044 0.07293604 -0.0152763445 0.03328858 0.0128239235 0.05824639 0.009069945 0.035734277
-0.030636651 -0.14608605 0.1558752 -0.17520759 0.0647437 0.035396334 0.085795976 -0.07232504
-0.06783319 -0.08680804 0.026612433 0.032228462 -0.08517342 0.07674929 0.036688924 -0.056520045
0.015662473 -0.13073489 -0.14730819 -0.108285986 -0.17997962 0.09260232 0.038146883 0.04332971
0.048954964 -0.021142527 -0.0012420764 0.14920999 0.13375007 0.035430845 -0.14264621 0.09691679
-0.014195256 -0.086526714 0.05241369 -0.027140168 -0.005453008 0.039320916 -0.108547434 -0.11992739
0.00026632776 0.14217062 -0.09241962 -0.029112339 0.020087693 -0.02697134 -0.07244525 -0.030185245
-0.012081292 -0.023343923 0.16897045 0.018476326 0.017651329 -0.114996284 -0.15286559 -0.081138745
-0.066717155 -0.044595417 0.07315697 -0.014401768 0.0058321212 -0.14087781 0.060069837 -0.1074063
0.022002246 0.12017971 -0.1413835 0.16299935 -0.06280158 0.00084958354 0.22323355 -0.12284091
-0.077692956 -0.111798115 0.053380765 -0.055979777 -0.0054376214 0.037531585 0.023830928 0.075602986
-0.04789457 -0.008747764 0.048682872 0.18112497 0.01693893 -0.04489387 -0.10238312 -0.032229133
-0.11570118 -0.19665815 0.0041004173 0.09723954 -0.03140307 -0.09849804 0.099433 0.037868176
0.0050893975 0.07535792 0.10153347 -0.0417972 0.121044934 0.057760336 0.006040731 -0.030888043
-0.062086187 0.019756522 -0.055813096 0.0028222608 -0.05282428 0.016684176 -0.013870463 -0.062313735
0.1160917 -0.09794216 -0.049475614 0.09220779 0.14771476 0.09167418 0.031126099 -0.06081183
0.08099788 -0.10932323 -0.11336918 0.009531369 -0.01801418 -0.022617418 -0.032651722 0.011448818
-0.062647 0.074034505 0.06209951 -0.032577805 -0.074042276 -0.10965259 -0.056320753 0.044380676
-0.037856072 -0.17294368 -0.018994763 0.07180729 -0.072438866 -0.025038928 -0.03952252 -0.044337302
-0.09327621 -0.06846338 0.092869505 -0.02417364 -0.045368034 0.06949294 0.032304477 0.047165647
-0.028758658 -0.0054910365 0.16860741 0.13940324 -0.008167947 -0.07978874 0.14572893 -0.014389278
-0.013602676 -0.042098183 0.12722427 -0.12662144 -0.10984586 -0.0029122338 -0.2264977 -0.08228772
-0.0015130565 -0.19831446 -0.026682524 0.07572267 0.06654272 -0.13700622 -0.083164126 0.052081738
-0.06791648 -0.052271288 -0.022497883 -0.045117103 -0.06850831 -0.025520772 0.07847755 -0.061434835
-0.011497912 0.12469625 0.04990872 0.052181423 -0.11791856 0.080960445 -0.0123324795 -0.20390862
00000000: 8a92 2ebc 4c4c 72bd 1982 153e 5b32 9dbd
00000010: 3b11 26bd 7e25 62be 2ae1 4d3d a6d5 d6bc
00000020: 77c2 b13b 5133 a0bc 9bb2 153e b2f1 183d
00000030: b07b 6fbe e7cc fd3c 1a59 7f3d 27d2 183d
00000040: 0673 b3bd c385 b03d 1ba2 dbbd c144 22bd
00000050: 7a9b 83bc eaae e83c a30f ca3a c1c8 a5bd
00000060: f24c 593d 7f2f 25bc 5e6d d23c e65f b1bd
00000070: 900e 8d3d 03cb f1bd a76a 043e 0b72 c6bb
00000080: e2da 853d 8596 c1bc 5d59 f1bd 005c 4cbd
00000090: 0208 1ebd 940b ef3d 2649 35be 2421 19be
000000a0: 46ee 04be c1a8 abbd 4b3c 72bd cc74 a13d
000000b0: a0ca b6bd e7d4 e5bc d7f2 68be bf05 a1bd
000000c0: 33a6 b9bc 8ce4 fe3d b082 f0bd 88f9 bebd
000000d0: 8b9d 5abd 1b6e bf3c f596 95ba f9b5 1b3d
000000e0: cd0f 953d 7e5f 953d a249 7abc 9b59 083d
000000f0: 6f1b 523c c493 6e3d 1b9a 143c 1b5e 123d
00000100: b7f9 fabc 9597 15be c09d 1f3e 9e69 33be
00000110: 5898 843d bffb 103d cdb5 af3d 271f 94bd
00000120: 21ec 8abd 6ac8 b1bd 5102 da3c fe01 043d
00000130: 676f aebd bb2e 9d3d 2047 163d 9081 67bd
00000140: 964e 803c 5edf 05be f5d7 16be 0bc5 ddbd
00000150: 944c 38be 49a6 bd3d e83f 1c3d 7e7a 313d
00000160: 0085 483d 1833 adbc 2bcd a2ba 81ca 183e
00000170: c7f5 083e ef1f 113d d911 12be 4f7c c63d
00000180: 3893 68bc eb34 b1bd bdaf 563d 0f55 debc
00000190: 26af b2bb f80e 213d 1e4e debd 7e9c f5bd
000001a0: e8a1 8b39 2d95 113e 7f46 bdbd 007d eebc
000001b0: f28e a43c 00f3 dcbc 2d5e 94bd 0c47 f7bc
000001c0: 9df0 45bc c13b bfbc 9706 2d3e aa5b 973c
000001d0: 8599 903c 2c83 ebbd cc88 1cbe 122c a6bd
000001e0: 01a3 88bd afa9 36bd 52d3 953d 65f5 6bbc
000001f0: 611b bf3b 4642 10be ca0b 763d d6f7 dbbd
00000200: 0e3e b43c c820 f63d d6c6 10be 4de9 263e
00000210: 1d9e 80bd 96b6 5e3a 5697 643e 0494 fbbd
00000220: 7c1d 9fbd 69f6 e4bd caa5 5a3d 0d4b 65bd
00000230: 132e b2bb b8ba 193d 1439 c33c bdd5 9a3d
00000240: 192d 44bd c852 0fbc b167 473d d378 393e
00000250: 83c3 8a3c a2e2 37bd 3eae d1bd b202 04bd
00000260: bef4 ecbd c160 49be cb5c 863b 8625 c73d
00000270: 81a0 00bd 57b9 c9bd 87a3 cb3d a91b 1b3d
00000280: f6c4 a63b 4155 9a3d c8f0 cf3d 8a33 2bbd
00000290: 68e6 f73d 1a96 6c3d 53f1 c53b ec08 fdbc
000002a0: 164e 7ebd 6ed8 a13c 469c 64bd aef5 383b
000002b0: 465e 58bd 41ad 883c f040 63bc b03c 7fbd
000002c0: 7cc1 ed3d e695 c8bd f1a6 4abd 70d7 bc3d
000002d0: 8a42 173e acbf bb3d 29fc fe3c d315 79bd
000002e0: 37e2 a53d dce4 dfbd 1a2e e8bd 7629 1c3c
000002f0: 7992 93bc 2a48 b9bc d0bd 05bd d393 3b3c
00000300: 124d 80bd 679f 973d 0e5c 7e3d 4e70 05bd
00000310: 7aa3 97bd 8991 e0bd 97b0 66bd 83c8 353d
00000320: f80e 1bbd 2618 31be e89a 9bbc b30f 933d
00000330: d45a 94bd 701e cdbc 5ee2 21bd 089b 35bd
00000340: 9907 bfbd 8736 8cbd 5e32 be3d cc07 c6bc
00000350: d5d3 39bd 5152 8e3d b351 043d c430 413d
00000360: 4797 ebbc 27ee b3bb 6ca7 2c3e b9bf 0e3e
00000370: dad2 05bc 4768 a3bd f739 153e 02c1 6bbc
00000380: c2dd 5ebc 256f 2cbd 1447 023e 0da9 01be
00000390: def6 e0bd 2ddb 3ebb 03ef 67be 7786 a8bd
000003a0: c051 c6ba f212 4bbe 4f95 dabc 7d14 9b3d
000003b0: 8d47 883d 5c4b 0cbe f451 aabd a953 553d
000003c0: cc17 8bbd 6b1a 56bd 7b4d b8bc b6cc 38bd
000003d0: 164e 8cbd f010 d1bc d6b8 a03d 18a3 7bbd
000003e0: bd61 3cbc bf60 ff3d 166d 4c3d 30bc 553d
000003f0: 497f f1bd 97ce a53d 2b0e 4abc 6ccd 50be

res_blocks.0.conv.3.bias f4 [30]
-0.05798824 0.005987082 0.060372394 -0.02086206 -0.0539451 0.02992149 0.015991507 -0.020102836
0.030930512 0.012364612 0.013008608 0.057034787 -0.042910248 -0.002497466 -0.048001118 0.024835335
-0.014627233 -0.044916168 0.020539092 -0.022009127 0.055549294 -0.037884034 0.057854462 0.05303634
-0.031493004 0.0068666427 -0.022720702 0.038730226 0.019605035 0.038923286
00000000: 1485 6dbd 492f c43b 0b49 773d e9e6 aabc
00000010: 8af5 5cbd ea1d f53c 9f00 833c b4ae a4bc
00000020: fc61 fd3c f194 4a3c 0e22 553c 4f9d 693d
00000030: a8c2 2fbd 87ac 23bb d29c 44bd 7973 cb3c
00000040: 10a7 6fbc 04fa 37bd 9941 a83c 7c4c b4bc
00000050: a887 633d 4a2c 1bbd cdf8 6c3d a23c 593d
00000060: cffe 00bd 9301 e13b c420 babc 96a3 1e3d
00000070: bd9a a03c 066e 1f3d

res_blocks.0.conv.4.weight f4 [30]
1.0393599 0.9232313 0.97934604 0.93497556 1.1300755 1.0039613 1.1822782 1.0191079
0.97930586 0.9812819 1.245298 0.9447436 1.0197331 0.9474668 0.9903896 1.009314
0.93753326 0.99277264 0.959421 0.9542209 1.0439533 1.0015891 0.9303674 0.91966254
0.9800963 0.99689466 0.98892677 0.9620813 0.9663035 0.9833722
00000000: bf09 853f e358 6c3f 6cb6 7a3f 8f5a 6f3f
00000010: 50a6 903f ce81 803f e454 973f 2172 823f
00000020: cab3 7a3f 4a35 7b3f ed65 9f3f b7da 713f
00000030: 9d86 823f 2f8d 723f 2c8a 7d3f 3331 813f
00000040: 2e02 703f 5926 7e3f 9d9c 753f d247 743f
00000050: 43a0 853f 1234 803f 8f2c 6e3f 016f 6b3f
00000060: 97e7 7a3f 7d34 7f3f 4e2a 7d3f f64a 763f
00000070: ab5f 773f 48be 7b3f

res_blocks.0.conv.4.bias f4 [30]
-0.033752885 -0.091564454 0.037510395 -0.082809426 0.10026551 -0.002418843 0.038901646 0.010116697
0.008509447 -0.05271163 0.15068293 -0.028453214 0.025647677 -0.009762808 0.0821524 -0.010424766
-0.08730621 0.0010612686 0.1308944 0.0059496937 0.06978458 0.03393176 -0.0066706715 -0.072496
-0.041060586 -0.05070272 0.0014489116 0.058253914 0.038363747 0.030281812
00000000: 7740 0abd 2586 bbbd 80a4 193d fd97 a9bd
00000010: 0158 cd3d 7485 1ebb 5557 1f3d 81c0 253c
00000020: 356b 0b3c 26e8 57bd a04c 1a3e b716 e9bc
00000030: 141b d23c 2ff4 1fbc 843f a83d a3cc 2abc
00000040: 99cd b2bd 441a 8b3a 2e09 063e a6f5 c23b
00000050: 38eb 8e3d 07fc 0a3d a695 dabb c878 94bd
00000060: 252f 28bd a8ad 4fbd 68e9 bd3a a89b 6e3d
00000070: 4e23 1d3d 9011 f83c

res_blocks.0.conv.4.running_mean f4 [30]
-0.64206 -0.26659602 -0.51384455 -0.07843652 -0.24869159 -0.2854695 -0.5265012 0.323877
-0.073344246 -0.6034222 0.064099275 -0.32447806 0.024610493 0.14596191 -0.113524385 -0.012414023
-0.054530933 -0.24808292 -0.37115222 -0.49241343 0.46769297 0.056791503 -0.31215766 0.4517972
-0.7703969 0.34731722 -0.5260851 0.03499894 0.5563173 -0.325958
00000000: 0b5e 24bf 467f 88be 518b 03bf 54a3 a0bd
00000010: 02a9 7ebe 0f29 92be c8c8 06bf 35d3 a53e
00000020: 8235 96bd e179 1abf 7b46 833d fd21 a6be
00000030: f29b c93c 0a77 153e 797f e8bd 3064 4bbc
00000040: d45b 5fbd 7309 7ebe aa07 bebe 9d1d fcbe
00000050: 7475 ef3e 359e 683d 21d3 9fbe f651 e73e
00000060: bb38 45bf 90d3 b13e 83ad 06bf 0c5b 0f3d
00000070: d06a 0e3f f8e3 a6be

res_blocks.0.conv.4.running_var f4 [30]
1.8454964 2.1455696 4.8613553 2.9051464 4.2926598 21.938793 3.3867965 1.9042119
2.6618152 19.849781 1.3144088 1.2271732 4.351297 7.79751 1.0833133 8.186484
1.3668746 2.0877109 1.3359461 5.834631 3.7851486 1.5412942 2.0711854 1.0464875
9.47511 1.9113615 2.7050202 24.42015 8.281947 1.7029868
00000000: 3a39 ec3f 0351 0940 3990 9b40 ebed 3940
00000010: 785d 8940 a682 af41 46c1 5840 37bd f33f
00000020: 2e5b 2a40 5acc 9e41 8c3e a83f 0314 9d3f
00000030: d33d 8b40 3485 f940 03aa 8a3f d7fb 0241
00000040: bff5 ae3f 0e9d 0540 4800 ab3f 4cb5 ba40
00000050: e03f 7240 2149 c53f 4d8e 0440 4df3 853f
00000060: 0d9a 1741 7ea7 f43f 0d1f 2d40 785c c341
00000070: db82 0441 79fb d93f

final.0.weight f4 [30, 30, 1, 1]
0.4425255 -0.13030234 -0.09167707 0.073351845 -0.1266568 0.16208078 0.14878209 -0.57569176
-0.25378555 0.079113424 -0.3268039 -0.153971 -0.42335662 -0.13151173 0.2140278 -0.14404598
0.1534947 -0.4058479 0.24743198 0.115004726 -0.25617313 -0.27303493 0.29127017 0.37848443
0.12748331 -0.00670565 -0.0024438128 -0.2065259 -0.21391267 0.09084394 -0.030494515 0.06400328
-0.23398042 -0.095426515 -0.10048288 0.32298997 0.29661837 0.15725039 0.266681 0.2609595
0.25719744 -0.5413753 0.010421908 -0.20654859 0.22541243 -0.007853363 -0.28041953 -0.10418229
0.12634194 -0.21245079 0.063888185 -0.15216699 -0.05972514 0.057906378 -0.07975773 0.10416436
0.013660705 0.1960547 -0.27103615 0.5672747 -0.1620378 0.13016452 -0.07050337 0.43831426
-0.24793068 -0.44414005 0.32922757 0.22572826 -0.3079542 0.060505137 -0.29989627 -0.51200753
-0.46801135 -0.11953902 -0.04894999 0.003916025 0.35183012 0.0997977 -0.2267219 -0.074676186
-0.23670043 -0.027014717 -0.36391062 -0.10958957 0.29873145 -0.009186875 -0.12570956 -0.6507377
0.21065874 0.05710048 -0.26248595 -0.2954734 -0.02366447 -0.21964964 -0.28760162 -0.053780265
0.06393109 0.28001553 0.16628571 0.39919826 -0.08991587 -0.38536274 0.08830347 -0.21092257
-0.41942748 -0.1486934 -0.102764025 0.017104605 0.013586468 -0.02814444 0.1486871 -0.2593217
0.3601718 0.15181713 0.09950743 -0.16360052 -0.1551578 -0.07469574 0.23608777 0.45448563
0.057051614 -0.25882882 -0.23960121 -0.043414943 -0.09331151 0.33785778 0.02189682 -0.06544975
0.31449965 0.09159989 0.3185873 0.29060364 -0.22658083 -0.1600459 -0.076782115 0.07912114
-0.46245486 0.3380827 -0.06976078 -0.11660038 0.19354638 0.08498077 0.022276737 0.2920493
0.22631384 -0.07599989 0.07896433 -0.23381957 -0.24391498 -0.0081097325 -0.3149866 0.09192401
-0.179772 -0.36095744 0.2940597 0.5776677 -0.14997512 0.14166176 0.053480603 0.002576474
0.33252412 0.009362722 -0.2638053 0.16008142 -0.12431357 -0.09381749 0.19592126 -0.079551555
0.36606595 0.29417214 0.01883068 -0.27951273 -0.35760596 -0.34531873 0.2053293 0.13447037
0.10007352 0.2460695 0.1529506 -0.21148197 -0.043297727 0.3638226 0.36286286 0.03911505
-0.036647674 -0.36022934 -0.5585317 -0.22062877 -0.12160899 -0.44617918 0.5765727 0.2405143
0.09844488 0.09510587 0.10842384 -0.17278047 0.40290123 -0.07337082 0.26302776 -0.1401234
0.23781377 0.3713815 0.13502339 0.08497359 -0.17396602 0.08931213 0.20101623 -0.10266701
0.051379304 0.05041451 0.34055987 0.36035037 0.013437764 0.37366432 -0.058254715 -0.4063967
-0.035278626 0.4123063 -0.13890937 0.38258642 0.04395417 -0.010758973 -0.10458875 0.19995427
-0.22110298 -0.094091944 -0.26384515 0.08765317 -0.111475125 0.2984094 0.43139315 -0.12175665
-0.13003138 0.3444644 -0.046745297 -0.2478965 0.4263675 0.5922519 0.23191157 -0.0075853653
-0.15644492 0.018264972 -0.825919 -0.45069677 -0.3148801 0.14528942 -0.100454554 0.18381585
0.22413321 -0.43687075 -0.26604658 -0.20208636 0.1972093 -0.04258932 0.17724727 -0.2829719
00000000: b492 e23e fa6d 05be 30c1 bbbd 7e39 963d
00000010: 52b2 01be 81f8 253e 555a 183e 8960 13bf
00000020: 2ef0 81be 3806 a23d d752 a7be 93aa 1dbe
00000030: 33c2 d8be 03ab 06be 1b2a 5b3e ca80 13be
00000040: b72d 1d3e 4ccb cfbe cf5e 7d3e 9987 eb3d
00000050: 2029 83be 3ccb 8bbe 5d21 953e b6c8 c13e
00000060: fc8a 023e 12bb dbbb 6028 20bb 877b 53be
00000070: ec0b 5bbe 630c ba3d a2cf f9bc 2714 833d
00000080: 9098 6fbe fa6e c3bd f8c9 cdbd f15e a53e
00000090: 5dde 973e 3f06 213e 698a 883e 7c9c 853e
000000a0: 62af 833e 9297 0abf a7c0 2a3c 7981 53be
000000b0: 84d2 663e 64ab 00bc 2693 8fbe 865d d5bd
000000c0: c85f 013e b38c 59be cfd7 823d aad1 1bbe
000000d0: 59a2 74bd 3d2f 6d3d 0558 a3bd 2054 d53d
000000e0: 26d1 5f3c 90c2 483e 40c5 8abe ea38 113f
000000f0: 3ded 25be d949 053e 1264 90bd ba6a e03e
00000100: 8ae1 7dbe 5366 e3be 8490 a83e 4f25 673e
00000110: 2cac 9dbe 3cd4 773d 018c 99be ed12 03bf
00000120: 2f9f efbe e0d0 f4bd c97f 48bd 0052 803b
00000130: 1423 b43e bd62 cc3d c929 68be d4ef 98bd
00000140: 9961 72be f84d ddbc 7e52 babe 7f70 e0bd
00000150: 54f3 983e 8c84 16bc 02ba 00be bf96 26bf
00000160: edb6 573e 31e2 693d 8f64 86be 4a48 97be
00000170: fedb c1bc d6eb 60be 8540 93be b248 5cbd
00000180: 4eee 823d 325e 8f3e cd46 2a3e b763 cc3e
00000190: d025 b8bd 444e c5be 73d8 b43d 16fc 57be
000001a0: 33bf d6be 1543 18be f275 d2bd f51e 8c3c
000001b0: c799 5e3c 2b8f e6bc 6e41 183e d0c5 84be
000001c0: 7068 b83e f375 1b3e 8dca cb3d e586 27be
000001d0: b0e1 1ebe 15fa 98bd fec0 713e 57b2 e83e
000001e0: f4ae 693d 3685 84be 055a 75be ded3 31bd
000001f0: 1b1a bfbd b2fb ac3e f660 b33c 850a 86bd
00000200: 1906 a13e b998 bb3d e01d a33e 00ca 943e
00000210: ce04 68be 13e3 23be f13f 9dbd 440a a23d
00000220: e2c6 ecbe 2d19 ad3e bdde 8ebd 2ecc eebd
00000230: 0631 463e 660a ae3d b47d b63c 7c87 953e
00000240: d1be 673e d5a5 9bbd 0db8 a13d 666e 6fbe
00000250: d9c4 79be afde 04bc ec45 a1be a842 bc3d
00000260: 2716 38be 6acf b8be fe8e 963e 08e2 133f
00000270: 1493 19be c80f 113e 7a0e 5b3d 10da 283b
00000280: 9a40 aa3e 1a66 193c 7d11 87be 62ec 233e
00000290: 1d98 febd 6223 c0bd 959f 483e edeb a2bd
000002a0: ff6c bb3e bb9d 963e cc42 9a3c 4b1c 8fbe
000002b0: 2118 b7be 9ecd b0be d841 523e 9ab2 093e
000002c0: 58f3 cc3d a5f9 7b3e 159f 1c3e bb8e 58be
000002d0: f558 31bd f546 ba3e 29c9 b93e 1a37 203d
000002e0: df1b 16bd fb6f b8be effb 0ebf 82ec 61be
000002f0: 220e f9bd 9971 e4be 459a 133f 6149 763e
00000300: 789d c93d dec6 c23d 510d de3d 5ded 30be
00000310: 1249 ce3e 7143 96bd 93ab 863e 827c 0fbe
00000320: 7485 733e b725 be3e 9243 0a3e a206 ae3d
00000330: 2624 32be 47e9 b63d 33d7 4d3e 1543 d2bd
00000340: 1b73 523d 727f 4e3d dd5d ae3e d87f b83e
00000350: 112a 5c3c ee50 bf3e 7f9c 6ebd 3a13 d0be
00000360: 5280 10bd d019 d33e 423e 0ebe 5ee2 c33e
00000370: 4a09 343d 6746 30bc a032 d6bd d0c0 4c3e
00000380: d268 62be 47b3 c0bd b616 87be 8183 b33d
00000390: 124d e4bd 1ec9 983e 90df dc3e 8d5b f9bd
000003a0: f226 05be a35d b03e ff77 3fbd 95d8 7dbe
000003b0: d74c da3e d29d 173f 3a7a 6d3e a88e f8bb
000003c0: 1933 20be 6ca0 953c 6d6f 53bf bac1 e6be
000003d0: f737 a1be c0c6 143e 1ebb cdbd 393a 3c3e
000003e0: 2d83 653e 86ad dfbe 4237 88be baef 4ebe
000003f0: 3cf1 493e 2472 2ebd 4f80 353e b1e1 90be

final.0.bias f4 [30]
-0.109554864 0.08823163 0.018658414 -0.048784282 0.060530595 -0.17683701 -0.05324749 0.1456023
-0.06735904 0.08987453 -0.098958306 -0.087213926 0.039447676 0.07433984 -0.17531334 0.018254908
-0.10932186 -0.011382477 0.16964889 -0.1575798 -0.17418857 0.056713495 -0.14963554 -0.16999546
0.07015856 -0.0474573 -0.026450189 0.027738277 -0.0725795 -0.15502132
00000000: 4d5e e0bd c9b2 b43d 88d9 983c 07d2 47bd
00000010: eeee 773d c314 35be 0a1a 5abd c518 153e
00000020: 89f3 89bd 2310 b83d a7aa cabd 379d b2bd
00000030: e393 213d 7c3f 983d 5785 33be 518b 953c
00000040: 24e4 dfbd 927d 3abc 70b8 2d3e 995c 21be
00000050: 7d5e 32be 694c 683d 0f3a 19be 4a13 2ebe
00000060: 4baf 8f3d 9662 42bd 11ae d8bc 623b e33c
00000070: 90a4 94bd e9bd 1ebe

final.1.weight f4 [30]
0.6094476 0.6909653 0.9457086 0.72279006 0.8001206 1.4133066 2.3034158 0.7246312
0.7285126 0.8190246 0.8113827 0.844795 0.9985401 0.92524624 0.72944397 0.95803857
0.91508913 0.9495539 0.7905194 2.5217693 1.923699 4.4891562 0.8557801 0.7037933
1.141468 0.8464658 0.83341056 0.72427976 0.70404977 5.394978
00000000: c204 1c3f 1ae3 303f f519 723f c508 393f
00000010: b4d4 4c3f 3be7 b43f 2a6b 1340 6e81 393f
00000020: cd7f 3a3f 99ab 513f c7b6 4f3f 7c44 583f
00000030: 53a0 7f3f f0dc 6c3f d7bc 3a3f 0442 753f
00000040: 4843 6a3f f715 733f 7b5f 4a3f ab64 2140
00000050: c53b f63f 2ba7 8f40 6814 5b3f cc2b 343f
00000060: a01b 923f fcb1 583f 655a 553f 666a 393f
00000070: 9b3c 343f a9a3 ac40

final.1.bias f4 [30]
-0.44623023 -0.31535164 -0.24584025 -0.36005586 -0.32339427 0.10583981 0.5862533 -0.3147358
-0.3444661 -0.2747075 -0.25335065 -0.34743857 -0.1994416 -0.1913302 -0.295008 -0.1756781
-0.19841172 -0.24361776 -0.27968433 0.9931485 0.6341278 3.5442612 -0.2526523 -0.36865136
-0.16858996 -0.21005417 -0.27652758 -0.37871116 -0.2862385 3.2129846
00000000: 4a78 e4be c575 a1be 8cbd 7bbe 3e59 b8be
00000010: ef93 a5be 8bc2 d83d b214 163f 0d25 a1be
00000020: dc5d b0be 76a6 8cbe 2db7 81be 78e3 b1be
00000030: 6b3a 4cbe 10ec 43be 4a0b 97be f6e4 33be
00000040: 712c 4bbe ef76 79be c932 8fbe fb3e 7e3f
00000050: 3356 223f 2dd5 6240 a45b 81be dfbf bcbe
00000060: d9a2 2cbe 7118 57be 0695 8dbe 6ee6 c1be
00000070: da8d 92be 8aa1 4d40

final.1.running_mean f4 [30]
-0.6677877 0.24651834 -1.0768645 -0.385721 -0.003560553 0.24642362 0.614502 1.344798
-1.6052665 0.005323547 0.3709791 0.4195908 0.9221027 -0.026542256 -0.39057425 0.48318434
1.1424844 -0.86451185 0.74102455 0.05083553 -0.45188108 -1.4437017 -1.2354872 -0.7668539
-0.14234765 -0.063153714 -0.15185241 -0.07384375 0.8205834 0.34087038
00000000: 22f4 2abf 4e6f 7c3e b2d6 89bf 397d c5be
00000010: 2b58 69bb 7956 7c3e 0150 1d3f 5722 ac3f
00000020: 5f79 cdbf 2671 ae3b f9f0 bd3e 9bd4 d63e
00000030: ec0e 6c3f 256f d9bc 59f9 c7be f063 f73e
00000040: ee3c 923f a650 5dbf c9b3 3d3f eb38 503d
00000050: f55c e7be 38cb b8bf 7224 9ebf 8a50 44bf
00000060: 95c3 11be bc56 81bd 337f 1bbe 643b 97bd
00000070: c111 523f 9086 ae3e

final.1.running_var f4 [30]
1.0816463 1.8114434 3.2749345 1.7219231 1.4000787 1.8927786 2.3044972 1.3827428
5.5247817 2.4132626 1.9962094 1.3838078 1.3729783 1.6190263 6.7842503 1.6668261
4.0033073 1.4502313 2.7040462 3.3537676 2.5224981 7.436249 3.143915 1.258913
1.0633442 1.8550084 1.3625035 3.691929 1.7846805 5.7048717
00000000: 6373 8a3f 61dd e73f 8798 5140 fa67 dc3f
00000010: c735 b33f 9246 f23f e27c 1340 b7fd b03f
00000020: 03cb b040 e572 1a40 ca83 ff3f 9d20 b13f
00000030: c1bd af3f 413c cf3f 9418 d940 8f5a d53f
00000040: 181b 8040 2ea1 b93f 180f 2d40 21a4 5640
00000050: 9c70 2140 c0f5 ed40 e735 4940 1024 a13f
00000060: aa1b 883f ea70 ed3f 8466 ae3f 9148 6c40
00000070: 6970 e43f 4f8e b640
