图像处理/model_weights_1.pth (torch, 83009 bytes, 24 tensors)

initial.0.weight f4 [30, 3, 3, 3]
0	0x3e5783a2	0.21046308
1	0x3e955dd6	0.29173154
2	0x3e7b4e4d	0.24541588
3	0x3e61bfe6	0.2204586
4	0x3dbaefe8	0.0912779
5	0x3e3e0537	0.18556677
6	0x3e4e93dd	0.20173593
7	0x3e246025	0.16052301
8	0x3e305e44	0.1722346
9	0x3e68b5dd	0.22725625
10	0x3e0219ee	0.12705204
11	0x3e8c41a1	0.2739382
12	0x3da09ff1	0.078430064
13	0x3e87af54	0.26500952
14	0x3d9beb1a	0.076132014
15	0x3e88955a	0.26676446
16	0x3dd876dd	0.10569546
17	0x3dab805b	0.08374091
18	0x3e81726c	0.2528261
19	0x3daa08bb	0.083024465
20	0x3db76921	0.089555986
21	0x3d8b4c9d	0.06801722
22	0x3e85c3d0	0.26125956
23	0x3e938636	0.28813332
24	0x3de09a70	0.109669566
25	0x3e4fb646	0.20284376
26	0x3e904e85	0.28184906
27	0x3e2c3970	0.16818786
28	0x3e299561	0.1656089
29	0x3e1be3f2	0.15223673
30	0x3ea34af5	0.31893125
31	0x3ce1bfcb	0.027557274
32	0x3e52f451	0.20601012
33	0x3e4fc913	0.20291547
34	0x3c11d83e	0.008901654
35	0x3d286723	0.041113984
36	0x3cafbd17	0.02145247
37	0x3e1d9b8a	0.15391365
38	0x3de62110	0.11236775
39	0x3e79e300	0.24403
40	0x3e4f97b4	0.20272714
41	0x3e1b4536	0.1516312
42	0x3e4b3514	0.19844466
43	0x3e6001b9	0.21875657
44	0x3e824e38	0.254503
45	0x3e263a50	0.16233182
46	0x3e2d01e2	0.1689525
47	0x3de53f67	0.11193734
48	0x3c9ad1b8	0.01889883
49	0x3e94f66d	0.29094258
50	0x3def2059	0.11676092
51	0x3d51548a	0.051106013
52	0x3eaa8ad7	0.3330905
53	0x3e2c7307	0.16840754
54	0xbdef421f	-0.116825335
55	0xbe5cbb71	-0.21555878
56	0xbe664360	-0.22486639
57	0xbdaf7f82	-0.08569242
58	0xbdd9a174	-0.10626498
59	0xbe6b0222	-0.22950032
60	0xbd0ee63f	-0.03488755
61	0xbe382c25	-0.1798559
62	0xbe0100bf	-0.12597941
63	0xbe448403	-0.19190983
64	0xbdff4ac6	-0.12465434
65	0xbe2bca40	-0.16776371
66	0xbdd1b494	-0.10239521
67	0xbd6bb112	-0.057541914
68	0xbd39356e	-0.04521697
69	0xbbfe9245	-0.0077689015
70	0xbc47d6ac	-0.012197178
71	0xbd902f32	-0.07040252
72	0xbb853e81	-0.004066289
73	0xbe6af1d9	-0.2294382
74	0xbeab7235	-0.3348557
75	0xbd39868c	-0.04529433
76	0xbe52a87f	-0.20572089
77	0xbe801af5	-0.25020567
78	0xbe0d8ad5	-0.13822491
79	0xbd98bdb4	-0.07458058
80	0xbe674982	-0.22586635
81	0x3eb58c36	0.35458535
82	0x3e5f83d2	0.21827629
83	0x3e91e6e3	0.28496465
84	0x3e32830c	0.17432803
85	0x3e992de0	0.29917812
86	0x3ea370d1	0.3192201
87	0x3e2b7e55	0.1674741
88	0x3e8865d0	0.26640177
89	0x3e50f72b	0.20406787
90	0x3ed6a21d	0.41920558
91	0x3ea5f9e3	0.3241721
92	0x3eb5a647	0.35478422
93	0x3e46ed6b	0.19426505
94	0x3e661e4b	0.22472493
95	0x3ea08c13	0.31356868
96	0x3e715614	0.23567992
97	0x3e8d3856	0.27582043
98	0x3ec846dc	0.3911656
99	0x3e7236da	0.23653737
100	0x3eb998e3	0.36249456
101	0x3ee1bbec	0.44088686
102	0x3e99a7ab	0.30010733
103	0x3e84bb6a	0.25924236
104	0x3ea807de	0.32818502
105	0x3e7dd81c	0.2478947
106	0x3e5c6e9c	0.21526569
107	0x3e620388	0.2207166
108	0xbe4d2db5	-0.20036967
109	0x3d17558c	0.03694682
110	0xbd77abdc	-0.060466632
111	0xbd947e9b	-0.072507106
112	0xbd50a042	-0.050934084
113	0xbe2e6bd6	-0.17033324
114	0xbe192b13	-0.14957838
115	0xbcc929e2	-0.024556104
116	0xbe9274d3	-0.28604755
117	0x3cc2b208	0.023766533
118	0xbe592632	-0.21205977
119	0xbcd18bd8	-0.025579378
120	0xbde16b7d	-0.1100683
121	0xbbcf4e56	-0.006326477
122	0xbd3a5a83	-0.045496475
123	0xbd941747	-0.07231002
124	0xbe9e52da	-0.30922586
125	0xbd8a365e	-0.06748651
126	0xbdb7233c	-0.08942267
127	0x3d5adbb1	0.05343217
128	0xbe234b2d	-0.15946646
129	0xbc81989a	-0.015819836
130	0xbd0247e1	-0.03180683
131	0xbdf92cd7	-0.12166756
132	0xbe4d6543	-0.2005816
133	0x3ce9eece	0.028556254
134	0xbdf5cc95	-0.120019116
135	0xbcbc3cc6	-0.022978198
136	0x3c8e9097	0.01740293
137	0x3d348690	0.04407364
138	0x3db126dd	0.08649991
139	0xba3e6880	-0.00072634965
140	0xbcf05c55	-0.029340902
141	0xbb3dcb22	-0.0028960188
142	0x3d4ee37a	0.050509907
143	0x3d41f053	0.04734833
144	0x3e5ed359	0.2176031
145	0x3ddc1bcd	0.1074749
146	0x3cb76e74	0.022391535
147	0x3e87bbcb	0.26510462
148	0xbd3aeecf	-0.045637902
149	0x3db170d7	0.086641006
150	0xbd2d8693	-0.042364668
151	0x3d536913	0.05161388
152	0x3dc3c694	0.0955936
153	0x3da78e86	0.08181481
154	0x3ddd01cd	0.10791359
155	0x3c98639c	0.018602185
156	0x3e28a5cd	0.16469498
157	0x3e4de839	0.20108117
158	0x3de55c38	0.1119923
159	0x3d575f0e	0.052580886
160	0x3d83876e	0.064223155
161	0x3d6efe1f	0.058347818
162	0xbdaee81b	-0.08540364
163	0x3e0832e2	0.1330066
164	0x3e1df0e1	0.1542392
165	0xbcbd84c6	-0.0231346
166	0x3d9bc79c	0.07606432
167	0x3db9fa16	0.09080903
168	0x3dd01bbb	0.10161539
169	0x3df6e6cd	0.120557405
170	0x3e16118a	0.14655128
171	0x3af2e396	0.0018530961
172	0x3c25e7b5	0.010126044
173	0x3e1a00f6	0.15039429
174	0x3e895ff8	0.2683103
175	0x3da7cb0e	0.081930265
176	0x3dfbf4e8	0.123025715
177	0xbcebf556	-0.028803509
178	0x3d80d58d	0.062907316
179	0x3c8fbd34	0.017546274
180	0x3dfa182e	0.12211643
181	0x3de68bb0	0.11257112
182	0x3da84a36	0.082172796
183	0xbe146c0c	-0.14494342
184	0x3d68cef9	0.05683801
185	0x3dc92538	0.09821552
186	0x3dcd746b	0.100319706
187	0x3d8e7c8f	0.069573514
188	0x3e045236	0.12921986
189	0xbdfec396	-0.12439649
190	0xbe0682f5	-0.13135894
191	0xbe9765a6	-0.2956974
192	0xbe5a7348	-0.21333039
193	0xbe011280	-0.12604713
194	0xbe2e9517	-0.17049061
195	0xbe5ed61d	-0.21761365
196	0xbe25303c	-0.16131681
197	0xbe451cdd	-0.19249292
198	0xbe98d792	-0.29851967
199	0xbbbb49ef	-0.0057156007
200	0xbe3dfdc7	-0.1855384
201	0xbe124272	-0.1428316
202	0xbe43fa2f	-0.19138406
203	0xbe954816	-0.2915656
204	0xbe0c7b6d	-0.13718958
205	0xbde218bb	-0.11039873
206	0xbe3aa372	-0.18226412
207	0xbe36263c	-0.17788023
208	0xbe116e85	-0.14202316
209	0xbe34ca99	-0.1765541
210	0xbea99d7f	-0.33127972
211	0xbe446429	-0.19178833
212	0xbc356b52	-0.01107295
213	0xbdca3c74	-0.09874812
214	0x3ccacda3	0.024756258
215	0xbe0bcc54	-0.13652164
216	0xbe59051d	-0.21193357
217	0xbe363242	-0.1779261
218	0xbd434374	-0.04767175
219	0xbcffa0b7	-0.031204564
220	0xbd2f0513	-0.04272945
221	0xbd2a5661	-0.041586284
222	0xbdfd7373	-0.12375536
223	0xbe13e532	-0.144429
224	0xbe8fcf25	-0.28087726
225	0xbe7766e7	-0.24160348
226	0xbd5b131e	-0.05348503
227	0xbd6340eb	-0.055481832
228	0xbd5514fd	-0.05202197
229	0xbc8e4b69	-0.017369943
230	0xbe4471dd	-0.1918406
231	0xbe50619b	-0.20349734
232	0xbea5c121	-0.32373908
233	0xbe8008b3	-0.25006637
234	0xbda38196	-0.07983701
235	0xbdf55bd6	-0.11980407
236	0xbe46cefd	-0.19414897
237	0x3c96af46	0.018394124
238	0xbdd2350f	-0.102640264
239	0xbdb1f84c	-0.08689937
240	0xbda67176	-0.0812711
241	0xbe11d217	-0.14240299
242	0xbdd25609	-0.10270316
243	0x3de4df7f	0.11175441
244	0x3d7c3470	0.061573446
245	0x3e32d8ce	0.17465517
246	0x3ea43088	0.32068276
247	0x3e202cae	0.15642044
248	0x3d916b00	0.07100487
249	0x3ea31625	0.31852832
250	0x3e027802	0.12741092
251	0x3e031382	0.1280041
252	0x3e0f235c	0.13978332
253	0x3e8bb77d	0.27288428
254	0x3dd7cca0	0.10537076
255	0x3e627e43	0.22118478

initial.0.bias f4 [30]
0	0xbd60e375	-0.05490442
1	0x3c359cb8	0.011084728
2	0x3deaed8a	0.11471088
3	0xbe01e2a8	-0.12684119
4	0xbe3c0ce0	-0.18364286
5	0xbd46c333	-0.048526
6	0x3e356f30	0.17718196
7	0x3e028934	0.12747651
8	0x3d225d49	0.039639745
9	0x3a3d9a0e	0.0007232734
10	0x3e0eaf58	0.13934076
11	0xbe02b31d	-0.12763639
12	0xbdb0c87d	-0.0863199
13	0x3c98b553	0.01864115
14	0x3d945425	0.07242612
15	0x3d4a0937	0.049325194
16	0xbcf8af5a	-0.030357052
17	0xbd90cdfc	-0.070705384
18	0x3e379ad6	0.17930159
19	0x3df16eb2	0.117886916
20	0x3e079bdc	0.1324305
21	0x3c9695d4	0.01838199
22	0xbe28ef54	-0.16497546
23	0x3dac58b1	0.08415354
24	0x3da8f4ad	0.08249793
25	0xbda8ad1a	-0.082361415
26	0x3cab6c36	0.020925622
27	0x3e24639b	0.16053621
28	0x3e152496	0.14564738
29	0xbe11093c	-0.14163679

initial.1.weight f4 [30]
0	0x3f8c7475	1.097304
1	0x3f5c0bab	0.85955304
2	0x3f855f6b	1.0419744
3	0x3f7d1d85	0.9887317
4	0x3f87b973	1.060347
5	0x3f6764d7	0.90388244
6	0x3f7b2c2d	0.9811428
7	0x3f70bf97	0.9404234
8	0x3f82a5b3	1.0206817
9	0x3f76aab1	0.96354204
10	0x3f5f766b	0.87290066
11	0x3f892fbc	1.0717692
12	0x3f89b16b	1.0757269
13	0x3f829846	1.020272
14	0x3f7cffc4	0.9882777
15	0x3f74491b	0.9542405
16	0x3f7ece49	0.99533516
17	0x3f7f17e2	0.9964582
18	0x3f801f53	1.0009559
19	0x3f742b6c	0.95378757
20	0x3f799fdb	0.97509545
21	0x3f8a82c8	1.0821161
22	0x3f876d94	1.0580316
23	0x3f7159c9	0.94277626
24	0x3f7253d1	0.94659144
25	0x3f8eabf1	1.1146222
26	0x3f6f7804	0.93542504
27	0x3f845cd1	1.0340825
28	0x3f4ebc48	0.80756044
29	0x3f83b5d3	1.0289863

initial.1.bias f4 [30]
0	0x3e02b87a	0.12765685
1	0xbc5dec58	-0.013545118
2	0xbe1d9ee4	-0.15392643
3	0x3e032c9c	0.12809986
4	0xbd4946e7	-0.049139883
5	0x3db6f638	0.08933681
6	0x3d09d3f4	0.0336494
7	0xbe04f077	-0.12982355
8	0xbbdef788	-0.0068044104
9	0xbc1d6468	-0.009606458
10	0xbe357453	-0.17720155
11	0x3dd2f708	0.10301024
12	0x3e40d228	0.18830168
13	0x3e3845b0	0.17995334
14	0x3de3f846	0.11131339
15	0x3be23ce6	0.0069042323
16	0x3e48a798	0.19595182
17	0xbdb8021a	-0.08984776
18	0xbde4b35e	-0.11167024
19	0xbd048c47	-0.03236034
20	0xbd113e81	-0.03546
21	0xbce57d94	-0.028013982
22	0x3e234656	0.159448
23	0xbe2bcaf0	-0.16776633
24	0x3d13b183	0.03605796
25	0x3e2a64db	0.16640036
26	0xbe037f02	-0.12841418
27	0x3d0eeb34	0.034892276
28	0xbe4be2a9	-0.19910683
29	0x3da8d048	0.082428515

initial.1.running_mean f4 [30]
0	0x3f7994c1	0.97492605
1	0x3f64dea7	0.8940224
2	0xbf2b8472	-0.6699897
3	0x3fbb9c7d	1.4657131
4	0xbf1f52a3	-0.6223547
5	0x3eb905b8	0.36137176
6	0x3f02e852	0.5113574
7	0xbf4573ad	-0.7712963
8	0xbf17af90	-0.5925226
9	0x3f5e1e0e	0.8676461
10	0xbef43a96	-0.47700948
11	0x3e9eb4fd	0.30997458
12	0x3fbee061	1.4912225
13	0xbf26b440	-0.6511879
14	0x3f331157	0.69948334
15	0x3f89491d	1.0725437
16	0x3f414e6b	0.7551028
17	0xbfabe950	-1.3430576
18	0xbf1fe52a	-0.6245905
19	0x3ff68418	1.9259062
20	0xbf413c1a	-0.7548233
21	0xc023a0ca	-2.5566888
22	0x3f2fcad7	0.68668884
23	0xbfaeb6ec	-1.3649573
24	0x3f0a182a	0.5394312
25	0x3ea9df67	0.33178255
26	0xbf0717e4	-0.5277083
27	0xbef60db6	-0.48057336
28	0xbee3dfab	-0.44506583
29	0x3e68482c	0.22683781

initial.1.running_var f4 [30]
0	0x3e8bcf4c	0.27306592
1	0x3e898268	0.26857305
2	0x3e8777b8	0.26458526
3	0x3e992d73	0.29917488
4	0x3e846325	0.2585689
5	0x3e8392c7	0.2569792
6	0x3e838eba	0.2569483
7	0x3e8976a8	0.2684834
8	0x3e8612f9	0.2618635
9	0x3e898bf6	0.26864594
10	0x3e858f61	0.26085952
11	0x3e8396e3	0.25701055
12	0x3e98fa76	0.29878587
13	0x3e869c95	0.26291338
14	0x3e85f257	0.26161453
15	0x3e8c609d	0.2741746
16	0x3e880ce6	0.2657234
17	0x3e91ca47	0.28474638
18	0x3e878cbe	0.26474565
19	0x3ea24d25	0.31699482
20	0x3e8916a1	0.26775077
21	0x3ec11e6b	0.3771852
22	0x3e8849d9	0.2661884
23	0x3e957e70	0.29198027
24	0x3e844868	0.25836492
25	0x3e83917c	0.25696933
26	0x3e84e40e	0.25955242
27	0x3e859dfc	0.26097095
28	0x3e852a15	0.2600867
29	0x3e831da6	0.25608557

res_blocks.0.conv.0.weight f4 [30, 30, 3, 3]
0	0x3c99b86f	0.018764703
1	0x3d9bbb90	0.07604134
2	0xbb175fd2	-0.0023097885
3	0xbdb2797e	-0.08714579
4	0xbe3a1978	-0.18173778
5	0xbd2b1e70	-0.041777074
6	0x3e23bb3b	0.15989392
7	0xbe0ba1dc	-0.13635963
8	0xbba5425c	-0.005043311
9	0x3d3bd00b	0.045852702
10	0xbd7c37be	-0.061576597
11	0x3dbca568	0.09211236
12	0x3caa5f56	0.020797413
13	0xbc698bed	-0.014254552
14	0x3db058a2	0.08610655
15	0x3d6ea923	0.05826677
16	0xbca6ae47	-0.020346774
17	0xbd5291be	-0.05140852
18	0xbcd9c7eb	-0.026584586
19	0x3e3cd7cb	0.18441693
20	0x3d585229	0.05281273
21	0x3c9a35d8	0.018824503
22	0xbd2767c5	-0.040870447
23	0x3e40eda9	0.1884066
24	0xbb9ce9b8	-0.0047886036
25	0xbc4c4617	-0.012467883
26	0x3db9684d	0.09053097
27	0x3e7f8aa8	0.24955237
28	0x3b549cb0	0.0032442026
29	0xbd3dec0f	-0.0463677
30	0xbd0026d4	-0.03128703
31	0xbdbaece8	-0.091272175
32	0x3db0f175	0.08639804
33	0xbdc77f1e	-0.097410426
34	0x3df390cb	0.118928514
35	0xbd90999d	-0.070605494
36	0xbd3eaace	-0.04654961
37	0x3d512fe0	0.051071048
38	0x3e086ce2	0.13322785
39	0x3cf30080	0.029663324
40	0xbd7729c3	-0.06034256
41	0xbd1b80c1	-0.037964586
42	0xbcadf572	-0.021235202
43	0x3dcd88a8	0.10035831
44	0x3d7251e3	0.059160125
45	0x3c805008	0.015663162
46	0x3dbb8392	0.091559544
47	0xbdd8f512	-0.105936185
48	0x3d8210bf	0.0635085
49	0xbd6b65a2	-0.05746997
50	0xbd68d39d	-0.056842435
51	0xbd8677a1	-0.06565786
52	0xbd8e3b01	-0.06944848
53	0xbd6249b8	-0.055246085
54	0x3d2e54ce	0.042561345
55	0x3bf0211c	0.0073281657
56	0x3dd31560	0.10306811
57	0xbb2e7e18	-0.002662545
58	0xbe63ae9d	-0.22234578
59	0x3d0f1d03	0.034939777
60	0x3db7a3be	0.08966778
61	0x3d9534bd	0.0728545
62	0xbc96b4d5	-0.018396774
63	0x3e14e66b	0.14541022
64	0xbba56e20	-0.0050485283
65	0x3e46f0ef	0.19427846
66	0xbdf4fe86	-0.11962609
67	0x3c03cd90	0.008044615
68	0x3d0131df	0.0315417
69	0x3d9c3428	0.076271355
70	0xbc7b726b	-0.015347104
71	0x3bbf4529	0.005837102
72	0x3bdd6037	0.0067558545
73	0xbc68ce81	-0.014209391
74	0x3d83342b	0.064064346
75	0x3d32fad4	0.04369624
76	0xbdb68407	-0.08911901
77	0x3da21d0c	0.079156965
78	0x3c95341c	0.018213324
79	0x3e60d92e	0.21957847
80	0x3dd8f749	0.10594041
81	0xbba71193	-0.0050985306
82	0xbdfb255c	-0.12262985
83	0x3d95728f	0.07297241
84	0x3d67b3bc	0.056567892
85	0x3e0d90cd	0.13824768
86	0x3e719aaf	0.23594163
87	0xbdbae8c5	-0.091264285
88	0xbe2963e1	-0.16542007
89	0x3cdaac32	0.026693437
90	0x3e100e83	0.14068036
91	0xbd8b9b75	-0.068167605
92	0xbe461e89	-0.19347586
93	0xbd2f8812	-0.042854376
94	0xbdaeac65	-0.085289754
95	0xbd6cce66	-0.057814024
96	0x3e086206	0.13318643
97	0x3c9321f7	0.017960532
98	0x3e01ac03	0.12663274
99	0x3d3cc741	0.04608846
100	0x3c5ac89d	0.013353494
101	0x3d37bd98	0.044858545
102	0x3db96b29	0.09053642
103	0xbd0a5243	-0.033769857
104	0x3c7f32de	0.0155760925
105	0xbcab49ee	-0.020909276
106	0xbd7df649	-0.062002454
107	0xbd6deb06	-0.058085464
108	0x3df6e1e5	0.12054805
109	0xbcc0e2c1	-0.023545625
110	0xbd98613e	-0.074404225
111	0xbde241ae	-0.11047684
112	0x3e095613	0.13411741
113	0xbdfd9aec	-0.12383065
114	0x3d119fb7	0.035552707
115	0xbcd270d7	-0.025688572
116	0xbdbf7d8c	-0.09350118
117	0x3d86012a	0.06543191
118	0xbc926a36	-0.017872911
119	0x3c52121a	0.012821699
120	0x3df0d3c2	0.117591396
121	0x3d145fbf	0.036224123
122	0x3d561a40	0.052271128
123	0xbbb56ba6	-0.0055365143
124	0xbda21a75	-0.079152025
125	0x3cb3c501	0.021944525
126	0xbc05fe79	-0.008178347
127	0x3c8c2851	0.017109068
128	0x3dd33f0a	0.10314758
129	0xbbbb911c	-0.0057240855
130	0xbdb9955d	-0.09061692
131	0xbd09c74e	-0.033637337
132	0xba618f7c	-0.00086044497
133	0xb9aaf6fc	-0.00032608944
134	0x3d4e7f23	0.050414216
135	0xbd67957f	-0.056539055
136	0x3d854eb0	0.06509149
137	0x3e06e109	0.13171782
138	0xbd26a471	-0.040684167
139	0xbe22d703	-0.15902333
140	0xbdb547b9	-0.08851571
141	0xbd45a9df	-0.048257705
142	0x3dd5f645	0.10447363
143	0x3e0ea836	0.13931355
144	0x3d1fa0f6	0.038971864
145	0xbc06829a	-0.008209849
146	0xbe27799a	-0.16354981
147	0xbd2fccb7	-0.04291984
148	0xbd076f0a	-0.03306488
149	0x3abbbfce	0.001432413
150	0x3a605300	0.000855729
151	0x3e5eb60b	0.21749131
152	0x3e4a0aab	0.19730632
153	0x3d5267f2	0.05136866
154	0x3d256453	0.04037888
155	0x3e3ac13c	0.18237776
156	0xbb89d89a	-0.004206729
157	0x3e12155c	0.1426596
158	0x3cfbacc7	0.030722035
159	0x3d17d3b6	0.037067138
160	0xbd4fd327	-0.05073848
161	0xbd11881b	-0.03553019
162	0x3d423c65	0.047420878
163	0xbe14a027	-0.14514218
164	0x3d2fb8ba	0.04290078
165	0x3cfa036d	0.030519212
166	0x3bb76c92	0.0055976594
167	0x3e123089	0.14276327
168	0x3db0e6af	0.086377494
169	0x3cbf8202	0.023377422
170	0x3dd9705a	0.106171325
171	0x3ddd5c88	0.108086646
172	0x3d11c8ef	0.035592016
173	0x3c9d19c9	0.019177334
174	0x3d8083ef	0.06275164
175	0x3d60ab31	0.05485076
176	0x3c9a388c	0.018825792
177	0x3dfb0c64	0.12258223
178	0x3bd6446f	0.0065389196
179	0xbd64db91	-0.055873457
180	0xbd846eb0	-0.064664245
181	0x3de102ed	0.10986886
182	0xbcff8ade	-0.031194147
183	0xbc9318ba	-0.017956126
184	0xbd64c1f3	-0.055849027
185	0x3dd2baed	0.102895595
186	0x3e00ca92	0.12577274
187	0xbd8fbf2a	-0.070188835
188	0xbd0cd805	-0.0343857
189	0xbc1dbf02	-0.009628059
190	0xbc223e8c	-0.009902608
191	0x3d19fb94	0.03759344
192	0x3c8b6ac2	0.01701868
193	0x3daeb488	0.08530527
194	0x3d4a4a7c	0.04938744
195	0x3c0ed70d	0.008718264
196	0x3d8bac70	0.06819999
197	0xbd4b2839	-0.049598906
198	0x3e2a25d0	0.16615987
199	0x3ce726bd	0.028216714
200	0x3d841dda	0.06451006
201	0x3dd5b07c	0.10434052
202	0xbd9f47da	-0.077773765
203	0xbd5c9fe9	-0.05386344
204	0xbd228e4e	-0.039686494
205	0x3c75081e	0.014955549
206	0x3d8c5fc6	0.06854205
207	0x3e561bad	0.20908995
208	0x3e55de02	0.2088547
209	0xbdaa5fca	-0.083190516
210	0xbdd4d3ce	-0.10391961
211	0xbc816b63	-0.015798276
212	0x3bc54002	0.006019593
213	0x3d28ccec	0.041211054
214	0xbde2b06d	-0.11068807
215	0xbba2a3de	-0.004963382
216	0x3dfd32d6	0.12363212
217	0x3de68491	0.11255754
218	0xbd9ccb51	-0.07655967
219	0x3ca30e8a	0.019904394
220	0xbdd3f4b6	-0.10349409
221	0x3dc0c5b1	0.09412707
222	0xbcbba882	-0.0229075
223	0x3ce88dfc	0.028388016
224	0x3d488b12	0.048960753
225	0x3d47dc1d	0.0487939
226	0xbd580f57	-0.052749004
227	0xbcea920a	-0.02863409
228	0x3dd7cc0f	0.10536968
229	0x3e792064	0.24328762
230	0xbe21f94a	-0.15817752
231	0xbdd85d38	-0.10564655
232	0x3e0dcbf6	0.13847336
233	0xbe0e2684	-0.1388188
234	0x3e4217a7	0.18954335
235	0x3e2b3951	0.16721083
236	0x3c13877e	0.009004472
237	0x3dc00f7e	0.09377955
238	0x3d0ed46c	0.03487055
239	0x3d7a1f77	0.061065163
240	0x3cf2f200	0.02965641
241	0x3daebfef	0.08532702
242	0xbb9ef194	-0.0048505757
243	0x3cf37b21	0.029721798
244	0x3d88b691	0.06675447
245	0x3daf0509	0.08545882
246	0x3dcf9a3b	0.10136839
247	0x3dfcbac8	0.12340313
248	0x3e06f14a	0.13177982
249	0x3e641203	0.22272496
250	0x3e2ccd7a	0.16875258
251	0xbd1779f7	-0.03698155
252	0x3da59807	0.080856375
253	0x3d8151c5	0.063144244
254	0x3cf65f1e	0.030074652
255	0xbd834dfa	-0.06411357

res_blocks.0.conv.0.bias f4 [30]
0	0xbc3825a3	-0.011239442
1	0xbd4f91f5	-0.050676305
2	0xbd09f574	-0.033681348
3	0x3a26cdda	0.0006363072
4	0xbcfa33d3	-0.03054229
5	0x3a2e8673	0.0006657608
6	0x3d01b4a7	0.031666424
7	0xbd0a01af	-0.03369301
8	0xbcf83134	-0.0302969
9	0xbcb5a462	-0.02217311
10	0xbbf5034f	-0.007477201
11	0x3c27e923	0.010248455
12	0xbd39029f	-0.045168515
13	0x3d762904	0.06009771
14	0xbc81439f	-0.015779315
15	0x3c43c990	0.011949912
16	0x3ce4f6c8	0.027949706
17	0x3ccdd42a	0.025125582
18	0x3ce961e0	0.028489053
19	0xbcf58cb9	-0.029974328
20	0x3cb79976	0.022412043
21	0xbd65eb6c	-0.05613272
22	0xbcfba25f	-0.030717073
23	0xba42c00c	-0.000742913
24	0xbd1b402b	-0.037902992
25	0x3cc601cf	0.024170784
26	0x3d3cadac	0.046064064
27	0xbd17a89e	-0.03702604
28	0x3ca4eaa8	0.020131424
29	0x3c9da6c3	0.019244557

res_blocks.0.conv.1.weight f4 [30]
0	0x3f8cd5ac	1.1002707
1	0x3f781f57	0.9692282
2	0x3f89405d	1.0722767
3	0x3f8c57d5	1.0964304
4	0x3f70ed32	0.9411193
5	0x3f59abb2	0.8502761
6	0x3f938ab0	1.1526699
7	0x3f78c598	0.97176504
8	0x3f8e5033	1.1118225
9	0x3f8aa56a	1.083173
10	0x3f82be3a	1.0214303
11	0x3f5e6e9e	0.8688754
12	0x3f7ecf83	0.9953539
13	0x3f8a847c	1.0821681
14	0x3f71c7d7	0.94445556
15	0x3f7055f4	0.93881154
16	0x3f69222c	0.9106777
17	0x3f785c3f	0.97015756
18	0x3f6614dc	0.8987558
19	0x3f82234a	1.0167019
20	0x3f667c7b	0.9003369
21	0x3f883d45	1.0643698
22	0x3f73a629	0.95175415
23	0x3f6a0941	0.9142037
24	0x3f97dd36	1.1864383
25	0x3f79308d	0.9733971
26	0x3f7c13af	0.98467535
27	0x3f747a03	0.95498675
28	0x3f8a43cb	1.0801939
29	0x3f76bbdf	0.9638042

res_blocks.0.conv.1.bias f4 [30]
0	0x3d779a06	0.060449623
1	0xbd0e64ec	-0.034764215
2	0x3cd28850	0.025699764
3	0x3d02d73f	0.031943556
4	0x3d36b9fa	0.044610955
5	0xbdf2d0a1	-0.11856199
6	0x3dc57eea	0.096433476
7	0x3d236025	0.039886612
8	0x3d1632d5	0.03666957
9	0x3e2bc7d8	0.16775453
10	0xbd8e29ab	-0.06941541
11	0xbdb5fc78	-0.08886045
12	0xbe75e4c4	-0.24013048
13	0x3d83da0a	0.06438072
14	0xbc5042d2	-0.012711244
15	0xbd119d32	-0.035550304
16	0xbc74aba6	-0.014933502
17	0x3d0812a7	0.033220913
18	0xbdaeffa5	-0.08544854
19	0x3d61214f	0.054963406
20	0xbc7cb224	-0.015423331
21	0x3de5763d	0.11204193
22	0x3d139bec	0.03603737
23	0xbb4a8965	-0.0030904647
24	0x3daf87d8	0.08570832
25	0xbcf02ded	-0.029318774
26	0xbcde41b8	-0.027130947
27	0xbb3f8927	-0.0029226036
28	0x3e034712	0.1282008
29	0x3c3b3d3c	0.011428174

res_blocks.0.conv.1.running_mean f4 [30]
0	0x3f6974a9	0.91193634
1	0x3e11f65b	0.14254133
2	0xbfe00f7d	-1.7504727
3	0xbfd43964	-1.6580014
4	0xbf484675	-0.7823251
5	0x3fe41252	1.7818091
6	0xc0118379	-2.2736495
7	0xbf140b75	-0.5782998
8	0x3f32e691	0.69883066
9	0xbf881502	-1.0631411
10	0x3f08d998	0.5345702
11	0x3f5fce13	0.8742382
12	0x3fc6b497	1.5523862
13	0xbf1c7d2d	-0.61128503
14	0xc024f122	-2.5772176
15	0x3f482f55	0.7819722
16	0xbfd8e5ee	-1.6945169
17	0x3f51c777	0.81944984
18	0x3dbe8f61	0.09304691
19	0x3e7a25d6	0.24428496
20	0xbea71baa	-0.32638294
21	0xc01cbd53	-2.4490554
22	0xbf08582f	-0.5325956
23	0x3d39bd3f	0.045346495
24	0xbfe2144a	-1.7662442
25	0x3f651622	0.89486897
26	0x3ec346ec	0.38140047
27	0x3f16eca3	0.5895483
28	0xbee5001c	-0.44726646
29	0xbf04944a	-0.5178877

res_blocks.0.conv.1.running_var f4 [30]
0	0x3fcdadb4	1.6068635
1	0x405854a3	3.3801658
2	0x401fffa7	2.4999788
3	0x401630a9	2.34672
4	0x40a985b2	5.29757
5	0x419eea1f	19.864317
6	0x40e5842a	7.1723833
7	0x40c49785	6.143496
8	0x408c5f71	4.3866506
9	0x4032866d	2.7894547
10	0x40df25d0	6.973366
11	0x41013464	8.075291
12	0x401dcec6	2.4657454
13	0x4071c6e8	3.7777653
14	0x40788ee7	3.883722
15	0x4079d1bb	3.903426
16	0x4094371b	4.6317267
17	0x40973c54	4.7261143
18	0x40b2b0cb	5.584081
19	0x40b97ee3	5.796739
20	0x402a5094	2.661168
21	0x406f4392	3.7384992
22	0x4108038c	8.500866
23	0x40e5da44	7.1828938
24	0x3fed18d1	1.8523198
25	0x3fa0f1bd	1.2573773
26	0x40128917	2.2896173
27	0x40c1e609	6.0593305
28	0x4067633f	3.6154325
29	0x40c270ae	6.076255

res_blocks.0.conv.3.weight f4 [30, 30, 3, 3]
0	0xbe1172c4	-0.14203936
1	0xbd2171d2	-0.039415188
2	0xbcdf832e	-0.027284231
3	0xbda3f4e1	-0.08005691
4	0xbe335a04	-0.17514807
5	0xbe927f77	-0.28612873
6	0x3e0d4bf2	0.13798502
7	0xbd9dd56d	-0.07706723
8	0xbd98a04a	-0.07452448
9	0xbd26cc01	-0.040721897
10	0x3c942703	0.018085008
11	0xbe2fed9b	-0.17180483
12	0xbd922cd9	-0.0713746
13	0xbd769019	-0.060196016
14	0xbc941f94	-0.018081464
15	0xbe6abded	-0.22924013
16	0xbe1e1600	-0.1543808
17	0xbd42e758	-0.047583908
18	0x38b97bc0	8.844538e-05
19	0x3e26a65c	0.16274399
20	0x3e11deac	0.14245099
21	0x3e54122e	0.2071006
22	0x3d945ab9	0.072438665
23	0x3eae3184	0.34022152
24	0x3de86cec	0.113489
25	0x3dab2da3	0.08358314
26	0x3d0eb0b8	0.0348365
27	0x3d9fb0d1	0.07797397
28	0x3e10a408	0.14125073
29	0x3ea1f2d1	0.31630567
30	0x3da8dfaf	0.08245789
31	0x3e380093	0.17968969
32	0x3dba52ee	0.09097849
33	0x3e50de7a	0.20397368
34	0x3cda5462	0.026651565
35	0x3e4c4092	0.19946507
36	0x3c6ef856	0.014585575
37	0x3c0515e2	0.008122893
38	0x3a1ac104	0.00059033954
39	0xbd135710	-0.0359717
40	0xbdc45e13	-0.09588256
41	0x3d92017e	0.07129191
42	0xbd369f40	-0.044585466
43	0xbd9fa910	-0.07795918
44	0xbc4a92f8	-0.012364142
45	0x3dff3d90	0.12462914
46	0xbc8cc50e	-0.017183807
47	0xbdae5580	-0.085124016
48	0x3dfd0828	0.12355071
49	0xbe3674d5	-0.17818005
50	0xbe0702e4	-0.13184696
51	0x3ad71310	0.0016408879
52	0xbdf83ee4	-0.121213704
53	0xbe08a8bf	-0.13345622
54	0x3e50ecf6	0.20402893
55	0x3ce3e86e	0.027820792
56	0x3e2cb881	0.16867258
57	0x3e6713d4	0.22566158
58	0x3d7b92a8	0.06141916
59	0x3d61daef	0.055140432
60	0x3d1793aa	0.037006058
61	0x3e1cd72b	0.15316455
62	0x3cc3665c	0.02385252
63	0xbd411010	-0.04713446
64	0x3d1543ac	0.03644149
65	0xbc586eaa	-0.013209978
66	0x3d05de8d	0.032682944
67	0xbdca3019	-0.09872455
68	0x3da751e4	0.08169916
69	0x3c6e0c62	0.0145293195
70	0x3b6622dc	0.0035115993
71	0x3da3a7bf	0.079909794
72	0xbd000cac	-0.031262085
73	0xbe07f1f9	-0.13275899
74	0x3cb7c740	0.022433877
75	0xbca7ab24	-0.020467348
76	0x3e7d25cf	0.24721454
77	0x3e32f090	0.1747458
78	0x3b9c48b6	0.00476941
79	0x3e053efa	0.13012305
80	0x3db4dc2b	0.08831056
81	0x3d9d84e3	0.07691362
82	0xbdd06ec2	-0.101773754
83	0x3c625b71	0.013815747
84	0x3d441cea	0.047879137
85	0x3c88ee2e	0.016715135
86	0x3ca39bca	0.019971747
87	0x3e18a9cb	0.14908521
88	0xba42d04c	-0.00074315513
89	0x3d259866	0.04042854
90	0xbdd0aca7	-0.10189181
91	0xbdd03426	-0.101661965
92	0xbe0b0b6e	-0.13578579
93	0xbdf28d6e	-0.11843382
94	0xbd92e434	-0.071724325
95	0xbde5f399	-0.11228103
96	0xbde41c57	-0.11138218
97	0xbd3614e0	-0.0444535
98	0x3bbb48ec	0.00571548
99	0xbc71662c	-0.014733832
100	0xbd9e48e3	-0.07728746
101	0x3d9f6073	0.07782068
102	0xbe10afa5	-0.14129503
103	0x3da0dbe0	0.07854438
104	0xbe1cdcd2	-0.15318611
105	0xbd44ca96	-0.048044764
106	0xbc669eb6	-0.014075926
107	0xbe2c083c	-0.16800016
108	0xbde5b525	-0.11216191
109	0xbdc3fb02	-0.0956936
110	0xbe56cf25	-0.20977457
111	0xbd882694	-0.06647983
112	0x3b646ec8	0.003485607
113	0x3c75470c	0.014970552
114	0xbc730fde	-0.014835326
115	0xbdb14a3d	-0.08656738
116	0xbdfe8028	-0.124267876
117	0xbb9b170b	-0.0047329715
118	0xbe002d58	-0.12517297
119	0x3e14acfe	0.14519116
120	0xbdede45d	-0.116158225
121	0x3d867f38	0.06567234
122	0xbe0a0567	-0.13478623
123	0xbdee149c	-0.11625025
124	0xbd1bf5b7	-0.03807613
125	0xbdee5f3c	-0.11639258
126	0x3d503e68	0.050840765
127	0xbda52057	-0.08062809
128	0xbd895b8a	-0.06706913
129	0x3e99dfcc	0.30053556
130	0x3e23143f	0.15925692
131	0x3e7dbedf	0.24779843
132	0xbc5d4077	-0.013504139
133	0xbd2a1b93	-0.041530203
134	0x3cc3ce92	0.023902211
135	0x3d8c1c8a	0.06841381
136	0xbdc5d967	-0.09660607
137	0xbbe8b486	-0.007101598
138	0xbe0ebe90	-0.13939881
139	0x3d89b65b	0.06724235
140	0xbc991b4d	-0.018689776
141	0xbd7f3d28	-0.062314183
142	0xbdc4e92e	-0.09614788
143	0x3d8efcd4	0.06981817
144	0xbc754600	-0.014970303
145	0x3e3540d0	0.17700505
146	0x3db2e783	0.087355636
147	0x3cd00cd8	0.02539675
148	0xbe0c17b7	-0.13680921
149	0x3dcba7e4	0.09944132
150	0x3d2bffbf	0.041991945
151	0xbd56d582	-0.05244971
152	0xbc571a8f	-0.013128891
153	0x3d387099	0.045029256
154	0xbe29cb84	-0.16581541
155	0xbcde7c2c	-0.02715882
156	0xbe5c4428	-0.21510375
157	0xbbd3de76	-0.0064657284
158	0x3c707064	0.0146752335
159	0xbe22181d	-0.15829511
160	0xbcdd2207	-0.026993765
161	0xbd3a2dac	-0.045453712
162	0x3da9e146	0.082949206
163	0x3ba2f9cc	0.0049736258
164	0xbd412e98	-0.047163576
165	0x3dda1956	0.10649364
166	0x396e2660	0.00022711745
167	0x3e5ebad2	0.21750954
168	0xbc6aa26a	-0.014320949
169	0x3e0c6c9d	0.13713308
170	0x3e1f0ea7	0.15532933
171	0xbde7ff2c	-0.11327967
172	0xbd49eb32	-0.049296565
173	0xbd828e50	-0.063748
174	0xbe0591a5	-0.1304384
175	0xbd6ef790	-0.058341563
176	0x3cb85be6	0.022504758
177	0xbe2020bb	-0.15637486
178	0x3baf6d0c	0.0053535756
179	0xbc09d929	-0.008413591
180	0x3c75a6a3	0.014993343
181	0x3c9a26a7	0.018817259
182	0xbe2d1378	-0.16901958
183	0xbc812c1e	-0.015768107
184	0xbddc3e25	-0.10754041
185	0x3d5b0a10	0.053476393
186	0x3dc9cc7f	0.09853458
187	0xbd8f9163	-0.07010152
188	0x3dd60d2a	0.104517296
189	0x3e364452	0.177995
190	0x3d8b7e56	0.06811206
191	0x3cb2efad	0.021842802
192	0x3e378e80	0.17925453
193	0x3d9b0b43	0.075705074
194	0x3da4a9ce	0.080402
195	0x3e1f30fc	0.1554603
196	0x3e0d7692	0.13814762
197	0x3e05a025	0.13049372
198	0xbd8c9ec7	-0.06866222
199	0xbd191e39	-0.03738234
200	0xbd042ac4	-0.032267347
201	0xbd8c60f0	-0.06854427
202	0x3e1bb283	0.15204816
203	0x3d30d8c2	0.043175466
204	0x3db94273	0.09045877
205	0xbd9c7e66	-0.07641296
206	0x3dffa337	0.12482303
207	0xbc5a9e08	-0.013343342
208	0x3d5513d2	0.052020855
209	0x3d245b1a	0.040125944
210	0xbe59f343	-0.21284203
211	0xbda0efa5	-0.078582086
212	0x3de7077b	0.11280724
213	0x3bd5c9e5	0.006524312
214	0xbb3aacb2	-0.0028484282
215	0xbdcca890	-0.09993088
216	0x3e7ef11a	0.2489666
217	0x3dccf002	0.10006715
218	0x3e59e7dc	0.21279854
219	0x3d8da7dc	0.06916782
220	0x3e803a11	0.250443
221	0x3e2a9763	0.16659312
222	0x3da9d495	0.082925
223	0x3e13065a	0.14357892
224	0x3e08440c	0.13307208
225	0xbbbd9bb3	-0.005786383
226	0x3aae2a08	0.0013287673
227	0xbe0420fa	-0.12903205
228	0xbd318a73	-0.043344926
229	0xbe6bb9f6	-0.23020157
230	0x3c09edc1	0.008418501
231	0x3d16911a	0.036759473
232	0xbcfd32de	-0.030908044
233	0xbc50dcda	-0.012747968
234	0xbcfb23d7	-0.030656738
235	0xbe1670cf	-0.1469147
236	0xbd668c7e	-0.056286328
237	0xbd8500a3	-0.06494262
238	0xbb3e7668	-0.0029062275
239	0xbd8dbf96	-0.06921308
240	0x3d84040a	0.06446083
241	0x3e1ca75f	0.15298222
242	0xbdc45212	-0.09585966
243	0x3cb2251c	0.02174621
244	0xbcd384e3	-0.025820201
245	0x3cfef38c	0.031121992
246	0xbc9bf706	-0.019038688
247	0x3dc82b15	0.09773842
248	0xbd8c9ffb	-0.06866451
249	0xbd32427b	-0.043520432
250	0x3dad5acf	0.08464586
251	0xbd5a1903	-0.05324651
252	0xbd605184	-0.05476524
253	0xbd73d2df	-0.059527274
254	0x3d4325e4	0.047643557
255	0xbca3242c	-0.019914709

res_blocks.0.conv.3.bias f4 [30]
0	0xbd3d6c2f	-0.04624575
1	0xbd170685	-0.036871452
2	0xbd68617e	-0.0567336
3	0x3d1cf423	0.038318764
4	0xbd493de3	-0.049131285
5	0xbc932435	-0.0179616
6	0xbd09d3f2	-0.033649392
7	0x3c868910	0.016422778
8	0xbd1fa671	-0.03897709
9	0xbd744371	-0.05963463
10	0x3d2d9d1c	0.04238616
11	0xbc44070d	-0.011964572
12	0x3d75b796	0.059989534
13	0xbc5120c4	-0.01276416
14	0x3d663a34	0.05620785
15	0xbcd2d6e3	-0.025737232
16	0xbd6ece55	-0.058302242
17	0xbd25846b	-0.040409487
18	0x3d200721	0.0390693
19	0x3bf0584c	0.0073347446
20	0xbd0afef9	-0.033934567
21	0x3d138cd9	0.036022995
22	0xbd5a249a	-0.053257562
23	0xbd68a7ed	-0.05680077
24	0x3cdcb76c	0.026942931
25	0xbc9a80d3	-0.018860256
26	0xbd787840	-0.060661554
27	0x3d124b05	0.035716075
28	0x3c8938be	0.01675069
29	0xbbc7aa83	-0.0060933246

res_blocks.0.conv.4.weight f4 [30]
0	0x3f8d373b	1.103248
1	0x3f518be2	0.8185407
2	0x3f891e77	1.0712422
3	0x3f81cc1a	1.0140412
4	0x3f6e31e1	0.9304486
5	0x3f89ff1a	1.0780976
6	0x3f7d603a	0.98974955
7	0x3f7bf8db	0.984266
8	0x3f865e72	1.0497572
9	0x3f76d754	0.96422315
10	0x3f6ffde7	0.937468
11	0x3f6c0d5f	0.922079
12	0x3f8456b8	1.0338964
13	0x3f86a242	1.0518267
14	0x3f66d961	0.90175444
15	0x3f786e62	0.9704343
16	0x3f723b59	0.9462181
17	0x3f8d8626	1.1056564
18	0x3f7de4b9	0.9917713
19	0x3f86d786	1.0534523
20	0x3f63b102	0.8894197
21	0x3f7c6a17	0.9859938
22	0x3f904cc4	1.1273427
23	0x3f79ed7f	0.97628015
24	0x3f854d5b	1.0414232
25	0x3f89f49b	1.0777773
26	0x3f8b21f7	1.086974
27	0x3f88607d	1.0654446
28	0x3f8b9530	1.0904903
29	0x3f807609	1.0036021

res_blocks.0.conv.4.bias f4 [30]
0	0x3bf20be4	0.0073866714
1	0xbc91ea0e	-0.017811801
2	0x3cd488fd	0.025944227
3	0x3e1bdad0	0.15220189
4	0x3d206988	0.039163142
5	0x3dc1893e	0.09450005
6	0xbdb1f833	-0.08689918
7	0x3c465a20	0.012106448
8	0x3d279b46	0.040919565
9	0xbdb2eed3	-0.08736958
10	0xbdefbddc	-0.11706135
11	0x3d7ef151	0.062241856
12	0x3db54d21	0.08852602
13	0x3e6e9db1	0.23302342
14	0x3caf8539	0.02142583
15	0xbd539d19	-0.051663492
16	0x3d8dfef0	0.06933391
17	0x3d41de65	0.047331233
18	0xbc75da64	-0.015005682
19	0x3d366e76	0.044538938
20	0x3cc8d61f	0.024516163
21	0x3d543db6	0.051816665
22	0x3da4a689	0.080395766
23	0xbc588140	-0.013214409
24	0xbacb0ce7	-0.0015491516
25	0x3dc716eb	0.09721168
26	0x3c600c83	0.013674858
27	0x3e2ea30d	0.17054386
28	0xbd810000	-0.06298828
29	0xbd8d34f6	-0.06894867

res_blocks.0.conv.4.running_mean f4 [30]
0	0x3e10391d	0.14084287
1	0xbde81f79	-0.11334128
2	0xbcd0f7ab	-0.025508722
3	0xbf60f65e	-0.87875926
4	0xbf0e82dd	-0.5566843
5	0xbee4625f	-0.446063
6	0x3b50a393	0.003183578
7	0xbe588f17	-0.21148334
8	0xbd191d70	-0.03738159
9	0x3ed46298	0.4148147
10	0x3ef10607	0.4707491
11	0x3f3b7b1d	0.7323473
12	0xbf74a92e	-0.9557065
13	0xbfacc31a	-1.349704
14	0xbf115498	-0.56769705
15	0x3f357bd2	0.7089206
16	0xbfb7f6a1	-1.437214
17	0xbe6b3b24	-0.22971779
18	0x3f82b74d	1.0212189
19	0x3db48c96	0.08815877
20	0xbf681fd1	-0.9067355
21	0xbe77e837	-0.24209677
22	0xbfcd8fc2	-1.6059496
23	0xbf5ae976	-0.85512483
24	0x3ef624c0	0.48074913
25	0xbeae0a2f	-0.33992144
26	0xbf612a36	-0.87955034
27	0x3fbf21d3	1.4932197
28	0x3f3b5fab	0.7319285
29	0x3fa525ec	1.2902198

res_blocks.0.conv.4.running_var f4 [30]
0	0x413cbaf2	11.795641
1	0x40b164ae	5.54354
2	0x4050c5a5	3.2620633
3	0x405fb8a6	3.495645
4	0x3fc8ab8d	1.5677353
5	0x405b6b87	3.428438
6	0x40a1d3fd	5.0571275
7	0x3fd75cfb	1.682525
8	0x40532b00	3.2994995
9	0x3f8ca39f	1.0987433
10	0x40b07bad	5.515097
11	0x405cc8d7	3.4497583
12	0x40c93179	6.287289
13	0x4055b9ea	3.3394723
14	0x40498c7a	3.149199
15	0x407079b2	3.7574277
16	0x406f9982	3.7437444
17	0x4053d075	3.3095982
18	0x40fd179b	7.9091315
19	0x407576c8	3.8353748
20	0x3fa973a2	1.3238413
21	0x4073aa04	3.807252
22	0x3fecc6a9	1.8498126
23	0x424f0113	51.75105
24	0x40b2dedc	5.5897045
25	0x3fb96688	1.4484415
26	0x408c956b	4.3932395
27	0x40d283b7	6.5785785
28	0x40682460	3.6272202
29	0x40617fe9	3.523432

final.0.weight f4 [30, 30, 1, 1]
0	0xbf59b94a	-0.85048354
1	0x3e3000b1	0.17187764
2	0xbdeffddf	-0.11718344
3	0xbe9f206e	-0.3107943
4	0x3d964972	0.07338227
5	0x3e1bcd28	0.1521498
6	0xbf0466f7	-0.5171961
7	0x3e6ebdc8	0.23314583
8	0x3de927ef	0.1138457
9	0xbe646889	-0.22305502
10	0xbee351ba	-0.4439829
11	0x3e091c0f	0.1338961
12	0xbe8c13aa	-0.27358752
13	0x3eaa2470	0.33230925
14	0xbe2cc717	-0.16872822
15	0x3e0014cf	0.12507938
16	0xbdcfb0d2	-0.10141148
17	0xbe63fbea	-0.22264066
18	0xbe678e2f	-0.22612832
19	0xbe843490	-0.25821352
20	0x3ee50f7c	0.44738376
21	0x3e2a6790	0.16641068
22	0xbef3d039	-0.476198
23	0xbe69a888	-0.22818196
24	0x3e3fbfd2	0.18725517
25	0xbe130c6a	-0.14360204
26	0xbec989aa	-0.39362842
27	0xbe82c0fd	-0.25537863
28	0xbf035b90	-0.5131159
29	0x3cbdc0d8	0.023163244
30	0x3e38d9cc	0.18051833
31	0x3e756e27	0.23967801
32	0x3dbc4f9e	0.09194873
33	0x3ded86c0	0.11597967
34	0x3e1874bf	0.14888285
35	0x3e11ba15	0.14231141
36	0xbb55eea4	-0.0032643462
37	0x3e8e667a	0.27812558
38	0xbe93ff71	-0.28905824
39	0x3d9951d0	0.074863076
40	0xbd8b7218	-0.06808871
41	0xbccc7ba4	-0.0249613
42	0x3dd42c0f	0.10359966
43	0x3e7d614c	0.24744147
44	0x3e6364af	0.22206376
45	0x3eb892d2	0.36049515
46	0x3e8027ff	0.25030515
47	0x3e8a9018	0.2706306
48	0xbed8df55	-0.4235789
49	0x3dba891b	0.09108182
50	0x3e71af14	0.23601943
51	0xbee60c2e	-0.44931167
52	0x3e86de64	0.26341546
53	0x3f370f7e	0.71508014
54	0x3ead8cab	0.33896384
55	0x3e12b7de	0.14327952
56	0xbe7cfe2b	-0.24706332
57	0xbe593e2e	-0.21215126
58	0x3d8322b6	0.06403105
59	0xbd7c1d7c	-0.061551556
60	0x3d2d7f3e	0.042357676
61	0xbdd67a58	-0.10472554
62	0xbe88283b	-0.26593193
63	0xbdec1958	-0.115282714
64	0xbe99cdd9	-0.30039862
65	0xbdd39a05	-0.10332111
66	0x3e444e1f	0.19170426
67	0xbdb9028f	-0.09033691
68	0xbec8d110	-0.39222002
69	0x3cf5557a	0.029947985
70	0x3e75ab00	0.23991013
71	0x3e8f3d76	0.27976578
72	0x3d86af4c	0.06576404
73	0xbdf76d5a	-0.12081404
74	0x3e182b04	0.14860159
75	0xbe4bd8e0	-0.1990695
76	0xbda2a6c1	-0.07941962
77	0x3ed0877d	0.4072837
78	0xbf1f41e1	-0.622099
79	0x3e5e2036	0.21691975
80	0x3c862d98	0.016379163
81	0x3e9d87e0	0.30767727
82	0x3de6c369	0.1126774
83	0xbe111168	-0.14166796
84	0x3ee8a877	0.45441028
85	0x3e65e2e1	0.22449829
86	0x3e9f07bb	0.31060585
87	0xbe1ec381	-0.15504266
88	0x3a3e3149	0.0007255269
89	0xbe7831a0	-0.2423768
90	0xbcb5b823	-0.02218253
91	0xbe0c0769	-0.13674702
92	0xbe04b5ab	-0.12959926
93	0x3e1b12c0	0.15143871
94	0x3eac7a20	0.33686924
95	0xbe408469	-0.1880051
96	0xbd47ab0f	-0.04874712
97	0x3d4cf631	0.050039474
98	0x3bcf4cc8	0.0063262917
99	0x3e504cbc	0.20341772
100	0xbed81e56	-0.42210644
101	0x3eff7e94	0.4990126
102	0xbd714d5c	-0.058911666
103	0x3f8a81e9	1.0820895
104	0xbd504088	-0.05084279
105	0xbe9965e3	-0.29960546
106	0xbe5ff09d	-0.2186913
107	0x3e26cd20	0.16289186
108	0xbc20d678	-0.009816758
109	0x3eae76b2	0.34074932
110	0x3c240b5e	0.010012476
111	0xbe15f99e	-0.14646003
112	0x3f012eeb	0.50462216
113	0x3d4c74ea	0.049916185
114	0xbd65b6e0	-0.056082606
115	0x3f07cdc8	0.5304837
116	0xbea687bf	-0.3252544
117	0x3e783aab	0.2424113
118	0x3d3f0e0c	0.046644256
119	0x3e6163c0	0.22010708
120	0x3dd9217c	0.1060209
121	0xbdaf417a	-0.085574105
122	0x3eb23181	0.34803393
123	0xbdf0b474	-0.11753169
124	0xbd1d54a3	-0.038410794
125	0x3eb99b37	0.36251232
126	0x3e4fdb1b	0.20298426
127	0xbed7e99c	-0.42170417
128	0xbe448562	-0.19191507
129	0xbdee54b4	-0.116372496
130	0x3e360b74	0.17777807
131	0x3d70806d	0.058716226
132	0xbd8b885b	-0.06813117
133	0xbe6caa24	-0.23111778
134	0xbdcb874a	-0.09937914
135	0xbedf3db5	-0.43601766
136	0xbbd9df04	-0.0066489
137	0xbe67ac79	-0.22624387
138	0xbe027905	-0.12741478
139	0xbe9d5815	-0.30731264
140	0x3db57679	0.088604875
141	0xbd67fa90	-0.05663544
142	0x3e4c7167	0.19965135
143	0xbd786754	-0.060645416
144	0xbe96f0ea	-0.29480678
145	0xbdce98a4	-0.10087708
146	0xbf334db3	-0.70040435
147	0x3d63191b	0.055443864
148	0xbece657e	-0.40311807
149	0xbea9f821	-0.3319712
150	0xbee49d2e	-0.4465117
151	0xbf0d72fb	-0.5525357
152	0x3e9d5f04	0.30736554
153	0xbe431d73	-0.19054203
154	0xbbf62310	-0.007511504
155	0x3ed5828a	0.41701156
156	0x3be35f4e	0.0069388514
157	0xbdec7a91	-0.11546815
158	0xbe8fafa1	-0.28063682
159	0xbd17d8f8	-0.037072152
160	0xbd0fc612	-0.035101004
161	0x3e400448	0.18751633
162	0xbef860c6	-0.48511332
163	0xbef372d1	-0.47548535
164	0x3df19c96	0.117974445
165	0x3ee02110	0.43775225
166	0x3edfef39	0.437372
167	0x3db8afde	0.09017919
168	0x3cf209d0	0.029545695
169	0x3de01b7e	0.10942744
170	0x3e291b32	0.1651428
171	0xbd8257dc	-0.06364414
172	0xbcc4b056	-0.024009865
173	0xbc20326c	-0.0097776465
174	0xbcf0cc28	-0.029394224
175	0xbea64c16	-0.32479924
176	0xbe108afb	-0.14115517
177	0x3d325139	0.04353449
178	0xbd7e8d5d	-0.062146533
179	0xbdf8124e	-0.12112866
180	0xbdcf14d0	-0.101113915
181	0xbe86f141	-0.26355937
182	0x3b4fce50	0.0031708665
183	0xbea03cdd	-0.31296435
184	0xbd90c8b2	-0.070695296
185	0x3eb3bb4a	0.35103828
186	0xbef138c3	-0.47113618
187	0x3daa46bc	0.08314273
188	0x3d7f7b29	0.062373314
189	0xbcf42233	-0.029801464
190	0xbf06a961	-0.526022
191	0x3ebcd9a2	0.3688479
192	0x3d81801a	0.063232616
193	0x3e1fa98c	0.15592021
194	0xbf4c525e	-0.7981318
195	0x3d9bdb96	0.07610242
196	0xbd8ae7f0	-0.0678252
197	0xbefb4d0c	-0.4908222
198	0x3f135f5f	0.575674
199	0xbe079406	-0.1324006
200	0xbf04045d	-0.5156916
201	0x3e233b2c	0.15940541
202	0x3e7a7925	0.24460275
203	0x3d4226d9	0.04740033
204	0xbbab7cb9	-0.005233374
205	0xbf534ea4	-0.8254187
206	0x3ed17f95	0.4091765
207	0xbd006300	-0.031344414
208	0xbd4085d1	-0.047002617
209	0x3e99ecfb	0.30063614
210	0x3da9d3fc	0.08292386
211	0x3e4f8c34	0.20268327
212	0xbea7ab0d	-0.3274769
213	0x3dacbb4f	0.08434164
214	0x3e99a7de	0.30010885
215	0x3dc217f8	0.09477228
216	0xbc3c8d17	-0.011508248
217	0xbead3ce7	-0.33835527
218	0xbe8aae9f	-0.2708635
219	0xbe87695d	-0.26447573
220	0xbd6abac4	-0.05730702
221	0xbf06d98e	-0.5267571
222	0x3f1b14e1	0.60578734
223	0x3c97d123	0.018532341
224	0x3ec548d8	0.38532138
225	0x3e155842	0.14584449
226	0xbd50c4d1	-0.05096895
227	0xbd74e83a	-0.05979178
228	0x3e855c9e	0.26047224
229	0x3e10d15c	0.14142364
230	0x3ef444db	0.47708783
231	0x3f0d1e63	0.5512449
232	0x3e011121	0.1260419
233	0xbd57a006	-0.052642845
234	0xbbde9b96	-0.0067934496
235	0xbe045e12	-0.1292651
236	0x3ea18157	0.3154399
237	0xbe184b8f	-0.14872573
238	0x3e3d3d76	0.18480477
239	0x3e229b13	0.15879469
240	0x3e8b711f	0.27234742
241	0xbd3375ac	-0.043813393
242	0xbc804909	-0.015659826
243	0x3dbfc8e2	0.09364487
244	0xbe77f6ec	-0.24215287
245	0xbe5aa793	-0.21352987
246	0xbe5947dd	-0.2121882
247	0x3d1c3a46	0.03814151
248	0xbe8c0521	-0.27347663
249	0x3dc12664	0.094311506
250	0x3d602cb2	0.054730125
251	0xbe98bd20	-0.2983179
252	0x3b6c1d10	0.0036028065
253	0x3daf5ade	0.085622534
254	0x3e117f2f	0.14208673
255	0x3f23a03d	0.6391638

final.0.bias f4 [30]
0	0xbabe3d35	-0.0014514091
1	0x3d82a752	0.0637957
2	0xbd136fce	-0.035995297
3	0x3cdd9068	0.027046397
4	0xbe34aef3	-0.17644863
5	0x3e1950e8	0.1497227
6	0xbcb54bf1	-0.022130938
7	0x3e338110	0.17529702
8	0x3de94e4d	0.11391888
9	0x3d4dc2ac	0.05023448
10	0xbca85c36	-0.020551782
11	0xbe3277c3	-0.17428498
12	0xbc8b1db9	-0.016981946
13	0xbd9fe7cc	-0.078078836
14	0xbdb73460	-0.089455366
15	0x3d361aba	0.044459082
16	0xbd485873	-0.048912477
17	0xbdc41625	-0.09574536
18	0x3d5cb8b0	0.05388707
19	0x3d9bdc51	0.076103814
20	0x3bc83de1	0.006110892
21	0x3d7d3f67	0.061828043
22	0x3e1517bf	0.1455984
23	0xbd0cc3fb	-0.03436659
24	0xbdc7dd76	-0.09759037
25	0xbe37fff2	-0.17968729
26	0xbc8b8732	-0.01703224
27	0x3e1d800e	0.1538088
28	0x3c82c600	0.015963554
29	0xbe2ac52a	-0.16676775

final.1.weight f4 [30]
0	0x4095f524	4.6861744
1	0x3fcf1d84	1.6180882
2	0x3f3aa070	0.7290106
3	0x3f9399c1	1.1531297
4	0x3f209aeb	0.62736386
5	0x3f87a46c	1.0597053
6	0x3f19cad4	0.60075116
7	0x3f17d6fb	0.5931241
8	0x3f7b20ce	0.9809693
9	0x408e931b	4.455457
10	0x3f246d94	0.642297
11	0x3f38ae4b	0.7214095
12	0x3f24f97e	0.64443195
13	0x3f4105d9	0.7539955
14	0x3f40aa36	0.7525972
15	0x3f33f971	0.7030249
16	0x3f3d6045	0.7397502
17	0x3f25ab67	0.64714664
18	0x3f561f66	0.8364166
19	0x40c862e2	6.2620707
20	0x4000d5f2	2.0130582
21	0x3f246e82	0.6423112
22	0x3f22432b	0.6338374
23	0x3f65009a	0.8945404
24	0x3f3fdac0	0.7494316
25	0x3fc61351	1.5474645
26	0x3f647805	0.89245635
27	0x3f974564	1.1818051
28	0x3f2cacca	0.67451155
29	0x3f1bdb03	0.6088106

final.1.bias f4 [30]
0	0x404f8a8e	3.2428317
1	0x3dcc029c	0.09961435
2	0xbec563bb	-0.3855265
3	0xbe2a136c	-0.16608971
4	0xbef0ae8e	-0.47008175
5	0xbd1ba01b	-0.037994485
6	0xbedd282e	-0.43194717
7	0xbec40cd7	-0.38291046
8	0xbe8ce8e6	-0.27521437
9	0x401e9c25	2.4782803
10	0xbec76a1f	-0.3894815
11	0xbeca84b3	-0.39554366
12	0xbec6599e	-0.38740247
13	0xbeb35fe5	-0.350341
14	0xbec59d7a	-0.38596708
15	0xbec7e170	-0.39039183
16	0xbefc9662	-0.49333483
17	0xbeea4e56	-0.4576289
18	0xbeabdaa8	-0.3356526
19	0x4080561e	4.0105124
20	0x3e9a719b	0.301648
21	0xbef175f1	-0.47160295
22	0xbec67009	-0.3875735
23	0xbe992f71	-0.29919007
24	0xbeb4861e	-0.35258573
25	0x3e8dee3e	0.27720827
26	0xbe922dbd	-0.2855052
27	0xbdf711c6	-0.12063937
28	0xbeba5141	-0.36390117
29	0xbecc96e6	-0.39958876

final.1.running_mean f4 [30]
0	0xbfa277a1	-1.2692758
1	0x3f2b584a	0.66931593
2	0xbde4582c	-0.1114963
3	0x3f578f77	0.84203285
4	0xbfab6bf1	-1.3392316
5	0xbf0988b8	-0.5372424
6	0xbf553139	-0.8327823
7	0x3f87207c	1.0556788
8	0x3ef0d096	0.47034138
9	0xbf0ff1fd	-0.5622862
10	0x3f3b3b88	0.7313771
11	0xbea87865	-0.32904354
12	0x3eb0b094	0.34509718
13	0x3fcd3d56	1.6034343
14	0x3f42568c	0.7591331
15	0x3f02fa04	0.51162744
16	0x3d4fc6d2	0.05072672
17	0xbf8c37ea	-1.0954564
18	0x3edd7d2d	0.43259564
19	0x3f6becbe	0.92158115
20	0x3ea58492	0.32327706
21	0xbe4cb12a	-0.19989458
22	0x3fd2ee03	1.6478885
23	0x3f2ebe8f	0.6825952
24	0x3f863e4f	1.0487765
25	0xbeb07e60	-0.34471416
26	0x3f7c422c	0.9853847
27	0xbf5d63bc	-0.8648031
28	0x3e80b6ca	0.25139457
29	0x3ebd16db	0.369315

final.1.running_var f4 [30]
0	0x4036d585	2.8567822
1	0x404d2d47	3.2058885
2	0x4028d045	2.6377118
3	0x40423f88	3.0351276
4	0x40368de7	2.852411
5	0x400aed12	2.1707196
6	0x409d18ea	4.9092913
7	0x3fcab1d5	1.583552
8	0x3f9e916b	1.2388128
9	0x4071324c	3.7686949
10	0x3fdecaa5	1.7405592
11	0x3ff75d76	1.9325397
12	0x3fea5f0d	1.8310257
13	0x400eed1a	2.2332215
14	0x3fb4fe49	1.4140102
15	0x3f88c0f0	1.068388
16	0x4082d730	4.088768
17	0x40360b77	2.8444498
18	0x3fcfc279	1.6231223
19	0x410e0f16	8.878683
20	0x4038ecf4	2.8894625
21	0x3fedd0ed	1.8579384
22	0x4084530f	4.135139
23	0x3f99c394	1.2012811
24	0x402f9250	2.7433052
25	0x3fcfbfe1	1.6230432
26	0x4016361c	2.3470526
27	0x3fbc0834	1.4690003
28	0x3fcf9b98	1.6219358
29	0x400f179d	2.2358162
