图像处理/model_weights_5.pth (torch, 83009 bytes, 24 tensors)

initial.0.weight f4 [30, 3, 3, 3]
0.011076587 -0.04073459 0.04126768 0.18851271 0.0586593 0.115230136 0.033458546 0.04136425
0.02404142 0.067507684 0.06432129 0.06660513 0.029499512 0.09568994 0.025133375 0.17210986
0.10597826 0.26293072 -0.081213005 0.014231199 0.011613475 0.122369066 0.03526468 -0.094117455
-0.050392702 0.043986414 0.19031996 0.080928504 -0.13210978 0.005098975 -0.08584793 -0.032401856
-0.06666263 0.0043558823 0.058850147 0.0676232 -0.1504248 -0.015572038 0.11262739 -0.014866784
-0.06951897 -0.06064513 0.05358944 -0.09946259 -0.07951515 0.08890577 -0.0044129193 -0.16601607
-0.18185394 0.031317007 0.021073282 -0.32060295 -0.106189154 -0.101807855 0.077419385 0.061614435
0.13468899 0.16510595 0.1406774 0.10242642 0.28321493 0.2463995 0.15544003 -0.052945744
0.08280164 -0.08309705 0.31505454 0.06544861 -0.022757128 0.16272448 0.08049812 0.29784083
0.080190174 0.068015255 0.057497744 0.0624754 0.16152509 0.09836664 0.12877762 0.1630544
0.0504454 -0.06331257 0.041900244 -0.09925638 -0.051917374 -0.06668473 -0.021490484 0.15139285
0.093501486 0.016726742 0.054803025 0.12009553 0.20020811 0.037794303 -0.036320888 0.0724854
0.023559125 0.05405355 0.098381266 0.14633782 0.042541225 0.07781398 0.0739127 0.033498824
-0.009676647 -0.023118712 0.11536633 0.007997235 -0.013308069 -0.04652004 0.029693529 -0.03409358
-0.14760275 -0.004938433 -0.09203308 0.16049786 0.04549091 -0.1780951 -0.09950195 -0.15973496
-0.14765686 -0.11327515 -0.10758401 -0.0056715757 -0.032524753 0.057512715 -0.13852136 -0.089568995
-0.041727882 -0.07081465 0.050341845 0.05127493 -0.111047015 -0.15374352 -0.13563989 0.05056761
0.09485353 0.11342926 -0.05385645 0.09530328 0.0821996 0.0460676 0.08424838 0.10504247
0.10371525 0.056592092 0.103288196 0.22493048 -0.034338575 -0.017572526 -0.061295513 -0.031154579
0.14041871 0.054073736 0.09145223 -0.030767564 0.02051448 -0.09683689 0.031064408 0.20121872
-0.0006183111 -0.02984092 0.23335211 0.14159372 -0.016238227 0.055803888 -0.021709181 -0.016623216
-0.02575775 -0.01206267 -0.018359222 -0.027311152 -0.053791456 0.12418702 0.02946139 -0.04580129
0.050640263 0.06640458 0.011168575 0.057914346 -0.12777866 -0.007244273 0.04340082 -0.02346627
0.016514504 0.16024776 -0.057460662 0.05129857 0.10309101 -0.0041886093 -0.09801834 -0.07277287
-0.04679639 -0.122452855 -0.15099512 -0.116520554 -0.03120368 -0.122120954 -0.120141484 -0.0061312444
-0.09843266 -0.12868229 0.05436127 -0.10198744 -0.00688531 -0.032422908 0.053355448 0.09268011
-0.0022576745 0.0064143324 -0.015926462 -0.16541749 -0.26151162 -0.1733366 -0.035890397 -0.2274854
0.04709699 0.045972865 -0.052794863 -0.0067398334 0.07086311 0.05670522 0.05147097 0.0125953015
-0.06739465 0.044328682 0.07463846 0.09913634 0.10888098 0.16080788 0.14020471 0.17214978
0.109497435 -0.03377971 0.15745296 0.051024996 0.04644745 -0.050508812 0.044712078 0.06426918
0.19186345 0.03578359 -0.019568024 -0.1968994 -0.24685767 -0.40105996 -0.23860295 -0.27115613
-0.33566228 -0.37515253 -0.24938549 -0.31796047 -0.095457874 -0.24030405 -0.30873665 -0.07063262
00000000: 937a 353c 50d9 26bd 4c08 293d 7a09 413e
00000010: bc44 703d c7fd eb3d d40b 093d 8f6d 293d
00000020: 83f2 c43c 7841 8a3d e1ba 833d 4568 883d
00000030: f6a8 f13c 16f9 c33d 82e4 cd3c 913d 303e
00000040: 210b d93d db9e 863e 0153 a6bd fa29 693c
00000050: 7246 3e3c a29c fa3d b271 103d a7c0 c0bd
00000060: 9468 4ebd 192b 343d 3ce3 423e d8bd a53d
00000070: c947 07be 4d15 a73b 0ad1 afbd cfb7 04bd
00000080: 6b86 88bd cabb 8e3b da0c 713d 087e 8a3d
00000090: f508 1abe dc21 7fbc 30a9 e63d d093 73bc
000000a0: f65f 8ebd 0767 78bd 9a80 5b3d 0bb3 cbbd
000000b0: d7d8 a2bd 3a14 b63d 409a 90bb 1e00 2abe
000000c0: eb37 3abe 4346 003d e0a1 ac3c 1226 a4be
000000d0: b379 d9bd a380 d0bd 0e8e 9e3d 6b5f 7c3d
000000e0: e9eb 093e 8911 293e bd0d 103e f1c4 d13d
000000f0: 8c01 913e 2750 7c3e ac2b 1f3e a3dd 58bd
00000100: e893 a93d c92e aabd d44e a13e ec09 863d
00000110: 286d babc 3fa1 263e 33dc a43d 987e 983e
00000120: bf3a a43d 954b 8b3d c182 6b3d 34e6 7f3d
00000130: d566 253e 7374 c93d 48de 033e bcf7 263e
00000140: d69f 4e3d 05aa 81bd 979f 2b3d ee46 cbbd
00000150: 50a7 54bd 0192 88bd d00c b0bc ba06 1b3e
00000160: b57d bf3d 8506 893c 2379 603d a5f4 f53d
00000170: 5b03 4d3e 33ce 1a3d 36c5 14bd 3a73 943d
00000180: 11ff c03c 4167 5d3d 1e7c c93d 95d9 153e
00000190: b53f 2e3d f05c 9f3d 8b5f 973d 1036 093d
000001a0: cd8a 1ebc 7463 bdbc 2f45 ec3d d606 033c
000001b0: 160a 5abc cc8b 3ebd d83f f33c b6a5 0bbd
000001c0: 2d25 17be 94d2 a1bb d77b bcbd 8d59 243e
000001d0: ad54 3a3d 905e 36be aec7 cbbd 9091 23be
000001e0: 5c33 17be cdfc e7bd 0155 dcbd a0d8 b9bb
000001f0: ad38 05bd 7492 6b3d 8bd8 0dbe f36f b7bd
00000200: dbea 2abd 4507 91bd 4033 4e3d a905 523d
00000210: 9e6c e3bd f16e 1dbe 2fe5 0abe fb1f 4f3d
00000220: 9142 c23d 9a4d e83d 9598 5cbd 5e2e c33d
00000230: 4458 a83d 61b1 3c3d 6a8a ac3d 8220 d73d
00000240: a968 d43d 1ccd 673d c388 d33d 2d54 663e
00000250: 9ba6 0cbd 42f4 8fbc 0111 7bbd e337 ffbc
00000260: ecc9 0f3e 6c7c 5d3d 4f4b bb3d 420c fcbc
00000270: fc0d a83c 6b52 c6bd c97a fe3c 480c 4e3e
00000280: 2816 22ba f274 f4bc dbf3 6e3e f2fd 103e
00000290: 0806 85bc 9e92 643d 74d7 b1bc 692d 88bc
000002a0: eb01 d3bc 81a2 45bc 1466 96bc a3bb dfbc
000002b0: 6e54 5cbd c455 fe3d 0359 f13c 229a 3bbd
000002c0: 2a6c 4f3d 20ff 873d 66fc 363c 9837 6d3d
000002d0: 69d8 02be 5e61 edbb 0fc5 313d 563c c0bc
000002e0: 6d49 873c fd17 243e df5b 6bbd 731e 523d
000002f0: 6121 d33d 9a40 89bb d7bd c8bd f109 95bd
00000300: 92ad 3fbd 90c8 fabd 779e 1abe 54a2 eebd
00000310: dc9e ffbc 8d1a fabd bd0c f6bd 9be8 c8bb
00000320: 1097 c9bd 4ac5 03be eca9 5e3d cade d0bd
00000330: 2b9e e1bb e2cd 04bd 3e8b 5a3d 12cf bd3d
00000340: 7ef5 13bb 522f d23b 3678 82bc 3463 29be
00000350: dae4 85be 267f 31be cf01 13bd eff1 68be
00000360: c6e8 403d 0b4e 3c3d 6d3f 58bd d2d9 dcbb
00000370: ae20 913d bc43 683d 39d3 523d 865c 4e3c
00000380: 3506 8abd fe91 353d 0ddc 983d fe07 cb3d
00000390: fefc de3d d2aa 243e d391 0f3e 0848 303e
000003a0: 3140 e03d 985c 0abd 593b 213e 96ff 503d
000003b0: ae3f 3e3d 54e2 4ebd 0324 373d 8f9f 833d
000003c0: da77 443e d091 123d 1f4d a0bc ff9f 49be
000003d0: 42c8 7cbe bb57 cdbe 5554 74be fad4 8abe
000003e0: eddb abbe fe13 c0be e95e 7fbe b7cb a2be
000003f0: 6b7f c3bd 4412 76be bb12 9ebe d6a7 90bd

initial.0.bias f4 [30]
-0.1464298 -0.15732253 -0.12981719 0.14400084 0.17220813 0.08171305 -0.16557601 0.1414416
-0.079202935 -0.18550873 -0.036479954 -0.086733304 0.088338725 0.14462003 -0.000538286 -0.0041747577
0.15127558 0.03417348 -0.16814186 0.01852076 0.021353886 0.041555654 0.08188012 0.120424025
0.06344794 -0.04137346 0.12622735 0.1560526 -0.060621466 0.008278204
00000000: b2f1 15be 2819 21be ccee 04be f574 133e
00000010: 5457 303e 2c59 a73d c28c 29be 11d6 103e
00000020: 2635 a2bd 00f6 3dbe 016c 15bd 3ba1 b1bd
00000030: efea b43d 4617 143e c31b 0dba 68cc 88bb
00000040: fce7 1a3e 7ef9 0b3d 612d 2cbe d9b8 973c
00000050: 58ee ae3c 4336 2a3d c4b0 a73d dfa0 f63d
00000060: fef0 813d 3877 29bd be41 013e 41cc 1f3e
00000070: 374e 78bd 4ea1 073c

initial.1.weight f4 [30]
0.9036238 1.127946 0.9399725 0.9531928 1.0044656 1.122903 0.9460704 0.89424396
0.8850621 1.0825926 0.97041714 0.9361834 1.0001135 0.8563848 0.9997537 0.8396452
1.0296972 0.9511377 0.96732795 0.89895594 0.98297364 1.0799472 1.0611326 1.0687333
0.8044743 0.930662 1.0494549 1.1922866 1.0375657 0.7800307
00000000: e453 673f 8960 903f 0aa2 703f 7104 743f
00000010: 5492 803f 49bb 8f3f ab31 723f 2ced 643f
00000020: 6e93 623f 6592 8a3f 426d 783f b7a9 6f3f
00000030: b803 803f 093c 5b3f dcef 7f3f fdf2 563f
00000040: 1ecd 833f c37d 733f cea2 773f fa21 663f
00000050: 29a4 7b3f b63b 8a3f 31d3 873f 41cc 883f
00000060: 07f2 4d3f dd3f 6e3f 8a54 863f d99c 983f
00000070: f4ce 843f 18b0 473f

initial.1.bias f4 [30]
0.104825206 -0.10185676 0.07240139 0.052411184 0.04823805 0.14739476 -0.07476452 -0.15837699
1.2572855e-08 -0.2353774 0.03206952 0.026520254 -0.073064044 -0.14934607 -0.016928023 -0.05550614
0.007672667 0.05720313 0.0019283043 -0.13157958 0.07445892 -0.08947632 0.081454955 0.12677534
-0.09408156 -0.4822456 0.09408814 0.19203576 0.090826176 -0.13658719
00000000: 99ae d63d 479a d0bd 2e47 943d 1cad 563d
00000010: 4395 453d a7ee 163e 241e 99bd 942d 22be
00000020: 0000 5832 c606 71be 545b 033d 0141 d93c
00000030: 9aa2 95bd 2dee 18be a3ac 8abc 685a 63bd
00000040: ff6a fb3b d44d 6a3d 28bf fc3a ccbc 06be
00000050: eb7d 983d 5c3f b7bd dbd1 a63d 65d1 013e
00000060: d5ad c0bd e5e8 f6be 48b1 c03d 06a5 443e
00000070: 1303 ba3d 83dd 0bbe

initial.1.running_mean f4 [30]
0.3556702 -0.4442341 0.467592 0.49092308 -0.2842682 0.47995263 0.1499427 -0.43905422
0.43778136 -1.8532581 -0.39961302 0.32002005 -0.7262728 -1.5983882 5.965198 3.7633
0.59780264 0.7659608 -0.41944575 -0.2482014 0.7648039 -0.40773514 0.818 1.1173216
0.50507975 -1.908151 -2.3762128 0.44619933 0.44773304 1.9215355
00000000: 681a b63e a772 e3be 3868 ef3e 455a fb3e
00000010: 9a8b 91be 5abc f53e 948a 193e b7cb e0be
00000020: e124 e03e 9037 edbf 149a ccbe abd9 a33e
00000030: 04ed 39bf fc97 ccbf e7e2 be40 e8d9 7040
00000040: 9809 193f 0216 443f 98c1 d6be 8228 7ebe
00000050: 30ca 433f a9c2 d0be 7368 513f 6504 8f3f
00000060: e84c 013f 4b3e f4bf df13 18c0 3d74 e43e
00000070: 443d e53e e0f4 f53f

initial.1.running_var f4 [30]
0.35441494 0.3355825 0.40134037 0.34190053 0.34668374 0.3478061 0.3266443 0.372944
0.36067808 0.98493487 0.34055558 0.34837458 0.44077888 0.9458036 7.962226 3.3579957
0.35846803 0.43757144 0.3339296 0.32944307 0.43129867 0.35210916 0.43433383 0.5402919
0.35491386 1.0650345 1.610069 0.3366617 0.36282247 1.1008183
00000000: e075 b53e 78d1 ab3e 7c7c cd3e 960d af3e
00000010: 8880 b13e a413 b23e ec3d a73e 84f2 be3e
00000020: ccaa b83e b124 7c3f 4d5d ae3e 275e b23e
00000030: c5ad e13e 2f20 723f 8eca fe40 67e9 5640
00000040: 1f89 b73e 5d09 e03e d2f8 aa3e c3ac a83e
00000050: 2ed3 dc3e a747 b43e 0161 de3e 9250 0a3f
00000060: 45b7 b53e 0d53 883f be16 ce3f ec5e ac3e
00000070: dec3 b93e 9de7 8c3f

res_blocks.0.conv.0.weight f4 [30, 30, 3, 3]
-0.059924655 0.072623506 -0.07883999 0.14312887 0.0141433505 0.07230354 0.055512868 0.17870508
0.13076574 0.12780526 -0.049753375 -0.092313915 0.1231959 0.056415208 -0.07101883 -0.04607425
0.08383094 -0.02293224 0.116731584 0.03490533 -0.021344945 0.11828135 -0.027922604 -0.04967376
-0.04175563 0.02023825 0.18341817 0.02813812 0.028972656 0.007914139 0.1134442 0.04784923
0.13455948 0.03319309 0.064639606 0.06418938 -0.031435605 -0.10263174 -0.11199602 -0.06491847
0.0043572076 0.02998464 0.04887804 0.12194435 -0.16142401 0.1402894 -0.037190046 0.055335775
0.2092983 0.037916124 -0.01643769 0.13789216 0.009502135 0.19201994 -0.07810078 0.099746786
0.044427805 0.043143734 0.075903594 0.099681325 0.018496385 0.045946725 -0.06975444 0.0017320651
0.04281541 -0.10199934 0.029165735 -0.23395652 0.09864092 -0.14802349 -0.042389303 -0.11294949
-0.011260472 -0.10132634 0.10970979 0.03327601 0.06619683 0.07158967 0.06311166 0.15459669
-0.0049660723 -0.13532084 -0.09381406 -0.062467165 -0.068207 0.023839893 -0.0320327 0.0464235
-0.007247968 0.10716014 -0.07920688 -0.1960427 0.05047877 -0.06262992 -0.1424696 0.0037695235
-0.052785505 -0.055658877 -0.072233126 -0.10378457 0.0066339634 0.023140945 0.042773813 0.22363654
0.049483802 0.035816472 -0.027259445 0.16523929 -0.0699097 0.17241997 -0.025915382 0.001072109
0.003925749 -0.09522607 -0.0010188953 -0.025629431 -0.07579665 -0.08299785 -0.075871386 0.12585044
0.030745108 -0.016557287 0.015180819 0.042639546 -0.03940919 -0.041917026 0.07449067 0.05032247
-0.09691934 0.09422992 0.19553483 0.007841967 0.02008523 -0.1030962 -0.16647065 0.13438323
0.051040374 0.010525958 -0.17970438 -0.0847115 -0.021514734 0.011042541 -0.12335919 -0.0648104
-0.020196564 -0.10688683 0.06492512 0.083833046 0.033088878 0.15384974 0.022951178 -0.078352876
-0.021150552 0.20923571 0.062487092 0.16279478 0.058320787 0.08814843 0.054455202 0.22940871
-0.041865338 0.0011843904 -0.07160483 -0.18659817 -0.03328411 0.012084141 -0.08289883 -0.06959862
-0.088601395 -0.09020419 -0.06987074 0.037805844 0.112891294 -0.0063581504 -0.050404303 -0.09007235
-0.060140822 -0.09501061 -0.049691703 0.03337556 0.06967058 -0.039894193 0.2875494 0.036957286
-0.009048376 0.21883251 0.14282499 0.023929901 0.04538428 -0.1505721 -0.13229834 -0.059076034
0.07752855 -0.100673795 0.1110377 -0.001638351 0.0061715487 -0.10115909 -0.056979384 -0.07227636
0.13380246 0.17334713 0.19558911 0.14884923 0.07604044 -0.052302793 0.20814201 -0.01089594
0.046859514 0.037255537 0.1435931 0.1682441 0.070182845 0.012269192 0.008815165 0.16775456
0.017404921 0.011207636 0.07267511 0.062465258 0.18219332 0.2847001 -0.002591112 0.106075816
0.026761025 -0.0007843103 -0.116825014 0.00015055109 -0.04650309 -0.044684947 0.03869035 0.03690055
-0.06796806 -0.08916092 -0.05659077 -0.06462668 0.033209667 -0.16237426 -0.09335621 0.05241355
0.023519937 -0.04357467 0.047569428 0.097420976 0.24047284 0.053877342 0.13717724 0.08143644
0.26188508 0.03899769 -0.019145798 0.17712773 0.022906942 0.021640545 0.14943627 0.018450728
00000000: 8e73 75bd a2bb 943d dc76 a1bd 6090 123e
00000010: 83b9 673c e113 943d 7661 633d 77fe 363e
00000020: 74e7 053e 62df 023e 32ca 4bbd 140f bdbd
00000030: 224e fc3d a213 673d 5272 91bd 5ab8 3cbd
00000040: 8eaf ab3d 65dc bbbc f810 ef3d e4f8 0e3d
00000050: 98db aebc 7e3d f23d f2bd e4bc b676 4bbd
00000060: f407 2bbd b0ca a53c f9d1 3b3e ea81 e63c
00000070: 1058 ed3c 4eaa 013c 6f55 e83d 8efd 433d
00000080: f6c9 093e 7af5 073d c561 843d b975 833d
00000090: 9fc2 00bd 9730 d2bd 2b5e e5bd faf3 84bd
000000a0: e8c6 8e3b 59a2 f53c 5734 483d f6bd f93d
000000b0: 564c 25be 06a8 0f3e 9754 18bd c4a7 623d
000000c0: 4b52 563e f04d 1b3d 56a8 86bc 9a33 0d3e
000000d0: d8ae 1b3c e0a0 443e 4df3 9fbd 0b48 cc3d
000000e0: eef9 353d 7cb7 303d 5873 9b3d b925 cc3d
000000f0: bb85 973c a232 3c3d 6adb 8ebd 7606 e33a
00000100: 365f 2f3d 08e5 d0bd fbec ee3c 4c92 6fbe
00000110: 4004 ca3d 7893 17be 68a0 2dbd 1052 e7bd
00000120: d87d 38bc 2f84 cfbd 87af e03d 6d4c 083d
00000130: 3492 873d 9b9d 923d b040 813d 984e 1e3e
00000140: 6fba a2bb 8c91 0abe 9621 c0bd 92dd 7fbd
00000150: 1db0 8bbd e14b c33c b834 03bd 9126 3e3d
00000160: 5d80 edbb c776 db3d 3737 a2bd 6bbf 48be
00000170: d4c2 4e3d 1e44 80bd 8de3 11be 1c0a 773b
00000180: 9d35 58bd 90fa 63bd f6ee 93bd 018d d4bd
00000190: b861 d93b 1492 bd3c 9833 2f3d fa00 653e
000001a0: 87af 4a3d 4bb4 123d 334f dfbc 7d34 293e
000001b0: d12c 8fbd dc8e 303e 7f4c d4bc 0286 8c3a
000001c0: 92a3 803b e305 c3bd 748c 85ba d0f4 d1bc
000001d0: 463b 9bbd c7fa a9bd 7562 9bbd f0de 003e
000001e0: 2add fb3c 26a3 87bc f8b8 783c cea6 2e3d
000001f0: 886b 21bd 30b1 2bbd 908e 983d ef1e 4e3d
00000200: a67d c6bd 9efb c03d 483a 483e 987b 003c
00000210: c889 a43c 1a24 d3bd 4877 2abe c29b 093e
00000220: b60f 513d 1175 2c3c 6d04 38be 397d adbd
00000230: ab3f b0bc c6eb 343c bea3 fcbd 51bb 84bd
00000240: 4473 a5bc 7be7 dabd 76f7 843d a9b0 ab3d
00000250: 3488 073d c98a 1d3e 1c04 bc3c 7977 a0bd
00000260: ec43 adbc e341 563e 77f2 7f3d adb3 263e
00000270: c7e1 6e3d 2a87 b43d 6b0c 5f3d 1eea 6a3e
00000280: fd7a 2bbd 8c3d 9b3a 8ea5 92bd 9713 3fbe
00000290: eb54 08bd 90fc 453c ddc6 a9bd b989 8ebd
000002a0: a674 b5bd f9bc b8bd 6418 8fbd 4dda 1a3d
000002b0: 8d33 e73d 0858 d0bb be74 4ebd da77 b8bd
000002c0: 3956 76bd ec94 c2bd 8789 4bbd d0b4 083d
000002d0: 73af 8e3d 1868 23bd ad39 933e 8660 173d
000002e0: a43f 14bc a115 603e b740 123e a408 c43c
000002f0: dee4 393d 932f 1abe 3779 07be b6f9 71bd
00000300: 4ac7 9e3d 102e cebd bc67 e33d f0bd d6ba
00000310: b43a ca3b 7f2c cfbd 3763 69bd a105 94bd
00000320: 8303 093e e981 313e 8348 483e ef6b 183e
00000330: 17bb 9b3d 743b 56bd 2e23 553e e284 32bc
00000340: c3ef 3f3d 4399 183d 120a 133e 2e48 2c3e
00000350: 06bc 8f3d b904 493c 7b6d 103c dac7 2b3e
00000360: c494 8e3c 3ca0 373c b0d6 943d 92db 7f3d
00000370: e390 3a3e 36c4 913e a5cf 29bb 473e d93d
00000380: f039 db3c 2c9a 4dba f441 efbd 40dd 1d39
00000390: 067a 3ebd 9007 37bd c679 1e3d 0825 173d
000003a0: d732 8bbd 009a b6bd b9cb 67bd fe5a 84bd
000003b0: dc06 083d 7045 26be 8a31 bfbd 97af 563d
000003c0: e2ac c03c 5a7b 32bd 29d8 423d a684 c73d
000003d0: 833e 763e 7dae 5c3d 3178 0c3e 26c8 a63d
000003e0: cd15 863e 0bbc 1f3d a6d7 9cbc f960 353e
000003f0: 57a7 bb3c 8347 b13c d205 193e fb25 973c

res_blocks.0.conv.0.bias f4 [30]
-0.03586138 0.014647161 0.042040538 0.04030864 -0.03484566 -0.037183244 0.006809094 -0.060106482
-0.05359296 0.01209321 0.018194666 -0.0109730335 -0.037080903 -0.039947506 -0.017072238 -0.004824197
0.03833893 0.01166067 -0.02095099 -0.033402648 -0.049936306 0.03197929 -0.055832393 -0.04393396
-0.034385744 -0.023565708 -0.013052344 0.04699391 0.029219536 0.03804645
00000000: 62e3 12bd a5fa 6f3c b332 2c3d ac1a 253d
00000010: 53ba 0ebd 754d 18bd d21e df3b 3732 76bd
00000020: 4b84 5bbd 9922 463c fb0c 953c 3dc8 33bc
00000030: 25e2 17bd ff9f 23bd 14db 8bbc 4c14 9ebb
00000040: 4809 1d3d 650c 3f3c 69a1 abbc 37d1 08bd
00000050: 038a 4cbd b7fc 023d 82b0 64bd 19f4 33bd
00000060: 11d8 0cbd df0c c1bc 80d9 55bc b07c 403d
00000070: cf5d ef3c 98d6 1b3d

res_blocks.0.conv.1.weight f4 [30]
0.99376756 0.90496004 0.9735118 0.8475978 1.0355332 0.91925186 0.89298856 1.054059
1.0084692 1.2087995 1.0210978 1.0976293 1.0456562 1.2707523 0.9459447 0.8902412
1.0199373 0.9830368 0.9950194 0.9371675 0.9058706 1.0206206 0.9835001 0.9585941
0.9497885 0.93121904 1.0623713 1.053028 0.97412735 1.1018456
00000000: 8d67 7e3f 76ab 673f 1238 793f 2bfc 583f
00000010: 5a8c 843f 1754 6b3f e69a 643f 68eb 863f
00000020: 8515 813f f1b9 9a3f 55b3 823f 1e7f 8c3f
00000030: 10d8 853f 03a8 a23f 6f29 723f d9e6 633f
00000040: 4e8d 823f 4da8 7b3f 97b9 7e3f 36ea 6f3f
00000050: 23e7 673f b2a3 823f aac6 7b3f 6c66 753f
00000060: 5725 733f 5f64 6e3f c8fb 873f 9fc9 863f
00000070: 6960 793f 4709 8d3f

res_blocks.0.conv.1.bias f4 [30]
0.021191753 -0.097295925 -0.04591793 -0.08047726 0.06835741 0.0051959543 -0.053662762 0.06735613
-0.012069126 0.015558096 0.07244922 0.06905612 0.06114024 0.11487142 -0.020145256 -0.08134317
0.04199193 0.16887426 -0.08217211 -0.07255959 -0.050985683 0.01614395 0.10601263 -0.03600221
0.004379838 0.03022869 0.068702586 -0.06990708 -0.012978518 0.20537898
00000000: 549a ad3c 1643 c7bd 7014 3cbd 43d1 a4bd
00000010: f8fe 8b3d d342 aa3b 7ccd 5bbd 03f2 893d
00000020: 95bd 45bc 62e7 7e3c 4260 943d 4c6d 8d3d
00000030: 306e 7a3d b541 eb3d aa07 a5bc 3f97 a6bd
00000040: bbff 2b3d 60ed 2c3e da49 a8bd 1f9a 94bd
00000050: 5dd6 50bd 5140 843c 261d d93d 0e77 13bd
00000060: be84 8f3b 28a2 f73c f1b3 8c3d 712b 8fbd
00000070: daa3 54bc de4e 523e

res_blocks.0.conv.1.running_mean f4 [30]
0.94746614 0.8619942 -0.027356567 -0.22808456 1.1268779 0.35848013 0.6087113 -1.8143845
0.09561558 1.470297 -2.9389162 0.6763636 1.6087337 0.77947366 -0.27029696 -2.6514485
0.5367275 -2.2777948 1.0310012 0.518993 0.022009224 -2.0892823 -1.8899649 -1.9521087
1.8473877 -1.6003304 -0.9930629 1.1820818 0.958913 -2.6347268
00000000: 248d 723f a7ab 5c3f e11a e0bc 008f 69be
00000010: 893d 903f b58a b73e 81d4 1b3f c03d e8bf
00000020: 1ad2 c33d b132 bc3f 3417 3cc0 2a26 2d3f
00000030: fcea cd3f 968b 473f 5d64 8abe 55b1 29c0
00000040: f966 093f 64c7 11c0 d9f7 833f badc 043f
00000050: b04c b43c cdb6 05c0 5fea f1bf b3de f9bf
00000060: 3377 ec3f a0d7 ccbf 5f39 7ebf 754e 973f
00000070: 537b 753f 5d9f 28c0

res_blocks.0.conv.1.running_var f4 [30]
20.362976 3.998817 7.0598283 11.059856 8.668732 3.0215056 2.8210623 2.3273544
7.546006 2.2536902 7.9471354 2.0773919 56.163357 86.09237 2.9623387 45.845654
2.0697174 5.9305377 1.8657947 3.1999362 3.8562934 19.823074 10.75164 69.39999
29.063715 31.53257 1.4772519 1.5187887 16.76067 5.1256123
00000000: 60e7 a241 9eec 7f40 1dea e140 2cf5 3041
00000010: 20b3 0a41 5960 4140 498c 3440 60f3 1440
00000020: e278 f140 763c 1040 ef4e fe40 fdf3 0440
00000030: 47a7 6042 4b2f ac42 f596 3d40 f361 3742
00000040: 4076 0440 f7c6 bd40 5cd2 ee3f c1cb 4c40
00000050: 83cd 7640 a895 9e41 b806 2c41 cbcc 8a42
00000060: 7d82 e841 b442 fc41 9716 bd3f ab67 c23f
00000070: da15 8641 0405 a440

res_blocks.0.conv.3.weight f4 [30, 30, 3, 3]
-0.034025226 -0.12245987 -0.056142293 -0.11108151 -0.1643055 -0.15071768 -0.07909334 -0.022408308
0.035728343 0.019508107 0.06809792 0.04078965 -0.08721813 0.02986976 0.11500927 0.037163343
-0.045238666 0.08083006 -0.06349851 0.05476921 -0.011059515 -0.07744839 0.088054806 0.03936118
0.09265346 0.022866083 -0.016535819 -0.10240435 -0.10634296 -0.018325897 -0.067732245 -0.25765097
0.08432971 -0.07122715 -0.039175242 0.034920238 -0.099254936 -0.052376665 -0.12121423 -0.18240093
0.0006977152 -0.0720417 -0.103377044 -0.024230057 -0.1536549 0.037655085 -0.09024537 0.018593261
-0.17090416 -0.21200839 0.05445538 -0.048306245 -0.07389086 -0.015964393 -0.13531876 -0.15263207
-0.076122396 -0.115522 -0.027715415 0.0155153265 -0.116510995 -0.208885 0.11464251 0.023526592
0.33804744 -0.010198822 0.120310634 0.056305725 0.114757776 0.0387955 0.078986384 0.010026758
-0.02534491 -0.26604527 -0.12304585 -0.042998902 -0.05969566 0.046797838 0.052130092 -0.06663206
-0.05565896 0.05295833 -0.06106419 0.017383339 -0.029233553 0.16119105 0.022593241 -0.050124027
-0.038181305 -0.029084114 0.12525593 0.021979362 0.018147457 0.014081436 0.066343755 0.049929928
0.05094094 -0.0010185703 0.0670481 -0.14672159 -0.0066179796 -0.2091021 -0.05360702 -0.29589394
-0.03797121 -0.111707486 -0.20536436 -0.039995413 -0.24264565 -0.046998598 0.080510095 -0.14550254
0.08445303 -0.07777605 -0.1380347 -0.16637753 -0.13000548 -0.05318866 -0.14564212 -0.11758624
0.06341865 -0.102260746 0.01589857 0.06338329 -0.19295998 0.0044186385 0.054329887 -0.031117924
0.011654141 0.06513481 -0.07522459 0.15051115 -0.00511258 -0.11140653 0.1468088 -0.081265695
0.009240555 -0.046535876 -0.027450772 -0.17748465 0.00399254 0.1301317 -0.103076056 -0.14268278
-0.08432142 -0.032720223 -0.102997944 -0.02986529 0.10350869 -0.0560822 -0.042200856 -0.0677854
-0.023303203 0.036787126 0.0045349323 -0.034547564 -0.0036104005 -0.08105858 0.022861274 0.008730936
-0.0057394723 -0.03402757 0.081567675 0.015600712 0.0413151 -0.012094079 -0.07802698 0.021261794
0.03427854 -0.041262515 0.05154049 -0.04274968 0.013400024 -0.026897855 0.14680251 0.1649427
-0.14697932 -0.15583144 0.030800449 -0.06808248 0.045759145 0.09969189 -0.07969802 0.00048035546
-0.054795038 -0.07023973 -0.032722227 -0.17504258 -0.043254398 0.03991979 -0.1320341 -0.11175216
0.0037997712 -0.123190165 0.09044737 -0.051412165 -0.095174946 -0.021359505 -0.21704789 0.015903618
0.060112223 0.0250767 0.033522714 -0.091098376 0.118429914 0.047380045 -0.07746493 0.0058151
0.00898146 0.0050310395 0.014840868 -0.038797665 -0.0040524174 0.07544166 0.123102106 -0.07714412
-0.02528254 -0.11878152 0.021088967 -0.10244293 -0.13202296 0.046745986 -0.061922494 0.060610004
0.04370004 -0.11684242 0.037254438 0.09501087 0.11354562 0.11641819 -0.08945254 0.05836518
-0.13046834 -0.13964133 0.07324149 0.041499283 0.061792243 0.03497171 -0.1910284 0.048445936
0.042266835 0.2165438 -0.058055542 0.0772375 0.08724417 0.022556845 0.093852155 0.0023020203
-0.1153206 0.011343904 0.1017786 0.09918546 -0.12827218 -0.15925874 -0.05598249 -0.15829808
00000000: 095e 0bbd 3ecc fabd 76f5 65bd b47e e3bd
00000010: b33f 28be bc55 1abe b0fb a1bd a191 b7bc
00000020: e257 123d 77cf 9f3c ec76 8b3d 0c13 273d
00000030: 6b9f b2bd 6db1 f43c fb89 eb3d 9738 183d
00000040: 2e4c 39bd 3b8a a53d 820b 82bd ae55 603d
00000050: f832 35bc 439d 9ebd 1456 b43d 3039 213d
00000060: 19c1 bd3d a751 bb3c 2076 87bc 5fb9 d1bd
00000070: 56ca d9bd 3120 96bc 34b7 8abd d4ea 83be
00000080: 0eb5 ac3d 8adf 91bd 3876 20bd 8608 0f3d
00000090: 2c46 cbbd ea88 56bd 2b3f f8bd 4fc7 3abe
000000a0: e0e6 363a 998a 93bd 58b7 d3bd 1d7e c6bc
000000b0: b657 1dbe 383c 1a3d 91d2 b8bd e550 983c
000000c0: 8001 2fbe ba18 59be 9b0c 5f3d c5dc 45bd
000000d0: 1754 97bd c2c7 82bc 0091 0abe 954b 1cbe
000000e0: 0fe6 9bbd cc96 ecbd 700b e3bc ff33 7e3c
000000f0: 519d eebd f3e5 55be b1c9 ea3d d7ba c03c
00000100: 8e14 ad3e f618 27bc 6c65 f63d d5a0 663d
00000110: 2006 eb3d 08e8 1e3d 9dc3 a13d 4547 243c
00000120: 21a0 cfbc 1637 88be 76ff fbbd 9e1f 30bd
00000130: 7083 74bd 17af 3f3d 5d86 553d 6476 88bd
00000140: a6fa 63bd d5ea 583d 721e 7abd 8167 8e3c
00000150: 347b efbc 440f 253e 7615 b93c da4e 4dbd
00000160: 0064 1cbd cf41 eebc 1743 003e 100e b43c
00000170: faa9 943c d3b5 663c 3cdf 873d 5383 4c3d
00000180: 72a7 503d 8c81 85ba 8450 893d 2f3e 16be
00000190: a3db d8bb dc1e 56be 0993 5bbd 697f 97be
000001a0: b387 1bbd e5c6 e4bd 094b 52be 3bd2 23bd
000001b0: 1a78 78be 9a81 40bd 7ae2 a43d 9efe 14be
000001c0: b6f5 ac3d 0d49 9fbd f858 0dbe df5e 2abe
000001d0: 2820 05be 5adc 59bd 3523 15be 0ed1 f0bd
000001e0: a3e1 813d 156e d1bd b83d 823c 19cf 813d
000001f0: 4d97 45be 3aca 903b 0489 5e3d 04eb febc
00000200: 03f1 3e3c 6665 853d 5a0f 9abd 981f 1a3e
00000210: 6e87 a7bb 1b29 e4bd 0c55 163e a16e a6bd
00000220: b265 173c 679c 3ebd 71e0 e0bc 89be 35be
00000230: dad3 823b 3f41 053e 8a19 d3bd 6f1b 12be
00000240: b5b0 acbd a405 06bd 96f0 d2bd 0da8 f4bc
00000250: 5dfc d33d 73b6 65bd ceda 2cbd 12d3 8abd
00000260: 5ce6 bebc 19ae 163d c599 943b bf81 0dbd
00000270: 789c 6cbb 0a02 a6bd 9147 bb3c 330c 0f3c
00000280: 2f12 bcbb 7e60 0bbd f40c a73d 219a 7f3c
00000290: 063a 293d 3e26 46bc 9ccc 9fbd 372d ae3c
000002a0: a867 0c3d e202 29bd 1f1c 533d 4a1a 2fbd
000002b0: c68b 5b3c e458 dcbc 6653 163e bde6 283e
000002c0: bf81 16be 4792 1fbe 3951 fc3c d46e 8bbd
000002d0: f16d 3b3d 432b cc3d b738 a3bd 38d8 fb39
000002e0: c370 60bd d9d9 8fbd be07 06bd 5d3e 33be
000002f0: 862b 31bd ef82 233d f233 07be 51de e4bd
00000300: 9505 793b 204b fcbd 793c b93d 9095 52bd
00000310: 15eb c2bd 21fa aebc cd41 5ebe 4e48 823c
00000320: 3c38 763d a76d cd3c 1d4f 093d c991 babd
00000330: 628b f23d 9411 423d efa5 9ebd 988c be3b
00000340: f926 133c 6bdb a43b 1d27 733c 4dea 1ebd
00000350: 24ca 84bb 2881 9a3d f51c fc3d bdfd 9dbd
00000360: 541d cfbc ba43 f3bd c5c2 ac3c 99cd d1bd
00000370: 0731 07be b878 3f3d 71a2 7dbd 3242 783d
00000380: d0fe 323d 144b efbd 1c98 183d 0f95 c23d
00000390: 9b8a e83d a96c ee3d e532 b7bd 5410 6f3d
000003a0: 7e99 05be 23fe 0ebe a2ff 953d 27fb 293d
000003b0: dd19 7d3d 7f3e 0f3d f39c 43be 3f6f 463d
000003c0: fd1f 2d3d a8bd 5d3e a6cb 6dbd b22e 9e3d
000003d0: 12ad b23d 22c9 b83c 8f35 c03d 7edd 163b
000003e0: 352d ecbd c8db 393c 4c71 d03d bf21 cb3d
000003f0: c859 03be b914 23be e54d 65bd e418 22be

res_blocks.0.conv.3.bias f4 [30]
0.022923112 0.0016730544 -0.019041495 0.0357479 -0.035728227 0.023756199 0.029082812 -0.05897456
-0.041878078 -0.053303335 0.03757132 -0.018754285 -0.05358925 0.034293257 -0.060381327 0.018861348
-0.0026527413 -0.030366637 0.050736155 0.03470675 -0.044320326 -0.0457455 -0.033466965 0.029735677
0.031822614 0.044044383 -0.009203858 -0.0555604 -0.058070175 0.03077149
00000000: 40c9 bb3c 644a db3a e9fc 9bbc 646c 123d
00000010: c357 12bd 5c9c c23c 143f ee3c 4f8f 71bd
00000020: 5988 2bbd 9954 5abd 62e4 193d 96a2 99bc
00000030: 6780 5bbd 1677 0c3d 6952 77bd 1d83 9a3c
00000040: 9dd9 2dbb 74c3 f8bc b7d0 4f3d aa28 0e3d
00000050: 3b89 35bd a25f 3bbd a814 09bd 3c98 f33c
00000060: 6e58 023d e267 343d c7cb 16bc 4d93 63bd
00000070: feda 6dbd 7e14 fc3c

res_blocks.0.conv.4.weight f4 [30]
0.9897114 0.95740294 1.012182 0.879771 1.0699364 1.0508901 1.0221529 1.0878425
1.1448026 0.9401728 1.0661528 1.0844157 1.0138623 0.95669633 1.0103878 1.0634475
0.87240726 1.1065494 0.9426855 0.9948494 0.9888129 1.0103348 1.1251621 0.9782426
0.9389307 1.0947737 1.0808564 0.97711325 1.1484823 1.0337156
00000000: ba5d 7d3f 5c18 753f 2e8f 813f ac38 613f
00000010: adf3 883f 9183 863f e8d5 823f 6c3e 8b3f
00000020: e488 923f 2aaf 703f b277 883f 22ce 8a3f
00000030: 3dc6 813f 0dea 743f 6354 813f 0c1f 883f
00000040: 1556 5f3f 69a3 8d3f d653 713f 73ae 7e3f
00000050: d822 7d3f a752 813f 5005 903f 1b6e 7a3f
00000060: c35d 703f 8b21 8c3f 8159 8a3f 1824 7a3f
00000070: 7801 933f cb50 843f

res_blocks.0.conv.4.bias f4 [30]
0.17011057 -0.022828603 0.116893336 -0.03768712 0.09502672 0.10718449 -0.010201095 -0.014494814
-0.007236922 -0.12297574 -0.012744504 -0.016620744 0.06555695 -0.07001386 -0.0071076835 0.021205554
-0.05707712 0.058653135 0.0034753173 -0.027849467 0.098035134 0.05298576 0.011953574 0.13129142
-0.045191374 -0.19537963 0.14357786 -0.08073174 0.08270902 0.103894174
00000000: 7731 2e3e 0d03 bbbc c665 ef3d cf5d 1abd
00000010: 5e9d c23d 8b83 db3d 7e22 27bc a87b 6dbc
00000020: b423 edbb b4da fbbd 53ce 50bc 3a28 88bc
00000030: b942 863d 6d63 8fbd 92e7 e8bb 45b7 ad3c
00000040: b3c9 69bd 453e 703d 26c2 633b 9124 e4bc
00000050: a5c6 c83d 9907 593d ecd8 433c 4271 063e
00000060: 971a 39bd 9911 48be 1306 133e af56 a5bd
00000070: 5963 a93d 78c6 d43d

res_blocks.0.conv.4.running_mean f4 [30]
-1.1596665 0.5536709 0.22713344 0.18152627 -0.5425498 -0.28303707 0.12638956 -0.16172694
-0.42108315 -0.7753576 -0.016266957 -1.7872207 0.7928151 -0.030106064 -0.27472717 -1.7179271
0.74430114 -0.1937437 -0.5299054 0.11431986 -0.37209737 0.28082752 1.5625168 0.3757227
0.33575368 0.3366517 -0.5358648 -0.52761996 0.18825452 0.2612964
00000000: f46f 94bf 60bd 0d3f ab95 683e 06e2 393e
00000010: 8be4 0abf 3cea 90be 446c 013e bf9b 25be
00000020: 3698 d7be d67d 46bf 4842 85bc a6c3 e4bf
00000030: eef5 4a3f fea0 f6bc 0aa9 8cbe 09e5 dbbf
00000040: 858a 3e3f c064 46be e1a7 07bf 8820 ea3d
00000050: 8c83 bebe a0c8 8f3e 8d00 c83f ba5e c03e
00000060: e8e7 ab3e 9d5d ac3e 6f2e 09bf 1a12 07bf
00000070: cbc5 403e a4c8 853e

res_blocks.0.conv.4.running_var f4 [30]
10.275966 12.612875 9.265877 4.4509363 7.316394 5.4549894 2.1667922 1.5475808
17.918062 1.496126 2.5292683 3.987218 7.509078 2.5358813 2.0473247 57.387897
10.642521 12.4239435 3.1611974 1.9712621 9.280315 3.928217 10.262647 7.110002
3.981793 6.4048157 10.046041 2.4373705 2.9904616 5.0434914
00000000: 5b6a 2441 56ce 4941 0841 1441 126e 8e40
00000010: e61f ea40 468f ae40 b9ac 0a40 2117 c63f
00000020: 3158 8f41 0f81 bf3f 88df 2140 942e 7f40
00000030: 5e4a f040 e14b 2240 5e07 0340 358d 6542
00000040: c447 2a41 79c8 4641 0f51 4a40 5152 fc3f
00000050: 2c7c 1441 e867 7b40 cd33 2441 2385 e340
00000060: b2d5 7e40 40f4 cc40 95bc 2041 e1fd 1b40
00000070: b963 3f40 4864 a140

final.0.weight f4 [30, 30, 1, 1]
-0.31884852 -0.0726592 0.21338663 -0.16563189 -0.27770427 0.35559565 0.14855649 -0.10017575
0.058774907 0.43197992 -0.15611751 0.5347248 -0.093063764 0.02364752 0.02691241 0.13243659
0.00081703113 -0.10954562 -0.395866 -0.36481345 0.15285406 -0.26322946 0.022564601 -0.12076451
-0.4234654 -0.50975335 -0.41050494 0.09557344 -0.04557427 -0.15727058 -0.08179369 0.33274215
-0.023558829 0.26365903 -0.15191112 0.47066996 -0.37807778 0.568542 0.054601256 0.39010304
0.34703922 -0.4187225 -0.04344809 0.23322026 -0.061891496 -0.6187346 0.19826548 0.38615227
-0.00302991 -0.5199207 0.12493226 -0.11391259 -0.12556238 0.1294189 0.15131073 -0.14021179
0.1606788 0.15845338 0.27687228 0.21669866 -0.0040344535 -0.084456675 -0.3634167 -0.25908765
-0.23049462 -0.19568335 -0.09315109 -0.12701888 0.021554533 -0.30791095 0.26744965 -0.094953455
0.5965813 0.34270084 -0.05768835 0.13796617 -0.107123554 -0.55281883 0.4179369 -0.44689828
0.038485125 0.028863158 0.27994698 0.41092753 0.25653288 0.03732127 0.049825124 0.5243504
0.008760603 -0.37302107 0.24461749 0.05947722 0.2849357 0.13769092 -0.17071158 -0.43903413
0.08959975 -0.30584309 -0.27424705 -0.007744348 0.4205297 0.50739837 0.13124806 0.10232158
0.5160966 -0.20177704 -0.37378266 0.095407166 -0.14185348 0.29670385 0.13325058 0.024297303
0.1831874 0.11736669 0.17443314 0.09346317 -0.28313404 -0.254108 -0.39726192 0.26000753
-0.12306731 -0.13042444 0.3730778 -0.08973516 -0.8953412 0.051313333 0.13879448 0.0041395067
-0.25670165 -0.169011 -0.4710794 0.060084935 -0.42824587 0.2235645 -0.20910704 0.057595376
0.16558357 -0.10912208 -0.111718714 0.046348955 -0.03664769 -0.5623047 -0.25774848 0.46255425
0.15233178 0.11336627 -0.4049226 0.29811034 0.047205504 -0.15423886 0.03411159 0.3030381
0.23636761 0.03799028 -0.10062467 -0.039668344 0.008580261 -0.32740688 -0.12154646 -0.45102167
-0.18556747 0.2282227 -0.0023162682 -0.2934602 -0.25678688 0.07815697 0.36233816 -0.18185933
-0.020390745 0.022835698 0.12598895 0.04059265 0.02453874 -0.4646393 0.046395745 -0.13398105
-0.13623188 -0.06170443 -0.6696924 0.010724004 0.37101442 0.40734726 -0.07494998 -0.045561627
0.105961725 0.21328624 0.14598845 0.3136193 0.20457086 0.06094274 0.32836232 -0.19134167
-0.45521623 0.42405382 0.17200452 0.26376215 0.29915205 -0.34501156 -0.293449 -0.056536987
-0.21628127 0.36565587 0.3189179 -0.21313287 -0.6139977 0.4093014 -0.43221468 -0.20925836
0.069210835 -0.51171064 -0.3488947 -0.10083835 0.047112823 -0.16068277 -0.43725836 0.12125453
0.25716934 -0.08383832 -0.14777505 -0.21927094 0.35111797 -0.30833426 -0.09246307 0.42496592
0.37713978 0.19662943 0.05922904 -0.08109143 -0.19177604 -0.18419361 0.2202573 0.057710633
0.3995027 0.28343776 -0.28278923 -0.062242016 -0.08471508 -0.13969862 0.5404306 -0.08950135
0.15374531 0.3711007 0.22428818 0.10955203 0.24785498 0.32205003 0.106973484 -0.21602406
0.24314271 -0.18889819 -0.22380453 -0.07842806 0.18753222 0.17723317 -0.1528518 -0.37520567
00000000: 1d40 a3be 59ce 94bd 0682 5a3e 689b 29be
00000010: 412f 8ebe a210 b63e 311f 183e f228 cdbd
00000020: f5bd 703d 792c dd3e 45dd 1fbe b9e3 083f
00000030: 3798 bebd 72b8 c13c 6a77 dc3c 759d 073e
00000040: 082e 563a 7459 e0bd f3ae cabe d4c8 babe
00000050: c685 1c3e 03c6 86be 66d9 b83c 6253 f7bd
00000060: 75d0 d8be 327f 02bf b42d d2be 02bc c33d
00000070: 16ac 3abd 8a0b 21be 7383 a7bd 2e5d aa3e
00000080: 72fe c0bc 51fe 863e 978e 1bbe a7fb f03e
00000090: 6993 c1be f88b 113f 91a5 5f3d 96bb c73e
000000a0: 20af b13e cc62 d6be a0f6 31bd 4bd1 6e3e
000000b0: f081 7dbd 6465 1ebf 1b06 4b3e c0b5 c53e
000000c0: 7491 46bb 8619 05bf 7cdc ff3d 014b e9bd
000000d0: 6d93 00be 6386 043e 33f1 1a3e ae93 0fbe
000000e0: fc88 243e 9a41 223e 34c2 8d3e 41e6 5d3e
000000f0: 7333 84bb 9ff7 acbd c111 babe 23a7 84be
00000100: c806 6cbe 3761 48be 00c6 bebd 3d11 02be
00000110: 2293 b03c 81a6 9dbe 29ef 883e f576 c2bd
00000120: 8db9 183f 7c76 af3e 9f4a 6cbd 0147 0d3e
00000130: 9863 dbbd 8985 0dbf d3fb d53e dacf e4be
00000140: 94a2 1d3d 6e72 ec3c 3655 8f3e 1865 d23e
00000150: 4758 833e 30de 183d 6e15 4c3d d43b 063f
00000160: a288 0f3c 9efc bebe 027d 7a3e 639e 733d
00000170: 18e3 913e d9fe 0c3e 04cf 2ebe 15c9 e0be
00000180: 1380 b73d 7797 9cbe 1c6a 8cbe 4dc4 fdbb
00000190: ab4f d73e dce4 013f e465 063e fa8d d13d
000001a0: e81e 043f a49e 4ebe 7160 bfbe d564 c33d
000001b0: 0a42 11be 91e9 973e d772 083e 230b c73c
000001c0: 7a95 3b3e f25d f03d 9a9e 323e 9e69 bf3d
000001d0: f2f6 90be 721a 82be ea65 cbbe b51f 853e
000001e0: b70a fcbd fc8d 05be 0e04 bf3e 11c7 b7bd
000001f0: 1535 65bf ee2d 523d 2420 0e3e b3a4 873b
00000200: 666e 83be 3811 2dbe 5231 f1be 9f1b 763d
00000210: 0b43 dbbe 18ee 643e 2820 56be 21e9 6b3d
00000220: bd8e 293e 667b dfbd c8cc e4bd 67d8 3d3d
00000230: e31b 16bd 33f3 0fbf 9cf7 83be e9d3 ec3e
00000240: ddfc 1b3e 932c e83d 0452 cfbe eba1 983e
00000250: 8f5a 413d cbf0 1dbe 98b8 0b3d cf27 9b3e
00000260: 5a0a 723e b29b 1b3d 4f14 cebd 467b 22bd
00000270: 3994 0c3c e0a1 a7be 5aed f8bd 50ec e6be
00000280: 6605 3ebe 36b3 693e 88cc 17bb 6a40 96be
00000290: 9279 83be c310 a03d 6384 b93e 5539 3abe
000002a0: 7e0a a7bc ee11 bb3c 3f03 013e 7b44 263d
000002b0: 7805 c93c 34e5 edbe 7709 3e3d 5432 09be
000002c0: 5f80 0bbe c9bd 7cbd f670 2bbf bcb3 2f3c
000002d0: 9af5 bd3e d28f d03e 607f 99bd d49e 3abd
000002e0: 7602 d93d b567 5a3e ff7d 153e b592 a03e
000002f0: 067b 513e 189f 793d 1b1f a83e 12ef 43be
00000300: 1a12 e9be 951d d93e f421 303e d50b 873e
00000310: 752a 993e 5ba5 b0be f33e 96be 5493 67bd
00000320: d678 5dbe 3f37 bb3e 3549 a33e 813f 5abe
00000330: f42e 1dbf f48f d13e 3e4b ddbe d347 56be
00000340: 69be 8d3d 78ff 02bf 53a2 b2be 5684 cebd
00000350: 60f9 403d 068a 24be 54e0 dfbe 4c54 f83d
00000360: b3ab 833e 6db3 abbd 5852 17be 9088 60be
00000370: bcc5 b33e fddd 9dbe 475d bdbd 2295 d93e
00000380: 7718 c13e 3a59 493e 269a 723d 4313 a6bd
00000390: f060 44be 409d 3cbe 218b 613e fc61 6c3d
000003a0: 9e8b cc3e c11e 913e c0c9 90be 7cf1 7ebd
000003b0: 1a7f adbd 280d 0fbe a959 0a3f 7c4c b7bd
000003c0: 696f 1d3e e900 be3e cdab 653e d15c e03d
000003d0: b2cd 7d3e bee3 a43e ea14 db3d 6935 5dbe
000003e0: 67fa 783e 876e 41be 042d 65be e49e a0bd
000003f0: 7208 403e 9d7c 353e 2f85 1cbe f51a c0be

final.0.bias f4 [30]
0.025260355 0.019861888 0.15302296 0.03993859 -0.080945395 -0.053268876 -0.11017558 -0.18199593
0.07533876 -0.04142291 -0.14748885 -0.118704416 0.17600287 0.17244327 0.009812202 -0.15734515
-0.042516842 -0.0064807925 0.13196458 -0.16751815 -0.06794764 -0.14403985 -0.15721549 -0.026079785
-0.033301257 0.09389825 0.09647081 0.16071594 -0.056324225 -0.054441318
00000000: ceee ce3c 66b5 a23c 0db2 1c3e a696 233d
00000010: b3c6 a5bd 7730 5abd bca3 e1bd 245d 3abe
00000020: 354b 9a3d 12ab 29bd 5107 17be 4d1b f3bd
00000030: 193a 343e f894 303e 5cc3 203c 161f 21be
00000040: 2426 2ebd d45c d4bb b921 073e e189 2bbe
00000050: 2228 8bbd 2f7f 13be 19fd 20be 46a5 d5bc
00000060: e666 08bd ba4d c03d 7d92 c53d b892 243e
00000070: 3bb4 66bd dcfd 5ebd

final.1.weight f4 [30]
1.3261054 2.0962021 0.81306523 0.75318956 1.0883093 0.8522952 1.4151028 0.7482219
0.83674103 0.67085487 0.73981893 0.94000804 0.8452694 5.5974283 0.5718547 0.740361
1.149614 0.88554657 2.4112809 0.8979781 0.72945154 1.0588315 0.70949376 3.3564365
0.71336865 0.79108703 0.73732543 4.8383255 0.63682663 0.7650452
00000000: d2bd a93f 2d28 0640 0b25 503f 08d1 403f
00000010: b84d 8b3f 0530 5a3f 1722 b53f 788b 3f3f
00000020: a934 563f 25bd 2b3f c664 3d3f 5ea4 703f
00000030: 9363 583f 221e b340 1265 123f 4c88 3d3f
00000040: 8d26 933f 2eb3 623f 6d52 1a40 e5e1 653f
00000050: 56bd 3a3f ca87 873f 62a1 353f dbcf 5640
00000060: 549f 363f ae84 4a3f 5cc1 3c3f 90d3 9a40
00000070: 1207 233f 01da 433f

final.1.bias f4 [30]
0.18116318 0.16974574 -0.32003158 -0.28846252 0.027453123 -0.2464954 0.113822475 -0.31697333
-0.2820314 -0.42785493 -0.388228 -0.23712966 -0.2800826 3.1810267 -0.38042435 -0.38349864
-0.2220872 -0.22713202 0.75502473 -0.24656603 -0.3538155 -0.11271261 -0.32625934 1.630331
-0.34148663 -0.2593934 -0.3598909 2.9767768 -0.35637248 -0.28790018
00000000: d782 393e d4d1 2d3e 2edb a3be 5cb1 93be
00000010: 5fe5 e03c 4a69 7cbe c21b e93d 544a a2be
00000020: 6b66 90be cd0f dbbe d2c5 c6be 1ed2 72be
00000030: fd66 8fbe f195 4b40 fbc6 c2be ef59 c4be
00000040: d46a 63be 4c95 68be 4d49 413f ce7b 7cbe
00000050: 4e27 b5be ded5 e6bd 770b a7be b0ae d03f
00000060: 56d7 aebe 36cf 84be 9f43 b8be 8383 3e40
00000070: 7476 b6be a767 93be

final.1.running_mean f4 [30]
-0.61026084 0.7012832 0.14430176 0.27193323 -1.3578339 -0.80676425 0.42514306 0.09420276
0.9472861 -0.6683556 -0.2406607 -0.22059406 -0.2264397 0.41484222 0.89081115 -0.78227973
-0.24116628 -0.5395532 0.251695 -0.4741334 -0.12955235 -1.1146557 0.89174706 -0.3892789
0.45939398 -0.8882823 -0.39241326 -0.4740552 1.8367978 0.36060467
00000000: 0e3a 1cbf 4c87 333f d7c3 133e d53a 8b3e
00000010: 80cd adbf 1a88 4ebf 5aac d93e 60ed c03d
00000020: 5881 723f 5a19 2bbf c26f 76be 69e3 61be
00000030: cfdf 67be 3366 d43e 330c 643f 7c43 48bf
00000040: 4bf4 76be 2920 0abf 2bde 803e 9dc1 f2be
00000050: 5fa9 04be 0aad 8ebf 8949 643f 904f c7be
00000060: b035 eb3e 7866 63bf 64ea c8be 5db7 f2be
00000070: 311c eb3f 2da1 b83e

final.1.running_var f4 [30]
1.5274655 1.575206 1.1089336 1.2012489 2.0724614 0.9037272 3.1484282 1.0253309
0.7965986 1.0047818 1.098398 1.2089764 1.0782632 4.413832 1.1552145 3.0410116
0.5227632 1.7536033 9.724573 2.4035144 1.5252768 1.0687836 3.989926 1.7178155
1.1831516 2.5268476 0.98894864 3.2408972 3.503129 1.5038806
00000000: fd83 c33f 5aa0 c93f 89f1 8d3f 86c2 993f
00000010: 35a3 0440 aa5a 673f d97f 4940 0b3e 833f
00000020: e3ed 4b3f b19c 803f 4e98 8c3f bdbf 9a3f
00000030: 8704 8a3f 1d3e 8d40 12de 933f ef9f 4240
00000040: cfd3 053f 1376 e03f da97 1b41 2ed3 1940
00000050: 453c c33f e7cd 883f f35a 7f40 61e1 db3f
00000060: 8371 973f dfb7 2140 bd2b 7d3f dc6a 4f40
00000070: 4433 6040 297f c03f
