图像处理/model_weights_2.pth (torch, 83009 bytes, 24 tensors)

initial.0.weight f4 [30, 3, 3, 3]
0	0x3e50b7e2	0.20382646
1	0x3dd1a2a8	0.10236102
2	0x3ea23fd6	0.31689328
3	0x3e39cd59	0.1814474
4	0x3d8d400a	0.0689698
5	0x3e0da08d	0.13830777
6	0x3e4f67ef	0.20254491
7	0x3cc1c746	0.023654591
8	0x3db753c4	0.08951524
9	0x3d3d975c	0.046286926
10	0x3e195df9	0.14977254
11	0x3e8ca821	0.27472022
12	0x3cfc272a	0.030780394
13	0x3e34659e	0.17616889
14	0x3e9ebded	0.31004277
15	0x3e5688d9	0.2095064
16	0x3dd81175	0.10550205
17	0x3cfba3cb	0.030717751
18	0x3db51b54	0.08843103
19	0x3c6629ed	0.014048082
20	0x3e5ab589	0.21358313
21	0x3dcf0a0c	0.10109338
22	0xbd353123	-0.044236314
23	0x3e1165ab	0.1419894
24	0x3df42221	0.11920572
25	0x3e93756a	0.28800517
26	0x3e018496	0.12648234
27	0x3d856bf2	0.065147296
28	0xbe5eaa66	-0.2174469
29	0xbdc8307f	-0.09774875
30	0x3d4387bd	0.047736872
31	0xbdb150ae	-0.086579666
32	0xbe8d292d	-0.27570477
33	0x3c60675b	0.013696517
34	0xbdf31181	-0.11868573
35	0xbe0fc97a	-0.14041701
36	0xbd7a3111	-0.06108195
37	0xbe01e4e0	-0.12684965
38	0xbe8afe25	-0.27147022
39	0xbd14833e	-0.036257975
40	0xbdca70f2	-0.09884824
41	0xbe43dc05	-0.191269
42	0x3b8197fb	0.003954885
43	0xbe10b9f8	-0.14133441
44	0xbe2e2b89	-0.17008795
45	0xbd5af627	-0.053457405
46	0xbe0f23a7	-0.13978444
47	0xbeaa5386	-0.33266848
48	0xbd7e4288	-0.062075168
49	0xbd82f612	-0.063945904
50	0xbe6cae3b	-0.23113339
51	0xbcf405d9	-0.029787945
52	0xbe17fb68	-0.14841998
53	0xbe9a5a82	-0.30147177
54	0x3e0dec39	0.13859643
55	0x3d8d31b0	0.06894243
56	0x3e660e5e	0.22466418
57	0x3e488af6	0.1958426
58	0x3e57599f	0.21030281
59	0x3e39eeaa	0.1815745
60	0x3de1b01e	0.1101992
61	0x3d815384	0.063147575
62	0x3dbe2762	0.092848554
63	0x3e51e4e2	0.20497468
64	0x3e96f779	0.29485682
65	0x3d5fdef5	0.054655988
66	0x3e657c76	0.2241076
67	0x3e27c66e	0.16384289
68	0x3e343324	0.17597634
69	0x3ea643fa	0.32473737
70	0x3e5080e9	0.20361675
71	0x3e25952b	0.16170184
72	0x3dc4c086	0.096070334
73	0x3bb6606c	0.0055656936
74	0x3e857248	0.26063752
75	0xbd8cfdf5	-0.06884376
76	0x3e1037a9	0.14083733
77	0x3e5a9e28	0.21349394
78	0x3e05e759	0.13076533
79	0x3dd9047c	0.105965585
80	0x3e67738d	0.22602673
81	0xbdfa76a5	-0.12229661
82	0xbdc460a3	-0.095887445
83	0xbe50152f	-0.20320581
84	0xbde6cac8	-0.11269146
85	0xbde89c45	-0.11357931
86	0xbdb6b3b4	-0.089209944
87	0xbdb95ea9	-0.09051258
88	0xbe93528d	-0.2877392
89	0xbd97ee2f	-0.07418477
90	0xbe3dbca3	-0.1852899
91	0xbdd3d681	-0.10343648
92	0x3bba2718	0.00568093
93	0xbdc364f9	-0.095407434
94	0x3d002902	0.031289108
95	0xbd3ae3c5	-0.045627374
96	0xbd84b65e	-0.06480096
97	0xbdc86570	-0.09784973
98	0xbe21400c	-0.15747088
99	0xbdbf7083	-0.09347632
100	0xbd219146	-0.039445184
101	0xbe80e251	-0.25172666
102	0xbd1b55e4	-0.03792371
103	0xbe4c91cf	-0.19977497
104	0x3d3c8cea	0.046032824
105	0xbe9db705	-0.30803695
106	0x3d977d3d	0.07396934
107	0xbd9feec2	-0.07809211
108	0xbed044b3	-0.40677413
109	0xbef92e63	-0.48668203
110	0xbf16342c	-0.5867336
111	0xbd9af1c6	-0.07565646
112	0xbe81358a	-0.2523616
113	0xbec4fe8f	-0.38475463
114	0xbe239c4f	-0.15977596
115	0xbe5a7891	-0.21335055
116	0xbcfac960	-0.030613601
117	0xbf05a407	-0.5220341
118	0xbef36214	-0.47535765
119	0xbee4e736	-0.4470765
120	0xbea96d5a	-0.3309124
121	0xbebdf1ee	-0.3709864
122	0xbebf8f91	-0.3741422
123	0x3d562483	0.052280914
124	0xbda38da4	-0.07986
125	0xbe9808db	-0.29694256
126	0xbef45186	-0.47718447
127	0xbf246afb	-0.6422574
128	0xbf3e4f9c	-0.74340224
129	0xbed23200	-0.41053772
130	0xbed0fa3d	-0.40815917
131	0xbec5bbf4	-0.3861996
132	0xbe396095	-0.1810325
133	0xbe0fbdd2	-0.14037254
134	0xbeab1b7b	-0.33419403
135	0x3f4a91db	0.7912881
136	0x3f5dce35	0.8664277
137	0x3f3521c4	0.7075465
138	0x3f2aed76	0.66768587
139	0x3f259945	0.64686996
140	0x3f400ae3	0.7501661
141	0x3f1a7e13	0.60348624
142	0x3f2e172f	0.68004125
143	0x3f482d0d	0.7819374
144	0x3f38942f	0.7210111
145	0x3f368dbc	0.7131002
146	0x3f34adef	0.705779
147	0x3f623f51	0.88377863
148	0x3f5c9f3c	0.8618047
149	0x3f475a4d	0.77872163
150	0x3f5bc98b	0.85854405
151	0x3f40822f	0.75198644
152	0x3f39aa50	0.725255
153	0x3f625108	0.88404894
154	0x3f44a26d	0.7681034
155	0x3f45fe57	0.77341217
156	0x3f2dea90	0.6793604
157	0x3f55f0b6	0.8357042
158	0x3f1e28ee	0.61781204
159	0x3f40bf98	0.7529235
160	0x3f465952	0.7748004
161	0x3f1bea6b	0.6090457
162	0x3da1abff	0.07894134
163	0x3cb32f24	0.021873064
164	0x3e4257e8	0.18978846
165	0x3e02c9ac	0.12772244
166	0x3e098f7b	0.1343364
167	0xbca6e2d5	-0.020371834
168	0xbd2793b2	-0.040912338
169	0x3dcc804e	0.0998541
170	0x3e0c1f24	0.13683754
171	0x3de1b94b	0.1102167
172	0xbc2a6e80	-0.010402322
173	0xbd54c499	-0.051945303
174	0x3db03a87	0.08604913
175	0x3daf6fc8	0.085662425
176	0x3d8f20aa	0.06988652
177	0x3e6122a8	0.21985877
178	0x3d73a71b	0.059485536
179	0xbb9ad9d0	-0.0047256723
180	0x3d74904e	0.059707932
181	0x3d166be8	0.036724
182	0x3c99e4ed	0.018785918
183	0x3d81a66f	0.06330573
184	0xbd789d6c	-0.060697004
185	0x3d0c9700	0.034323692
186	0x3e3fd47e	0.18733403
187	0x3d6d809e	0.057983987
188	0x3da1b123	0.07895114
189	0x3cb50dab	0.022101244
190	0xbd3424eb	-0.04398052
191	0xbdc25a6f	-0.09489905
192	0x3e17dea6	0.14831027
193	0xbdbd05ef	-0.09229647
194	0xbd71c957	-0.059029903
195	0x3d48c10f	0.04901224
196	0xbdbc5c7c	-0.091973275
197	0xbd9593eb	-0.07303604
198	0xbe08a4f6	-0.13344178
199	0xbd2356c2	-0.03987766
200	0xbe64be74	-0.22338277
201	0xbd2e5c89	-0.042568717
202	0x3d94cc10	0.07265484
203	0x3d5990f3	0.05311675
204	0x3da58856	0.08082645
205	0xbc2eabb8	-0.010661058
206	0xbd881a7d	-0.06645677
207	0x3d862e10	0.065517545
208	0xbc621353	-0.013798553
209	0xbe5c8683	-0.21535687
210	0xbc4840e0	-0.012222499
211	0x3d2e6f53	0.042586636
212	0xbe18d7c3	-0.14926057
213	0x3cba05da	0.022707868
214	0x3e0953db	0.13410895
215	0xbe2faf23	-0.17156653
216	0xbe00b189	-0.12567724
217	0xbd5737fc	-0.052543625
218	0xbc993a46	-0.018704545
219	0xbe23ae1f	-0.1598439
220	0xbdbb9539	-0.09159321
221	0xbdfef96f	-0.124499194
222	0xbea35d0d	-0.3190693
223	0xbe79e481	-0.24403574
224	0xbe9ea684	-0.30986416
225	0xbe532f13	-0.20623426
226	0xbca438df	-0.02004665
227	0xbe592547	-0.21205626
228	0xbe2bf1f0	-0.1679151
229	0xbdc72e88	-0.09725672
230	0xbe70a603	-0.23500828
231	0xbe939450	-0.2882409
232	0xbe101daa	-0.14073816
233	0xbcb4b600	-0.02205944
234	0xbe6ee754	-0.23330432
235	0xbdbf5537	-0.09342425
236	0xbe2888c8	-0.16458428
237	0xbe5c428b	-0.21509759
238	0xbdb93738	-0.09043735
239	0x3db50a86	0.08839898
240	0xbe74ef12	-0.23919323
241	0xbe62577b	-0.22103684
242	0xbe002862	-0.12515405
243	0x3f363ca8	0.71186304
244	0x3f66bd4a	0.9013258
245	0x3f68e098	0.909677
246	0x3f2c4c95	0.67304355
247	0x3f4043ed	0.75103647
248	0x3f126fc2	0.5720178
249	0x3f26ba9e	0.65128505
250	0x3f2f46a1	0.68467146
251	0x3efefd22	0.498025
252	0x3f6cf20b	0.9255683
253	0x3f1f4410	0.6221323
254	0x3f727e18	0.94723654
255	0x3f12abb1	0.5729323

initial.0.bias f4 [30]
0	0x3e024066	0.12719879
1	0x3d8b207d	0.06793306
2	0x3e28036d	0.16407557
3	0xbe143239	-0.14472283
4	0xbe358312	-0.1772578
5	0xbd18fcdb	-0.037350517
6	0xbe31821a	-0.17334786
7	0x3cb53ed0	0.022124678
8	0xbdc1713b	-0.09445425
9	0x3d8c15de	0.06840108
10	0xbdd8da99	-0.10588569
11	0x3d6cb76b	0.05779211
12	0x3ca3b66f	0.019984452
13	0xbe3fb46c	-0.18721169
14	0x3dc4a0e6	0.096010014
15	0x3c3c6ef0	0.011501059
16	0x3da7b473	0.08188715
17	0x3d286fc5	0.041122217
18	0x3d1f983a	0.038963534
19	0xbe240849	-0.16018786
20	0xbd1fb872	-0.03899426
21	0x3d9dddf3	0.07708349
22	0xbe34ee39	-0.17669
23	0xbe28bfa6	-0.16479358
24	0xbe430f4e	-0.19048807
25	0xbe2857eb	-0.16439788
26	0xbdc81ed8	-0.09771508
27	0xbd2788b8	-0.04090187
28	0x3dfbceb3	0.12295284
29	0x3e36b325	0.17841776

initial.1.weight f4 [30]
0	0x3f69160c	0.91049266
1	0x3f6085b7	0.8770403
2	0x3f4aa07b	0.79151124
3	0x3f8427e5	1.0324675
4	0x3f8fc5f0	1.1232281
5	0x3f83474f	1.0256137
6	0x3f650155	0.8945516
7	0x3f8e4c4d	1.1117035
8	0x3f7774f8	0.96662855
9	0x3f7fc550	0.9991045
10	0x3f7efe95	0.9960721
11	0x3f8003b7	1.0001134
12	0x3f786c55	0.970403
13	0x3f80e814	1.0070825
14	0x3f487307	0.7830052
15	0x3f64a338	0.8931155
16	0x3f748a7c	0.9552381
17	0x3f843f06	1.0331733
18	0x3f879f18	1.0595427
19	0x3f7f8d54	0.99825025
20	0x3fa0284b	1.2512296
21	0x3f70c923	0.9405691
22	0x3f90c2af	1.1309413
23	0x3f781184	0.96901727
24	0x3f8197aa	1.0124409
25	0x3f690b54	0.9103291
26	0x3f7d246d	0.98883706
27	0x3f884113	1.0644859
28	0x3f5babdf	0.8580913
29	0x3f48de8f	0.784646

initial.1.bias f4 [30]
0	0x3c84accc	0.016195677
1	0xbe2b8734	-0.16750795
2	0x3dda3b5c	0.10655853
3	0x3e8cef1d	0.2752618
4	0x3ebf225e	0.37330908
5	0x3e2858c0	0.16440105
6	0x3d652870	0.055946767
7	0x3d5c38a3	0.05376495
8	0xbd2eae6f	-0.04264682
9	0x3ddea5c6	0.108714625
10	0x3e795883	0.24350171
11	0x3e1b3943	0.15158562
12	0x3e3c1431	0.18367077
13	0xbe3bfe0f	-0.18358634
14	0x3da87a68	0.08226472
15	0xbd35186d	-0.044212747
16	0xbf04db23	-0.51896876
17	0x3d22d357	0.03975233
18	0xbdc0cc90	-0.09414017
19	0x3dbc7b38	0.092031896
20	0x3e454921	0.19266178
21	0x3e313a7b	0.17307465
22	0x3e83f21c	0.25770652
23	0xbe064e67	-0.13115846
24	0x3e162b2e	0.14664909
25	0xbeb9531c	-0.3619622
26	0x39979df4	0.0002891865
27	0x3b5587b2	0.0032582101
28	0xbdbba333	-0.09161987
29	0xbe8c767f	-0.27434155

initial.1.running_mean f4 [30]
0	0x3f8f0d36	1.1175907
1	0xbf5fa0c4	-0.87354684
2	0x3fab00aa	1.3359578
3	0xbf70c595	-0.94051486
4	0xc0310676	-2.7660193
5	0x40b78854	5.7353916
6	0x3ebbbf0c	0.36669195
7	0xbe7f9523	-0.24959235
8	0xbfa39048	-1.2778406
9	0x40afd263	5.494432
10	0x408ed6ba	4.4637117
11	0xbf7397c9	-0.9515348
12	0x3f69626e	0.91165817
13	0xbf12996a	-0.5726534
14	0xc00f2fef	-2.2373006
15	0xbfa2e801	-1.2727052
16	0xbf324e88	-0.6965108
17	0xbf153144	-0.582783
18	0xbfa0714a	-1.2534573
19	0x3f714327	0.9424309
20	0xbf849182	-1.0356905
21	0x401d7c52	2.460713
22	0x3f05b1e8	0.5222459
23	0x3f912ee4	1.1342435
24	0x405a4478	3.410429
25	0xbff53cc8	-1.9159174
26	0x402e1261	2.7198718
27	0xbf74403e	-0.95410526
28	0x3f6978a1	0.9119969
29	0xbf1788d5	-0.59193164

initial.1.running_var f4 [30]
0	0x3dfee359	0.12445707
1	0x3dfa8918	0.1223318
2	0x3e052666	0.13002929
3	0x3df345f0	0.11878574
4	0x3e55f922	0.20895818
5	0x3f177f7a	0.5917889
6	0x3de7f615	0.11326233
7	0x3de26b12	0.11055578
8	0x3e051123	0.12994818
9	0x3f097f53	0.53709906
10	0x3ed4e64e	0.4158196
11	0x3dfe2a93	0.12410464
12	0x3df71a91	0.12065614
13	0x3de52552	0.11188759
14	0x3e44e9f5	0.19229873
15	0x3e093748	0.13399994
16	0x3df1780a	0.11790474
17	0x3debb1a4	0.11508492
18	0x3e082c74	0.13298208
19	0x3e01a5d9	0.12660922
20	0x3dfdfe8c	0.124020666
21	0x3e44d4f9	0.19221868
22	0x3dedd957	0.1161372
23	0x3e08d941	0.13364126
24	0x3e96eed1	0.29479077
25	0x3e1ec515	0.15504868
26	0x3e646b3b	0.2230653
27	0x3df8dc9f	0.12151455
28	0x3df36225	0.11883954
29	0x3df12ebb	0.11776491

res_blocks.0.conv.0.weight f4 [30, 30, 3, 3]
0	0x3ded70eb	0.11593803
1	0x3cb79077	0.022407753
2	0x3d5ed36d	0.05440085
3	0xbde77e7f	-0.11303424
4	0xbc49e3b0	-0.012322351
5	0x3d4e7402	0.050403602
6	0xbdf9b4e6	-0.12192707
7	0xbd8179ca	-0.063220575
8	0xbc80e2b0	-0.015733093
9	0x3e3ac738	0.18240058
10	0x3e14fd84	0.14549834
11	0x3cd07dad	0.025450552
12	0x3e2ae363	0.16688304
13	0xbbf39a71	-0.0074341823
14	0x3e4db3ec	0.20088166
15	0x3ddaca98	0.10683173
16	0x3d937165	0.07199363
17	0x3e6de092	0.23230198
18	0x3e029a31	0.12754132
19	0x3c39d931	0.011343286
20	0xbd2cb6ad	-0.0421664
21	0x3d036e2c	0.03208749
22	0x3d028656	0.031866394
23	0x3defa133	0.11700668
24	0x3d0f6e6d	0.03501742
25	0x3be77d3a	0.0070644887
26	0x3daa9a08	0.083301604
27	0x3d0e3b99	0.034724806
28	0x3e47af52	0.19500473
29	0x3d838943	0.06422665
30	0x3d88a183	0.06671431
31	0x3e1ae851	0.15127684
32	0x3dfd8f75	0.12380878
33	0x3e2878eb	0.16452377
34	0x3de9088e	0.11378585
35	0x3e28e0f1	0.16492058
36	0x3e03fceb	0.1288945
37	0x3cb903fd	0.02258491
38	0xbde5f3ea	-0.112281635
39	0x3e2590d5	0.1616853
40	0x3df48fa6	0.11941461
41	0xbc6b9faf	-0.014381333
42	0x3d4fd3c8	0.05073908
43	0x3d12a2a2	0.03579963
44	0x3e4b020e	0.19825003
45	0xbdb81ca5	-0.089898385
46	0xbd6f2eee	-0.058394365
47	0x3d696940	0.05698514
48	0x3e14d7d6	0.1453546
49	0xbd9be0bd	-0.07611225
50	0xbd62b1b4	-0.055345252
51	0x3e27f645	0.16402538
52	0x3bf7d7df	0.0075635756
53	0xbe133a24	-0.14377648
54	0xbd9f32dd	-0.07773373
55	0x3e762feb	0.24041717
56	0x3db689b5	0.08912984
57	0xbdfa9c05	-0.122367896
58	0x3d17927b	0.03700493
59	0xb9949571	-0.00028340102
60	0x3cc1e815	0.023670236
61	0xbe07b3ae	-0.13252136
62	0x3dcfea72	0.10152139
63	0xbdfa94c3	-0.12235405
64	0x3c49c387	0.012314684
65	0xbd578e64	-0.05262603
66	0x3cad5c11	0.021162065
67	0x3d3befa5	0.04588284
68	0x3d9d091c	0.07667753
69	0x3e85ec34	0.2615677
70	0xbd60fd86	-0.05492928
71	0x3e98889e	0.2979173
72	0x3dbeb11c	0.09311125
73	0x3d3acdbf	0.04560637
74	0x3da8b966	0.08238487
75	0x3e5e2f0e	0.21697637
76	0x3e61813b	0.22021954
77	0x3e8a6738	0.27031875
78	0x3e94a429	0.29031494
79	0x3e5d6f73	0.21624546
80	0x3de3da73	0.1112565
81	0x3db59705	0.08866695
82	0x3e44a09b	0.19201891
83	0xbc297e87	-0.010345108
84	0x3e058f4c	0.13042945
85	0x3e414a4f	0.18876003
86	0x3d62b2a8	0.05534616
87	0xbd1069dc	-0.035257205
88	0x3db1e09c	0.08685419
89	0x3d3fc4ea	0.04681865
90	0x3b859ccf	0.004077531
91	0xbcbe14a6	-0.023203205
92	0xbc08ae76	-0.008342376
93	0x3ddce05c	0.10784981
94	0xbd8a8200	-0.06763077
95	0xbd806eb9	-0.06271119
96	0xbd630419	-0.05542383
97	0xbdf206ff	-0.11817741
98	0x3d540adb	0.051768165
99	0xbcd20600	-0.025637627
100	0x3c510504	0.0127575435
101	0x3d0fc7dd	0.035102714
102	0x3dd950d6	0.10611121
103	0x3db274ed	0.08713708
104	0x3ceb8199	0.02874832
105	0x3d0632c6	0.032763265
106	0x3b2996dc	0.0025877273
107	0xbcae21e8	-0.021256402
108	0xbd498d66	-0.049207114
109	0x3dfc5775	0.123213686
110	0x3d9e3ae2	0.07726075
111	0xbdc89b71	-0.09795273
112	0xbda34214	-0.07971588
113	0xbd3ab6ed	-0.045584608
114	0x3da2b6b3	0.07945003
115	0x3c0e9eea	0.00870488
116	0x3d95cb6f	0.073141925
117	0x3db37ee6	0.08764438
118	0x3db7b13b	0.08969351
119	0x3d5fd943	0.054650556
120	0x3e798194	0.24365836
121	0xbd3d26d7	-0.04617962
122	0xbe01ec19	-0.1268772
123	0x3dff0926	0.12452917
124	0x3e2356fc	0.1595115
125	0x3e261fbe	0.16223046
126	0x3e07a242	0.1324549
127	0x3dd9b510	0.10630238
128	0x3d90c246	0.07068305
129	0xbc01d0a8	-0.007923283
130	0xbdee4c96	-0.11635701
131	0xbd8da983	-0.069170974
132	0x3d24862e	0.040167026
133	0x3ce058d2	0.027386103
134	0x3c80ba48	0.015713826
135	0x3d20c1e4	0.03924741
136	0xbd6c67ab	-0.057716053
137	0x3db21399	0.08695144
138	0x3d00811a	0.03137312
139	0xbd534762	-0.051581748
140	0xbba10d8a	-0.004914944
141	0xbdad96af	-0.08476006
142	0x3c2a8298	0.010407113
143	0x3d9deb74	0.07710925
144	0x3d6c513b	0.057694655
145	0x3e0f81ce	0.1401436
146	0x3de06bb8	0.10958046
147	0x3e3793b4	0.17927438
148	0x3dac2f63	0.08407476
149	0x3db52898	0.08845633
150	0x3ea2e6f3	0.31816825
151	0x3e4304bf	0.19044779
152	0x3e72ae4e	0.23699304
153	0x3e58dcf4	0.21178037
154	0x3ca2853a	0.019838918
155	0x3dd468f5	0.103715815
156	0x3e092c10	0.13395715
157	0x3c82196d	0.015881265
158	0xbbf329a0	-0.0074207336
159	0xbcbc2fe3	-0.022972053
160	0xbb1adf63	-0.0023631684
161	0x3e23bf47	0.15990935
162	0x3e3604d0	0.17775273
163	0xbb07910d	-0.0020685822
164	0x3c118300	0.0088813305
165	0x3c3c2900	0.011484385
166	0x3e564b40	0.20927143
167	0x3dc3dd74	0.09563723
168	0x3e0c239a	0.13685456
169	0xbcac63ff	-0.021043776
170	0x3e93c44d	0.28860703
171	0x3d3b4dd1	0.04572851
172	0xbdb54af1	-0.088521846
173	0xbd584e6a	-0.052809156
174	0x3d1a6da1	0.037702207
175	0x3c8ee20c	0.017441772
176	0x3df2f0d4	0.118623406
177	0x3dbd7f01	0.0925274
178	0xbcb9ca47	-0.022679461
179	0x3cd19edb	0.025588444
180	0x3d5ce0d6	0.053925358
181	0x3d5107c3	0.051032793
182	0xbdc37cb1	-0.095452674
183	0x3dbaf987	0.09129625
184	0x3d6f1a15	0.058374483
185	0xbc543ec2	-0.012954416
186	0x3e333a79	0.17502774
187	0x3e74f2e7	0.23920785
188	0x3ac050f0	0.0014672559
189	0xbd5e03e9	-0.054202948
190	0xbd6bd7ac	-0.057578728
191	0x3d1f8e45	0.03895404
192	0x3df2a8a0	0.11848569
193	0x3e2dcd24	0.16972786
194	0x3d6504e6	0.055912875
195	0x3d2a0625	0.041509766
196	0x3e491d8c	0.19640177
197	0x3e03f1bf	0.12885188
198	0x3bd168ef	0.006390683
199	0xbb30964e	-0.0026945057
200	0x3d2577f6	0.040397607
201	0xbd313700	-0.043265343
202	0x3d0b1b54	0.03396161
203	0x3d5419fb	0.05178259
204	0xbcb3730b	-0.021905443
205	0x3d13bbce	0.036067776
206	0xbc4d4c4c	-0.012530398
207	0xbd16a228	-0.036775738
208	0x3dd25167	0.102694325
209	0xbcc5f882	-0.02416635
210	0xbd623d25	-0.055234093
211	0xbd4409ca	-0.047860898
212	0x3d4db7e7	0.05022421
213	0xbe850d79	-0.2598684
214	0xbd44314c	-0.047898576
215	0x3d674937	0.056466307
216	0xbd62e959	-0.05539832
217	0xbd95915a	-0.07303114
218	0x3d3fdcf2	0.04684157
219	0xbc97a076	-0.01850913
220	0xbdbae0ab	-0.09124883
221	0xbe0a2896	-0.13492045
222	0x3c34d886	0.011037951
223	0xbc82f284	-0.015984781
224	0xbd1170b4	-0.035507873
225	0x3e6a427a	0.22876921
226	0xbb517c6b	-0.0031965028
227	0x3d394f95	0.04524191
228	0x3de25ae2	0.11052491
229	0x3de760b2	0.1129774
230	0x3daad38a	0.08341129
231	0x3e5e6551	0.21718337
232	0x3db3c5e0	0.08777976
233	0x3e24041a	0.1601719
234	0x3d59bf6b	0.053161066
235	0xbb3e2c52	-0.0029018116
236	0xbe8a0157	-0.26954147
237	0x3ddaf3cc	0.10691032
238	0x3c1b9881	0.009496809
239	0xbc263eae	-0.01014678
240	0x3c422ac3	0.0118510155
241	0xbda6d6dd	-0.08146451
242	0x39fa533c	0.0004774573
243	0x3ea99ebe	0.33128923
244	0x3dfae2f7	0.12250321
245	0x3d81d2cd	0.06339035
246	0x3d4d29d1	0.050088707
247	0x3e34e9dc	0.17667335
248	0x3d9ae3ba	0.07562967
249	0x3e597882	0.21237376
250	0x3e103beb	0.14085357
251	0x3e3c6e3a	0.18401423
252	0x3d019674	0.031637624
253	0x3d0a5be1	0.03377903
254	0xbd3a0443	-0.04541422
255	0x3cd7f909	0.026363866

res_blocks.0.conv.0.bias f4 [30]
0	0xbc972019	-0.018447923
1	0x3d115acb	0.035486978
2	0x3d0d73a5	0.034534115
3	0xbcc4b165	-0.02401037
4	0xbd40346c	-0.046924993
5	0xbd1bc240	-0.038027048
6	0xbb4925f8	-0.0030692797
7	0xbd6a4aac	-0.05720012
8	0xbd34dc26	-0.044155262
9	0xbd01d2ec	-0.03169529
10	0xbd0363e7	-0.032077696
11	0x3d722eac	0.05912654
12	0xbd023e5b	-0.031797748
13	0xbc4c0ade	-0.012453763
14	0x3d75aec9	0.05998114
15	0xbc6fb618	-0.014630817
16	0x3ce347a1	0.027744116
17	0xbc576131	-0.013145731
18	0x3b8e8ac4	0.0043500382
19	0xbcaa4e96	-0.020789426
20	0xbc163351	-0.009167508
21	0x3ca2a3ae	0.01985344
22	0x3c2292d3	0.009922701
23	0xbd2f63ca	-0.042819776
24	0x3d305518	0.0430499
25	0x3ae1e4f9	0.0017234377
26	0xbb4ca011	-0.0031223337
27	0xba82e5f7	-0.0009986748
28	0xbd6b508b	-0.05744986
29	0x3adc1e36	0.0016793672

res_blocks.0.conv.1.weight f4 [30]
0	0x3f83c55a	1.0294602
1	0x3f9e4aa0	1.2366524
2	0x3f96a57f	1.1769255
3	0x3f6c993c	0.9242132
4	0x3f92f2c9	1.1480342
5	0x3f8c9342	1.098244
6	0x3f89e621	1.0773355
7	0x3f822dc4	1.0170217
8	0x3f6e43df	0.93072313
9	0x3f696e6b	0.9118411
10	0x3f909ab0	1.1297207
11	0x3f757fdb	0.95898217
12	0x3f7fb176	0.9988016
13	0x3f50a3c7	0.81499904
14	0x3f80ea7a	1.0071557
15	0x3f98ebb8	1.1946936
16	0x3f6451de	0.8918742
17	0x3f83ba7f	1.0291289
18	0x3f7cdfc9	0.9877897
19	0x3f48b8f4	0.78407216
20	0x3f967caa	1.1756794
21	0x3f7ead0c	0.994828
22	0x3f8da23f	1.1065139
23	0x3f875063	1.0571407
24	0x3f48c221	0.7842122
25	0x3f6d5c7a	0.92719233
26	0x3f577182	0.84157574
27	0x3f61488d	0.8800133
28	0x3f5c55de	0.8606852
29	0x3f81c639	1.0138618

res_blocks.0.conv.1.bias f4 [30]
0	0xbecfa2cd	-0.40553895
1	0x3dc3e18c	0.09564504
2	0x3d1a1617	0.037618723
3	0x3c35f0cc	0.011104774
4	0x3e4b6fc8	0.1986686
5	0x3de713a7	0.11283045
6	0xbdd3e0dd	-0.10345624
7	0x3cb57b4d	0.022153521
8	0xbdbc9e39	-0.09209866
9	0xbd9760a5	-0.0739148
10	0xbe12d0f7	-0.14337526
11	0x3d9e6a9e	0.07735179
12	0x3e2edf68	0.1707741
13	0xbdda9931	-0.1067375
14	0xbd16ba0a	-0.036798514
15	0x3d84be7b	0.06481644
16	0xbdb69044	-0.08914235
17	0x3e99f356	0.30068463
18	0x3d429d3f	0.047513243
19	0xbe004259	-0.1252531
20	0x3c541db4	0.012946535
21	0x3d8dd5c1	0.06925536
22	0x3e078203	0.1323319
23	0x3d9a3a45	0.07530645
24	0xbdd1150e	-0.10209094
25	0x3e4c51cd	0.1995308
26	0xbe124c7f	-0.14286993
27	0xbdfb8884	-0.12281898
28	0xbddca49c	-0.10773584
29	0x3d29b08c	0.041428134

res_blocks.0.conv.1.running_mean f4 [30]
0	0x403220ac	2.7832441
1	0x3fcfd534	1.623694
2	0xc0b01c56	-5.503459
3	0x3ede7732	0.43450314
4	0xbfee9890	-1.8640308
5	0x3ed9adfe	0.42515558
6	0x401007a5	2.2504666
7	0xbe136524	-0.14394051
8	0x3f69fd15	0.914018
9	0xbd590184	-0.05297996
10	0x405d47f5	3.457517
11	0x3fa9315e	1.3218191
12	0xc06b3f07	-3.675722
13	0xbf9ed586	-1.2408912
14	0x3fbbebce	1.4681337
15	0xc07df869	-3.9682868
16	0x3ef9061c	0.48637474
17	0xc05728c3	-3.361863
18	0x3f8b7f66	1.0898254
19	0xbe7541f7	-0.23950945
20	0xc027ef5c	-2.6239843
21	0xbfa0b2ee	-1.2554605
22	0x3f3cea84	0.7379534
23	0x3f356dd9	0.7087074
24	0xc0302e27	-2.752817
25	0xc02b7a5d	-2.6793435
26	0x3f6e0a75	0.92984706
27	0x3f85159d	1.0397221
28	0xbee767a2	-0.45196253
29	0x40a64acb	5.19663

res_blocks.0.conv.1.running_var f4 [30]
0	0x41c828c8	25.019913
1	0x40ba7a05	5.827395
2	0x4143e621	12.243684
3	0x428fd0f8	71.90814
4	0x41804a6a	16.036335
5	0x40e1d530	7.057274
6	0x4094fee1	4.656113
7	0x4103f918	8.248314
8	0x4147d2ab	12.488933
9	0x40a2349b	5.0689216
10	0x4123b63d	10.231992
11	0x4387bf6c	271.49548
12	0x41d8ac40	27.084106
13	0x4090e79e	4.5282736
14	0x408a83ad	4.3285737
15	0x4185ea67	16.739454
16	0x4033003f	2.79689
17	0x41501a86	13.006475
18	0x40d08ad6	6.5169477
19	0x40da0c99	6.814038
20	0x414e81b6	12.906668
21	0x422c0768	43.007233
22	0x40f56746	7.6688566
23	0x410f013e	8.937803
24	0x43019627	129.58653
25	0x41809dfa	16.077137
26	0x41be2155	23.766275
27	0x400ef400	2.2336426
28	0x42494ba0	50.323853
29	0x413b3073	11.699328

res_blocks.0.conv.3.weight f4 [30, 30, 3, 3]
0	0x3e0e4b57	0.13895927
1	0x3e2ba7f5	0.1676329
2	0x3dd12d1e	0.102136835
3	0x3b9a6742	0.0047120163
4	0xbc2421fe	-0.01001787
5	0x3d72628d	0.059176017
6	0x3d19de2a	0.037565388
7	0x3e3011c0	0.17194271
8	0x3d55e4f3	0.052220296
9	0xbc8081db	-0.01568692
10	0xbdf727b0	-0.12068117
11	0xbd234549	-0.039860997
12	0xbd89ccdc	-0.06728527
13	0x3d0e44cf	0.03473359
14	0xbd63b67b	-0.05559395
15	0xbb9676bc	-0.004591791
16	0x3c559ee6	0.013038373
17	0x3d566129	0.052338753
18	0x3d51cbb9	0.051219676
19	0x3ddf0281	0.108891495
20	0x3e322825	0.17398126
21	0x3d1c8cc7	0.038220193
22	0x3d00bbc9	0.031429086
23	0x3e29f873	0.16598682
24	0x3e50895e	0.20364901
25	0x3ca474eb	0.020075282
26	0x3dccfe90	0.100094914
27	0x3d8a3e9c	0.06750223
28	0x3df75fda	0.12078829
29	0xbe5e0dcc	-0.2168495
30	0xbdccff78	-0.10009664
31	0x3e1f93a2	0.15583661
32	0xbdbedf79	-0.09319968
33	0xbc3abcd8	-0.011397563
34	0xbd7cea0d	-0.061746646
35	0xbca87372	-0.020562861
36	0x3dd9c87b	0.10633942
37	0xbdffd0c5	-0.124909915
38	0xbbcdc24d	-0.006279266
39	0x3dd43e58	0.103634536
40	0xbd5d4fa4	-0.05403103
41	0x3e1891e6	0.14899406
42	0xbd0748d2	-0.03302843
43	0xbdeb6227	-0.114933304
44	0x3c8a0764	0.016849227
45	0xbe323c68	-0.17405856
46	0xbb58b4f0	-0.0033066832
47	0xbe10c51e	-0.14137694
48	0xbe1084a5	-0.141131
49	0x3c6bb27c	0.014385816
50	0xbe1989dc	-0.14993995
51	0xbe0efb10	-0.1396296
52	0xbcb1832b	-0.021668991
53	0x3dcf77e4	0.10130289
54	0x3de5a0b9	0.11212296
55	0xbd8afeb3	-0.06786861
56	0xbe0dedc6	-0.13860235
57	0xbd043def	-0.032285627
58	0x3d81343c	0.06308791
59	0x3e05cc38	0.13066185
60	0x3d5c60f3	0.053803395
61	0xbc1b78da	-0.0094892625
62	0xbb6c4ea0	-0.0036057606
63	0xbe14d1d4	-0.14533168
64	0xbd1416e9	-0.03615466
65	0x3d182c31	0.03715152
66	0xbd9d24ce	-0.076730356
67	0x3b8be406	0.004269126
68	0xbd1e1cef	-0.038601812
69	0xbdaa8bc0	-0.083274364
70	0xbde76c22	-0.112999216
71	0xbd8a2c02	-0.06746675
72	0xbdb92bbe	-0.09041546
73	0xbe1116b1	-0.14168812
74	0xbdac2239	-0.08404965
75	0xbcbaa8f9	-0.02278565
76	0xbc78098f	-0.015138998
77	0xbcbc2cac	-0.02297052
78	0xbd236e44	-0.03990008
79	0xbdb03d28	-0.08605415
80	0x3d533ae3	0.05156983
81	0x3e2b6c70	0.16740584
82	0xbda3d075	-0.079987444
83	0xbbfc2c46	-0.0076957075
84	0xbd8aa9f1	-0.06770695
85	0xbd1e114e	-0.03859072
86	0x3dace1ce	0.08441506
87	0x3c079b9d	0.008276847
88	0xbce9522c	-0.028481565
89	0xbc937414	-0.017999686
90	0xbcd63ebe	-0.026152965
91	0xbc2eaa60	-0.010660738
92	0x3bea0431	0.007141613
93	0xbd342155	-0.0439771
94	0x3e6d1cc2	0.23155501
95	0x3e1884c3	0.14894395
96	0x3dfec6b7	0.124402456
97	0x3dd577c0	0.10423231
98	0xbc6cdbfc	-0.014456745
99	0xbc6db5c7	-0.014508671
100	0xbbd050be	-0.0063572815
101	0x3d0f3674	0.03496404
102	0x3c6f07ca	0.014589259
103	0x3bead4ba	0.0071664723
104	0xbda76984	-0.081744224
105	0xbd0db6de	-0.034598224
106	0x3cee2fe7	0.029075576
107	0xbd4b89fa	-0.04969213
108	0x3d8e9c09	0.06963355
109	0x3d78708d	0.06065421
110	0x3d650968	0.055917174
111	0xbcf9818b	-0.030457279
112	0x3c79257a	0.015206689
113	0x3e0e3dfa	0.1389083
114	0xbdfa27fe	-0.12214659
115	0xbe392ada	-0.18082753
116	0xbde6f6e1	-0.11277557
117	0xbcc02bca	-0.02345838
118	0xbe42d285	-0.1902562
119	0xbdf4d44d	-0.11954556
120	0x3cb24c7d	0.021764988
121	0x3dfd4a30	0.12367666
122	0x3d00be4a	0.031431474
123	0x3e1e8f71	0.15484406
124	0xbcfa0f28	-0.030524805
125	0xbd8a3324	-0.067480356
126	0xbd089102	-0.033341415
127	0x3df70613	0.120617054
128	0x3cb184c2	0.02166975
129	0x3cd65bd9	0.026166843
130	0xbc75296c	-0.014963489
131	0x3d2763e8	0.040866762
132	0xbd03999f	-0.032128926
133	0xbc5d07e1	-0.013490648
134	0x3d915946	0.07097106
135	0x3e83845a	0.25686914
136	0x3e9a2036	0.301027
137	0x3e830410	0.25589037
138	0x3dedc5ba	0.11609979
139	0x3e306075	0.17224295
140	0x3e2c4140	0.16821766
141	0x3e56a665	0.20961912
142	0x3e6106cb	0.21975248
143	0x3e2165d4	0.157615
144	0xbd0ca5cb	-0.0343378
145	0x3b11a442	0.002222315
146	0x3df34e8c	0.11880216
147	0xbd3a1d24	-0.045437947
148	0xbdf815b9	-0.12113518
149	0xbd3bc251	-0.04583961
150	0x3d3f7180	0.0467391
151	0xbe070d26	-0.1318861
152	0xbd811059	-0.06301946
153	0x3e4afc2b	0.19822757
154	0x3e33ba4f	0.1755154
155	0x3ce55037	0.027992351
156	0x3e0f9b8f	0.14024185
157	0x3df2889d	0.11842463
158	0x3e3513b4	0.17683297
159	0x3e49b55f	0.19698094
160	0x3e8b7314	0.27236235
161	0x3e59821b	0.21241038
162	0xbd7604db	-0.060063224
163	0xbdaacbe9	-0.08339674
164	0xbe4db4a2	-0.20088437
165	0xbd952d24	-0.072840005
166	0x3d332039	0.0437319
167	0xbcd95da2	-0.026533905
168	0x3db97a45	0.09056524
169	0xbe7cfb0a	-0.24705139
170	0xbe31b665	-0.17354734
171	0x3be4f8e3	0.0069876774
172	0xbcf6cc86	-0.030126821
173	0xbe49abad	-0.19694395
174	0x3d25d4e7	0.040486243
175	0x3d502cb0	0.050823867
176	0xbb87407e	-0.004127561
177	0x3d0a2767	0.033728983
178	0xbd42dd03	-0.047574054
179	0xbd03a469	-0.032139216
180	0x3e6bf495	0.2304252
181	0x3e80cbac	0.2515539
182	0x3e2eea42	0.1708155
183	0x3dfe083d	0.12403915
184	0x3dad3f9d	0.08459399
185	0x3e5020cc	0.20325011
186	0x3e025dc4	0.12731081
187	0x3e249643	0.16072945
188	0x3ca1797d	0.01971125
189	0xbdc7b4b5	-0.09751264
190	0x3c843dba	0.016142715
191	0xbd3a976c	-0.045554563
192	0x3daaaf32	0.08334197
193	0x3d41a6db	0.047278266
194	0xbc015ada	-0.007895196
195	0xbd609a45	-0.054834623
196	0x3d4d8591	0.050176207
197	0x3d1f8d33	0.038953017
198	0xbda04202	-0.0782509
199	0xbe040f11	-0.12896372
200	0xbe9c19d9	-0.3048847
201	0xbd840a14	-0.06447235
202	0xbd507a83	-0.050898086
203	0xbe1c732f	-0.15278314
204	0xbc23c4e0	-0.009995669
205	0xbd1df041	-0.038559202
206	0xbd515b22	-0.0511123
207	0xbd5178be	-0.05114054
208	0xbde215b2	-0.11039294
209	0xbd76e73b	-0.060279112
210	0xbdc816bf	-0.097699635
211	0xbc4b6ab0	-0.012415573
212	0xbd34c2a0	-0.04413092
213	0xb9354479	-0.00017287013
214	0xbe08815a	-0.13330594
215	0x3ddf48e7	0.10902577
216	0xbdbbc886	-0.09169106
217	0xbd01ba66	-0.031671904
218	0xbdc4ede3	-0.09615686
219	0xbd61bee5	-0.05511369
220	0xbe2ddd93	-0.16979055
221	0x3c8bcd32	0.017065618
222	0x3d37175e	0.04470002
223	0x3d960eda	0.073270515
224	0xbd6e2b7c	-0.05814694
225	0x3e7ab4d5	0.24483044
226	0x3e46c110	0.19409585
227	0x3e2652d3	0.16242532
228	0x3e153d87	0.14574252
229	0x3e872936	0.2639863
230	0x3e2f53bb	0.17121784
231	0x3e840b4e	0.25789875
232	0x3e19eae5	0.15031011
233	0x3e6c98f5	0.23105223
234	0xbe475db2	-0.19469336
235	0xbdb845da	-0.08997698
236	0xbdeeffc9	-0.11669881
237	0x3c203241	0.009777606
238	0x3c9ab5d4	0.01888553
239	0x3c6a3530	0.014294907
240	0x3dab773a	0.0837235
241	0xbdbcebbc	-0.0922465
242	0xbc9c7f48	-0.019103661
243	0xbd1d09d1	-0.03833944
244	0xbd9bb522	-0.07602908
245	0xbe1ea8c3	-0.15494065
246	0xbdafdb48	-0.085867465
247	0x3cb9f9ff	0.022702215
248	0x3ae5b6a0	0.001752574
249	0x3c5e4418	0.0135660395
250	0x3bfbf34e	0.0076889163
251	0x3e06fcf1	0.13182427
252	0xbe595f9c	-0.21227878
253	0xbdde2c44	-0.10848287
254	0xbd9ebab3	-0.07750454
255	0x3b8dd60b	0.0043284944

res_blocks.0.conv.3.bias f4 [30]
0	0x3cfc96a4	0.03083355
1	0xbd6f493e	-0.05841946
2	0xbd025ac0	-0.031824827
3	0x3c420512	0.011842029
4	0x3cddf6e9	0.027095275
5	0x3beb50c3	0.0071812584
6	0xbd00b4a4	-0.031422272
7	0x3d04b418	0.032398313
8	0x3ce4ead2	0.027944002
9	0x3b241338	0.002503587
10	0xbd20a71b	-0.039221864
11	0x3c056146	0.008140868
12	0xbd393036	-0.045211993
13	0xbd5320a8	-0.051544815
14	0xbcf285b0	-0.029604763
15	0xbd6a5884	-0.05721332
16	0xbcc462dc	-0.023972921
17	0xbd173ee8	-0.036925226
18	0xbd29cb9d	-0.041453946
19	0x3d70eff7	0.0588226
20	0x3d6d432d	0.057925392
21	0x3d428ad0	0.047495663
22	0xbc27dd53	-0.010245639
23	0xbc687f4f	-0.014190509
24	0xbc07fbca	-0.008299777
25	0x3d57c244	0.0526755
26	0xbcd16479	-0.025560604
27	0xbd24ad9d	-0.040204633
28	0x3d18c6fa	0.037299134
29	0xbd19fc2f	-0.037594017

res_blocks.0.conv.4.weight f4 [30]
0	0x3fd6d5b5	1.6783968
1	0x3f530acc	0.8243835
2	0x3f999a53	1.2000221
3	0x3f85a439	1.0440742
4	0x3f97f609	1.1871959
5	0x3f8008d1	1.000269
6	0x3f935c6f	1.1512583
7	0x3f627755	0.88463336
8	0x3f84709d	1.0346867
9	0x3f913083	1.134293
10	0x3f62d9ea	0.8861376
11	0x3f34ed10	0.7067423
12	0x3f440660	0.7657223
13	0x3f7b0fc7	0.9807095
14	0x3f8bebf9	1.0931388
15	0x3f85a9dd	1.0442463
16	0x3fb12801	1.3840333
17	0x3f64cf70	0.89379025
18	0x3f80cc34	1.0062318
19	0x3f5e3ecd	0.86814576
20	0x3f24ffb3	0.64452666
21	0x3f444e92	0.7668239
22	0x3f8954c6	1.0728996
23	0x3f92626e	1.1436288
24	0x3f862ca1	1.048237
25	0x3f566965	0.8375457
26	0x3f638d76	0.8888773
27	0x3f8ed9bd	1.1160198
28	0x3f8663a7	1.0499161
29	0x3f951193	1.1645988

res_blocks.0.conv.4.bias f4 [30]
0	0xbcc4e017	-0.024032636
1	0xbdf0e6e4	-0.11762789
2	0x3e8f3b9e	0.27975172
3	0x3e48c740	0.19607258
4	0x3e772523	0.2413526
5	0x3d8af895	0.067856945
6	0xbc6ad4a9	-0.014332929
7	0xbc28a907	-0.0102942055
8	0x3e382821	0.17984058
9	0x3e43f85e	0.19137713
10	0x3e45004f	0.19238399
11	0x3e1734ed	0.14766283
12	0xbdc725c1	-0.09723998
13	0xbc82cacb	-0.01596584
14	0x3e6126ec	0.21987504
15	0x3d823445	0.06357626
16	0xbe73cb84	-0.23808104
17	0x3e8d0876	0.27545518
18	0xbd098e14	-0.033582762
19	0xbda5658c	-0.08076009
20	0x3e126e41	0.14299871
21	0x3dcbe7ea	0.099563435
22	0xbd20760e	-0.039175086
23	0xbdb365e2	-0.08759667
24	0x3e1d81b6	0.15381512
25	0xbe14d178	-0.14533031
26	0xbda39bca	-0.07988699
27	0x3d2963eb	0.041355055
28	0x3e40b6a6	0.18819675
29	0xbe03c2c2	-0.12867263

res_blocks.0.conv.4.running_mean f4 [30]
0	0x3f6a0980	0.91420746
1	0xbf5f1c0d	-0.8715218
2	0xc01445c1	-2.3167574
3	0x3eb297a7	0.34881327
4	0xbf0a8325	-0.5410636
5	0xbfd0e5d8	-1.6320143
6	0xbce8fd42	-0.028441075
7	0xbf171c58	-0.59027624
8	0xbf872895	-1.055926
9	0xbec01846	-0.3751852
10	0xc06b3a4b	-3.675433
11	0x3f904ca4	1.1273389
12	0xbff88905	-1.9416815
13	0x3f70e60f	0.9410104
14	0xbf738fb8	-0.9514117
15	0x3e1c36cb	0.15255277
16	0x3fae4deb	1.3617529
17	0xbf5f9aeb	-0.8734576
18	0x3fac8fd7	1.3481396
19	0x3f07318b	0.5280997
20	0xbfd9e677	-1.7023457
21	0xc0501506	-3.2512832
22	0xbeba9f4b	-0.36449656
23	0x3fefa328	1.8721666
24	0xbf672411	-0.9028941
25	0x3e8c0a88	0.27351785
26	0x3fb83f6d	1.4394356
27	0xbeee4c42	-0.46542555
28	0xbfefd6fe	-1.8737485
29	0xbc202039	-0.0097733075

res_blocks.0.conv.4.running_var f4 [30]
0	0x40e9fd77	7.3121905
1	0x406b2ebb	3.6747272
2	0x415c816b	13.781596
3	0x41689618	14.536644
4	0x418a59d2	17.293858
5	0x4242a4fe	48.661125
6	0x412d0e6c	10.816021
7	0x41c8b14b	25.086569
8	0x4187294b	16.895163
9	0x417d65f4	15.837391
10	0x4176d0a0	15.425934
11	0x41ea5233	29.290136
12	0x4224a247	41.158474
13	0x40bfe5e8	5.9968147
14	0x4166adb5	14.417409
15	0x417be882	15.744265
16	0x410eee0b	8.933116
17	0x40c212fb	6.064817
18	0x40bdbd99	5.9293942
19	0x40e8ee01	7.279053
20	0x40d4a7bb	6.645475
21	0x42823f7d	65.124
22	0x416b79e9	14.717263
23	0x40f64c6e	7.69683
24	0x4172c97d	15.174191
25	0x403c811e	2.9453807
26	0x4135fe01	11.374513
27	0x4112ebc1	9.182557
28	0x40688bab	3.6335247
29	0x4142bd01	12.171144

final.0.weight f4 [30, 30, 1, 1]
0	0x3dbc15be	0.091838345
1	0xbc1fc3fe	-0.009751318
2	0xbe06482f	-0.13113473
3	0xbd0c56a2	-0.034262307
4	0x3e41868c	0.18898982
5	0x3ef5cfc3	0.48010072
6	0x3e91b836	0.28460854
7	0xbd09fef3	-0.033690404
8	0xbed3cc02	-0.41366583
9	0x3c73d5a9	0.0148824835
10	0xbe045ea9	-0.12926735
11	0xbe695887	-0.22787677
12	0xbe4c16f7	-0.19930635
13	0x3eb4343f	0.3519611
14	0xbed27e07	-0.41111776
15	0x3d7f6ae1	0.062357787
16	0xbe77c137	-0.241948
17	0x3d98ccdd	0.074609496
18	0xbe175f73	-0.14782505
19	0xbd32dbd8	-0.04366669
20	0x3ec3aae3	0.38216314
21	0x3e195ad4	0.14976054
22	0xbe11b3a9	-0.14228691
23	0xbe84640d	-0.25857583
24	0x3e09b343	0.13447289
25	0xbefb0de2	-0.4903403
26	0x3ed687fe	0.4190063
27	0x3d97b13e	0.07406853
28	0x3c0fe337	0.0087822
29	0xbe4e833c	-0.2016725
30	0xbe66161c	-0.22469372
31	0xbe7f318f	-0.24921249
32	0xbe6fe3be	-0.2342672
33	0xbd2ce225	-0.042207856
34	0xbe92b3c7	-0.28652784
35	0x3e78b5d9	0.2428812
36	0x3e6c50cc	0.23077697
37	0xbea719f7	-0.32636997
38	0xbe3df90c	-0.18552035
39	0x3f020e9e	0.50803554
40	0x3dd3111e	0.10305999
41	0xbe99c96b	-0.30036482
42	0x3e1af5f1	0.15132882
43	0xbef1dbc9	-0.47237995
44	0x3edabdf7	0.42723057
45	0x3f1903e1	0.59771544
46	0xbe1d4908	-0.1535989
47	0xbe310196	-0.17285761
48	0x3d27e92a	0.040993847
49	0x3dd89d50	0.1057688
50	0x3d232c64	0.039837256
51	0x3e65fecd	0.2246048
52	0x3da386a8	0.07984668
53	0x3e62a172	0.22131899
54	0xbd1c61e5	-0.038179297
55	0x3dba4383	0.09094908
56	0x3ed37b53	0.41305026
57	0xbe60a763	-0.21938853
58	0x3d6425a6	0.055699967
59	0x3c3d5366	0.011555528
60	0xbb1d4dd3	-0.0024002686
61	0xbe94e962	-0.29084307
62	0x3e902716	0.2815482
63	0x3e11057d	0.1416225
64	0x3ef27ce4	0.4736091
65	0x3f238ea6	0.6388954
66	0x3ea4bd61	0.32175735
67	0x3e25672f	0.16152643
68	0x3d177810	0.036979735
69	0x3da8d8f3	0.08244505
70	0x3dc1d3e3	0.09464242
71	0xbeab997e	-0.33515543
72	0x3ea6ff38	0.3261659
73	0xbee0c3f9	-0.43899515
74	0xbd4c026a	-0.04980699
75	0xbf0e92f3	-0.55692977
76	0xbf155072	-0.58325875
77	0x3ed7905f	0.42102334
78	0xbc82e1a0	-0.015976727
79	0x3ea708cf	0.32623908
80	0x3d8aa930	0.06770551
81	0xbe286e19	-0.16448249
82	0x3e8f7189	0.28016308
83	0x3e13a7d2	0.14419487
84	0x3ef9825e	0.48732275
85	0xbe0b531c	-0.13605922
86	0xbb8a09f0	-0.0042126104
87	0xbdc3cd1e	-0.095606074
88	0xbe506f0a	-0.20354858
89	0x3c0cb20c	0.008587372
90	0xbddabce1	-0.10680557
91	0xbdc2b5f9	-0.09507365
92	0x3f0078fb	0.501846
93	0x3ecf3964	0.40473473
94	0x3e2947b2	0.16531256
95	0x3eca8b61	0.39559463
96	0x3d445a02	0.0479374
97	0x3e4da62c	0.20082921
98	0x3da006a9	0.0781377
99	0x3e5306c9	0.20608057
100	0xbec5f6c4	-0.3866483
101	0xbe8a3b1c	-0.26998222
102	0x3de3b365	0.11118201
103	0xbe73130b	-0.23737733
104	0xbe50b168	-0.20380175
105	0xbe3981a2	-0.18115857
106	0x3e4315dc	0.19051307
107	0x3e87c0a9	0.26514176
108	0x3e48fe8f	0.19628356
109	0xbe3c6ee1	-0.18401672
110	0xbacfbf06	-0.0015849776
111	0xbdd8e330	-0.105902076
112	0x3e9525ee	0.291305
113	0xbb4df052	-0.003142376
114	0x3e3e619d	0.18591924
115	0xbd761b11	-0.060084406
116	0x3e94d3da	0.2906788
117	0x3d4aea08	0.049539596
118	0x3dc7d34f	0.09757101
119	0x3eab10e6	0.3341133
120	0x3e3a5ac0	0.18198681
121	0xbda6b535	-0.08140031
122	0xbf03266f	-0.5123052
123	0x3de2c49c	0.110726565
124	0xbe41c488	-0.18922627
125	0xbe7ab6fe	-0.24483868
126	0x3d95a9d8	0.07307786
127	0x3e2425ea	0.16030088
128	0xbe60fb9e	-0.21970984
129	0xbf348b8e	-0.70525444
130	0x3caf5c80	0.021406412
131	0xbd5c9ff9	-0.0538635
132	0xbeb3383c	-0.3500384
133	0x3dcd499b	0.10023805
134	0xbd145695	-0.036215384
135	0x3e924adb	0.28572735
136	0xbe702cc1	-0.23454572
137	0x3d20c142	0.039246805
138	0xbdc1549f	-0.09439968
139	0xbea0afcf	-0.3138413
140	0x3e5cf2d4	0.21577007
141	0xbe4dae33	-0.20085983
142	0xbead191b	-0.33808216
143	0x3be75339	0.0070594815
144	0x3e7860b5	0.24255641
145	0x3dd7c1ba	0.10534997
146	0xbeaca92b	-0.33722815
147	0x3e3aa3ae	0.18226501
148	0xbe04c943	-0.129674
149	0xbd07547a	-0.033039548
150	0xbd332dcf	-0.04374486
151	0x3eb95bb2	0.3620277
152	0xbe4ae3ee	-0.19813511
153	0xbe338099	-0.17529525
154	0xbe26baa8	-0.16282141
155	0xbeac9928	-0.337106
156	0x3e726406	0.23670968
157	0xbe86c0f6	-0.26319093
158	0x3e476a1d	0.19474073
159	0xbf02def9	-0.5112148
160	0xbe4eecef	-0.2020757
161	0xbdf5ea83	-0.1200762
162	0xbd360091	-0.044434134
163	0xbd515287	-0.051104095
164	0xbe8f190a	-0.2794879
165	0x3e6ba597	0.23012386
166	0xbe3f36ef	-0.18673299
167	0x3e9972e8	0.2997048
168	0xbe8c7cb5	-0.27438894
169	0xbc883147	-0.01662506
170	0x3e8f6ca7	0.28012583
171	0x3eb4ca83	0.35310754
172	0x3eeb35c3	0.45939454
173	0xbe29e8a3	-0.1659265
174	0xbebc3066	-0.36755675
175	0xbdea0586	-0.11426835
176	0xbf5d9503	-0.865555
177	0xbe4e7f78	-0.20165813
178	0xbdb53eab	-0.088498436
179	0x3eb5c953	0.3550516
180	0x3e028b93	0.12748556
181	0xbe8ead08	-0.27866387
182	0x3d8fd9e4	0.07023981
183	0x3f1b9b80	0.6078415
184	0xbe494bc8	-0.19657815
185	0x3e855dd6	0.26048154
186	0x3eb4b99e	0.35297865
187	0x3dbbe295	0.091740765
188	0xbb84aa36	-0.004048611
189	0x3ea0a13d	0.31373015
190	0xbe98a600	-0.29814148
191	0xbe7f0fe7	-0.2490841
192	0x3d23da4f	0.040003117
193	0x3e7d8927	0.2475935
194	0x3dd10d79	0.10207648
195	0xbec0026d	-0.3750185
196	0x3d88e00d	0.06683359
197	0xbe5d0f85	-0.21587951
198	0x3eaec327	0.34133264
199	0xbea00a02	-0.31257635
200	0xbd66df83	-0.0563655
201	0xbd6f8233	-0.058473777
202	0xbd5afd84	-0.053464428
203	0x3ecd1644	0.4005605
204	0xbe0da89d	-0.13833852
205	0x3e7cf48a	0.24702659
206	0x3dff45c1	0.124644764
207	0xbd5266e2	-0.051367648
208	0x3f372d57	0.7155356
209	0x3ec0aa95	0.37630144
210	0x3d55f564	0.052235976
211	0xbe10a082	-0.14123729
212	0x3e02eab3	0.12784843
213	0x3d734b5a	0.059398033
214	0xbe881323	-0.265771
215	0xbe36b95f	-0.17844151
216	0x3e96f2a8	0.29482007
217	0xbe7979c7	-0.2436286
218	0xbe51ec39	-0.20500268
219	0xbe0e40ab	-0.13891856
220	0x3ebaaa6c	0.36458147
221	0x3e0156e8	0.12630808
222	0xbe906baa	-0.2820714
223	0x3e5e5b49	0.2171451
224	0x3e90042f	0.28128192
225	0xbe84bc27	-0.259248
226	0x3e43ffb4	0.19140512
227	0x3e389c3b	0.18028347
228	0xbe7bc204	-0.2458573
229	0xbf0a5e0a	-0.5404974
230	0xbea0c4a1	-0.31400016
231	0x3e52c7f9	0.20584096
232	0xbda9183b	-0.08256575
233	0xbf4ee41f	-0.80816835
234	0xbebf202b	-0.3732923
235	0x3d3fbb27	0.04680934
236	0x3e9e83ba	0.30959874
237	0xbd87b325	-0.06625966
238	0x3e38338c	0.17988414
239	0x3e1a9322	0.15095189
240	0xbe4117eb	-0.1885678
241	0x3ef5cc05	0.48007217
242	0xbf2a45b1	-0.6651259
243	0x3d9339db	0.071887694
244	0x3e6c90b1	0.2310207
245	0x3f012d8c	0.50460124
246	0xbdda2155	-0.10650889
247	0x3e7f554a	0.24934879
248	0xbf1aef89	-0.6052175
249	0xbd93f9be	-0.07225369
250	0xbe624a6a	-0.22098699
251	0x3d8ecb09	0.0697232
252	0xbe8700ad	-0.26367703
253	0x3da93a21	0.0826304
254	0xbea6f848	-0.326113
255	0xbdca0f08	-0.09866148

final.0.bias f4 [30]
0	0x3dff8f8a	0.1247855
1	0x3cf4c6ab	0.029879889
2	0x3daa7121	0.08322359
3	0x3c4ed6cb	0.012624453
4	0x3e17e6d4	0.14834148
5	0xbb71109f	-0.0036783589
6	0x3e00b76d	0.12569971
7	0x3e376cee	0.17912647
8	0xbe17efd2	-0.14837578
9	0x3e3825d8	0.17983186
10	0xbdd14349	-0.10217912
11	0xbdabd2d3	-0.08389821
12	0x3e0c9cbd	0.13731666
13	0x3e39b6b7	0.18136106
14	0xbe2899ea	-0.16464964
15	0xbd2811d0	-0.041032612
16	0x3e18a9e5	0.1490856
17	0xbe11e7a5	-0.14248522
18	0xbd3819b5	-0.04494639
19	0x3cec0900	0.028812885
20	0x3d1ee2b7	0.03879043
21	0xbdbf73e5	-0.09348277
22	0x3df3b19f	0.11899113
23	0x3d4a5847	0.049400594
24	0xbcded114	-0.027199306
25	0x3cbcf770	0.023067206
26	0xbe00d818	-0.12582433
27	0x3d568eb6	0.052382194
28	0xbdde301e	-0.108490214
29	0x3daefefc	0.08544728

final.1.weight f4 [30]
0	0x3ed1d861	0.40985397
1	0x3eb08245	0.34474388
2	0x3f5e955c	0.86946654
3	0x3f26c78c	0.65148234
4	0x3f06cc20	0.5265522
5	0x3ea55ce1	0.32297423
6	0x3eba0349	0.3633063
7	0x3efa94e1	0.4894171
8	0x3e853a43	0.26021013
9	0x3e9200fc	0.28516376
10	0x3f597168	0.8493867
11	0x402d4e16	2.707891
12	0x3e5fb958	0.21848047
13	0x40b4896e	5.641776
14	0x40404090	3.0039406
15	0x3fa149c6	1.2600639
16	0x3ecf6e14	0.4051367
17	0x3eae6e95	0.34068742
18	0x402e71f1	2.7257044
19	0x400559d2	2.0836072
20	0x3f682c89	0.90692955
21	0x3f8f31cb	1.1187071
22	0x3f79f01b	0.97631997
23	0x3ee83e62	0.45360094
24	0x3f253fc3	0.6455042
25	0x3f9076cb	1.1286253
26	0x3e73ff0b	0.2382776
27	0x40886036	4.2617445
28	0x40879eec	4.2381496
29	0x40df1ab9	6.972012

final.1.bias f4 [30]
0	0xbf3cd660	-0.7376461
1	0xbf1cc86f	-0.6124334
2	0xbefee1bf	-0.49781606
3	0xbef33aa2	-0.4750567
4	0xbf317af3	-0.6932823
5	0xbf4309d7	-0.7618689
6	0xbf212c8d	-0.62958604
7	0xbf2688e3	-0.6505262
8	0xbf369b9e	-0.71331203
9	0xbf4ef24d	-0.8083847
10	0xbef9ad03	-0.4876481
11	0x3f3fe220	0.74954414
12	0xbf4bebb4	-0.7965653
13	0x40801b12	4.0033045
14	0x3f8ae6e3	1.0851711
15	0xbd62e6ec	-0.055396006
16	0xbf0cb34f	-0.54961103
17	0xbf30e142	-0.69093716
18	0x3f4b6bb9	0.79461247
19	0x3eb8c545	0.36088005
20	0xbe6bd931	-0.2303207
21	0xbe867797	-0.26263115
22	0xbec29565	-0.38004604
23	0xbf19ff5a	-0.6015526
24	0xbf011482	-0.5042192
25	0xbe7d827a	-0.24756804
26	0xbf4cbb33	-0.79973143
27	0x3fc139c8	1.5095758
28	0x3f9209e0	1.1409264
29	0x4095a10b	4.6759086

final.1.running_mean f4 [30]
0	0x3ade7300	0.0016971529
1	0x3ec3d1e5	0.38246074
2	0x3f950631	1.1642514
3	0x3faa7b4b	1.3318876
4	0xbfb1429b	-1.3848451
5	0xbfae8f97	-1.363757
6	0x3f96e3a9	1.1788226
7	0xbf452d61	-0.7702237
8	0xbe35b57d	-0.17745014
9	0xbfeb25e9	-1.8370944
10	0xbda01cd4	-0.078179985
11	0xbe98f20e	-0.29872173
12	0x3fa97a77	1.3240498
13	0xbf679bb9	-0.9047199
14	0x3f370331	0.71489245
15	0xbfaded17	-1.3587979
16	0x3f18cba1	0.59685713
17	0xbe0032bc	-0.12519354
18	0x3ea4b3ea	0.32168514
19	0xbf105f41	-0.56395346
20	0xbe2cb977	-0.16867624
21	0x3ed85a57	0.42256424
22	0x3f55c627	0.8350548
23	0x3f65468f	0.8956079
24	0x3f5b036c	0.85552096
25	0x3f2b7230	0.6697111
26	0x3d2d6109	0.042328868
27	0xbe13286d	-0.1437089
28	0xbf1fd0c5	-0.6242793
29	0xbec11b95	-0.37716356

final.1.running_var f4 [30]
0	0x3fbec044	1.4902425
1	0x4031d754	2.7787676
2	0x409f6276	4.980769
3	0x40728ea9	3.7899573
4	0x40fe9ae6	7.9564085
5	0x40d62af4	6.6927433
6	0x3ff627d2	1.9230902
7	0x401f5a99	2.4899046
8	0x40134fdc	2.3017492
9	0x3f60234c	0.8755386
10	0x40cc22b5	6.3792367
11	0x4117b4dd	9.481656
12	0x402b5fbc	2.6777182
13	0x411bd472	9.739367
14	0x41314aa2	11.080721
15	0x410e29d6	8.885214
16	0x40162514	2.346013
17	0x40595522	3.395821
18	0x4108b673	8.544543
19	0x40f0c4e7	7.524036
20	0x40a043f1	5.0082936
21	0x40bee176	5.965022
22	0x413fa329	11.977334
23	0x40536260	3.3028793
24	0x400dfaa9	2.218424
25	0x40caa509	6.332646
26	0x40668e67	3.6024415
27	0x400d8778	2.2113934
28	0x40b2ef53	5.5917144
29	0x40d1b0df	6.5528407
