图像处理/model_weights_7.pth (torch, 83009 bytes, 24 tensors)

initial.0.weight f4 [30, 3, 3, 3]
00000000: 3825 07bf a495 51be 5b9e 9fbe 5088 24bf
00000010: 4750 83be b377 01be a07b 4dbe 8501 04be
00000020: 4ce9 213d bb6a 0fbf e360 b4be 1e55 96bd
00000030: 4992 b8be c0e5 41be c3a3 aebd de36 abbe
00000040: 3d39 36be 251a f93d 3b29 40bf d234 ebbe
00000050: 252d 7cbe 2829 9abe 419a e2bd b77c bcbc
00000060: 90b2 80be d81a ac3c 2375 273e 3b67 843e
00000070: f7bd a33d 7511 1bbd 37c6 abbd eba1 c73c
00000080: e882 aebd 7589 cd3c df5d f7bc c802 8a3d
00000090: 6307 493d 025c 0aba 7b10 403e df9d 4ebd
000000a0: 1c54 4d3d 4647 cf3d 8ebf 463d 351a 9b3d
000000b0: 1912 ab3d d5b1 3d3d cf00 273e 80bc 19be
000000c0: 360d 3e3e c739 9c3d 78d2 0a3e 7c7e 6b3e
000000d0: 07ee a63d ca28 933b 3cc2 0abe 1f01 773d
000000e0: ffcb 7f3d 1dd2 96bd c34f 0f3e e376 543e
000000f0: 8e5e 423d 7636 28bc 5eeb 4ebc b15c 043e
00000100: a723 9a3d 0027 263e 75f2 8a3c 81e3 1a3e
00000110: 22fc 95bb cae5 e53d c9f4 aabd 3f2d b73d
00000120: 9dde 883c 9443 933c 1509 413d b25f e33d
00000130: 2a5b ef3d 2d6f 123c 9af7 81bb 31cf b33d
00000140: 652a f5bc 995a 5f3e 087f 54bb 871c 2c3c
00000150: e10e 053e 61d2 063e 7807 0a3d c34e 0fbc
00000160: e42a 71bd 5eaa 2c3d 1cae b13d 593d 893c
00000170: fe88 233e b5ee 91bd 9138 453d 349f 5f3c
00000180: 7948 053e 3580 4e3d 04f3 0b3d fde6 51bd
00000190: 16ae 003d 892c d6bb 1537 ca3d 4f15 da3d
000001a0: 58ea 15bc ec75 ab3d f693 d03c b1c6 c8bc
000001b0: b8a8 663d fe41 663e 77d8 183e 1038 3a3e
000001c0: 75b4 32bd 5c8d 8d3c 5ef7 7abd b45f 3b3e
000001d0: be77 d13c d510 003e a423 623e 7550 a83d
000001e0: 314e ba3d 2823 9f3c 252e 323e 42fb a43d
000001f0: 1d3f b63d 1564 bb3d f6d7 0c3e 8d61 123e
00000200: 4fe4 113e 5fb7 1c3e 1553 013e fd59 c13d
00000210: b80d 343e 6d41 e53d 9da4 5e3d 6877 17bf
00000220: ad34 52be 3591 aebe 52e0 09bf 32a6 53be
00000230: 9aee 4abe 2c19 f4be 6541 e7be e07e 7ebe
00000240: 6242 e9be d750 7cbe c32a b3bd 3fcb cfbe
00000250: 9cc1 f1be b1c9 f2bd 38a8 f8be c105 d5be
00000260: e6b8 0fbd cf24 e6be 6d5b 83be a045 01bd
00000270: 30e7 e0be 168a aebe 4402 05be aab9 1cbf
00000280: c5fa dbbe 66c1 48bd be9b 6fbd f270 733d
00000290: 514d 0a3d d93f 9b3c d6ca a0bd 160a ff3c
000002a0: bdb1 6c3d d250 5abc 52dd 97be c392 aa3d
000002b0: 5dd2 243d 30e0 6f3c 7845 1cbd fcde c6bd
000002c0: 5851 edbd 76a6 59be 7835 53be fb4d 9abd
000002d0: ce61 2cbe f03e 71bd 306f 6fba b54d 96bd
000002e0: 4949 36be c765 91bc 59b7 febd 1e35 93bb
000002f0: 1a16 fabc 6a10 5bbc 1a9d ac3c 4d48 b23d
00000300: d89b f83d d9f5 163e 0b59 9b3c db6e 923d
00000310: ab95 afbd 0868 36bd 6c8a d23d 7f00 473b
00000320: b6df 253e 9d6a 353d 3c07 3f3e afc6 ff3d
00000330: 98ec af3c b448 393d fc40 a73c 35c9 793e
00000340: 0f33 8b3d 5c98 173e 0668 583d e797 10bd
00000350: 62bf 273e 0e3c 0bbd 3b2f b33d ec69 7d3d
00000360: 8eab ae3d b2c6 0f3c b8b9 663e 8aa7 a0bd
00000370: d7d5 293d c4db 543d 66ae 7a3c 9fde f23d
00000380: 1bec 013e b563 c23c dbbe de3d c404 343e
00000390: 339c 313e a974 9a3d 9817 da3c f891 ff3d
000003a0: 2ee4 563d e16c c7bb 79b7 083d 2f83 963d
000003b0: ca22 283c 8e5d 593e fb64 2f3e 8b82 e93d
000003c0: 5a7a aa3d e7f6 1a3e fe4f cb3d a480 09bf
000003d0: 8e33 fcbe 19e1 25bf d8a2 b0be 6c0d fbbe
000003e0: a469 15bf 0618 b5be 977c d4be 9f77 e6be
000003f0: 5882 bfbe 1e87 eabe f8bc 18bf e4f2 08bf
-0.52791166 -0.2046724 -0.31175503 -0.64270496 -0.25647184 -0.12643318 -0.2006669 -0.12891205
0.03952913 -0.5602223 -0.3523017 -0.073404536 -0.36049107 -0.18935299 -0.08527329 -0.33440298
-0.17795272 0.1216319 -0.7506291 -0.45938736 -0.24626596 -0.30109525 -0.11064578 -0.023008687
-0.25136232 0.021008894 0.16353278 0.2586001 0.07995217 -0.037858445 -0.08387416 0.0243692
-0.08521062 0.025089959 -0.030196128 0.06738812 0.04907931 -0.00052779925 0.18756287 -0.050443526
0.05012904 0.10121016 0.048522525 0.07573358 0.08353061 0.046312172 0.16308902 -0.15013313
0.18559727 0.07628208 0.1355685 0.22997469 0.08150869 0.0044909464 -0.13550657 0.060303804
0.062450405 -0.07364295 0.1399527 0.20748477 0.047453456 -0.010266891 -0.012629358 0.12925984
0.075263314 0.16225815 0.016961316 0.15125848 -0.0045771757 0.112254694 -0.0834747 0.08944177
0.016707713 0.01797656 0.047127802 0.11102237 0.1168731 0.008937639 -0.003966284 0.08779753
-0.029927442 0.21811904 -0.003242435 0.010504848 0.12993957 0.1316619 0.03369853 -0.008746806
-0.058878794 0.042154662 0.08675787 0.016752886 0.15970227 -0.07125608 0.04814965 0.013648797
0.13015927 0.050415237 0.034167305 -0.05124568 0.03141602 -0.0065360707 0.09873787 0.106485955
-0.00915011 0.08372101 0.025461178 -0.024508806 0.056313246 0.22486112 0.14926325 0.18185449
-0.04362913 0.01727932 -0.061271064 0.18298227 0.025569793 0.12506421 0.22083908 0.08218471
0.09096945 0.019425943 0.17400415 0.08055736 0.08898757 0.091499485 0.13754258 0.14295025
0.14247249 0.15304326 0.1262935 0.09440992 0.17583358 0.111941196 0.054356206 -0.59166574
-0.20527907 -0.3409516 -0.5385791 -0.20668867 -0.19817582 -0.47675455 -0.4516708 -0.24853086
-0.4555846 -0.24640213 -0.087483905 -0.40584752 -0.47218025 -0.11854876 -0.4856584 -0.41605952
-0.035088442 -0.44949958 -0.2565569 -0.03156054 -0.43926382 -0.34089726 -0.12989146 -0.612208
-0.4296476 -0.049012564 -0.058498137 0.059433885 0.03376514 0.018951343 -0.07851188 0.031132739
0.057786692 -0.013324933 -0.29661041 0.08328774 0.04023968 0.014640853 -0.038152188 -0.097105
-0.11587781 -0.21254906 -0.20625865 -0.07534405 -0.16834185 -0.058897913 -0.00091336947 -0.0733904
-0.17801394 -0.017748727 -0.124373145 -0.004492416 -0.030528117 -0.013370613 0.021071006 0.087051965
0.121391 0.14742221 0.018963357 0.0715005 -0.08573469 -0.044532806 0.10280308 0.0030365286
0.1619862 0.044291127 0.18655103 0.12489068 0.021475121 0.04523535 0.02041673 0.2439316
0.06796848 0.14804214 0.05283358 -0.035301115 0.163816 -0.03399282 0.08749243 0.061868593
0.08528815 0.0087754 0.22531784 -0.078444555 0.0414637 0.051967397 0.015300369 0.11858868
0.12687723 0.023729185 0.108762465 0.17579943 0.17344742 0.075417824 0.026622579 0.12479013
0.052463703 -0.0060859774 0.0333781 0.0734924 0.010262201 0.21227095 0.17128365 0.11401852
0.08324118 0.15133248 0.09927367 -0.53711915 -0.49258083 -0.64796597 -0.3449924 -0.49033678
-0.5836432 -0.3536989 -0.41501305 -0.4501314 -0.37404132 -0.4580621 -0.59663343 -0.5349562

initial.0.bias f4 [30]
00000000: 689a 11bd d490 fbbd 05b6 343e d2ee 173e
00000010: d747 103d 353b 2e3c 5f84 f13d 7435 0bbe
00000020: a42f 7c3d 53bb 2fbe 56b4 c0bd 47ce 333c
00000030: 857d cbbd d069 363e 8d21 2bbe 078e 813d
00000040: 496f 44be 2a91 46bd 9d68 b63d d2c9 c2bd
00000050: b946 05be fbfc e63d e9f6 bd3c 9e53 69bd
00000060: 9ccc 2f3d 6e3b 223e dbb1 a93d af89 2f3d
00000070: ee84 99bd 8aac 93bd
-0.035547644 -0.12283483 0.1764756 0.14837196 0.03522476 0.010634233 0.11792826 -0.1359461
0.06156887 -0.17161302 -0.09409396 0.010974473 -0.0993605 0.17813802 -0.16712017 0.06325918
-0.19183077 -0.048478283 0.08906672 -0.095111504 -0.1301526 0.11278721 0.023189025 -0.05696451
0.04291974 0.15842983 0.08285876 0.042855915 -0.074960575 -0.072106436

initial.1.weight f4 [30]
00000000: 9194 713f eb08 3e3f eda6 483f 5e1a 843f
00000010: f30a 653f afc6 3c3f da74 7f3f 83a3 7d3f
00000020: cddc 783f 4197 583f e850 803f 05dc 8c3f
00000030: 864f 793f c8c4 7b3f 7679 5d3f f5a9 7c3f
00000040: 7dd7 873f 200b 8b3f 94fa 7f3f 59a7 883f
00000050: 2b67 823f 766d 7b3f f7d5 873f 6c03 7a3f
00000060: c249 923f d172 833f 4e13 973f 4c3a 813f
00000070: 1adb 883f 2636 873f
0.9436732 0.7423236 0.7837971 1.0320547 0.8946983 0.7374067 0.99787676 0.99077624
0.97211915 0.84605795 1.0024691 1.1004645 0.9738697 0.9834714 0.8651346 0.98696834
1.0612637 1.086277 0.99991727 1.067607 1.0187734 0.982139 1.0612172 0.9766147
1.1428759 1.0269414 1.1802766 1.0095916 1.0691864 1.05634

initial.1.bias f4 [30]
00000000: cc4c d33d 8d4d 06be 71ff 5abd 5cc4 0f3c
00000010: 4246 25bb d576 33be dd9d 06be a7fa e13d
00000020: 52cb 99bb 9b62 c53c 128c 0fbe 9b1b 0abd
00000030: 4b52 af3c 9a89 83bd 976d 12bc 0073 43bc
00000040: f8d5 053e 5b97 acbd 5f41 453e 077b 743d
00000050: c6d0 e0bc 3457 693d e93d aa3d 026a 973d
00000060: a603 703e 5e21 b3bd a49d 2c3d 42cc 39be
00000070: ed6c ca3d 0412 1a3e
0.10317382 -0.13115521 -0.053466264 0.008774843 -0.002521888 -0.175258 -0.13146158 0.11034136
-0.004693427 0.02409487 -0.14018276 -0.033717733 0.021401545 -0.0642273 -0.008937261 -0.011929274
0.13069904 -0.08427306 0.19263218 0.05968764 -0.027443301 0.05696793 0.0831259 0.07393266
0.23438892 -0.08746599 0.042142525 -0.18144324 0.09884057 0.15045935

initial.1.running_mean f4 [30]
00000000: 7d34 02c0 01a1 003f 483e 343f a7fc 093f
00000010: 1be4 723f d863 fdbf da8f f6be 85f6 f03e
00000020: c156 463f 4290 7fc0 6617 bc3e fc48 13bf
00000030: b2cb 933f f961 d5c0 769d 233f f716 10bf
00000040: 0650 37c0 6df7 a5bf d21a 4040 c53f 63bf
00000050: 9f32 93bf 1aeb e5be 1bff 4b3f 841d 583f
00000060: 3e7c e63e 698a 22bf a7c1 cebe ba54 08bf
00000070: b9a9 f93f 1806 203f
-2.0344536 0.5024567 0.70407534 0.5390114 0.9487931 -1.9796095 -0.48156625 0.4706308
0.77476126 -3.9931798 0.36736602 -0.5753324 1.1546538 -6.6682096 0.6391214 -0.5628504
-2.8642592 -1.2966133 3.001637 -0.8876918 -1.1499823 -0.4490593 0.79686135 0.8442004
0.45016664 -0.6349245 -0.4038212 -0.5325428 1.950492 0.625093

initial.1.running_var f4 [30]
00000000: d9cb 823f db78 a03e efe8 9d3e 1743 923e
00000010: 26b0 d23e 2a70 9d3f 9a1f 9e3e 5517 a13e
00000020: d5f8 b43e ddc9 4d40 c05b 983e b554 9f3e
00000030: 11f5 083f 89e8 0f41 04ea bb3e 4252 a53e
00000040: f9ab d23f 8745 0d3f c66c ef3f dfc4 bf3e
00000050: 9147 ec3e 6a02 9c3e db70 bc3e 0850 cd3e
00000060: 4305 913e a842 b73e 5035 953e 55dd 9d3e
00000070: 480c 813f 9385 ae3e
1.0218459 0.31342205 0.30841777 0.2856681 0.41150016 1.2299855 0.30883485 0.31463113
0.35346094 3.2154458 0.297575 0.31119314 0.5349894 8.994271 0.36701977 0.3228932
1.6458732 0.55184215 1.870507 0.37454888 0.4614835 0.30470592 0.36804852 0.40100121
0.28324327 0.35793042 0.29142237 0.30832925 1.0081873 0.34086284

res_blocks.0.conv.0.weight f4 [30, 30, 3, 3]
00000000: 9993 d0bd ec97 983d 8a89 4abe 5221 34bd
00000010: 3fe9 d6bd 3166 2f3d 2155 3ebe 9c48 343e
00000020: 301c 0fbd 5bc8 5a3d 20ba 2bbd 86c3 5e3d
00000030: 983b 82bb 1e11 243c efc9 12bd d8f1 373e
00000040: 278a 493d 176a 52bd ba73 6bbd 188d f43c
00000050: 68ca 853d eb3a aa3d 35bb 283b 7813 9ebd
00000060: 2650 1e3e 5b1b 0d3d 8c96 8ebd 0f9a bebc
00000070: 87e7 adbd 16f3 d739 2db3 283e 0687 913d
00000080: b080 6dbd 0bcd 123d 61c4 203e f9d2 2abc
00000090: 8b60 023e f633 a5bd ec21 273e e117 8e3d
000000a0: ef0c a1bc 5c0e 00bd 05e4 373e 2596 60bd
000000b0: fbcd 813d 9d3b b4bc c051 003d 2900 2dbe
000000c0: 301f 5bbd f435 8cbc 6d22 033d 6cff cb3d
000000d0: 9c48 b3bc 2f88 23bd 4c95 22bd 60b4 9a3d
000000e0: 9e41 a63d 66ea 84bd 1969 b33d be86 20be
000000f0: 9ec0 01bd bc90 13bb feef 42be 846a 843d
00000100: 5649 573c 0029 e03d ffe2 46bc c522 c9bd
00000110: 0602 6a3d ff3f 893d 1f51 ef3d bffc 843d
00000120: 4807 483d 0d9c 9ebd 1c6a ffbd 3ce3 9d3d
00000130: ee79 42be ef40 503e 16d8 143d 04ef eb3d
00000140: 9b9b 813c 50d5 a3bd 1d5d 6cba 67a6 9abb
00000150: e24a 763a a828 0bbe a4a2 31be 300b 17bd
00000160: cac7 d7bc db45 223c 19a4 18be 10a1 50bd
00000170: 82ad a2bc 9b8b 5ebe 9741 27be a7d1 253d
00000180: da66 d1ba 838a 82bd 8c98 59bd 5f19 28bd
00000190: c1f2 d1bd ad98 57bd d1ee aa3d 12c5 b7bd
000001a0: ac06 00bd ef6f 063e 560d 323b 7130 0c3e
000001b0: 336c a23d 727b a03d f9e2 9b3d 2378 04bd
000001c0: 3288 073d dc3a 143d 74a6 073e d7ae 1c3e
000001d0: ad29 883d e638 993d d8e6 683d 0e7f 0e3e
000001e0: a425 e03c 43b4 dd3c 091a afbd ff42 f6bd
000001f0: 33a5 643d a4e2 ce3d ccd7 813d 4cd0 97ba
00000200: 53a6 403c 1d2f c53d 0fd8 c9bd 5227 5bbd
00000210: 2c6e 4a3a 7565 c0bd bcae 01ba 3432 3d3d
00000220: 7ca2 e9bd 57df a0bd 6cab 8fbc 4bf8 17bc
00000230: 2b2f a6bd 9cfc 74be 6236 8fbc c76a ae3d
00000240: 0e8a 04bc 3cde 24be cb83 f7bd 5996 b73d
00000250: b5f4 8dbd adb9 5b3e 838b 8f3d c542 83be
00000260: 9394 f1bd 93b3 ccbd f49b 55be b6fa a33d
00000270: feb9 aebd 406f c1bd 76ae ebbc bb4e 183c
00000280: 116c 5b3e f26a 9fbc e714 543d 9a5e 933d
00000290: 2ded 88bc 90a7 3ebd 08f0 26bd 8059 a33d
000002a0: d052 c43d 1bfa 97bc f5b0 9c3d 4e06 083d
000002b0: 5eba 47bc 1cda 803d 7d20 953d 6f7e 4cbc
000002c0: b183 513e 6dc8 d23b 1503 603d 9f86 00be
000002d0: 331f 2e3c 6c42 e13d 3239 cf3d 581e 453d
000002e0: 82b4 f8bd c314 df3c 3f21 28be 77d0 26bc
000002f0: e707 eabd 29d7 9ebd 014f b13c 057c 4cbd
00000300: c879 5c3a e7f2 0cbe 4160 0bbe 556a a1bd
00000310: 0050 e63b 2118 e03d 42b8 0dbc 58ce 19bc
00000320: 1e75 42bd 5f92 9f3d eca4 723d 1a8b 1dbc
00000330: 4d00 773d deaf db3d b80b e9bc cdab a83d
00000340: 360d 5abd 2f72 223d ebc7 2dbd df56 493e
00000350: 56ab d9bc 4b84 88bd 3179 493d 1238 df3c
00000360: a5bd f43d 25ae 483e a892 64bd 65e1 89bd
00000370: b38f 6dbd 0c2d 4dbd abc7 e3ba f959 d53d
00000380: 6187 80bd a5ed 1fbe 148d c0bd 99f6 9f3d
00000390: 25d6 d23d 5ad7 e33c b840 243d acdc 05bd
000003a0: 0c68 09be 0269 cfbd 9178 91bd e4db dd3d
000003b0: 8899 d83b 34ed 7abe 7fe3 633d af6f c0bd
000003c0: 0968 58bd bec3 f63d 1712 cb3c f464 42bd
000003d0: b24c bfbc 2a3a d3bd bd9d 12bd 23ee 48be
000003e0: aeb8 353a 3175 d93d 3c6e 0abe 3594 fb3d
000003f0: ba5f 383e b7b1 8cbd 90ea 273e 5285 b2bd
-0.10184402 0.07450852 -0.1977903 -0.04397709 -0.10493707 0.042822067 -0.18587162 0.17605823
-0.03493899 0.05341373 -0.04192555 0.054385684 -0.0039743893 0.010013847 -0.03583711 0.1796335
0.049204018 -0.051370706 -0.057483412 0.029852435 0.065327466 0.08312019 0.002574635 -0.07718557
0.15460262 0.034449916 -0.06962308 -0.02326682 -0.08491426 0.0004118911 0.164746 0.07105832
-0.057984054 0.035840075 0.15699913 -0.010426276 0.1273214 -0.080665514 0.16321534 0.06938148
-0.019659488 -0.031263694 0.17958076 -0.05483069 0.06338116 -0.022001082 0.031327963 -0.16894592
-0.05349654 -0.01711557 0.032015253 0.09960827 -0.021885209 -0.039924797 -0.03969316 0.07553935
0.08117984 -0.064900205 0.0876028 -0.156764 -0.031677835 -0.0022516688 -0.19036862 0.06465629
0.013140043 0.1094532 -0.012139081 -0.09821085 0.057130836 0.067016594 0.116853945 0.0649352
0.04883507 -0.07744608 -0.12471411 0.07709357 -0.18991825 0.2033727 0.036338888 0.11520198
0.015821269 -0.079996705 -0.00090165605 -0.0047195437 0.00093953137 -0.13589728 -0.17347199 -0.036875904
-0.026340384 0.00990435 -0.14906348 -0.05093485 -0.019858126 -0.21732943 -0.16333614 0.040483143
-0.0015976087 -0.06374075 -0.053123996 -0.04103982 -0.1025138 -0.052635837 0.08346332 -0.08973135
-0.031256363 0.13128637 0.0027168593 0.13690354 0.079307936 0.07836045 0.07611651 -0.032341134
0.03308887 0.036188945 0.1324709 0.15301071 0.06648574 0.07481556 0.056860775 0.13915655
0.027361698 0.027063495 -0.08549888 -0.12024497 0.05582161 0.10101822 0.06339988 -0.0011582463
0.011758405 0.09628127 -0.09855663 -0.053504296 0.00077221054 -0.093943514 -0.0004946997 0.046190456
-0.114079446 -0.07855099 -0.017537795 -0.009275506 -0.08114465 -0.23924488 -0.017481986 0.0851646
-0.008089555 -0.161004 -0.120856844 0.089642234 -0.0693144 0.21457548 0.070090316 -0.2563688
-0.117959164 -0.099951886 -0.20860273 0.08006804 -0.08531569 -0.094450474 -0.028769713 0.009296115
0.21427943 -0.019460175 0.051777747 0.07195778 -0.016714657 -0.04654652 -0.040756255 0.07976055
0.09586108 -0.018551877 0.076509394 0.033209138 -0.0121904295 0.06291601 0.07281587 -0.012481316
0.20460393 0.006432584 0.05469044 -0.12551354 0.010627556 0.10998997 0.10118331 0.04812464
-0.12143804 0.02723158 -0.16418932 -0.010181538 -0.114272885 -0.07755882 0.021644117 -0.04992296
0.0008410481 -0.13764535 -0.13610937 -0.07881609 0.0070285797 0.10942102 -0.0086498875 -0.009387575
-0.047474973 0.0779159 0.059239313 -0.009615684 0.06030302 0.107269034 -0.02844797 0.082358934
-0.053235255 0.039659675 -0.042426985 0.19662045 -0.026570957 -0.06665858 0.049187843 0.027248416
0.11950234 0.19597681 -0.055803925 -0.06732444 -0.05799837 -0.05009179 -0.0017378231 0.104175515
-0.062758215 -0.15617998 -0.094019085 0.07810707 0.10294751 0.027812649 0.040100783 -0.032681152
-0.13418597 -0.101274505 -0.07103074 0.108329564 0.006610099 -0.24504548 0.05563688 -0.09396302
-0.05283359 0.120490536 0.0247889 -0.047459558 -0.023352 -0.10313828 -0.035794962 -0.19622092
0.00069321215 0.106180556 -0.13518614 0.122841276 0.18005267 -0.06869834 0.16398072 -0.08716835

res_blocks.0.conv.0.bias f4 [30]
00000000: 1bc2 66bd 78ef 0cbd 5057 393d 3616 15bd
00000010: 1c4a 01bd 3cca 18bd acd0 2ebd fc95 69bd
00000020: deee 8abc 8e7d 313c 7bb5 67bd 1ccf aebc
00000030: 3b5c f53c 0d16 30bb 9c2a a33c fd4a 373d
00000040: d10e 7c3c 1dc5 8f3c b66f 27bd 7ef2 fa3c
00000050: cd2f ddbc 0537 763c 64e7 62bc 2359 1cbd
00000060: 3f4e 39bd dc2c 593b 24a9 70bd abe4 a93c
00000070: 42bd 8cbc a91e 48bd
-0.056337457 -0.034408063 0.045249283 -0.036398135 -0.031564817 -0.03730224 -0.042679474 -0.057027802
-0.016959604 0.010833157 -0.056569558 -0.021338992 0.029951205 -0.0026868612 0.019917779 0.04474925
0.015384392 0.017550046 -0.04087802 0.030633207 -0.027000332 0.015027766 -0.013849113 -0.038170945
-0.045240637 0.003313831 -0.058755055 0.02073892 -0.017180089 -0.048857365

res_blocks.0.conv.1.weight f4 [30]
00000000: 8cd6 743f df9c 943f 609c 823f 77c4 843f
00000010: 31b4 803f a183 833f 2f4a 7d3f 8249 833f
00000020: 86ba 843f 3f3f 833f 828a 693f 1d88 643f
00000030: d8d5 823f 300c 823f 1a01 893f 5637 883f
00000040: c0f0 803f 6cf5 853f 416f 853f 2d50 983f
00000050: 0857 693f a0da 5d3f b0be 803f de38 703f
00000060: 8165 673f 39e2 743f 2715 723f db1a 7e3f
00000070: 4648 803f 0f1e 6a3f
0.9563987 1.1610373 1.0203972 1.0372456 1.005499 1.0274545 0.9894132 1.0256808
1.0369422 1.0253676 0.9122697 0.8927019 1.022151 1.0159969 1.0703461 1.0641887
1.0073471 1.0465522 1.0424577 1.1899468 0.91148424 0.8666172 1.0058193 0.9383677
0.9038926 0.9565769 0.94563526 0.9925973 1.0022056 0.91452116

res_blocks.0.conv.1.bias f4 [30]
00000000: 9211 2b3c 4491 eabd c4b8 a83c 2cb3 f03d
00000010: e421 1bbe e4d9 88bc 50fd d23c 3b5f c3bd
00000020: 0ad5 1bbc 1002 34be ae62 843d 98fa 85bd
00000030: cce7 0c3d 4bb3 8a3d 699f 2e3e 7dba 843d
00000040: 892f 6e3d ce4f 37bb 77ac 673d f764 073e
00000050: e712 43bd fcca 21be 8b33 b43d 0091 2c3b
00000060: b1b5 88ba 01b8 e93d 9375 febd a90b 653d
00000070: d1af a43c e336 bd3c
0.010441201 -0.114534885 0.020595916 0.11752924 -0.15149647 -0.01670546 0.025755554 -0.09539648
-0.009511242 -0.17578912 0.06464134 -0.065419376 0.034400746 0.06772479 0.17052998 0.06480882
0.0581508 -0.0027971151 0.05656096 0.13222109 -0.04762545 -0.15800089 0.087988935 0.0026331544
-0.0010430125 0.11412049 -0.12424769 0.055919323 0.020103367 0.023097461

res_blocks.0.conv.1.running_mean f4 [30]
00000000: 7b87 003e a35c d13f 03d7 32be a941 18bf
00000010: 7fc7 a93f 17f8 e23e 48d6 933f 597f a03f
00000020: 4874 3d3f 6cda fb3f 6c55 8dbe cdc9 80bf
00000030: b087 e73e 9a73 be3d 6b4a e6bf bcd4 aa3f
00000040: 1957 3e3e 9c5a 383f c4e4 853d b8dd 05c0
00000050: 5fdf 03bf 5ed0 f3bf 6a64 023f eddd 513e
00000060: d033 2c3e 5f2f 93bf 18dc 6d3f 0248 7d3f
00000070: 884e 863e f7a2 87be
0.12551682 1.6356395 -0.17464833 -0.5947519 1.3264006 0.44329903 1.1549768 1.2538863
0.74005556 1.9676032 -0.27604234 -1.0061585 0.4522071 0.09299393 -1.799146 1.3346171
0.18587913 0.7201326 0.06537774 -2.0916576 -0.5151271 -1.9047964 0.5093447 0.20494814
0.1681664 -1.1498832 0.9291396 0.98938 0.2623179 -0.2649152

res_blocks.0.conv.1.running_var f4 [30]
00000000: 2349 8440 c56b eb3f d332 3640 2b5f 5f40
00000010: 7165 dd3f 0c3c 0241 24bf af41 9776 d641
00000020: 4c55 b340 24c4 4742 f371 ca40 14b2 8a41
00000030: 901f 3540 2335 6341 5aab 1640 5b8d 1a42
00000040: 6320 b340 1090 a93f 9f15 0e41 c32a 4440
00000050: e011 0541 60b6 db42 602b 9240 83ef 0641
00000060: 57ca c43f f190 0140 951b 933f 4f48 de41
00000070: 0a7f 1d41 6bf2 9042
4.133928 1.8392264 2.846852 3.4901836 1.7296582 8.13966 21.96833 26.807905
5.604162 49.941544 6.32641 17.336952 2.8300514 14.200473 2.3542085 38.638042
5.5977035 1.3247089 8.880279 3.06511 8.316864 109.8562 4.567795 8.433475
1.5374249 2.0244715 1.1492792 27.785307 9.843515 72.47347

res_blocks.0.conv.3.weight f4 [30, 30, 3, 3]
00000000: 2afb 1ebd 0be5 093d 3fd3 edbc b655 473d
00000010: 284e f5bd 65c3 52bc f51d 6abd e90f 5ebe
00000020: 6223 773d 4a2d 503d d7dd f33c 96df e5bb
00000030: 4182 94be 0bea ccbd 1c42 a3be 8798 88bd
00000040: 0ebe 3fbe 7c63 c3bd c1ac 82bd b5f6 99bd
00000050: 06ab e13c 44b2 dfbc beef 4bbc 62fd 493d
00000060: 0dc0 b1bc 0156 6b3d d618 aebd f5c7 2bbe
00000070: d8f8 083d 79ae 563d d458 dcbd 8c8f 31be
00000080: 094f 02bc e8d3 f5bc fee5 b0bd 0ce9 a63b
00000090: 6102 fb3c aac0 54be 7ecb 79bd 925a 713c
000000a0: 613a 06be 90e3 f73c d23f 13be 464c 81be
000000b0: 922e 823d e860 023e fc49 3c3d d3c6 bd3d
000000c0: 554e 273d 453d ff3d e975 433d c0a7 023e
000000d0: 4703 d53c 1868 9ebd aabe 9f3d 0e08 373d
000000e0: 99dd 9a3d 61e9 4ebd 6b03 2a3e c609 febd
000000f0: 79c2 863d 2e1b 11bc c428 f73c d200 40be
00000100: 34b1 e4bd c656 03be 73c0 fdbd dadb d1bd
00000110: 3b82 5ebe 0f00 19be d68e 6cbd 99a1 21be
00000120: 8646 f13b 6a31 9f3d 0ba2 e1bc 3e57 2a3d
00000130: 5993 b93d 80aa 24be f574 1bbd 208f 0cbe
00000140: 55f7 32be 32f9 63bc e81c 4f3e ec0c 4abd
00000150: 6291 e63d ce97 53bd 83d7 2c3e 2feb 833d
00000160: 311b d93d b3fe 04be a28d 44bc 57ce 84be
00000170: fc38 24bd b080 95bd 18b3 e8bc 2410 cb3c
00000180: 73be 9dbd b69c 7c3b fd04 18bd 309c f33c
00000190: 6277 373e f316 c03c 2293 c23d 18d8 98bb
000001a0: fa6f cbbb a1e1 f83d eeb4 adbb 6eb5 e83d
000001b0: 7098 a039 3ac0 ab3d 646c ce3d da05 ab3d
000001c0: 01e2 ccbc 8c9c 043e 9363 02bd e9ef a3bc
000001d0: 9e44 b8bd ccaf 40bb 0f6e cb3d c004 aa3e
000001e0: 9592 08bd 2e3b 02bd a91f 403e 6013 c8bd
000001f0: fa48 8bbe 6479 033c 73e6 a5bd c658 6fbd
00000200: dcf6 eabd a900 b5bd cda8 51bd 7223 89be
00000210: b43d 08be 359f eebd 2d4d f8bd 1241 a83c
00000220: 7dad 2b3c 03d9 2abe 20e9 95bd 18ac 70bd
00000230: c28c 9cbc 1328 303d ea89 05be b51d 3dbd
00000240: 98c5 edbc a7fd 823d 1b61 513d cacc be3b
00000250: 8715 bebd b42b 1ebd e2f9 6dbe fbf9 d13d
00000260: d73b 073e fae0 863d 796d 48bc d8bb 4b3d
00000270: 9f7a 69bd 4c59 c5bc cf8c ad3b 0005 183a
00000280: 1650 bbbd 4619 57bd c913 413e bdba 513e
00000290: 0c76 dc3d 8c50 853d 9d70 d63d 8795 8f3d
000002a0: 4b2e 2b3e e084 863d aa53 1a3e 9226 10be
000002b0: 62cc 75be c2f2 bbbd d5d3 0ebe eb7f 89be
000002c0: c861 7fbe eccd 8cbd 073a 523c 1509 23be
000002d0: 58fb c93d 7a0e 313e bb35 d53d 98ff 88bc
000002e0: f796 1b3e 42a1 dabd 16c3 793d 751b 9c3d
000002f0: 8e6d ab3d 407a f7ba 9a69 83bd 7fb6 d3bd
00000300: dbdf 613c 9616 c5bd e230 04be 9f58 923c
00000310: 70d8 553a 6968 2dbe 7a03 26be 2b1f 5a3d
00000320: 4723 dcbd 9bd8 fabc 5cf5 863d 9556 a93a
00000330: cde4 023e 4404 ebbd 83c5 043e 03c7 11bd
00000340: dbe8 90bd bbad 93bd c5fe e23d 9ce8 3bbe
00000350: 7753 26bd c8a1 8b3d d48b ccbc 4212 fabc
00000360: 864b debc 3f97 473d 035f c93c ec72 353e
00000370: 9474 a8bd 5748 e3bc 0563 133d d942 a1bd
00000380: 6570 83bd c04e eabd 6f75 36be 91a7 97bd
00000390: a0d8 4dbe 8743 07be 43cf dcbc e259 1dbe
000003a0: 1404 13bc 6a1d 1dbe 651c 45bd 2b49 4c3d
000003b0: 2c78 f9bc afa3 87bd af04 27bd ef65 98bd
000003c0: aa05 91bc c398 05be e58d 91bd 055e 32be
000003d0: 40c7 98bd fe2e fabd 06c8 abbd 15b5 2abd
000003e0: befd 51bd b821 65bd 393d febd f145 b4bc
000003f0: e239 473d ef3b 6d3e 50a4 a93d 80e3 4bbc
-0.038813747 0.033665698 -0.029031394 0.048665725 -0.11977798 -0.0128639685 -0.057157476 -0.21685757
0.060336478 0.05082444 0.029768867 -0.007015179 -0.29005626 -0.10005578 -0.31886375 -0.06669717
-0.18724844 -0.095404595 -0.063806064 -0.07517759 0.02754737 -0.027306683 -0.012447296 0.04931391
-0.021698022 0.057455067 -0.08500831 -0.16775496 0.03344044 0.052412484 -0.1075913 -0.17339915
-0.007953414 -0.030008271 -0.086376175 0.0050936993 0.030640783 -0.2077662 -0.06098508 0.014731066
-0.13108207 0.030259877 -0.14379814 -0.25253505 0.06356539 0.1273228 0.045968994 0.09266438
0.040846188 0.12462858 0.04771987 0.12759304 0.02600254 -0.07734698 0.07800038 0.044685416
0.07561798 -0.050515536 0.16602866 -0.12404208 0.065800615 -0.008856578 0.030170806 -0.18750313
-0.11166611 -0.1282607 -0.123902224 -0.102470115 -0.21729366 -0.14941429 -0.057753406 -0.15784301
0.0073631434 0.07773097 -0.027543088 0.041587107 0.090613075 -0.16080666 -0.037953336 -0.13726473
-0.17477162 -0.013914393 0.2022587 -0.04932873 0.11258198 -0.051658444 0.16879086 0.06441342
0.106008895 -0.12987785 -0.0119966585 -0.25938675 -0.040093407 -0.07299936 -0.028405711 0.02478797
-0.07702341 0.0038545555 -0.037114132 0.029737562 0.17916635 0.023448443 0.095007196 -0.0046644323
-0.006208417 0.1215241 -0.0053011095 0.1136273 0.00030631153 0.08386274 0.100792676 0.083507255
-0.02501011 0.12950343 -0.031833243 -0.020011859 -0.08997463 -0.0029401658 0.099331014 0.3320675
-0.033342917 -0.03179472 0.18762077 -0.097693205 -0.27204114 0.008024547 -0.08100595 -0.05843427
-0.11472866 -0.088380165 -0.05118637 -0.26784855 -0.13304788 -0.1165146 -0.12124095 0.02053884
0.010478375 -0.16684346 -0.07319856 -0.05875787 -0.019110087 0.043006968 -0.13040891 -0.04617091
-0.029024884 0.063960366 0.051117998 0.0058227526 -0.0928145 -0.038615897 -0.23239854 0.10252758
0.13206421 0.065858796 -0.012233132 0.04973969 -0.057001706 -0.024090432 0.0052963267 0.0005799085
-0.091461346 -0.052514337 0.18855204 0.20481391 0.10764703 0.06509504 0.10470698 0.07010942
0.16716878 0.06568313 0.15070978 -0.14077213 -0.24003747 -0.09177162 -0.13947995 -0.26855406
-0.24939644 -0.06875214 0.012831218 -0.15921433 0.09862393 0.17290679 0.10410639 -0.01672344
0.15194307 -0.10675289 0.060977064 0.076224245 0.08370505 -0.0018881038 -0.06416626 -0.10337543
0.013786281 -0.096234486 -0.12909272 0.017864523 0.0008157557 -0.1693436 -0.16212264 0.05325238
-0.10748916 -0.030620864 0.06589767 0.001291948 0.12782593 -0.11475423 0.1296597 -0.035590183
-0.07075664 -0.07210871 0.1108375 -0.18350452 -0.040606942 0.06817967 -0.024969019 -0.030526284
-0.027135622 0.048728224 0.024581438 0.1771962 -0.082253605 -0.027744455 0.035983104 -0.07874078
-0.06417922 -0.114408016 -0.17818235 -0.07405008 -0.20102167 -0.13209353 -0.026954299 -0.15366319
-0.00897314 -0.15343252 -0.048122782 0.049874466 -0.03045281 -0.06623017 -0.04077595 -0.07441317
-0.017702896 -0.13046555 -0.07107142 -0.17418678 -0.07459879 -0.12215994 -0.08387761 -0.0416766
-0.051267378 -0.05594036 -0.12414021 -0.022006007 0.048639186 0.23167394 0.08283293 -0.012444377

res_blocks.0.conv.3.bias f4 [30]
00000000: a550 5bbd d869 9f3b 3a61 3cba baa5 2dbd
00000010: c8f0 a33b 849b 723d 79a5 f93b 0a2f 2cbc
00000020: 671b 95bc e3ff 3d3d b11b 733c bbbd 38bc
00000030: 191f 6dbd 0c4c ed3c 438e b5bc c9c7 81bc
00000040: a883 153d 400f 2dbd aa36 e3bc f456 08bd
00000050: 24ea c83c 4633 623b 53f5 2bbd 49ac 5c3d
00000060: 56b6 103d e3c6 af3c 52ad 68bd e94e 63bd
00000070: 3e6a 183c 6367 373d
-0.053543705 0.0048649125 -0.0007186119 -0.042394377 0.0050030686 0.059230343 0.007618603 -0.010509262
-0.018201543 0.04638661 0.014838145 -0.011275704 -0.057890985 0.028966926 -0.022162562 -0.015842335
0.03650251 -0.04225087 -0.027736027 -0.03328605 0.02452571 0.0034515425 -0.041982006 0.05387524
0.03533014 0.021457141 -0.056805916 -0.055495176 0.009302674 0.04477633

res_blocks.0.conv.4.weight f4 [30]
00000000: 4bfa a83f 39a2 843f 5d22 a13f 3328 6d3f
00000010: 24fd 693f 7f73 643f 7409 833f 584d 933f
00000020: 7316 703f 486f 7b3f 2f06 8a3f 1bf9 9e3f
00000030: 9901 843f cb7f 663f c844 713f 2eec 6a3f
00000040: fba0 8b3f fa43 7f3f dc35 733f ae12 7d3f
00000050: f476 833f 4f2f 733f 3117 6b3f c83d 7b3f
00000060: d65f 8b3f 819a 8e3f 22d1 833f c511 583f
00000070: 2abd 6f3f 8ad0 633f
1.3201383 1.0362006 1.2588612 0.92639464 0.91401887 0.89238733 1.023726 1.1507978
0.93784255 0.98216677 1.0783137 1.2419771 1.0312988 0.90038747 0.94245577 0.9176663
1.0908502 0.997131 0.9500406 0.9885663 1.0270677 0.9499406 0.9183226 0.98141146
1.0888622 1.1140901 1.0298197 0.84402114 0.93648016 0.8899008

res_blocks.0.conv.4.bias f4 [30]
00000000: 65c6 953c 2bb3 fa3c 8896 ab3d cc05 6ebd
00000010: 1c38 3abc 9619 abbd 2b48 9abd 60dc 0abd
00000020: e66e f6ba 3371 a33b ae8e 39bd ce53 aabd
00000030: 6c31 733d bf87 083d 85e8 de3c 80c1 a7bc
00000040: 068d 643d 4dd1 16bd 4783 463e 723b 183d
00000050: 4c86 0a3d 98ce 1c3e 72ab c4ba 4f64 073d
00000060: 41b2 cf3d 8f78 f43b 647d 333d cc59 c4bd
00000070: 7dce 58bb b0e2 143e
0.018283078 0.030603012 0.08378321 -0.058110997 -0.011365917 -0.083544895 -0.07533296 -0.033901572
-0.0018801361 0.0049878596 -0.045302086 -0.08316766 0.059373304 0.033332583 0.027210483 -0.02047801
0.055798553 -0.0368207 0.19386016 0.037166066 0.03381948 0.15313184 -0.0015004708 0.033054646
0.10141421 0.0074606608 0.043820754 -0.0958744 -0.003308206 0.145396

res_blocks.0.conv.4.running_mean f4 [30]
00000000: 44d3 aebf 8073 20c0 4614 92bf c10b 533f
00000010: e7a5 3a3f 4b5b 833e fc48 3a3e 6895 35bf
00000020: 3207 f6be 4835 63be f651 a33e 0646 b53f
00000030: ca0c f8be 6dc8 2cbd 4ad5 ebbe 3296 8c3f
00000040: 84bc eebf 0dd7 3b3f ab35 be3f 5c46 e1bd
00000050: dd27 3bbf f722 02c0 86f5 663f a6c5 b9bd
00000060: b1e0 5e3f 3dfe 5e3f d27d 64bf 998a 47bf
00000070: c302 d73e 53be 29bd
-1.3658223 -2.5070496 -1.1412437 0.8243981 0.72909397 0.25655589 0.18191904 -0.709311
-0.48052365 -0.22188294 0.3189847 1.4161994 -0.48447257 -0.04218333 -0.46061164 1.0983336
-1.865128 0.73375016 1.4860128 -0.10999748 -0.731077 -2.033384 0.9021839 -0.090709016
0.870616 0.87106687 -0.89254487 -0.7794586 0.41994295 -0.041441273

res_blocks.0.conv.4.running_var f4 [30]
00000000: 35d9 c840 672f 0941 06aa c040 cfc0 1d41
00000010: 8f24 d541 10cd b940 cccb 0f40 036e f53f
00000020: 92d6 813f 3ffc 9440 6845 7440 ab06 a53f
00000030: 38fc 2f40 15bd 5740 0cbb cd41 0cb5 7541
00000040: be59 b740 c5ce b540 0b0d bd3f e44e 7741
00000050: 539e 7940 521f d440 9920 2a40 bc88 dd3f
00000060: aff2 1440 0251 4340 08bc 8740 3d1d bd40
00000070: 0669 8640 a147 5a42
6.2765145 8.574073 6.020755 9.859572 26.64285 5.806282 2.2468138 1.9174198
1.0143607 4.6557918 3.8167362 1.289266 2.7497692 3.3709157 25.716331 15.356701
5.729705 5.6814904 1.4769605 15.45676 3.9002883 6.6288233 2.6582396 1.7307353
2.3273122 3.0518193 4.241703 5.909819 4.2003202 54.56995

final.0.weight f4 [30, 30, 1, 1]
00000000: 38a5 8e3d 23fc b3bd d304 f03d cc5d edbd
00000010: d577 74bd 121e 0e3e e7c7 953e a15a 003f
00000020: f43c cf3e d23a 873e 425b 733e 0f04 563e
00000030: 6882 803e b5e0 453e 0778 8ebe 5340 4bbd
00000040: 80cd fd3e fc95 113f f614 09be 34ae 593e
00000050: b4f4 cfbd dd48 94bd 115d 823e 3356 d23e
00000060: 0575 18bf aea0 f6be 7933 c73d 5b21 423d
00000070: 64b7 4c3e addf 28be 2179 a0be 2a9e 8cbb
00000080: 5159 fe3e bcd0 2e3e 5473 81be e4a7 a0be
00000090: 449c 853d 5247 bebc af7d 973e d6b1 12be
000000a0: 94f3 04be a3ae e13e 072e c1bd c6ba d2be
000000b0: f08e 03be ef50 c43c d5a7 5dbe f7ff dcbd
000000c0: 7254 6c3e 85bc 243e 16c5 b03c 7995 5b3d
000000d0: 4b16 153e 1d93 913e 4964 913e 8c3c 5e3f
000000e0: e8c5 94be 90f5 773e 6478 ce3e 9f82 debd
000000f0: 7aec 33bf 2c0c 14bf e13b a5be 5c25 9c3d
00000100: 9675 a73e 1ce1 e7bc bb29 063f 985e 443e
00000110: 69dd 7f3e 4e16 d6be 5486 08bd 271c 66be
00000120: 0c01 43bd 055d 623e 99af 05be 95b4 a2bd
00000130: 3201 8cbe fcc0 e23e 681c fe3b e647 b3bd
00000140: 36ff 36bf a8ab 253e 73a6 593c c2f0 753e
00000150: abb6 4c3d 1b8d 8a3d 600c f3bd 9503 0c3e
00000160: a90a 783d 3ca8 0fbe 087a 43be a3f0 babc
00000170: 6efd 283e 3e57 fc3e cc53 e23d 7b05 3d3e
00000180: 2c04 4bbe 1c13 4abd 8d9c 57bd 7626 6abe
00000190: e0db df3e 4d78 4c3e d785 873e 5536 babd
000001a0: ddda 88be 7b32 98bd 820b 3e3c a401 903d
000001b0: 5116 7e3e aef2 f9be f829 90bd 3845 6fbe
000001c0: 5e6e b93e 97d4 ab3e c562 a73e 14a1 48be
000001d0: 69c6 d33e ea78 0cbc f05d 4bbe 30bd 033f
000001e0: 253f 8b3d 61e8 7bbe 336e 953e b5ca b5bd
000001f0: 7813 dabe adc9 36bb 122e a0be 34f3 813c
00000200: 4e1d d1be 9c39 0cbf bfd8 b7be 7545 2cbe
00000210: eb22 073e c2c7 debd 5a8a 623d 9d44 bcbd
00000220: 830a 89be 5085 10be df7a 223d 1368 9bbe
00000230: a367 8bbd 9d7b 00bf 1662 fbbd 8d09 823e
00000240: 06d2 863e 0c22 6a3e 1d53 d83d 62b1 3a3f
00000250: 71e6 783e 8cbd 0d3f 07d2 613e 4936 5abd
00000260: 87c2 09bc 3f7a aebe 44e7 653e cab5 2e3d
00000270: 2866 bc3e 8d30 31be 7f8a 19be 8ee0 2bbe
00000280: 1281 e1bd dcde 7b3e e137 483e 259e 82bc
00000290: 9e2d e83c 37af 33be 28d0 3bbc 38a8 bc3d
000002a0: 4a74 433e 473a 01be 9c90 b23d 9a5c 323c
000002b0: 6acb c13e b384 f63e 954a dc3e 4519 3cbe
000002c0: aa22 023c ad44 a03e 3be7 463e 6ec6 143e
000002d0: 2676 cbbc d576 e0bc dc8f 643e dc62 7ebd
000002e0: f41c 7a3d 72d3 0bbe a9ef 313e c4cb 283e
000002f0: 622e c1bd 3568 b0be 4de8 0d3d f2d1 813e
00000300: de18 afbe a5ca abbd 9a0e ec3e 9429 b53e
00000310: 4087 b63c 21bd 013e 51ad 03bf 4e1e 3dbe
00000320: 8bfb 7d3e 51e2 a1be 6217 653c 9ccd e83c
00000330: b3e5 cdbe b221 8e3e eb9f c73d 59c0 2b3e
00000340: 1f9d 053e 4541 8fbd 5d18 36be 2436 443e
00000350: b338 5d3e f858 ea3e 6a59 3a3e e6ab 3bbe
00000360: 9159 a83e 8054 603e 9b8c 943d b13e 44be
00000370: 4efa c73d aa20 86be 1d05 edbe d6dc 803d
00000380: 200f d63d fd3c bcbd 9614 d33e 898c 03be
00000390: 95b7 6a3e 2919 23bc 2fc0 03bf 8f83 acbe
000003a0: da6e fa3e 40c4 653e 3889 7e3d abd1 dd3e
000003b0: abc6 e1be 0aad 283d d717 a4be adbf 913e
000003c0: 124e 00bf f318 e6bd 0f77 c13d 08c9 c83e
000003d0: e1e7 7b3e 11f1 5b3d e879 873e 2bed 70be
000003e0: 298f 7fbd 086f 90be 28be 07be 8e3a 983e
000003f0: 6ec8 e43d 31a8 fdbd efc4 583e 885d 853e
0.06965107 -0.08788326 0.1171967 -0.11590156 -0.059684593 0.13878658 0.29254076 0.5013829
0.4047619 0.26412064 0.23765281 0.20899986 0.25099492 0.19324 -0.2782595 -0.04962189
0.49570847 0.56869483 -0.13386902 0.2125786 -0.10154095 -0.0724046 0.2546163 0.4108139
-0.5955356 -0.48169464 0.097266145 0.04739509 0.19991833 -0.16491576 -0.31342414 -0.0042913156
0.49677518 0.17071813 -0.252833 -0.3137809 0.06523946 -0.023227368 0.29588076 -0.14325652
-0.12983543 0.4407855 -0.09432607 -0.41158122 -0.12847495 0.023964373 -0.21646054 -0.10791009
0.23079088 0.1608754 0.021578353 0.053609345 0.14559285 0.2843255 0.28396824 0.8681114
-0.2905724 0.24214768 0.40326226 -0.10864758 -0.7028271 -0.5783107 -0.32272246 0.07624313
0.32706898 -0.028305583 0.52407426 0.1917671 0.24986805 -0.41813892 -0.03333123 -0.22471677
-0.04760842 0.22105797 -0.13055266 -0.079445995 -0.27344662 0.4428786 0.007754851 -0.08753948
-0.7148317 0.16178763 0.0132843135 0.24017623 0.049978893 0.06765195 -0.11867595 0.13673241
0.06055704 -0.1402902 -0.1908952 -0.022819823 0.16502926 0.4928531 0.11051139 0.18459122
-0.1982581 -0.04933463 -0.052639533 -0.22866234 0.4372244 0.19967766 0.264693 -0.09092394
-0.2672948 -0.074315034 0.011599423 0.07031563 0.248132 -0.48817962 -0.07039255 -0.23366249
0.36217016 0.3356063 0.32692543 -0.19592696 0.41362312 -0.00857375 -0.19860053 0.5146055
0.06799153 -0.24600364 0.29185638 -0.08876554 -0.42592978 -0.0027891204 -0.3128515 0.015863039
-0.4084267 -0.54775405 -0.35907552 -0.16823371 0.13196914 -0.108779445 0.055307724 -0.091927744
-0.26765832 -0.14113355 0.03966796 -0.3035284 -0.068068765 -0.5018862 -0.12274568 0.25397912
0.2633211 0.2286455 0.105627276 0.72926915 0.24306656 0.5536735 0.22052775 -0.053274427
-0.008408195 -0.3407764 0.22451502 0.042653836 0.3679669 -0.17303677 -0.14994238 -0.1678488
-0.11010946 0.24596733 0.19552566 -0.01594455 0.028342064 -0.17547308 -0.011463203 0.09211773
0.1908733 -0.12619887 0.08718988 0.010886336 0.37850505 0.48148116 0.43025652 -0.18369015
0.007942835 0.31302395 0.19424145 0.1452882 -0.024836611 -0.027400414 0.22320503 -0.062106
0.061062768 -0.13654879 0.1737658 0.1648398 -0.09432675 -0.34454504 0.034645367 0.25355488
-0.3419866 -0.08388261 0.4610489 0.35383284 0.02228129 0.12669803 -0.51436335 -0.18468592
0.24802987 -0.31617978 0.013982626 0.028418355 -0.4021431 0.27760082 0.09747299 0.16772594
0.13048218 -0.06994871 -0.17782731 0.19161278 0.2160366 0.45771003 0.18198171 -0.18327293
0.32880834 0.21907234 0.07253381 -0.1916454 0.09764539 -0.26196796 -0.46292964 0.06292121
0.104521036 -0.0919132 0.41226643 -0.12846579 0.22921593 -0.009954729 -0.51465124 -0.3369412
0.48912698 0.22438145 0.06214258 0.43324026 -0.44096884 0.041180648 -0.32049438 0.2846655
-0.50119126 -0.112352274 0.09446537 0.39215875 0.24600174 0.053696696 0.26460195 -0.23527972
-0.062392388 -0.2820971 -0.13256133 0.29732174 0.111710414 -0.123855956 0.21168874 0.2604792

final.0.bias f4 [30]
00000000: 7df0 c3bd a0c7 26be e2a7 833c a87e f5bd
00000010: 126e c3bd c7fb cebd 0600 eebc f0b0 b83c
00000020: f76d 14bd 40eb 6cbd 96ac fcbd a716 ae3d
00000030: b3d9 5c3d e227 6cbd 2099 db3d 868a 0bbe
00000040: 0667 bd3d 70a5 363d d0f1 d6bd 9f01 8ebc
00000050: b84f c03d 47aa c3bd 8fd3 b43d b539 14be
00000060: 7bd2 023e 0dd8 143d 1540 f43c 5fce 7cbd
00000070: c453 cbbd 5eb4 0c3e
-0.09567354 -0.16287088 0.016071264 -0.119870484 -0.095424786 -0.101066165 -0.029052746 0.022545308
-0.036237683 -0.05784154 -0.12337606 0.08500414 0.05391855 -0.057655223 0.10722566 -0.13627061
0.09248166 0.044591367 -0.10495341 -0.017334757 0.09390205 -0.09553962 0.08829414 -0.14475138
0.12775604 0.036338855 0.029815713 -0.06172025 -0.099280864 0.1374068

final.1.weight f4 [30]
00000000: 7488 6d3f 02d3 913f aff8 0f40 604e bd3f
00000010: c404 473f 0041 103f 2fdb 143f 5dda 1a3f
00000020: 6c98 233f 1612 c840 2fd9 bc3f 1511 263f
00000030: 19a3 1c3f 2c9f 633f 646c 3d3f 95d9 2b3f
00000040: 8608 053f b1f4 073f 2257 1f3f 030e 853f
00000050: dd14 9d40 2a85 1e40 dde2 7740 1839 3e3f
00000060: 0d67 223f d533 0d3f ce0f 6b3f b60a 173f
00000070: 2e92 453f 6bf2 5c3f
0.92786336 1.139252 2.2495534 1.4789543 0.77741647 0.5634918 0.5814695 0.60489446
0.6390445 6.2522078 1.4753779 0.64869815 0.6118637 0.8891475 0.73993516 0.6712888
0.5196613 0.53107744 0.6224233 1.0394901 4.908797 2.4768777 3.8732216 0.7430587
0.63438493 0.55157214 0.9182099 0.5900072 0.7717618 0.863074

final.1.bias f4 [30]
00000000: 4cf2 a4be 07f4 4dbe f61e 193f b5f0 873c
00000010: 10da c3be c89f e2be 14d1 f7be 2449 c3be
00000020: 142b c1be db32 7f40 9a73 73bd c7ed bfbe
00000030: 78da cdbe 47dd 86be 7890 b0be a262 d3be
00000040: 3f0f f7be 4cfb 0abf 3575 dfbe 86c4 14be
00000050: e747 8240 9267 073f 4b59 c53f 80d6 c4be
00000060: 4748 e5be 716f e2be a622 8dbe c4ae ccbe
00000070: 191f a3be 1eb4 7fbe
-0.32216108 -0.2011262 0.5981287 0.01659427 -0.38252306 -0.44262528 -0.484017 -0.3814174
-0.37728179 3.987479 -0.059436418 -0.37486097 -0.4020574 -0.26340696 -0.3448522 -0.41286188
-0.4825382 -0.542897 -0.4364411 -0.14528093 4.071277 0.5289241 1.5417875 -0.384449
-0.44781706 -0.44225648 -0.27565497 -0.39977086 -0.31859663 -0.24971053

final.1.running_mean f4 [30]
00000000: 1138 8e3f 3ad7 0f3f 8d91 4bbf 21dd 173f
00000010: 457b 1bbf 74e7 8e3f e11a 56be 0e6d 7b3e
00000020: c447 403f 86d6 073f 05fe 19bf ef4a 023f
00000030: 52bd 573e baf9 073e c0b1 9ebe cda1 e5bd
00000040: 6718 dabb e3d9 54be 703f b3bf 7a34 72bc
00000050: 284b 59bf f0a8 913e 5e76 2ebf 966f cfbe
00000060: d99e a8bf ac68 e83d 9462 bfbd 21c1 9e3f
00000070: 2203 8a3f bd81 8b3e
1.111086 0.56187785 -0.7951897 0.5932179 -0.6073497 1.1164384 -0.20908691 0.2455332
0.75109506 0.5306171 -0.6015323 0.5089559 0.21068314 0.13278857 -0.30994987 -0.11212502
-0.006655741 -0.20786242 -1.4003735 -0.014783019 -0.84880304 0.28449202 -0.68149364 -0.4051482
-1.3173476 0.113480896 -0.09344974 1.2402688 1.0782206 0.2724742

final.1.running_var f4 [30]
00000000: 2748 4a3f d618 cd3f 1e2c 6140 9398 0140
00000010: 17b2 da3f 4982 a43f 09e1 b53f ac38 5f40
00000020: 2c97 5640 2d4c 4f41 8bd0 ff3f 740b c23f
00000030: 8b14 e43f 3e6a cc3f 4a9e a13f 01ef b73f
00000040: 0a64 2740 ab02 7840 f94a 6140 8799 c43f
00000050: 19ad 1741 a784 0840 1142 e23f 79a6 1740
00000060: 8d5e e73f 7ae1 d13f edff b73f 753c 2540
00000070: f3e9 0a40 7c9b cf3f
0.79016346 1.6023204 3.5183177 2.0249374 1.7085599 1.285226 1.42093 3.487834
3.3529768 12.956098 1.9985517 1.5159745 1.7818769 1.5969923 1.2626431 1.4369813
2.615481 3.8751628 3.520201 1.5359353 9.47976 2.1330965 1.7676412 2.3695357
1.807573 1.6396935 1.4374977 2.581815 2.1705291 1.6219325
